model/CNN/saved_models/split_pad3_patch50/smallcnn4_fold2_pad9_patch50.pth (torch, 35659 bytes, 12 tensors)

conv1.weight f4 [32, 10, 3, 3]
0	0x3db1871c	0.08668348
1	0xbcf062ab	-0.029343924
2	0x3dc5942e	0.09647404
3	0xbc2aae3f	-0.01041752
4	0xbd6c38c9	-0.057671342
5	0x3dfe0e7f	0.12405109
6	0xbc628d05	-0.013827567
7	0x3d92448d	0.07141981
8	0x3e021a59	0.12705363
9	0xbd9e00ea	-0.07715018
10	0xbdc354b1	-0.09537638
11	0xbd7d6d58	-0.061871856
12	0xbde187fd	-0.11012266
13	0x3d817aef	0.06322276
14	0x3cda3188	0.026634946
15	0xbc996b06	-0.01872779
16	0xbd178f3c	-0.037001833
17	0xbe0390c2	-0.1284819
18	0xbda0f27c	-0.0785875
19	0xbca41fe8	-0.020034745
20	0xbd6c792b	-0.057732742
21	0x3cfb0d95	0.030646125
22	0xbd9a853b	-0.07544943
23	0xbd8d082d	-0.06886325
24	0x3d3b660a	0.04575161
25	0xbd8c488e	-0.06849776
26	0x3d46440b	0.048404735
27	0x3d965dcb	0.07342108
28	0x3df7c20e	0.1209756
29	0xbd6d97ad	-0.058005977
30	0xbd817f66	-0.063231274
31	0xbb8a9cf1	-0.0042301347
32	0x3c5e89ed	0.013582689
33	0xbd9311fb	-0.07181164
34	0xbdbe6241	-0.09296084
35	0xbd292aeb	-0.041300695
36	0x3dbdd7bd	0.092696644
37	0xbd315111	-0.0432902
38	0x3daafd56	0.08349101
39	0x3d9de076	0.07708828
40	0xbcfe3a29	-0.031033592
41	0x3d034d77	0.032056298
42	0x3dc2b7e7	0.09507733
43	0xbc0817b8	-0.008306436
44	0x3d860251	0.065434106
45	0xbd3571bf	-0.04429793
46	0xbda99b17	-0.08281534
47	0x3c913a5c	0.017728023
48	0xbb6e7302	-0.0036384468
49	0x3c2e6ff0	0.010646805
50	0x3d33a156	0.043855034
51	0xbdd1a35d	-0.10236237
52	0x3d64db10	0.055872977
53	0xbd962218	-0.073307216
54	0xbd7bcd33	-0.06147499
55	0x3cced237	0.025246723
56	0xbda52249	-0.0806318
57	0x3d768469	0.06018487
58	0x3d8be6ed	0.06831155
59	0x3d2831e2	0.041063197
60	0xbc4ffbec	-0.01269434
61	0x3dc05941	0.09392024
62	0xbd6bddbf	-0.05758452
63	0x3d8efbb6	0.06981604
64	0x3b0b8d06	0.0021293773
65	0xbd85ca0c	-0.06532678
66	0xb9b0d1e4	-0.00033725717
67	0xbd74be1b	-0.05975161
68	0xba33c5cd	-0.0006857783
69	0xbdc10189	-0.09424121
70	0x3c664a30	0.014055774
71	0xbb2701a9	-0.0025483167
72	0xbd3b2c48	-0.045696527
73	0xbd893908	-0.06700331
74	0xbd06774e	-0.03282862
75	0x3d450af2	0.04810614
76	0xbe056976	-0.13028511
77	0x3c5c55f6	0.013448229
78	0x3d183110	0.037156165
79	0x3d0f99fa	0.035058953
80	0xbdfbd963	-0.122973226
81	0xbd764f64	-0.060134307
82	0xbd0e3c07	-0.034725215
83	0x3d4d8103	0.050171863
84	0xbda7fc9a	-0.08202477
85	0xbd89bb09	-0.06725127
86	0xbd82ca7e	-0.063862786
87	0xbd9c88b1	-0.07643259
88	0x3cf51a12	0.029919658
89	0xbcbfa88a	-0.023395795
90	0x3da06d35	0.078333296
91	0x3dc320b9	0.09527726
92	0x3d63b767	0.055594828
93	0x3d964f6f	0.073393695
94	0x3e1d526f	0.15363477
95	0xbbb2d958	-0.0054580383
96	0x3e29eecf	0.16595004
97	0x3dc6cf1b	0.09707471
98	0x3c7575d2	0.014981704
99	0x3cf61909	0.030041235
100	0xbd063ff5	-0.032775838
101	0x3d84b78f	0.064803235
102	0x39736bca	0.0002321444
103	0xbc6e0f1b	-0.014529969
104	0xbdbdc3f3	-0.0926589
105	0xbd8dfde3	-0.06933191
106	0x3d9508c6	0.07277064
107	0xbcd0e19f	-0.02549821
108	0x3c68c61f	0.014207392
109	0x3cdf76c0	0.027278304
110	0x3d84fceb	0.06493553
111	0x3d86716c	0.06564602
112	0x3d82a0c3	0.06378319
113	0x3db32311	0.08746923
114	0x3cb12ee4	0.021628805
115	0xbd8f6202	-0.070011154
116	0x3cce31d5	0.025170246
117	0xbd73cec2	-0.05952335
118	0xbe22f853	-0.1591504
119	0xbd17c378	-0.037051648
120	0xbd04565c	-0.03230892
121	0xbe00ed03	-0.12590413
122	0x3d1df110	0.038559973
123	0xbd119e78	-0.03555152
124	0xbd1932c9	-0.037401948
125	0xbddc5220	-0.107578516
126	0x3d626a4c	0.055277154
127	0xbd6cfc79	-0.057857964
128	0xbcfd0a06	-0.030888569
129	0x3d601d89	0.054715667
130	0xbce6f0f4	-0.028191067
131	0xbd0bc23a	-0.034120776
132	0xbd9517c0	-0.072799206
133	0x3cbb2922	0.022846762
134	0x3c213603	0.009839538
135	0x3d5a6921	0.053322915
136	0x3c8452ed	0.016152823
137	0xbc1aba56	-0.00944384
138	0x3cadbfbb	0.021209588
139	0xbcaa3006	-0.020774852
140	0xbd8d40ad	-0.068971016
141	0xbca58c39	-0.020208465
142	0xbd99b83c	-0.07505843
143	0xbd55dbbf	-0.05221152
144	0x3c3cf702	0.011533501
145	0x3d8dee47	0.069302134
146	0x3d9be9ef	0.07612979
147	0xbd854e7c	-0.0650911
148	0xbb97f249	-0.004637037
149	0x3d624e59	0.0552505
150	0x3d0ea02a	0.034820713
151	0xbb76e382	-0.0037672226
152	0xbd4ca3a6	-0.049960755
153	0x3c3467f1	0.01101111
154	0xbdbe8707	-0.09303098
155	0xbd29ea93	-0.041483473
156	0x3d53dd88	0.05172494
157	0x3dbb806e	0.091553554
158	0x3db095da	0.08622332
159	0xbc9d6c50	-0.019216686
160	0x3d4603d5	0.0483435
161	0xbc1a6b38	-0.009424977
162	0xbdb0aada	-0.08626337
163	0x3ce26c65	0.027639577
164	0x3d29410c	0.0413218
165	0xbdd7d477	-0.10538571
166	0xbd88475d	-0.066542365
167	0xbc20506f	-0.009784802
168	0x3cdec1c8	0.027192011
169	0xbca95e51	-0.020674856
170	0xbd13b9b0	-0.036065757
171	0xbde48ff0	-0.111602664
172	0x3d590b6b	0.052989405
173	0xbdce4584	-0.10071853
174	0x3c961262	0.018319312
175	0xbc156029	-0.009117165
176	0x3dbffdc2	0.09374572
177	0x3dbb6565	0.09150199
178	0xbcbbf22a	-0.022942621
179	0x3d8eb80c	0.06968698
180	0x3c385918	0.01125171
181	0x3d6b52ca	0.057452
182	0x3d05dd8c	0.032681987
183	0xbdc13363	-0.09433629
184	0xbe1f0d17	-0.15532337
185	0xbcfefaf6	-0.031125527
186	0xbd87c7a6	-0.06629877
187	0xbddafaa9	-0.10692341
188	0xbe2c2366	-0.16810378
189	0xbdd41edf	-0.10357451
190	0xbdb27a11	-0.087146886
191	0xbd6b662f	-0.057470497
192	0xbd1b584b	-0.037926
193	0x3db6d35a	0.08927031
194	0xbd0388e8	-0.032112986
195	0xbce1dc1c	-0.027570777
196	0x3abc08f4	0.001434593
197	0x3d95efd8	0.07321137
198	0x3d2d3062	0.04228247
199	0x3d5446d5	0.051825363
200	0xbd4f141b	-0.050556283
201	0x3d790ff0	0.060806215
202	0xbd29c2f3	-0.041445684
203	0x3ca0fb9d	0.019651229
204	0xbcbd2992	-0.023091111
205	0xbd1e6496	-0.038670145
206	0xbc22b9d8	-0.009932004
207	0xba89107f	-0.0010457187
208	0x3c24d2af	0.0100599965
209	0xbc86c913	-0.016453302
210	0xbc020863	-0.00793657
211	0xbc6ef3b0	-0.014584467
212	0x3d010a59	0.03150401
213	0x3d243e27	0.040098336
214	0x3bd22dad	0.0064141364
215	0x3ce2ed56	0.027701061
216	0x3ca72a1e	0.020405825
217	0x3cbd35dd	0.023096973
218	0xbccd0b04	-0.025029667
219	0xbdc13a54	-0.09434953
220	0x3c853dde	0.016264852
221	0x3d26728d	0.040636588
222	0x3d77dc85	0.06051304
223	0x3c6150ec	0.013752203
224	0x3d380c36	0.04493352
225	0x3d8b9feb	0.06817611
226	0x3caba334	0.020951845
227	0xbb79546e	-0.0038044709
228	0xbd7c0c5a	-0.061535217
229	0xbdc05189	-0.093905516
230	0x3d7290e0	0.059220195
231	0xbd2453fa	-0.04011915
232	0xbe07002b	-0.13183658
233	0xbdd2a021	-0.102844484
234	0x3cd7ea73	0.026356911
235	0xbdc47f1d	-0.095945574
236	0xbd1a67c2	-0.037696607
237	0x3dba6be1	0.091026075
238	0xbd1c0cf1	-0.03809828
239	0xbdb78cef	-0.08962428
240	0xbd60edc9	-0.05491427
241	0xbdb5dc0d	-0.08879862
242	0xbda9e3e1	-0.082954176
243	0x3d22e147	0.039765622
244	0x3de50ada	0.111837104
245	0xbd1412e1	-0.036150817
246	0x3d78138a	0.06056551
247	0xbccddd30	-0.025129884
248	0xbd8e9cb7	-0.06963485
249	0xbd0cfd1d	-0.034421075
250	0x3d27e626	0.04099097
251	0xbd45b499	-0.048267934
252	0xbd4c857a	-0.04993198
253	0x3d29bcd9	0.041439865
254	0x3d2ac58b	0.041692298
255	0xbdab2308	-0.08356291

conv1.bias f4 [32]
0	0xbd215121	-0.03938401
1	0xbd2afac4	-0.041743055
2	0x3d044de2	0.032300837
3	0x3c5fa67d	0.013650534
4	0x3da46d12	0.08028616
5	0x3d9c3f97	0.07629316
6	0x3cad97c2	0.021190528
7	0x3bb8bbe5	0.005637633
8	0x3beb6b51	0.007184424
9	0xbd071b05	-0.032984752
10	0x3d1662dc	0.036715373
11	0x3d4796ab	0.048727673
12	0xbab2f0b5	-0.0013652059
13	0x3d363ec1	0.04449344
14	0xbcfddabe	-0.030988093
15	0x3d9cdb93	0.07659068
16	0xbd45fed3	-0.048338722
17	0xbcb4c33b	-0.02206575
18	0xbdc50a42	-0.09621097
19	0xbbe77788	-0.00706381
20	0x3dba253f	0.090891354
21	0xbd277054	-0.04087861
22	0x3d3df1ce	0.04637318
23	0x3c5a5b91	0.013327495
24	0x3de03a83	0.1094866
25	0x3c17f8be	0.009275613
26	0x3d58a7e3	0.052894484
27	0xbbacd1e7	-0.0052740457
28	0xbd048fb3	-0.032363605
29	0x3ba45642	0.0050151655
30	0xbd2ec8d4	-0.042671993
31	0x3dbdd488	0.09269053

bn1.weight f4 [32]
0	0x3f801bf6	1.0008533
1	0x3f84ba91	1.0369436
2	0x3f88cad8	1.0686903
3	0x3f8461a6	1.03423
4	0x3f964459	1.1739608
5	0x3f852330	1.0401363
6	0x3f83d172	1.0298293
7	0x3f8fa561	1.1222345
8	0x3f839fe5	1.0283171
9	0x3f81fd65	1.0155455
10	0x3f8377a4	1.0270886
11	0x3f81230b	1.0088819
12	0x3f82d44c	1.0221038
13	0x3f859eb9	1.0439063
14	0x3f857d13	1.0428795
15	0x3f886acf	1.0657595
16	0x3f85c574	1.0450883
17	0x3f88bc27	1.068242
18	0x3f7c2baf	0.98504156
19	0x3f944b0e	1.1585405
20	0x3f896270	1.0733166
21	0x3f85be28	1.0448656
22	0x3f86b9f1	1.0525495
23	0x3f8ab217	1.0835599
24	0x3f830b4a	1.023782
25	0x3f848fb7	1.0356358
26	0x3f88e1c4	1.0693898
27	0x3f877547	1.0582665
28	0x3f895bc8	1.0731134
29	0x3f8527d8	1.0402784
30	0x3f8374b6	1.0269992
31	0x3f7c39fd	0.98525983

bn1.bias f4 [32]
0	0xbc62783c	-0.013822611
1	0xbc220693	-0.009889263
2	0xbcff396d	-0.031155312
3	0x3c1eb15f	0.009685843
4	0x3d07ecb7	0.033184733
5	0x3c0eaf0b	0.008708726
6	0xbcea95a8	-0.028635815
7	0x3d408c7f	0.047008988
8	0xbb91d612	-0.004450568
9	0xbb02f617	-0.0019983107
10	0xbbc5c2ea	-0.0060351985
11	0xbb50d024	-0.0031862343
12	0xbc479f9f	-0.012184053
13	0x3be2983c	0.0069151204
14	0xba544c76	-0.0008098552
15	0xbc53743e	-0.012906132
16	0x3cabbf7c	0.02096533
17	0x3bd6f1b4	0.006559575
18	0xbc48797b	-0.012235994
19	0xbba22de3	-0.004949318
20	0x3d15e5ff	0.036596294
21	0xb9f861d4	-0.00047375134
22	0xbcc80e37	-0.02442084
23	0x3d361135	0.044450004
24	0xbd2177ac	-0.03942077
25	0x3b8b1b14	0.0042451713
26	0xbb632c76	-0.0034663952
27	0x3d0d4d51	0.034497563
28	0x3d9786bc	0.073987454
29	0xbceb943f	-0.028757213
30	0x3c4b7d6e	0.0124200415
31	0xbc797989	-0.01522673

bn1.running_mean f4 [32]
0	0xbd231eb0	-0.039824188
1	0xbd2e249c	-0.042515382
2	0x3d051189	0.032487426
3	0x3c615702	0.013753654
4	0x3da595f3	0.08085241
5	0x3d9b5bcb	0.075858675
6	0x3cad62ec	0.021165334
7	0x3bc55444	0.006022008
8	0x3be81f33	0.0070837974
9	0xbd0394f3	-0.03212447
10	0x3d15db98	0.036586374
11	0x3d482309	0.048861537
12	0xbb413f16	-0.0029487065
13	0x3d3a21cc	0.045442387
14	0xbd027e8c	-0.031858966
15	0x3d9da906	0.07698254
16	0xbd431704	-0.04762937
17	0xbcb6b828	-0.02230461
18	0xbdc385f5	-0.09547035
19	0xbbf62acb	-0.0075124255
20	0x3dba8fd4	0.09109464
21	0xbd2725cb	-0.040807527
22	0x3d3ff03d	0.04685997
23	0x3c4e64fc	0.012597319
24	0x3de02bee	0.10945879
25	0x3c0ba70c	0.008523714
26	0x3d58f447	0.052967336
27	0xbbafbcd5	-0.0053630867
28	0xbd04cf36	-0.032424174
29	0x3baab77d	0.005209862
30	0xbd2f3140	-0.042771578
31	0x3dbfd102	0.09366037

bn1.running_var f4 [32]
0	0x3e4028da	0.18765584
1	0x3ea84b6f	0.3287005
2	0x3e76d01d	0.24102826
3	0x3e8df602	0.27726752
4	0x3e93a662	0.28837878
5	0x3e3e7c6b	0.18602149
6	0x3e172ffa	0.14764395
7	0x3e169013	0.14703397
8	0x3e36cfcf	0.1785271
9	0x3f813670	1.0094738
10	0x3e71f350	0.23627973
11	0x3f47ac6e	0.7799748
12	0x3f5b1f81	0.85594946
13	0x3eeef239	0.46669176
14	0x3eaeced8	0.34142184
15	0x3dfada91	0.122487195
16	0x3dd25ff2	0.10272206
17	0x3e2a8f6e	0.16656277
18	0x3fed8a29	1.8557788
19	0x3e4eac4f	0.20182918
20	0x3e64123f	0.22272585
21	0x3e42b31e	0.1901364
22	0x3e6f49fc	0.23368067
23	0x3ee4503c	0.44592464
24	0x3e7e2a24	0.24820763
25	0x3e0c9796	0.137297
26	0x3e175a09	0.1478044
27	0x3e857c4e	0.260714
28	0x3e7fc53f	0.24977587
29	0x3dfe607b	0.12420746
30	0x3e744358	0.23853815
31	0x3e269960	0.16269445

depthwise.weight f4 [32, 1, 3, 3]
0	0x3e3463d5	0.17616208
1	0xbcccb25d	-0.024987394
2	0x3df75cb3	0.12078228
3	0xbd354cdb	-0.04426275
4	0x3e1cccc8	0.15312493
5	0xbd744618	-0.05963716
6	0x3e8a5324	0.27016556
7	0x3e88cc6a	0.26718456
8	0x3e090e43	0.13384347
9	0x3dc7d44d	0.0975729
10	0xbe6e5e1b	-0.23278086
11	0x3d9de623	0.07709911
12	0x3e3c554a	0.1839191
13	0xbe2842e0	-0.16431761
14	0xbd1417ab	-0.036155384
15	0xbe8f4d31	-0.2798858
16	0x3e0f17c5	0.13973911
17	0xbe97bf2a	-0.29638034
18	0x3dcd5d4f	0.10027563
19	0xbdae1d02	-0.085016266
20	0xbd70cae0	-0.058787227
21	0x3e9411b7	0.28919765
22	0x3d276bf9	0.040874455
23	0xbc32c0e3	-0.010910246
24	0xbe54b157	-0.20770775
25	0x3e8dccaf	0.27695224
26	0x3e396753	0.18105821
27	0x3cd9c3b7	0.026582582
28	0x3e5db68b	0.21651666
29	0x3eb0f6b8	0.3456323
30	0x3d57aec8	0.05265692
31	0xbe9449c0	-0.28962517
32	0x3d7c893d	0.061654318
33	0xbe813ba7	-0.25240824
34	0x3ea6e9b0	0.32600164
35	0x3e90d12d	0.28284588
36	0xbcbfe876	-0.023426276
37	0xbe842b42	-0.25814253
38	0xbcebab08	-0.028768077
39	0x3e8cc31c	0.27492607
40	0xbda9a703	-0.08283808
41	0xbe7418c8	-0.23837578
42	0x3eb7f1b3	0.3592659
43	0xbe8ce77b	-0.27520356
44	0x3e0d5a7d	0.1380405
45	0xbe46df69	-0.19421162
46	0x3d89a416	0.0672075
47	0x3e19e7b3	0.15029792
48	0x3e670dce	0.2256386
49	0x3d97411f	0.07385468
50	0x3e091ac7	0.13389121
51	0xbd9b0aa4	-0.07570389
52	0xbdfe5aa3	-0.12419631
53	0x3e3aab93	0.18229513
54	0x3e8405a0	0.25785542
55	0x3e1da1a0	0.15393686
56	0x3e9cabf3	0.30599937
57	0x3ea53a5e	0.32271093
58	0x3e24f242	0.16108039
59	0xbdc0af4d	-0.09408436
60	0x3ead5dc2	0.33860594
61	0x3dff6f34	0.12472382
62	0xbeb136ca	-0.34612113
63	0x3e98691e	0.29767698
64	0x3ee6a1f9	0.4504545
65	0x3e843e81	0.25828937
66	0x3e258d8a	0.16167274
67	0x3e801756	0.25017804
68	0x3e307cac	0.17235059
69	0xbd7c83d7	-0.06164917
70	0x3ebd81d8	0.37013125
71	0xbe4f3ca8	-0.20237982
72	0x3db0b221	0.086277254
73	0xbe6d5665	-0.23177488
74	0xbea70d5d	-0.32627383
75	0xbdbd35ae	-0.09238754
76	0xbe37953b	-0.1792802
77	0xbdc9a636	-0.09846155
78	0x3ddd59f8	0.10808176
79	0xbe37901e	-0.1792607
80	0xbde196a8	-0.110150635
81	0x3e5241cd	0.20532914
82	0x3e8698d1	0.26288465
83	0xbd256363	-0.040377986
84	0xbdcfdee1	-0.10149933
85	0x3e35e49b	0.17762987
86	0x3e02162f	0.12703775
87	0x3ea17d3a	0.31540853
88	0x3d647aac	0.05578105
89	0x3e6ae315	0.22938187
90	0xbe674c3f	-0.2258768
91	0x3e86371e	0.26213926
92	0x3e8bfc60	0.27340984
93	0xbced76a8	-0.028987244
94	0x3e956deb	0.29185423
95	0xbe19ad36	-0.15007481
96	0x3def3ad8	0.116811454
97	0x3ea3d717	0.32000038
98	0xbe2a8c51	-0.16655089
99	0x3e8c3b86	0.27389163
100	0xbdf6b1d3	-0.12045636
101	0x3d2017ae	0.039085083
102	0x3e854c09	0.26034573
103	0xbe1ec91e	-0.15506408
104	0x3e5eda74	0.21763021
105	0x3e17a10a	0.14807525
106	0xbe850da2	-0.25986964
107	0x3da58a68	0.080830395
108	0x3ddcac6f	0.107750766
109	0x3e725fde	0.23669383
110	0xbea796bf	-0.32732198
111	0x3e0dcf6a	0.13848653
112	0xbe80aade	-0.2513036
113	0xbe8ea545	-0.27860466
114	0xbe9e7cba	-0.30954534
115	0xbe902e3c	-0.28160274
116	0xbab187c5	-0.0013544491
117	0xbe282a9a	-0.16422501
118	0x3e40ac42	0.18815711
119	0xbe38b7a6	-0.18038806
120	0xbe7a8247	-0.2446376
121	0xbe89461f	-0.2681131
122	0xbd20cbdc	-0.039256915
123	0xbeb3c5f4	-0.35111964
124	0x3e3acb3b	0.18241589
125	0x3dd307fc	0.10304257
126	0x3e5650b4	0.20929223
127	0xbe4645f4	-0.19362622
128	0xbe27503b	-0.16339199
129	0x3e9483bf	0.29006764
130	0x3e1a0ecf	0.15044712
131	0xbe3b99fe	-0.18320462
132	0x3e0eb60a	0.1393663
133	0xbe6b2c76	-0.22966179
134	0x3eae9d36	0.34104317
135	0x3e369231	0.17829205
136	0xbe5a399d	-0.2131104
137	0xbec2dc41	-0.38058665
138	0xbe007a11	-0.12546565
139	0xbe7c2289	-0.24622549
140	0xbebc28f8	-0.36750007
141	0x3bc4dca3	0.0060077473
142	0x3e38d3f4	0.18049604
143	0x3d55b937	0.052178588
144	0x3e05d0e1	0.13067962
145	0xbea6a4b0	-0.32547522
146	0xbe0e7982	-0.13913539
147	0xbbd9854d	-0.006638205
148	0xbd9fba3d	-0.07799194
149	0x3e02e562	0.12782815
150	0xbeb9c736	-0.36284798
151	0x3e2db174	0.16962224
152	0xbec450c3	-0.38342866
153	0x3cb7f3be	0.022455093
154	0x3eb00428	0.3437817
155	0x3e2be806	0.16787729
156	0x3e7de9de	0.24796245
157	0x3e7ebcbf	0.24876688
158	0xbde02f2b	-0.109464966
159	0xbe33ae1b	-0.17546885
160	0x3da2e659	0.079540916
161	0x3d575e96	0.05258044
162	0x3d80e76f	0.062941425
163	0xbdccf32a	-0.10007317
164	0xbe5b019b	-0.21387331
165	0xbe490422	-0.19630483
166	0xbe5990fd	-0.21246715
167	0x3e3be367	0.18348466
168	0x3e6a7cbc	0.22899145
169	0xbe51c397	-0.20484768
170	0x3e58eb8d	0.21183605
171	0xbe9b0ba2	-0.30282313
172	0x3e31d79d	0.17367406
173	0x3ebd7267	0.37001345
174	0xbd84d049	-0.0648504
175	0xbe8363a1	-0.25661948
176	0xbe977e8e	-0.2958874
177	0x3e30772f	0.17232965
178	0xbe988dda	-0.29795724
179	0x3e5c1c3c	0.21495146
180	0x3e810ceb	0.25205168
181	0x3ea425b9	0.3206003
182	0x3eb29ae8	0.3488381
183	0x3d1cd19e	0.038285844
184	0xbe763bf4	-0.24046308
185	0xbdaf3c93	-0.085564755
186	0xbc366f87	-0.011134989
187	0x3e4800b8	0.19531524
188	0x3eaac971	0.33356813
189	0xbe9dc8f0	-0.30817366
190	0xbe1e1939	-0.15439309
191	0xbeaa26e6	-0.33232802
192	0x3eb5b7a1	0.3549166
193	0x3e77f166	0.2421318
194	0xbe94de81	-0.29076007
195	0xbe8c252c	-0.2737211
196	0x3eaf3567	0.3422043
197	0xbe92016e	-0.28516716
198	0x3d799156	0.06092962
199	0x3e356f64	0.17718273
200	0xbeaadb74	-0.33370554
201	0xbe4667ef	-0.19375585
202	0x3e3eb7bc	0.18624777
203	0x3e63f138	0.22259986
204	0xbe7b5182	-0.24542812
205	0xbebcbb3e	-0.36861604
206	0xbde3f887	-0.11131387
207	0xbdc078df	-0.09398054
208	0x3e804239	0.25050524
209	0x3e4d767e	0.20064732
210	0x3d4b0a34	0.049570277
211	0xbca196a3	-0.01972515
212	0x3ec1f462	0.37881762
213	0xbe316cae	-0.17326614
214	0x3eb85309	0.3600085
215	0x3e9c0aff	0.3047714
216	0x3e819205	0.25306717
217	0xbda2f031	-0.07955969
218	0x3e8a1cbc	0.26975048
219	0xbbe93519	-0.0071169254
220	0xbeb3135e	-0.34975713
221	0xbe774f29	-0.24151291
222	0xbe9cc4c6	-0.30618876
223	0x3d86d13f	0.06582879
224	0xbe9cdc1b	-0.30636677
225	0xbea8719d	-0.3289918
226	0x3e29b839	0.16574182
227	0xbe21b3af	-0.157912
228	0x3e6f331c	0.2335934
229	0xbe25c10f	-0.16186927
230	0xbe9dc315	-0.30812898
231	0xbe53e178	-0.20691478
232	0xbe751216	-0.2393268
233	0xbea2e6ec	-0.31816804
234	0xbcb3636f	-0.021898
235	0xbe2c9aee	-0.16855976
236	0x3db245b2	0.087046996
237	0xbdc14ae7	-0.094381146
238	0xbe521098	-0.20514143
239	0x3d18f479	0.037342522
240	0x3e7eb965	0.2487541
241	0xbe000009	-0.12500013
242	0xbe7cb12d	-0.24676962
243	0x3e3beb1c	0.18351406
244	0xbe9370d6	-0.28797024
245	0x3c77fd2c	0.0151360445
246	0x3e525763	0.20541148
247	0xbb8d127e	-0.004305183
248	0xbe02abb6	-0.12760815
249	0x3d198845	0.037483472
250	0xbe8377fa	-0.25677472
251	0xbe8cc4ff	-0.27494046
252	0x3d5234c1	0.05131984
253	0x3e142509	0.14467253
254	0xbd83f706	-0.064436
255	0xbea14e88	-0.31505227

depthwise.bias f4 [32]
0	0xbc65a435	-0.014016201
1	0xbe5457de	-0.20736644
2	0xbcf32a6b	-0.029683312
3	0x3e91a402	0.2844544
4	0x3cebefed	0.028800929
5	0x3e0a06a7	0.134791
6	0x3dfb7e0b	0.122799
7	0xbdbacaa2	-0.091206804
8	0x3db332a7	0.087498955
9	0x3e35c15b	0.1774954
10	0x3d3b7914	0.045769766
11	0x3de18a44	0.110127
12	0xbe4fa5b7	-0.20278059
13	0xbde478ee	-0.11155878
14	0xbd15d044	-0.03657557
15	0x3ea4269b	0.32060704
16	0x3e88b8be	0.26703447
17	0xbeab5248	-0.33461213
18	0x3e5fe635	0.21865161
19	0xbc6ff6f3	-0.01464628
20	0xbe4703f6	-0.19435105
21	0x3e419063	0.18902735
22	0xbe5e9c15	-0.21739228
23	0xbea97213	-0.33094844
24	0x3e688a44	0.22708994
25	0x3d0b78d5	0.03405078
26	0xbd8b70a0	-0.06808591
27	0xbe7f1b79	-0.24912824
28	0xbe871fc0	-0.2639141
29	0x3d93fa73	0.07225504
30	0xbdfa27e4	-0.1221464
31	0xbe89a7a2	-0.26885706

pointwise.weight f4 [64, 32, 1, 1]
0	0xbe25553b	-0.16145794
1	0xbd2ed0f1	-0.04267973
2	0xbdc9b047	-0.09848075
3	0xbd54480a	-0.051826514
4	0x3dff9164	0.12478903
5	0x3df5498a	0.11976917
6	0x3d3a7cfb	0.045529347
7	0x3e295fc8	0.16540444
8	0xbe404158	-0.18774927
9	0xbd6202ec	-0.055178568
10	0xbddadcc0	-0.10686636
11	0x3e034a26	0.12821254
12	0x3dc55399	0.096350856
13	0x3b311825	0.0027022448
14	0x3dceaa89	0.10091121
15	0x3d9b61ff	0.07587051
16	0xbdedf425	-0.116188325
17	0xbe71bfa7	-0.23608266
18	0xbe0bdbe9	-0.13658108
19	0x3c823628	0.015894964
20	0x3e4758cc	0.19467467
21	0x3cd0c8f4	0.025486447
22	0x3dbf77b7	0.09349006
23	0xbe68f9e7	-0.2275158
24	0x3dc9e72c	0.09858546
25	0xbe2fa027	-0.17150937
26	0x3c2f8d08	0.010714777
27	0xbdab9aea	-0.08379157
28	0xbc365ed2	-0.011131005
29	0x3d738927	0.05945697
30	0xbd521e4a	-0.051298417
31	0x3e10f176	0.1415461
32	0xbbe5d84c	-0.00701431
33	0x3dbdf558	0.09275311
34	0x3c5ecef9	0.013599151
35	0xbe324af5	-0.17411406
36	0xbc864cb9	-0.016394006
37	0xbdc42262	-0.095768705
38	0xbe1fbd4a	-0.15599552
39	0x3de7da10	0.11320889
40	0xbe11d01e	-0.14239547
41	0xbe31e483	-0.17372327
42	0x3d98102a	0.07424958
43	0x3dc67ff3	0.09692373
44	0xbd8e7886	-0.06956582
45	0x3e289c65	0.1646591
46	0x3e4865f1	0.19570138
47	0xbcb9153e	-0.022593137
48	0x3e040788	0.12893498
49	0xbc5ceb91	-0.013483898
50	0x3dcb514c	0.099276155
51	0x3e3d8821	0.1850896
52	0xbd7a5204	-0.061113372
53	0xbdca7b6a	-0.098868206
54	0xbe0abea4	-0.13549286
55	0xbe17178a	-0.14755073
56	0xbe2008cd	-0.15628357
57	0x3cf2c859	0.029636549
58	0xbde4fa74	-0.11180583
59	0x3d3c2ce4	0.04594125
60	0xbe350c37	-0.17680441
61	0x3bf119ea	0.0073578255
62	0xbd965d6f	-0.0734204
63	0xbd492747	-0.049109723
64	0x3dd34e5d	0.10317681
65	0xbe5df44d	-0.21675225
66	0x3db988a5	0.09059266
67	0xbdd9150c	-0.105997175
68	0xbd17430f	-0.036929186
69	0xbc8ad107	-0.016945375
70	0xbd60d5b0	-0.05489129
71	0xbe62a5a5	-0.22133501
72	0xbd0e390a	-0.034722365
73	0xbde7a972	-0.11311616
74	0x3e1cd845	0.15316875
75	0x3d5830fc	0.05278109
76	0xbe704b3f	-0.23466204
77	0xbe0ec694	-0.13942939
78	0x3dd5aa1d	0.10432837
79	0x3de46d33	0.111536406
80	0xbcb09818	-0.021556899
81	0x3d890e0c	0.06692132
82	0x3defb8bd	0.11705158
83	0x3dab85a7	0.083751015
84	0x3cb81fdc	0.02247613
85	0x3bd97c8a	0.0066371607
86	0x3d8be676	0.06831066
87	0x3e5fc8af	0.21853898
88	0x3e1e84ee	0.15480396
89	0x3de349b5	0.11098043
90	0xbe1c6006	-0.15271005
91	0x3bde6a58	0.0067875795
92	0xbdfa2e99	-0.12215919
93	0xbdb0d863	-0.086350225
94	0xbb1b0552	-0.0023654294
95	0xbe06ff69	-0.13183369
96	0xbd6ee8e4	-0.05832757
97	0x3d45aed1	0.04826242
98	0x3df841e0	0.1212194
99	0xbccf1f4c	-0.025283478
100	0xbe0184e2	-0.12648347
101	0x3e23b88b	0.15988366
102	0xbcc80362	-0.024415676
103	0xbd619bea	-0.05508033
104	0xbdb74919	-0.08949489
105	0x3de67e17	0.112545185
106	0x3e2fd8ea	0.1717259
107	0x3e207933	0.15671234
108	0x3ddddc4c	0.10833034
109	0xbe566cf1	-0.20939995
110	0xbdaea791	-0.085280545
111	0x3e3dc088	0.18530476
112	0xbc68d548	-0.014211006
113	0x3d91fcd0	0.07128298
114	0xbd3151c8	-0.043290883
115	0x3e00b860	0.12570333
116	0x3d6698bb	0.056298
117	0xbbf8a9a8	-0.007588584
118	0x39164f11	0.0001433457
119	0xbdc60dc8	-0.09670597
120	0x3e0e94a7	0.13923894
121	0xbe5b8fe3	-0.21441607
122	0x3d0bfd54	0.03417714
123	0xbd44ae38	-0.04801771
124	0xbddc50eb	-0.107576214
125	0x3d955891	0.07292283
126	0x3d0b014c	0.033936784
127	0x3d527d79	0.05138919
128	0xbe13e629	-0.14443268
129	0x3d9eea97	0.07759588
130	0xbdcafaf8	-0.0991115
131	0xbdc09d7b	-0.09405037
132	0x3dfac60c	0.12244806
133	0x3e1be215	0.15222962
134	0x3dfafc4b	0.12255152
135	0x3e3a3230	0.18183208
136	0xbd4ea70c	-0.050452277
137	0x3e37c8f1	0.17947747
138	0xbd2a012d	-0.041505028
139	0x3e457d02	0.19285968
140	0xbc496b95	-0.012293716
141	0x3de8b88f	0.11363327
142	0xbe491112	-0.19635418
143	0x3e57b529	0.21065201
144	0x3d7933bd	0.060840357
145	0xbe80e0c9	-0.25171497
146	0x3dcc7b0a	0.09984405
147	0x3d97a23e	0.07403992
148	0xbd009595	-0.031392653
149	0xbddf203d	-0.10894821
150	0xbdb7543e	-0.08951615
151	0xbe675c03	-0.22593693
152	0x3e52e157	0.20593773
153	0xbdd0d179	-0.10196204
154	0xbd83becf	-0.06432878
155	0x3d905404	0.07047275
156	0xbe096088	-0.1341573
157	0x3db5ce98	0.08877295
158	0x3db542b4	0.08850613
159	0xbe0d90e1	-0.13824798
160	0xbdd7b0bf	-0.105317585
161	0xbe0339a0	-0.12814951
162	0x3d9c3d24	0.07628849
163	0x3cd26874	0.025684573
164	0x3d84094b	0.06447085
165	0xbd4c5c21	-0.04989255
166	0x3df13b27	0.117788605
167	0x3e45ab28	0.19303572
168	0xbc43380e	-0.01191522
169	0xbd96f926	-0.0737174
170	0x3d887483	0.06662848
171	0xbdfadde6	-0.12249355
172	0xbd15ec0c	-0.036602065
173	0x3d0e3076	0.034714185
174	0x3e1d459d	0.15358587
175	0x3c1b15e0	0.009465665
176	0xbe3c6242	-0.18396857
177	0xbe44e0c0	-0.1922636
178	0xbe878d35	-0.2647492
179	0x3d8253f0	0.06363666
180	0x3e369c7a	0.17833129
181	0x3c2a8d3c	0.010409649
182	0x3e183b58	0.14866388
183	0x3de014bf	0.10941457
184	0xbb8e8b7f	-0.0043501253
185	0x3e35f630	0.17769694
186	0xbdcc362e	-0.099712715
187	0xbaa56df9	-0.0012621275
188	0xbce16c55	-0.027517477
189	0xbe101928	-0.14072096
190	0xbdb099fb	-0.086231194
191	0x3d0e2c46	0.03471019
192	0x3decd968	0.115649045
193	0xbd8b31da	-0.06796618
194	0xbe475959	-0.19467677
195	0x3d42424d	0.04742651
196	0xbc80d704	-0.015727527
197	0x3d0c795e	0.034295432
198	0x3e29a9f0	0.16568732
199	0x3db6d933	0.08928146
200	0x3e15986b	0.14608924
201	0x3d4a6666	0.04941406
202	0x3da57a5c	0.08079979
203	0xbde1b814	-0.11021438
204	0x3b21e275	0.002470163
205	0x3cefb7b0	0.029262394
206	0x3d978d9f	0.07400059
207	0x3dd18b75	0.102316774
208	0xbc49e667	-0.012322999
209	0x3d2563f0	0.04037851
210	0x3e1322a9	0.1436869
211	0x3dd737a2	0.10508658
212	0xbc95ca1c	-0.01828485
213	0x3e08df94	0.13366538
214	0x3dc3753d	0.09543846
215	0x3d138f5b	0.036025386
216	0xbd8f5f53	-0.070006035
217	0x3c69aec3	0.014262858
218	0xbdc91303	-0.09818079
219	0xbd576ade	-0.05259215
220	0x3d37e980	0.044900417
221	0xbcacebe9	-0.021108584
222	0xbde1a238	-0.11017269
223	0x3d9d5786	0.076827094
224	0x3df79342	0.12088634
225	0xbc787e21	-0.01516679
226	0xbe286003	-0.16442876
227	0x3e104f81	0.14092828
228	0xbdf47ca2	-0.11937834
229	0xbd5ece24	-0.05439581
230	0x3d4e43f7	0.050357785
231	0x3d038852	0.032112427
232	0xbe06f887	-0.13180743
233	0x3e0c5752	0.13705185
234	0x3e428ade	0.18998286
235	0x3cc8d3e8	0.024515107
236	0xbd87719c	-0.06613466
237	0xbc75c198	-0.01499977
238	0x3d8348cc	0.06410369
239	0x3dc4d672	0.09611215
240	0xbe13a1ad	-0.14417143
241	0x3cd7d7a6	0.026347946
242	0xbd0a4af9	-0.033762906
243	0xbdee1091	-0.116242535
244	0x3e2a0093	0.16601782
245	0xbe0f406c	-0.13989419
246	0x3d7d04d7	0.061772194
247	0x3df78305	0.12085537
248	0x3db60d69	0.088892765
249	0xbd49ba8b	-0.049250167
250	0x3d477389	0.048694167
251	0x3df61571	0.120158084
252	0xbbcde867	-0.006283808
253	0x3d8c52a7	0.06851702
254	0x3db43804	0.08799747
255	0xbe17d9b8	-0.14829147

pointwise.bias f4 [64]
0	0x3d4a3618	0.049367994
1	0x3e2022cb	0.15638272
2	0xbd0c4d51	-0.034253422
3	0xbdf08a0b	-0.117450796
4	0xbd505f31	-0.05087203
5	0xbe0173fa	-0.12641898
6	0xbd871b83	-0.06597044
7	0x3d45fb12	0.048335142
8	0x3e275295	0.16340096
9	0x3ddca62b	0.107738815
10	0x3d9a7f49	0.07543809
11	0x3d647905	0.055779476
12	0xbe15fee7	-0.14648019
13	0x3d8687fd	0.065689065
14	0x3c914df1	0.01773736
15	0x3e32b90f	0.17453407
16	0x3e34616c	0.17615288
17	0xbdd088ec	-0.10182366
18	0x3d90c9e4	0.070697576
19	0x3e208f11	0.15679576
20	0xbe05a063	-0.13049464
21	0xbdbcc10f	-0.092165105
22	0x3d8e7ebb	0.06957766
23	0x3d7b8017	0.061401453
24	0xbddec3fc	-0.10877225
25	0xbd62357b	-0.055226784
26	0x3de56c1f	0.11202263
27	0x3e037b4d	0.12840004
28	0x3ce48ecc	0.027900122
29	0xbe1c759d	-0.15279241
30	0x3d080165	0.033204455
31	0xbe12c01c	-0.14331096
32	0x3d34cec2	0.044142492
33	0x3d86603a	0.065613225
34	0xbda02334	-0.078192145
35	0x3e12ed18	0.14348257
36	0x3e07e34c	0.132703
37	0xbde33e99	-0.11095924
38	0xbd8d120c	-0.06888208
39	0x3de777af	0.11302125
40	0xbced5279	-0.02896999
41	0xbd75d1de	-0.060014598
42	0x3d8f63b8	0.07001442
43	0x3d84fef4	0.06493941
44	0x3e056aac	0.13028973
45	0x3beca065	0.007221269
46	0xbe0f550e	-0.1399729
47	0x3e032c44	0.12809855
48	0xbbf95f21	-0.007610217
49	0xbd2b418d	-0.04181056
50	0x3c9d5778	0.019206747
51	0x3c749e1a	0.0149302725
52	0xbdec7a11	-0.1154672
53	0xbdacc730	-0.084364295
54	0x3d80e894	0.06294361
55	0xbdd874b8	-0.10569137
56	0x3ced9a98	0.02900438
57	0x3c7e7f76	0.015533319
58	0xbd9089f5	-0.07057563
59	0xbde8fe92	-0.113766804
60	0x3e22cc4a	0.15898243
61	0x3dd3dc29	0.103447266
62	0x3ce0b06a	0.02742787
63	0x3dee2ac3	0.1162925

fc.weight f4 [2, 1024]
0	0x3d4dba35	0.05022641
1	0x3ce092e1	0.027413787
2	0x3cc2fbe5	0.023801753
3	0x3d18281b	0.037147623
4	0x3ce7a11a	0.028275061
5	0x3d8ff93e	0.07029961
6	0x3dabb7a9	0.0838464
7	0x3d254dc1	0.040357355
8	0x3d3865f5	0.04501911
9	0x3d644c69	0.055736933
10	0x3d092b88	0.03348878
11	0x3db09627	0.08622389
12	0xbc18d89a	-0.009328986
13	0x3d3fbf72	0.046813436
14	0x3d64e2ea	0.055880465
15	0x3d795be8	0.060878664
16	0xbcf020d6	-0.029312532
17	0xbcf81e93	-0.030288016
18	0xbcfc9a2b	-0.030835232
19	0xbd00a848	-0.031410486
20	0xbcaba8e1	-0.020954551
21	0xbcbe0fb4	-0.023200847
22	0xbc91615f	-0.017746625
23	0xbc150093	-0.009094375
24	0xbcf030bf	-0.029320119
25	0x3bea1860	0.007144019
26	0xbcfcf868	-0.030880168
27	0xbcbb87aa	-0.022891838
28	0xbd1ac24e	-0.03778296
29	0xbcb71bb6	-0.02235208
30	0xbd0da629	-0.03458229
31	0x3c701929	0.014654436
32	0xbbf6da58	-0.007533353
33	0xbba15d0a	-0.004924421
34	0x3da36728	0.0797866
35	0x3d18b2d3	0.037279915
36	0xbc0d136a	-0.008610586
37	0xbc0dacd6	-0.008647164
38	0xbd3f39df	-0.04668605
39	0xbd533178	-0.05156085
40	0xbd1adfe9	-0.037811194
41	0xbba2e305	-0.0049709105
42	0xba909be5	-0.0011032788
43	0x3c82a346	0.015946995
44	0x3dcaae5d	0.098965384
45	0x3dd401d5	0.10351912
46	0x3c3202ac	0.010864895
47	0xbb918668	-0.0044410713
48	0x3d0c09d2	0.034189053
49	0x3d553c72	0.0520596
50	0x3d0cc469	0.034367
51	0x3ddb5011	0.10708631
52	0x3c96ffac	0.01843246
53	0x3d870ab8	0.06593841
54	0x3d55ea1f	0.05222523
55	0x3cec8e7e	0.02887654
56	0x3dacddc7	0.08440738
57	0x3dbf9d60	0.09356189
58	0x3da2010b	0.07910355
59	0x3d58f9bd	0.052972544
60	0x3d0af675	0.033926446
61	0x3cfb89d3	0.030705368
62	0x3d8339d4	0.06407514
63	0x3d65dc8f	0.056118544
64	0xbd190063	-0.037353884
65	0xbd0ad7b2	-0.03389711
66	0xbc6deef1	-0.0145223
67	0x3c315e5d	0.010825721
68	0x3c215132	0.009846019
69	0x3d2d08b7	0.04224464
70	0x3d19e894	0.03757532
71	0x3c3c55cb	0.011495064
72	0x3d3f1b28	0.046656758
73	0x3d09d738	0.033652514
74	0x3cf0a2ae	0.029374447
75	0x3d1409df	0.036142226
76	0xbcac6b87	-0.021047367
77	0x3ce155fc	0.02750682
78	0x3d4c2176	0.0498366
79	0x3c2ac302	0.01042247
80	0x3d3754d5	0.044758637
81	0xbc385eb4	-0.011253048
82	0x3c7d0aa8	0.015444435
83	0xbd3dba5d	-0.046320308
84	0xbd288392	-0.0411411
85	0x3c828c16	0.015935939
86	0x3c1b6043	0.0094834
87	0x3d43e603	0.04782678
88	0xbcf24733	-0.029574966
89	0xbd38c52f	-0.045109924
90	0xbd0ebd61	-0.034848575
91	0xbd8a7449	-0.06760461
92	0xbca6f690	-0.020381242
93	0xbd5c9f00	-0.05386257
94	0x3c619e71	0.0137706855
95	0x3dde865b	0.1086547
96	0xbd0419eb	-0.03225128
97	0x3a77604d	0.0009436652
98	0x3cc83ad9	0.024442123
99	0xbd07a3a2	-0.033115037
100	0x3c14fc05	0.009093289
101	0xbd0319ab	-0.0320069
102	0xbc70475b	-0.01466545
103	0xbb81e742	-0.0039643357
104	0xbc6c5389	-0.014424213
105	0xbb9d4ab0	-0.004800163
106	0x3cadd596	0.02122001
107	0xbc7bff42	-0.015380682
108	0x3c25f0f5	0.010128249
109	0xbcdceb48	-0.02696766
110	0xbb6539d7	-0.0034977102
111	0x3bfac217	0.007652532
112	0x3ce7e3d9	0.028306888
113	0xbb3cb6ac	-0.0028795404
114	0x3d490e00	0.049085617
115	0x3cb93181	0.022606613
116	0x3a1a03fd	0.0005875228
117	0xbc554045	-0.013015811
118	0x3d326a50	0.04355842
119	0xb994925c	-0.00028337806
120	0x3ccb125d	0.02478903
121	0x3af826d1	0.0018932467
122	0x3d17400f	0.036926325
123	0x3d542d0b	0.05180077
124	0x3d1264e0	0.035740733
125	0x3c9f2196	0.019425195
126	0x3c5f2781	0.013620258
127	0x3c7fae40	0.015605509
128	0x3d72094a	0.05909089
129	0x3d8f953f	0.07010888
130	0x3d89e1bc	0.067325085
131	0x3c88bd4b	0.016691824
132	0x3cf53d8b	0.029936573
133	0x3d45486e	0.048164777
134	0xbd13c0bc	-0.036072478
135	0x3cec0320	0.028810084
136	0xbcd6336c	-0.026147567
137	0x3c62bc33	0.0138388155
138	0x3cdfaec8	0.027305022
139	0x3d6cc2d3	0.057802986
140	0x3d0a01f5	0.033693273
141	0x3d1be1e3	0.03805722
142	0x3cf1a764	0.029498763
143	0x3ccc4ef9	0.02494
144	0xba9bf5d5	-0.0011898825
145	0x3d0f9e1f	0.035062905
146	0x3dca7892	0.09886278
147	0x3d4e1fe8	0.050323397
148	0x3d14f362	0.03636492
149	0x3bc1eea5	0.005918341
150	0x3cc318f6	0.023815613
151	0x3cb97870	0.022640437
152	0x3d51026f	0.05102771
153	0x3d37ce95	0.044874746
154	0x3d844477	0.06458371
155	0x3d4bf70e	0.049796157
156	0x3d89e7d6	0.06733672
157	0x3dd6a9b2	0.104815856
158	0x3d007f84	0.03137161
159	0x3be49650	0.0069759265
160	0xbc8fe4a8	-0.017565086
161	0xbdcf5a98	-0.10124701
162	0xbe45a6e0	-0.19301939
163	0xbd86748d	-0.06565199
164	0xbdeb7c81	-0.114983566
165	0xbe2dad8b	-0.16960733
166	0xbe5646b2	-0.20925406
167	0xbdb69e3b	-0.08916899
168	0xbde49965	-0.1116207
169	0xbe673068	-0.2257706
170	0xbe75d111	-0.24005534
171	0xbdc037fa	-0.09385677
172	0xbdcb5978	-0.09929174
173	0xbe093490	-0.13398957
174	0xbe2cd9ea	-0.16880003
175	0xbe2c5364	-0.16828686
176	0x3c08803d	0.008331356
177	0xbcc08865	-0.023502538
178	0xbd04cbd3	-0.032420944
179	0x3c555302	0.013020279
180	0x3b8fdf15	0.004390607
181	0xbce43f25	-0.02786214
182	0xbd1b32c5	-0.037890214
183	0xbcab9b5b	-0.020948103
184	0xbcf53aa7	-0.029935194
185	0xbd440ecc	-0.047865674
186	0xbcd3c7db	-0.025852134
187	0xbbcb82f3	-0.0062106787
188	0x3bd1faf7	0.006408091
189	0x3cd2cdc8	0.02573289
190	0xbc830d90	-0.015997678
191	0xbce10fda	-0.027473379
192	0xbd78ce14	-0.060743406
193	0xbd22a6cf	-0.039709862
194	0xbd57de59	-0.05270228
195	0xbcf1d1bc	-0.029518954
196	0xbd955972	-0.07292451
197	0xbd3e46ac	-0.046454117
198	0xbc6243bb	-0.0138100935
199	0x3c101e40	0.008796275
200	0xbd206fcd	-0.03916912
201	0xba95b38e	-0.0011421309
202	0x3c17012e	0.00921659
203	0xbbad37f3	-0.0052862107
204	0xbda5cbbd	-0.080955006
205	0xbd345e85	-0.044035453
206	0xbbf701c6	-0.007538053
207	0x3c38715f	0.0112574985
208	0x3d59b438	0.053150386
209	0x3b13bdc1	0.0022543522
210	0x3d6ed648	0.058309823
211	0xbb06b7b6	-0.0020556278
212	0x3ce43ff5	0.027862528
213	0x3cdd0870	0.026981562
214	0xbd4ac249	-0.04950169
215	0xbbc46f79	-0.005994734
216	0xbd485752	-0.0489114
217	0xbd46bed3	-0.048521828
218	0xbd37ff42	-0.044921167
219	0x3c264877	0.010149113
220	0x3c55ee5f	0.01305732
221	0x3c97a3b0	0.01851067
222	0xbb0dec0a	-0.0021655583
223	0xbd4e22d6	-0.05032619
224	0xbc9afac8	-0.01891841
225	0xbc2498c0	-0.010046184
226	0x3d1d544d	0.038410474
227	0x3c0d1f03	0.008613351
228	0xbbf0d9e1	-0.007350192
229	0x3aa620fc	0.0012674625
230	0xbca446da	-0.020053316
231	0xbd05e2f5	-0.032687146
232	0x3b8b35e7	0.004248369
233	0x3d2429e6	0.04007902
234	0x3c28d47a	0.010304565
235	0xbbd83676	-0.006598289
236	0x3d1433d2	0.036182232
237	0x3cab16b5	0.020884851
238	0x3ca2452c	0.019808374
239	0xbd143c10	-0.036190093
240	0x3d5693b9	0.052386973
241	0x3b2ae262	0.0026074876
242	0x3d949a2b	0.07255968
243	0xbab4d729	-0.0013797033
244	0x3b9f3773	0.004858905
245	0x3c1f8dac	0.009738367
246	0x3c8ae061	0.016952695
247	0x3d30ee9d	0.04319631
248	0x3c510c14	0.012759227
249	0x3c9ba898	0.01900129
250	0x3b931db2	0.004489624
251	0xbc3a0f17	-0.011356137
252	0x3b8239c5	0.003974172
253	0xbcb3c2dd	-0.021943504
254	0x3d4db127	0.050217774
255	0x3dad1a31	0.08452261

fc.bias f4 [2]
0	0x3d16f21e	0.036851995
1	0xbcaf3dba	-0.021391738
