model/CNN/saved_models/split_pad3_patch50/smallcnn4_fold1_pad9_patch50.pth (torch, 35659 bytes, 12 tensors)

conv1.weight f4 [32, 10, 3, 3]
000000 5d 8b 6e 3d 5a 1a b1 3b ba ca 98 bc e6 67 08 3d
       0.058238376 0.0054047527 -0.018651355 0.03330221
000010 cb c1 87 bc 49 3f 5b 3c 5f ca a2 3d ce d7 3b bd
       -0.0165719 0.013381788 0.079487555 -0.045860104
000020 c9 de bb 3d 70 5b 7a 3d 45 47 57 3d d9 bd c0 3c
       0.09173352 0.061122358 0.052558202 0.023528026
000030 5c c0 83 3c f8 3b 2e bd 0d f0 90 3d 8c 61 66 bd
       0.016082935 -0.04253766 0.07077036 -0.05624537
000040 5e 56 27 3d 66 3f 8b bd 1c 1f 9c bb 3f 58 a4 3d
       0.04085385 -0.06799202 -0.0047644507 0.08024644
000050 ed 5c 00 bd ac 9d bc bd 70 27 b1 bd 6a 4e cd 3d
       -0.03133862 -0.09209761 -0.086501 0.10024722
000060 a0 b4 55 3d b3 ab 98 3c e7 2c 7a bd cf 23 0a 3e
       0.05217421 0.01863656 -0.06107798 0.13490222
000070 c5 76 95 3d 0f c3 0b bd 70 4a ca 3d 37 18 6c 3d
       0.07298044 -0.03412157 0.09877479 0.05764028
000080 95 2a e5 3d a5 00 30 bc f2 9b d5 3d 7b 3a d1 3c
       0.111897625 -0.010742341 0.10430135 0.025540581
000090 30 89 8a 3c 2a bb 4e bc 61 fa 7a 3d 45 15 04 3e
       0.01691112 -0.012617866 0.061273936 0.12898739
0000a0 a0 f3 52 3d 76 bc 3f bd 88 49 d4 3d c6 87 51 bd
       0.05150187 -0.04681059 0.103655875 -0.051154874
0000b0 1b b1 08 3e 08 84 e0 3b 54 15 74 bd e1 d5 fd 3c
       0.1334881 0.006851677 -0.059590653 0.030985774
0000c0 36 7a ba bc 4e 68 21 bd 17 d3 aa 3c 71 de af 3d
       -0.022763353 -0.039406113 0.020852609 0.08587349
0000d0 9c e7 a4 3d 6a 4b 14 bd 60 6d 88 bd 88 be 29 3d
       0.080519885 -0.036204733 -0.066614866 0.04144147
0000e0 c5 29 39 3d dd 76 8b 39 dd 6a a8 3d 05 4a 05 bc
       0.04520585 0.00026600706 0.082235076 -0.008135323
0000f0 0c ec 9b bd 22 be 04 bc 27 bc 88 3d 46 13 84 bc
       -0.07613382 -0.008101972 0.06676512 -0.016122472
000100 14 4b ac 3c 7d d9 72 3d 28 39 ad 3d 66 8d 24 3d
       0.021031894 0.059289444 0.08458167 0.04017391
000110 33 7d 82 3d 78 16 e8 3c 1d 7c 72 3c 05 b8 0a 3d
       0.06371536 0.028331026 0.014800099 0.0338669
000120 80 a5 ba bd 71 3a c6 bd 62 eb a0 bd bd 1e cb bd
       -0.09113598 -0.096791156 -0.07857396 -0.09917972
000130 9e eb d9 bd 85 8b 7c bd 55 89 36 3d 72 9e 96 3d
       -0.106406435 -0.061656494 0.044564564 0.0735444
000140 f3 3b b6 bd 76 dd 02 bd 71 70 b8 3d 91 30 c0 3d
       -0.08898153 -0.031949483 0.090058215 0.09384263
000150 b0 98 81 3d 5d 69 0d 3d b9 a0 f7 b8 1f b2 af 3d
       0.06327951 0.03452431 -0.00011807815 0.08578896
000160 96 12 02 bd 27 02 b8 bb f9 3f ea bc 2b 85 fd bc
       -0.031756006 -0.005615491 -0.028594958 -0.030947288
000170 ec f8 00 3e 66 fb 02 3e 72 d1 f8 bc 42 9d 28 bd
       0.12594956 0.12791213 -0.030373309 -0.041165598
000180 b0 e3 1d 3d d6 d0 01 3e e1 2c 76 3d 42 13 ae bd
       0.038547218 0.12677321 0.060101394 -0.08499767
000190 ab 31 fb bd e8 ef e6 bd 12 ef 1f be bc 64 d9 bd
       -0.12265333 -0.11276227 -0.15618542 -0.10614917
0001a0 ef 7f 23 be 6d 5d 91 bd 28 b4 bd 3c 05 6e b5 bc
       -0.15966772 -0.07097898 0.023157194 -0.022147188
0001b0 96 47 a9 3d 21 4e 4e bd f8 72 89 bd 05 07 55 b7
       0.08265607 -0.05036748 -0.06711382 -1.2697424e-05
0001c0 ca b8 cb 3b e7 cd ee bc c4 49 2d bd 49 e6 16 bb
       0.006217097 -0.029150916 -0.042306677 -0.0023025444
0001d0 6e 6e 78 3d b0 fa 99 3d c4 7c c3 3d 5e d9 bc 3b
       0.06065219 0.07518518 0.095452815 0.005763217
0001e0 22 10 33 bb 5d 76 e7 3d 03 15 56 bd 2d 33 ef bd
       -0.0027322848 0.11301873 -0.052266132 -0.11679683
0001f0 57 7f ac 3d 52 8e ad bc 8a d7 d7 3d 26 9e 12 3d
       0.08422726 -0.021186028 0.10539158 0.035795353
000200 6f 41 69 3d 85 cf a8 bc b0 19 c2 bc e0 9b 17 3d
       0.056947168 -0.020606766 -0.02369389 0.03701389
000210 7f ba 00 3e bb 8f 64 bb 41 19 a5 bd 83 e9 c5 3d
       0.12571143 -0.003487571 -0.080614574 0.096636795
000220 ee b6 9c bd 88 b8 06 3e 37 81 71 bd 9c ed 6f bd
       -0.076520786 0.1315633 -0.05896112 -0.05857621
000230 a7 01 1f bd dd 3c 8e 3d 8c 2d f9 3c f3 d8 a1 3d
       -0.038819935 0.069452025 0.030417226 0.07902708
000240 bd 50 db 3c 2f 30 dd 3d fa 03 33 bc 87 12 01 3e
       0.026771897 0.10800206 -0.010926241 0.12604724
000250 57 e8 90 3d c1 09 60 bd 39 71 d1 bc 9f 51 dd 3d
       0.07075565 -0.054696802 -0.025566684 0.108065836
000260 fd 63 9b bc 95 f2 2a 3d 75 a7 47 bd 8a 3a 84 bc
       -0.018968577 0.04173525 -0.048743684 -0.016141195
000270 9b 29 01 be ef 8d ed 3c cd 29 06 bd aa 50 93 3c
       -0.12613527 0.028998343 -0.032754708 0.0179828
000280 7c a7 30 bd 17 90 ba 3c d1 bd b4 ba 70 d4 6c bd
       -0.043128476 0.022773786 -0.001378948 -0.057819784
000290 21 07 47 3d 3e ba aa 3b b7 d1 d5 3d 5d 67 74 3d
       0.048590783 0.00521019 0.104403906 0.059668887
0002a0 ec 19 2b bd 99 31 8b bc a9 d3 0e be f6 5d d2 bc
       -0.041772768 -0.016991423 -0.1394793 -0.02567957
0002b0 4f a6 54 3d ad d2 4c bd f1 62 3b 3c a6 72 0d be
       0.051916417 -0.050005604 0.011437164 -0.13813266
0002c0 92 ea 86 bb dc 42 20 bd fc ea 5e 3c e7 44 92 bd
       -0.0041173184 -0.039126262 0.013605829 -0.07142048
0002d0 1e 00 72 3d 60 ed 8d 3d d1 7d 6d bd dd c4 59 bd
       0.059082143 0.06930041 -0.057981316 -0.05316626
0002e0 a1 82 98 bd d8 f3 44 bd 00 28 81 bd 29 ae 53 bc
       -0.074467905 -0.04808411 -0.063064575 -0.012919941
0002f0 34 d6 d7 bc de 60 f9 3c d2 d5 8c bc 60 a0 18 3e
       -0.026347257 0.030441698 -0.017191801 0.14904928
000300 76 b0 eb bc 73 d0 d4 bb 66 b9 de 3d 11 a8 94 3d
       -0.028770667 -0.0064945756 0.10875206 0.072586186
000310 ae a2 1c be 9b 5b 0f bd 76 f9 b3 bd c9 77 23 bd
       -0.15296432 -0.03499947 -0.08787815 -0.039909158
000320 4a 09 a3 bc ac d6 6f bc c8 7d 51 bc 63 51 c3 3c
       -0.01990189 -0.014638584 -0.012786336 0.02384252
000330 6d de 3d bd f4 58 2a bc 92 22 00 bd 09 4a 97 3d
       -0.0463547 -0.010397185 -0.03128297 0.07387168
000340 61 5e af 3d ab 0b 76 3c 72 f8 f6 3d e0 c5 1c 3e
       0.08562923 0.01501743 0.12059106 0.15309858
000350 e4 b7 f3 3d fa b6 c3 3d 77 96 13 3e 4c f2 97 3d
       0.11900309 0.095563844 0.14412867 0.07419261
000360 e9 ab 62 bd 1b fc 1d bd bf 44 85 3c 80 d0 ac bd
       -0.055339728 -0.038570505 0.016268132 -0.08438206
000370 e4 d0 d0 bd 7e ac f4 bc f8 04 16 3d b8 52 6a 3d
       -0.10196093 -0.029867407 0.036625832 0.057207793
000380 a2 95 8b bc 87 78 e1 3c 6e 69 93 3d a1 2a b3 bd
       -0.017039124 0.027523292 0.071978435 -0.08748365
000390 d9 1c 16 3d 4e 5c 1b bd fe a0 97 3d 7b 40 23 bd
       0.036648605 -0.037929825 0.07403754 -0.039856415
0003a0 da f8 a1 3d 73 10 5e 3d 4f d6 2c 3d 64 f0 b2 bd
       0.07908793 0.054214906 0.042196568 -0.08737257
0003b0 85 01 c8 3d 81 35 a4 3c 18 c9 af bc 59 f7 72 bd
       0.09765915 0.020045044 -0.021458194 -0.05931792
0003c0 93 cc 3b bd 7e 4e ea bc 4b 1d 02 3e 49 eb 5e bd
       -0.045849394 -0.028601881 0.12706487 -0.054423604
0003d0 45 a0 ca 3d 93 3a a3 3d f5 0e d2 3d 16 f4 02 bc
       0.0989385 0.079701565 0.10256759 -0.007992765
0003e0 dc d6 ee 3c 09 04 63 ba 9c c6 78 bd 23 99 3a 3d
       0.029155187 -0.0008659964 -0.060736284 0.0455562
0003f0 6f 30 08 bd 38 c0 79 3b 12 5d 6c bd 28 25 93 3d
       -0.033249315 0.0038108956 -0.057705946 0.07184821

conv1.bias f4 [32]
000000 b9 f7 83 3d be 6d 25 3b a9 27 a3 bd 52 a1 c6 3c
       0.06443734 0.0025242413 -0.07966549 0.024246845
000010 08 61 96 3c 19 e0 d9 3c 02 8f a1 bb 0b 6a 20 bc
       0.018356815 0.026596116 -0.004930378 -0.009790908
000020 45 a4 64 3d 01 f9 22 3d 0f ec ef 3c 4f ff c0 3d
       0.055820722 0.03978825 0.029287366 0.09423696
000030 87 bc 60 bd 52 cc 9b 3d 0a cb 9c 3d 28 2b bb 3d
       -0.054867294 0.076073304 0.07655914 0.09139091
000040 c2 cf 89 3d c2 e3 8a 3d 85 fb 19 bd 38 8d cb 3d
       0.0672908 0.067817226 -0.037593383 0.09939045
000050 5e 7f 5e 3c d8 e2 41 3c 5d 68 53 3b 1b cb cd 3c
       0.013580171 0.011833869 0.003225825 0.025121262
000060 5c 13 16 bd 46 89 7e bc 2c ca 5f bd 93 a4 81 3d
       -0.036639556 -0.015535658 -0.054636165 0.06330218
000070 54 3f 20 bd a6 ac e3 bc 69 ea ad 3d 46 f4 d2 3d
       -0.039122894 -0.027792286 0.08491976 0.10300498

bn1.weight f4 [32]
000000 22 69 81 3f c5 05 89 3f d4 85 86 3f fa e8 83 3f
       1.0110209 1.0704886 1.0509591 1.0305474
000010 5f 89 80 3f 7d 92 83 3f 4d e6 8a 3f ee 78 9e 3f
       1.0041922 1.027908 1.0851532 1.2380655
000020 90 a6 86 3f 1d e5 82 3f b8 df 8d 3f 8f 65 80 3f
       1.0519581 1.022617 1.1083899 1.0030993
000030 a1 d9 85 3f 8a db 87 3f a5 b8 95 3f d7 7e 81 3f
       1.045704 1.0613873 1.1696974 1.0116833
000040 75 79 84 3f aa d7 85 3f 86 1e 84 3f 4a 53 81 3f
       1.0349566 1.045644 1.0321815 1.0103543
000050 db a5 81 3f 10 96 86 3f ad ad 84 3f 6c 9b 81 3f
       1.012874 1.0514545 1.0365502 1.0125556
000060 68 64 83 3f 08 50 81 3f 02 71 86 3f f4 d9 85 3f
       1.0265017 1.0102549 1.0503237 1.0457139
000070 fa 86 82 3f 2c 1f 83 3f c6 4c 86 3f cf 4e 82 3f
       1.0197442 1.0243888 1.0492179 1.01803

bn1.bias f4 [32]
000000 a3 07 db 3b 15 be 09 3d ba f6 b5 3b 2d 11 3e bb
       0.00668426 0.033628542 0.0055530937 -0.0029001937
000010 e5 44 bd 3a 56 a4 87 3c c2 a8 af 3c 0c 4d 14 3d
       0.0014440088 0.016557854 0.021442775 0.03620629
000020 b8 fa e8 bc 59 03 ba ba 56 d9 36 bb f6 4b a6 bc
       -0.028439865 -0.0014191672 -0.0027900538 -0.020299893
000030 06 d1 40 3c 05 b1 f4 3c b8 1b 1a 3d f2 cc 95 bc
       0.011768585 0.029869566 0.03762409 -0.018286202
000040 fe 54 84 3b fd 4a 9d bc 7b fb 3b bd 19 c6 e2 ba
       0.004038452 -0.019200796 -0.045894127 -0.0017301469
000050 d6 96 50 bc e8 29 a8 3c d6 b0 97 bc 48 bb 5e bb
       -0.012731275 0.020527795 -0.01851694 -0.003398614
000060 81 44 e1 bb 34 60 44 bd f1 0c 1e 3d f3 f2 05 bd
       -0.0068746214 -0.04794331 0.03858656 -0.032702398
000070 db d1 1e bc d0 33 30 3b 1b 8e d2 bc be f7 2c 3b
       -0.009693588 0.0026886351 -0.025702527 0.0026392783

bn1.running_mean f4 [32]
000000 75 32 86 3d 87 cc 40 3b 8c 91 a1 bd b3 12 c0 3c
       0.06552593 0.0029418783 -0.07889089 0.023446416
000010 cd fc 92 3c 9b 86 dc 3c 84 a3 a5 bb 15 0c 29 bc
       0.01794281 0.026919654 -0.005054893 -0.010317822
000020 13 23 65 3d d2 08 23 3d 28 c3 f0 3c 5c c4 be 3d
       0.055941653 0.039803334 0.029389933 0.09314796
000030 e1 3c 5f bd cf bc 9a 3d b4 8a 9c 3d 33 c9 ba 3d
       -0.054501418 0.07555544 0.07643643 0.09120407
000040 3e c9 88 3d 8d c3 8a 3d 50 a7 1a bd 83 49 cb 3d
       0.06679009 0.067755796 -0.037757218 0.099261306
000050 e9 49 66 3c ba 37 3f 3c 83 6d 67 3b 85 c9 cc 3c
       0.0140557075 0.011671001 0.0035313077 0.024998436
000060 b0 2e 18 bd f1 f5 82 bc 15 df 60 bd b8 7e 81 3d
       -0.0371539 -0.015986415 -0.054900248 0.06322998
000070 3f 0a 1c bd 85 56 e5 bc 98 f3 ad 3d f8 7e d2 3d
       -0.03809571 -0.027995357 0.084937274 0.102781236

bn1.running_var f4 [32]
000000 71 b6 06 3f f6 af 22 3e 3c e3 08 3f 3b f9 ed 3e
       0.52622133 0.15887436 0.5347173 0.4647921
000010 b2 3b 80 3f c8 62 4b 3e 0a 93 c5 3e 5e 24 5d 3e
       1.0018218 0.19861901 0.38588744 0.21595904
000020 d8 2b 5a 3e d0 88 a8 3f 78 f5 48 3e a8 fc 28 3f
       0.21305788 1.3166752 0.19624889 0.6601052
000030 4a a9 d7 3d 0a f4 fd 3d f8 5e 51 3e db d4 56 3e
       0.10530336 0.124000624 0.20446384 0.20979635
000040 e0 18 41 3e e4 46 10 3e dc 2a 51 3e e4 e7 23 3e
       0.18857145 0.14089543 0.20426506 0.16006428
000050 43 a7 23 3e bf 25 ad 3d 2c 21 97 3e 9b 97 a3 3e
       0.15981774 0.08454465 0.29517496 0.31951603
000060 f0 31 ad 3e bb 0a ac 3e 9c e0 3c 3e 2e b7 07 3e
       0.33827162 0.33601937 0.18445057 0.13253471
000070 8b ef 15 3f 12 0c 8d 3e 1d a5 fd 3d f0 0a 68 3e
       0.5856864 0.2754827 0.123850085 0.22660422

depthwise.weight f4 [32, 1, 3, 3]
000000 8f 20 58 be c0 e5 a6 be 4d f4 35 bc c6 98 38 be
       -0.2110617 -0.3259716 -0.011105609 -0.18027028
000010 cb 0a 6b 3e ef 19 6d 3e 73 87 21 be f8 4e 8d be
       0.22953336 0.23154424 -0.15774326 -0.2759931
000020 a9 29 e5 3c 37 8e 70 be 46 51 a8 bb 00 d0 32 3d
       0.027973967 -0.2349175 -0.0051366417 0.043655396
000030 1f 49 b9 3e 5e 08 b7 3e db 24 07 3e fc eb a0 bc
       0.361886 0.3574857 0.13197653 -0.019643776
000040 f0 32 c3 3e 8a ae b1 3d ce 34 bd be 75 87 f1 3d
       0.381248 0.08675869 -0.3695435 0.117934145
000050 f7 b0 6b be d6 56 dd bd 1e 16 26 bc 20 f8 3c bd
       -0.23016725 -0.10807578 -0.010137109 -0.046135068
000060 84 05 44 be c0 2e ba be bd 67 e8 bc ca c4 9a be
       -0.19142729 -0.36363792 -0.028369779 -0.30228263
000070 b2 33 4b be 40 0a a9 3d 07 45 93 be 12 11 56 bd
       -0.19843939 0.08253908 -0.287636 -0.052262373
000080 9c 60 ed 3d 8a 42 16 3d ac a9 5c be e8 dc 6f be
       0.115906924 0.03668455 -0.215491 -0.23424113
000090 d9 3d 6c be bf 60 92 be af eb 28 3e 56 28 f0 3d
       -0.23070468 -0.28589436 0.16496156 0.117264435
0000a0 83 38 66 3e 78 75 73 be e7 04 95 be 1a 84 a1 be
       0.22482495 -0.2377528 -0.29105303 -0.31546098
0000b0 e0 23 5b bb 14 d9 dd bd 0d 92 ac 3e 0b a8 0b 3e
       -0.0033438131 -0.1083242 0.33705178 0.13638322
0000c0 51 d6 b4 3e a1 31 65 be 25 81 aa 3e dc c1 30 bd
       0.3531976 -0.22382213 0.33301654 -0.04315363
0000d0 b8 15 bb 3e af 99 2a bd ea 9b cf 3d a9 c6 bb bd
       0.36540008 -0.04165047 0.1013716 -0.09168751
0000e0 d0 8c 53 bd 89 3f 42 3e 44 53 7f be 87 06 90 be
       -0.05164796 0.18969549 -0.24934107 -0.2812998
0000f0 fe 5e ec 3d 67 1f 1f 3e e0 cb bb be df 5d 68 be
       0.11541556 0.15539323 -0.36678982 -0.22692059
000100 3c 05 46 be ae 7c 05 bd 41 37 73 3e d8 a7 b1 3d
       -0.19337934 -0.032589607 0.23751546 0.08674592
000110 e6 9a 36 3e 3a 9c d5 3d 1b c2 92 3e 55 20 9b be
       0.17832527 0.104301885 0.28663716 -0.30298105
000120 4f 30 9a be 12 e2 94 3e 90 32 09 3e eb 3c 6e be
       -0.30114982 0.29078728 0.13398194 -0.23265426
000130 cf 50 51 3e 37 a7 1f be 35 26 bf bb 71 41 6e 3e
       0.20440982 -0.15591131 -0.005833412 0.23267151
000140 1a cf 6e 3e 23 b8 7f 3d 2a 99 93 3e 9f a0 e4 bd
       0.2332119 0.062431466 0.28827792 -0.111634485
000150 9b 4a 6e 3d 67 8d a7 3e 3d 98 a0 3e 46 11 99 3e
       0.058176618 0.3272507 0.3136615 0.2989599
000160 50 62 00 be 6c ac 68 3e cc d2 dc be 27 52 23 3e
       -0.12537503 0.22722024 -0.43129575 0.15949307
000170 7a 81 dd 3d 37 f2 f2 3d b6 03 4c 3e bd 16 34 3c
       0.10815711 0.11862605 0.1992329 0.010991749
000180 2c c7 e3 3d ab f0 a6 3e ae 6c 38 bd e6 8e f9 3d
       0.111219734 0.3260549 -0.04502552 0.12185459
000190 02 85 4f be 8a 11 28 3e f6 56 39 be 21 45 17 3e
       -0.20265582 0.1641294 -0.18099579 0.14772464
0001a0 29 94 fa bd 8c f2 71 3e 4c 1f 91 3e b6 fa 83 3e
       -0.122352906 0.2362768 0.2834419 0.25777215
0001b0 88 70 36 3e e0 c4 ef bd 7f 40 67 be 5e 7f fe bc
       0.17816365 -0.11707473 -0.22583197 -0.031066593
0001c0 87 79 38 3e 8f 6e cb bd cd ce db 3d f9 03 a8 3e
       0.18015109 -0.09933197 0.107328035 0.3281553
0001d0 bf e7 84 3e ea 48 04 be 38 1f c3 be 19 0b 82 bd
       0.25958058 -0.1291844 -0.38109756 -0.06349773
0001e0 a6 29 0d be b9 06 9c 3d cd c1 b7 3d 1d 44 f8 bd
       -0.13785419 0.0761847 0.089725114 -0.121223666
0001f0 7b 8f c7 3d 90 53 9b be 7d e4 54 be 11 05 0b 3d
       0.097441636 -0.3033719 -0.20790286 0.03394038
000200 94 57 20 3e 58 72 93 be 63 e7 8a bd ca 34 0c 3e
       0.15658408 -0.28798175 -0.06782415 0.13692012
000210 16 86 cc be cf 27 5c 3e e8 02 85 3d 09 8c d3 bd
       -0.3994605 0.21499561 0.06494695 -0.10329444
000220 6e 8b 73 be 9c 39 8e bd cf 4e 6d be 4e ad b1 be
       -0.23783657 -0.06944582 -0.23174594 -0.34702533
000230 d0 ad 89 be d5 c5 5f be 0e 3d 0c be fb ee 51 be
       -0.2689042 -0.2185281 -0.13695166 -0.2050132
000240 a4 13 32 3e 13 29 76 3e 70 bf 99 3e ec bc 57 3e
       0.17390305 0.24039106 0.30028868 0.21068162
000250 f4 99 a5 3e db 8d e0 bd aa 38 b3 3e b9 db a2 3e
       0.3234402 -0.10964557 0.3500417 0.3180826
000260 71 27 3b be 22 62 a7 3e a0 88 a8 3e 2e 72 77 be
       -0.18276764 0.32692057 0.32916737 -0.2416465
000270 c2 11 79 bd 1c 2b 9a 3e ba 90 a4 be ac 35 47 be
       -0.06080795 0.30111015 -0.32141668 -0.19454068
000280 56 9b ed 3d a7 21 6d 3d e1 dc 25 3e e7 a2 33 be
       0.116018936 0.05789342 0.1619754 -0.17542611
000290 aa 96 56 be 8c 97 22 bd 90 4e b9 be d5 95 20 be
       -0.20955911 -0.039695308 -0.3619275 -0.15682156
0002a0 ec d7 9e be d8 eb 69 bd 0e d1 2b 3e 9f 35 a0 3c
       -0.3102411 -0.057109684 0.16778967 0.019556819
0002b0 d7 45 d6 bc 00 6d 71 3e b7 66 1b be fc f7 90 3e
       -0.02615635 0.23576736 -0.15175901 0.28314197
0002c0 4a d4 d1 bd 24 f5 53 3e 0b 2a fb bb 92 5f 07 bd
       -0.10245569 0.20698982 -0.007664924 -0.033050127
0002d0 9e 73 02 bd 4a cc 3f bb 5e e9 4c be 77 9b 86 be
       -0.031848542 -0.0029266053 -0.20010898 -0.26290485
0002e0 d5 55 6c 3e ca 9e f3 bd a3 f7 a5 be ad d5 28 be
       0.23079617 -0.11895521 -0.32415494 -0.16487761
0002f0 09 35 c4 bb eb b3 94 3d 36 04 29 3e 72 59 57 3e
       -0.0059877676 0.07260879 0.16505513 0.21030214
000300 1a ca 9d 3e 59 59 25 be 5b ef bc 3e 57 5e 56 bd
       0.30818254 -0.16147365 0.36901364 -0.052336063
000310 04 3f 06 3e 58 52 46 3e 2d b1 61 bd 1d 9d 13 bd
       0.13109976 0.19367349 -0.05510061 -0.036038507
000320 12 e1 54 3c 50 a3 d5 3d 7a 92 0d be af 14 6b 3e
       0.012993114 0.1043154 -0.13825408 0.22957109
000330 c0 45 a1 3e e6 e1 88 be 32 e2 92 3e c1 c7 55 3e
       0.31498528 -0.26734847 0.28688198 0.20876981
000340 3d af 08 3e c5 f0 2b 3e c1 1d 21 be bd 8c a6 be
       0.13348098 0.16791065 -0.15734006 -0.3252925
000350 1e 03 ce bd fd d0 b1 be 72 74 24 3e 6e c3 73 be
       -0.10059188 -0.34729758 0.16060045 -0.2380502
000360 af 49 e6 bd c7 52 ae 3e 31 c8 3b 3e ad f4 0b 3e
       -0.11244523 0.3404753 0.18338086 0.13667555
000370 71 99 4b be 7c 79 65 3d 79 69 67 3d bf 9c e0 3d
       -0.19882752 0.05602406 0.05649707 0.10967397
000380 37 19 d1 3c b3 91 1f be 8b f8 2e be 29 12 ad be
       0.025524719 -0.15582924 -0.17086999 -0.33802918
000390 d9 06 25 3e 63 bd 43 be a5 ff 00 3d 7e b0 24 be
       0.16115893 -0.19115214 0.0314938 -0.16082951
0003a0 cb 91 1f 3d 38 51 37 3e af 6f c4 3e 9e dc c0 3e
       0.0389574 0.17902076 0.38366458 0.37668318
0003b0 81 37 15 bc fc 5d 09 3e 4b 0f 8a 3e b6 ee c1 bc
       -0.009107471 0.13414758 0.26964793 -0.023673397
0003c0 77 33 ca bd 7f 73 16 3e 34 58 7d bb 4f 13 4e 3e
       -0.098730974 0.14692496 -0.003865731 0.20124553
0003d0 47 4d 46 be 4f a2 89 3e c9 da cb 3d 2b 40 8c bd
       -0.19365416 0.26881644 0.09953839 -0.068481766
0003e0 b2 2c ac bd 2a 2b 98 3b 31 ad 26 3e 86 3c 93 3e
       -0.084069625 0.0046438174 0.16277005 0.28757113
0003f0 6d e9 5e be 76 1c 63 3e e1 eb 81 3e 9b cb 4f be
       -0.21768732 0.22178826 0.25375274 -0.20292513

depthwise.bias f4 [32]
000000 25 57 0c 3e f9 82 1e 3e 2e a0 20 3e 0a 08 28 bd
       0.13705118 0.1547965 0.15686104 -0.04102329
000010 a4 db 9c 3c cb b6 cb bd ad da 81 bd 44 33 88 3e
       0.019147702 -0.09946974 -0.06340537 0.26601613
000020 3b 30 58 be e9 ff 4d be cd 9f 42 bd a8 50 1d 3e
       -0.21112148 -0.20117153 -0.04751568 0.15362799
000030 ef 07 8b bc 66 48 61 be 47 c9 06 bd 18 93 3e 3e
       -0.016971556 -0.22000274 -0.032906797 0.186108
000040 8d a8 8b 3d ef 58 84 be 7a db 98 3d 7b 8c b1 bc
       0.06819258 -0.258491 0.07463737 -0.021673432
000050 21 af 57 bd 88 fb 7e bc 65 a7 8e bd e4 b8 cf 3d
       -0.05265725 -0.015562899 -0.06965522 0.10142687
000060 2c 4a d1 bb c5 8f 8e 3e c0 bd 85 be f8 c8 88 3e
       -0.006387016 0.27844062 -0.2612133 0.26715827
000070 86 d6 f2 3d 9b ae 61 be 52 3d 69 bd cd 2f 6f 3e
       0.11857323 -0.22039263 -0.056943245 0.23358078

pointwise.weight f4 [64, 32, 1, 1]
000000 7e 21 40 3e 5f 9d 47 3d 67 80 74 3e 78 98 46 3e
       0.18762776 0.048734065 0.23877107 0.193941
000010 d6 ea 8a bd a8 1f 3f 3e a3 2a 20 3e 0d e3 ce bc
       -0.06783073 0.1866442 0.15641265 -0.02525475
000020 ab 02 59 bd 29 10 50 3e 1f 05 ad bd 81 71 c2 3d
       -0.05298106 0.20318665 -0.084482424 0.094943054
000030 ae b7 94 bc 66 84 0c 3e b3 56 a5 3d fe 1d 9d 3d
       -0.018153992 0.13722381 0.08073177 0.07671736
000040 42 a0 34 3e b7 10 21 be 78 ee 08 bd 8e 5c 84 bd
       0.17639259 -0.15729032 -0.033430547 -0.06462966
000050 8c a9 e5 3d 6e 69 f8 3d a9 6a b4 bc 3c 9a 82 bd
       0.11213979 0.12129484 -0.022023516 -0.06377074
000060 73 0c bb 3d 76 7b 17 be db d3 0a bd f7 e7 86 3d
       0.09133234 -0.1479319 -0.033893447 0.065872125
000070 8f 64 e6 3c 6d ae 3f 3d 96 80 ec bd f7 a4 8f 3b
       0.028124122 0.046797205 -0.11547963 0.004383679
000080 02 66 13 be 96 8d de bc 8a ce 25 be 2e cd de 3d
       -0.14394382 -0.027167123 -0.1619207 0.10878979
000090 34 6f 79 bd 6f 48 51 be 7d 84 bc bd 4f 93 be 3d
       -0.060897067 -0.20437787 -0.09204958 0.09305441
0000a0 ab 23 ef bd 4c 7d a8 3d a4 35 75 3d 86 af 6b bd
       -0.11676725 0.082270235 0.05986561 -0.05754044
0000b0 ca 32 0b bd d8 2e 4f 3a 9e d8 ba bc ba 4b ba bc
       -0.033983983 0.00079034036 -0.02280837 -0.022741187
0000c0 9e 1a fe 3d 8a e4 80 bd 50 0b c3 3c 52 ac b5 3d
       0.124074206 -0.0629359 0.023809105 0.08870758
0000d0 f2 83 bc bc 3f a2 12 be f5 00 90 bc 9b 9e 13 3e
       -0.023012135 -0.14319704 -0.017578581 0.14415972
0000e0 e0 44 e9 3d f5 ee b7 3d 99 84 8d 3d 23 a5 ef bb
       0.1139009 0.08981124 0.069100566 -0.007313387
0000f0 65 a2 ac 3d 55 b8 56 3d c6 d9 01 bd a0 31 b0 3c
       0.08429412 0.052421886 -0.031701826 0.021508038
000100 5a 5c 93 bd 36 55 48 3d f0 6a d3 bd b2 cd eb 3d
       -0.07195349 0.04890939 -0.10323131 0.11513843
000110 06 8f dc 3d ae ca 1b 3e ec d3 07 be 80 e8 b5 3d
       0.10769467 0.15214035 -0.13264436 0.088822365
000120 8b 60 d5 bd 1f d9 20 3d b7 14 e2 3d 25 ab 14 3e
       -0.10418805 0.039269563 0.11039107 0.14518411
000130 de b3 72 3d 82 23 11 be 3f 15 e0 3d c5 3e 47 bc
       0.059253566 -0.14173701 0.10941552 -0.0121609615
000140 0f 42 2a 3e 9f 11 ff bd 01 fd 3b 3d 93 fb 05 3c
       0.16626762 -0.12454533 0.04589558 0.008177656
000150 c2 bb 25 be b7 ee 99 3c b6 c2 d5 3c 23 43 b2 3c
       -0.16184905 0.018790586 0.026093822 0.021760529
000160 e0 7c 49 bd b5 ed ff bd ee bc a7 bd 5b cb 34 bd
       -0.049191356 -0.12496511 -0.08190332 -0.044139247
000170 20 3d 2a 3e df d4 22 be 5d c9 7b bb 3f 27 62 3d
       0.1662488 -0.15901516 -0.0038419582 0.05521321
000180 38 c5 29 bd c8 44 2f 3d 59 82 8e bd 17 f1 5e bd
       -0.041447848 0.042790204 -0.069584556 -0.05442914
000190 79 b2 f4 3c 59 7a cf bc bf f1 04 bd 6f 42 22 3e
       0.029870259 -0.025326895 -0.03245711 0.15845655
0001a0 f6 3a 63 be 20 7f 14 3e 72 14 c2 3d 85 31 fe bd
       -0.2219046 0.1450162 0.09476556 -0.12411789
0001b0 f7 cd e9 3c 24 33 4b bd bc 8f a6 3d 0b 7e 3e bc
       0.028540595 -0.04960932 0.08132884 -0.011626731
0001c0 86 51 d4 3c 7e d4 df bd 55 78 0d 3e 36 ec 1d 3e
       0.02591778 -0.109292015 0.13815434 0.15422139
0001d0 7d e0 03 be 88 86 91 3c 40 03 e7 bd 66 7f 11 bc
       -0.12878604 0.017764345 -0.11279917 -0.008880472
0001e0 9c c9 46 be 76 f8 cb bd 85 7f 82 bd a9 47 04 be
       -0.19412845 -0.099594995 -0.06371979 -0.12917961
0001f0 15 f4 89 bc 93 5d 25 3e 02 e0 44 be 17 14 31 bc
       -0.01684002 0.16148977 -0.19226077 -0.010808012
000200 e6 33 a0 3d 3b c9 72 bd 80 85 73 3d 61 00 61 be
       0.07822399 -0.05927394 0.059453487 -0.21972801
000210 bc 72 21 3e 6c 12 c2 bd f3 7f d0 bd 41 16 52 bd
       0.15766424 -0.0947617 -0.101806544 -0.051290754
000220 2e ee 51 be b0 df 90 3c 84 1e 89 be 98 b8 9d 3d
       -0.20501015 0.017684788 -0.26781094 0.07701224
000230 e6 85 14 bd 1c ce 1a bd 87 06 33 3d 73 2a d0 3d
       -0.036260508 -0.037794217 0.043707397 0.101643465
000240 b7 e8 29 3d 5f 9b 13 3d f2 1f 0e be ad c5 d2 bd
       0.0414817 0.036036845 -0.13879374 -0.1029161
000250 3d 8d 17 3e b7 75 a4 3c 12 83 2e bd a5 7f 7d bd
       0.14799972 0.020075662 -0.042605467 -0.06188931
000260 47 5e 57 3e b0 35 9d bd 58 14 23 3e 12 f9 08 be
       0.21032058 -0.07676256 0.1592573 -0.13376263
000270 55 e8 34 3d ac d0 b9 bb ea a9 75 3e 17 88 0d be
       0.04416688 -0.0056706276 0.23990598 -0.13821445
000280 f8 84 d4 bc 56 d2 84 3c 46 cf 9a ba 7d a3 24 be
       -0.02594231 0.016213577 -0.001181104 -0.16077991
000290 69 13 e1 3c 10 e2 90 3d b6 c1 9c bd 02 db 33 3d
       0.027475076 0.07074368 -0.07654135 0.043910034
0002a0 e2 67 7b 3e c5 34 76 bc 1a ec fb bd c2 b0 8f bd
       0.24551347 -0.01502723 -0.12300892 -0.07016136
0002b0 a7 69 cd bc 45 28 aa 3b 06 e9 c7 bd a1 7e ed 3c
       -0.025074793 0.005192789 -0.097612426 0.028991045
0002c0 df 38 b3 bd 42 f7 35 be ad 07 19 be e9 a8 e2 bd
       -0.08751082 -0.17770103 -0.14944334 -0.11067373
0002d0 e8 3c cd bd 65 3f 3f be 43 de e1 3d a3 42 3b be
       -0.100213826 -0.18676527 0.11028721 -0.18287139
0002e0 7c e7 96 3d b6 81 0e be 65 98 0e 3c 85 f0 34 3e
       0.07368371 -0.13916668 0.008703326 0.17669876
0002f0 4d f2 b8 3d 27 38 54 3e 3c d0 05 3e 65 31 82 3c
       0.0903059 0.20724545 0.13067716 0.015892694
000300 a3 72 a3 3d 01 51 ad 3d 91 4b 51 3d 01 8f 88 bd
       0.079808496 0.08462716 0.051097456 -0.06667901
000310 60 e6 05 3c d7 48 61 3d 7f 9d 83 bd cf b3 34 3b
       0.008172601 0.055001106 -0.06426524 0.0027572995
000320 a0 89 4a 3e a0 60 47 be 59 29 eb 3d 42 84 23 be
       0.19779062 -0.19470453 0.11482496 -0.15968421
000330 f4 14 9f bd 74 e9 3f bd ad bb 9c 3d 80 66 da 3c
       -0.07767668 -0.046853498 0.07652984 0.026660204
000340 0b ef 43 bb 3f b2 7f 3e 3f 30 fd bd fc bf da bc
       -0.002989712 0.24970339 -0.12362718 -0.026702873
000350 ed 51 cf 3c a3 d2 58 3d ef a3 39 be c0 24 d2 bd
       0.02530762 0.052935254 -0.18128942 -0.10260916
000360 13 19 56 3c 02 25 75 bd 0a 88 04 3e 52 41 05 bd
       0.013067502 -0.059849747 0.1294252 -0.032532997
000370 10 d2 51 bd 42 11 cf bd 9c 1f 99 bd 14 f3 4c 3d
       -0.05122572 -0.101107135 -0.07476732 0.050036505
000380 96 21 f0 3c 9f 8e 12 3e 14 6d ea bc 0d 80 3d be
       0.02931289 0.14312218 -0.028616466 -0.18505879
000390 aa 0f a4 3d 1d f6 6b 3d 7f 09 1c be 74 38 15 be
       0.080108 0.05760776 -0.15237997 -0.14572316
0003a0 a3 0a 35 3e 8f 9b d2 bd cd 6f 75 be 5f f4 b5 bc
       0.17679839 -0.10283577 -0.2396843 -0.022211252
0003b0 ab 8f 38 3e df 20 ea 3c b5 3f d9 3e fc b1 98 3c
       0.18023555 0.028580127 0.42431417 0.018639557
0003c0 06 cc d0 bd b9 af 26 be 98 9b f1 3b 9b 78 62 bb
       -0.101951644 -0.1627797 0.0073732845 -0.003455675
0003d0 01 22 42 bd f8 b5 b3 bc 06 de d1 bd 24 18 42 be
       -0.04739571 -0.021937355 -0.10247426 -0.18954521
0003e0 1b 29 54 3e 68 54 ad bd a4 04 db 3d e5 62 ce 3d
       0.20718805 -0.08463365 0.106942445 0.100774564
0003f0 03 41 bd bd a1 2b d3 ba 82 a9 25 3e a2 3e 06 bd
       -0.092409156 -0.0016111025 0.16177943 -0.032774575

pointwise.bias f4 [64]
000000 ad 8c 99 3d bf 0b 4b 3d 8f f1 88 3d db 15 16 3e
       0.07497535 0.04957175 0.06686699 0.14656775
000010 ed b7 a1 3d 52 84 cb 3d ee 9b f8 bd 7d e2 b1 bd
       0.07896409 0.099373475 -0.12139116 -0.08685777
000020 c2 97 2a 3e d5 16 71 bb 97 64 05 be d9 fd 91 bd
       0.16659454 -0.003678729 -0.13026653 -0.07128496
000030 b6 1a 1c 3d 22 3a c2 bc ff 04 04 3e f1 f1 cc 3d
       0.03811141 -0.02370936 0.12892531 0.10007084
000040 31 ee 49 bd c9 f5 fe bd 12 2b 8d 3b 4b 47 2d be
       -0.049299423 -0.124492235 0.004308113 -0.16921727
000050 33 06 15 be b7 21 32 3e 91 38 8d 3d e0 02 9e bd
       -0.14553146 0.17395674 0.06895555 -0.07715392
000060 7f 7f 39 3e 34 5c e3 bb 7e d8 c2 ba a7 31 d6 3b
       0.18115042 -0.0069384817 -0.0014865545 0.0065366807
000070 e6 37 48 3d e2 79 d5 bc 52 9e cd 3d dd b8 c6 bd
       0.048881434 -0.026059095 0.10039963 -0.097032286
000080 0c 31 16 3e 79 19 b7 3c 65 4e 7b bd 1e 97 38 3d
       0.14667147 0.022351013 -0.06135406 0.04506599
000090 74 ad 37 bc f4 64 a3 3d 3e d3 59 3d e5 c5 6a 3d
       -0.011210788 0.0797824 0.053179972 0.057317633
0000a0 9b 2e 33 3e d0 d3 db bd 30 ae 3b 3d 38 a8 1a 3e
       0.17498247 -0.107337594 0.045820415 0.15103233
0000b0 29 71 9c bd 88 73 11 3e 5e 64 f1 b9 56 3e 21 be
       -0.07638771 0.14204228 -0.0004604188 -0.15746436
0000c0 12 83 b9 bd 24 09 07 be 34 45 b9 3d 09 a2 5c 3e
       -0.09058203 -0.1318708 0.090464026 0.21546187
0000d0 05 24 b1 3d 06 df 0b be f3 9c 4d bb b0 89 85 bd
       0.08649448 -0.13659295 -0.0031374067 -0.065204024
0000e0 1e 5d 28 be 59 02 eb 3d a5 13 9a bd cc 0d dc 3d
       -0.16441771 0.11475057 -0.07523278 0.10744819
0000f0 86 49 0b bd 1b a4 32 3c 48 e0 34 be a9 63 e1 bd
       -0.034005664 0.010903384 -0.17663682 -0.11005337

fc.weight f4 [2, 1024]
000000 af af cb 3c 09 36 42 3d f0 1d 43 3d 3b 9f 56 bc
       0.024864046 0.047414813 0.047635972 -0.013099487
000010 25 13 6e 3b d8 99 25 3c 2d 79 45 3d 41 5d 45 3d
       0.003632733 0.01010748 0.048211265 0.048184637
000020 a3 73 26 3c e5 ab 23 bc 36 0a 00 bc fb 14 16 3d
       0.010159406 -0.009989713 -0.0078149345 0.036641102
000030 53 25 cc 3c e7 f6 15 bc 15 4e 94 3d f4 0b 83 3d
       0.024920141 -0.009153104 0.072414555 0.06398764
000040 e7 8a d9 3c ba f8 0f 3d f5 07 3d 3c 90 9b 23 bc
       0.026555492 0.035149314 0.011537542 -0.009985819
000050 5e dd 08 bd cc ad 1f bc cf 51 80 3c 94 4b 09 3d
       -0.033414237 -0.009746026 0.01566401 0.033519343
000060 3c cd 4a 3d e0 62 b6 3d 10 0f c5 3c fa f8 a6 bc
       0.049512133 0.08905578 0.024055034 -0.020382393
000070 b8 e4 12 3c 54 cc 73 3c b7 ad 3b bd bb 96 6d bd
       0.008965664 0.014880259 -0.045819964 -0.058005076
000080 77 69 89 3c 00 78 51 3c 92 c0 bb 3c a9 7f 01 3d
       0.016773922 0.012784958 0.022918973 0.031615887
000090 81 a0 0f 3d c9 7c 8e bb 81 ac 75 3b f9 29 d6 3c
       0.035065178 -0.0043483716 0.0037486854 0.026143061
0000a0 5d e4 d1 3c ed fb d7 3b 04 96 8e 3c 89 01 33 3d
       0.025621587 0.006591311 0.017405517 0.043702636
0000b0 e3 7a 8d bb c2 74 8d 3c 44 88 42 ba 97 10 44 3d
       -0.0043176278 0.017267589 -0.0007420818 0.047867384
0000c0 31 d7 db 3a 8a 28 8a 3c 4a cd bb 3c 4d 83 ad bc
       0.0016772506 0.016865034 0.022925038 -0.021180773
0000d0 86 21 4f 3d 80 86 82 3d 23 6d 0d 3d 80 7f 25 bc
       0.05056908 0.0637331 0.03452791 -0.010101199
0000e0 9a 6d 5e 3d 8a 62 06 3d c8 85 df 3c 17 91 18 3c
       0.054303743 0.032808818 0.027285472 0.009311936
0000f0 d8 44 1f 3c 94 27 6c 3c d1 1b 18 3c b0 d7 a3 3c
       0.0097210035 0.014413733 0.009283976 0.020000309
000100 f4 49 a7 bd 01 ce aa bd c4 4c ba bd 1c b2 59 bd
       -0.08168402 -0.083400734 -0.09096673 -0.053148374
000110 53 ac c1 bd 2b 02 79 bd 5f f4 b9 bd 3b 44 a3 bd
       -0.09456696 -0.060793083 -0.09079813 -0.07971998
000120 e7 6c d7 bd 33 b8 57 bd 68 1f 03 bd de 76 35 bd
       -0.10518818 -0.0526659 -0.032012373 -0.044302814
000130 7e fc 39 bd a5 24 8f bd 0d 41 72 bd e3 5e 86 bd
       -0.04540681 -0.06989411 -0.05914407 -0.06561067
000140 1c 5f 41 bd 47 ea 33 bc cd 98 33 bd c5 f9 86 3c
       -0.047209844 -0.010981149 -0.043846894 0.016476521
000150 2f 07 23 bd 7a 90 79 bd 6d 66 79 bd a5 b8 dc ba
       -0.039801773 -0.0609288 -0.060888696 -0.0016839696
000160 ab 7b 2d bd 6c a8 86 bd ab 09 a6 bc 14 8b 07 bd
       -0.042354267 -0.06575093 -0.020268282 -0.03309162
000170 98 2d e5 bc 52 a8 85 bd 44 60 14 bc 6c ad 43 bc
       -0.027975842 -0.06526245 -0.009056155 -0.0119432025
000180 cd b0 8e bc 8c 52 a6 bd a8 db 5e ba 09 61 23 3c
       -0.01741829 -0.08121213 -0.0008501359 0.009971865
000190 1d 60 73 bc ab 73 b6 bc be 39 c2 bc d3 2f 04 bd
       -0.014854458 -0.022271952 -0.023709174 -0.03227217
0001a0 d8 0e b1 bd a3 30 ac bc 86 1e 90 bb e1 d2 a4 3c
       -0.08645409 -0.021019286 -0.00439817 0.020120086
0001b0 49 60 28 bc 6f d8 a8 bd 1e d8 86 bc 8e f0 89 3c
       -0.010276862 -0.082444064 -0.016460475 0.016838338
0001c0 bc 8e 9b bc d7 0d f3 bd f2 6e d4 bd 7e 91 29 bd
       -0.01898896 -0.11867874 -0.10372724 -0.041398518
0001d0 df 89 5e bd 82 ee 2a be 1d 63 2b be 8a 59 a7 bd
       -0.054330703 -0.16692546 -0.16737027 -0.08171375
0001e0 73 71 c9 bd c7 f2 0c be 0b 56 18 be 23 c0 a5 bd
       -0.09836092 -0.13764487 -0.14876573 -0.08093288
0001f0 ab de 7f bd 1f 5b 2f be e2 7b ac bd 9d 8a be bd
       -0.062468212 -0.17124604 -0.08422066 -0.09303782
000200 5c 75 e8 3c d3 85 39 3c 99 95 45 3d fe 9f 48 3d
       0.028376274 0.01132341 0.04823837 0.048980705
000210 73 ab eb bc 9c b9 e0 3b 3e 54 34 3d 79 88 24 3c
       -0.028768277 0.006858064 0.044025652 0.010042303
000220 9a 95 27 3d 6b fa 96 3d 63 03 f2 3c 56 2a 37 bc
       0.040914156 0.07371982 0.02954263 -0.011179527
000230 89 ee 1e 3c 0f ca a9 ba 34 86 61 3c 6e 8f fb bc
       0.009700426 -0.0012953895 0.013764907 -0.030708041
000240 51 2f 8f bc 86 2d 1f bc 59 ae 30 bd 47 5a e8 3c
       -0.017478617 -0.0097154435 -0.04313502 0.02836336
000250 fb 93 2f bc 0c cb 80 bd 34 ac 46 bd 65 aa 63 3d
       -0.010716434 -0.06288728 -0.04850407 0.055582423
000260 33 85 53 bc 27 27 41 bd 4a 36 60 bd f4 83 94 bb
       -0.012910175 -0.04715648 -0.054739274 -0.0045323316
000270 ec 29 ed bb b7 82 28 bd 57 0a 15 bd 57 fb c2 bc
       -0.0072376635 -0.041140284 -0.036386814 -0.023801489
000280 b0 0c f2 bc fc 14 49 bd b7 33 7a bc 34 79 d5 bc
       -0.029547065 -0.049092278 -0.015271119 -0.02605877
000290 97 56 8b bd d0 31 9d bc 47 8e 02 bd f2 95 5c bd
       -0.06803625 -0.019188792 -0.031873967 -0.053853936
0002a0 fc af 64 bd 70 d4 26 bd 4b 3c ad bd 8d 4d 6e bd
       -0.055831894 -0.04072994 -0.084587656 -0.058179427
0002b0 14 c3 47 bd 3c b9 61 bd fe ab 6a bd 34 14 42 bc
       -0.048770025 -0.055108294 -0.05729293 -0.011845637
0002c0 64 b3 67 3d 95 1e 37 3d 73 bb 4b 3d 73 4d a8 3d
       0.056567565 0.0447069 0.049739312 0.08217897
0002d0 02 e4 7d 3d 19 5b c5 3d 5f 1a da 3d 10 67 0f 3d
       0.061985023 0.09636516 0.10649561 0.035010397
0002e0 93 0d 95 3d 32 fc 79 3d 22 6c 02 3c da 29 63 3d
       0.0727798 0.061031528 0.007960351 0.055459835
0002f0 83 81 4f 3d 93 52 96 3c 6f 7d 45 3d e2 f4 6a 3d
       0.05066062 0.018349921 0.048215326 0.057362445
000300 2d 39 99 b8 45 91 85 3c d8 ac cf 3c 69 04 d4 3c
       -7.306258e-05 0.016304621 0.025350973 0.02588101
000310 c7 cc 71 3c 0e fb b8 3d 4c 34 8e 3d 3e 61 5c 3d
       0.014758295 0.0903226 0.069435686 0.053803675
000320 8d ab 6a 3d cd b7 c6 3d 39 34 a0 3d 29 a8 bb 3d
       0.05729251 0.09703026 0.07822461 0.091629334
000330 1d 09 aa bb 74 4e 22 3d 26 11 9f 3c 1c d7 73 3d
       -0.0051890747 0.0396256 0.019417357 0.059531316
000340 74 59 cc 3d dc 4b db 3c 4e ee ae 3c 94 35 ad 3d
       0.09977999 0.026769571 0.021353867 0.08457485
000350 ea 3c 91 3d e2 b0 92 3c 15 88 9a bd 77 de 50 bb
       0.070916966 0.01790661 -0.07545487 -0.003187088
000360 a7 d0 7f 3d d8 a5 70 bd 78 c1 fd bd 42 75 4e bd
       0.062454846 -0.05875191 -0.12390417 -0.050404795
000370 70 25 6f 3c fd c4 4d 3d 87 ed 08 bd e7 41 78 bd
       0.014596328 0.05023669 -0.03342965 -0.060609724
000380 4f 22 cb 3b 75 f6 87 bd 3c fb a7 bd b9 77 bb bd
       0.0061991583 -0.06638805 -0.08202216 -0.09153695
000390 62 46 87 bd 83 81 ae bd 11 7a b9 bd a4 9e 06 bd
       -0.06605221 -0.08520796 -0.090564854 -0.032866135
0003a0 f2 dd 15 bd b5 91 de bd ac 23 5a bd a9 be 94 bc
       -0.036588617 -0.10867635 -0.053256676 -0.01815732
0003b0 8c 8d 05 bd ed 30 d2 bc 07 5e c1 bc fe bd 72 bd
       -0.032605693 -0.025658095 -0.023604406 -0.059263222
0003c0 84 6b ae bc 73 29 94 bd 9a 81 7e bc ac 7c 70 b9
       -0.021291502 -0.07234468 -0.015533829 -0.00022934627
0003d0 ba a5 9d bc 85 b8 80 bd f5 1e 94 bd ba ec 5e bd
       -0.019244064 -0.06285194 -0.07232467 -0.05442498
0003e0 71 5d 88 bd 7d e8 ef bd fc d6 bc bd 69 2b 92 bc
       -0.066584475 -0.117142655 -0.092206925 -0.017842965
0003f0 fe 6b 6e bd c1 f4 ba bd 31 ab 14 bd 31 07 10 bd
       -0.058208458 -0.09128714 -0.036296073 -0.03516311

fc.bias f4 [2]
000000 2d ab 83 3b f3 91 ec 3b
       0.0040182085 0.007219547
