model/CNN/saved_models/split_pad3_patch50/smallcnn4_fold5_pad9_patch50.pth (torch, 35659 bytes, 12 tensors)

conv1.weight f4 [32, 10, 3, 3]
00000000: da73 d6bd e5d3 14be 02bc a83c 4c39 54bd
00000010: 1d30 abbd 9494 07be 1446 94bd 3a0c bebc
00000020: a4a1 bebd f8cf 2dbd 43b6 ab3d 8b38 99bc
00000030: 48fe 863d 2602 a93d ed76 9b3d 55bc 03bd
00000040: 8441 bd3c cb40 e43d 372d e1bc 8b60 fe3d
00000050: 01cc bd3c 58e5 59bd a966 013e 7c57 113e
00000060: ae63 853d 0ccb 883d 9ef8 e1bb c506 223d
00000070: c8a0 80bd 0029 68bd b2de e0bd 53a1 aa3c
00000080: 5f98 0dbe 46a5 bf3b 1b21 fcbd 8ede 9c3d
00000090: 5d25 9bbd 1074 4b3d e687 26bd 67fe 943c
000000a0: 9353 523b 7697 cfbb efbb 653d 2960 f8bd
000000b0: fba1 c23b 24df a63d 566b b73b 325c 11bc
000000c0: a782 4fbc 0dff 7cbc 1636 813b 3378 883d
000000d0: 2c45 6bbc 7c94 bcbc 9a90 a1bd 5a87 8e3d
000000e0: b73b a4bb dff3 733d a135 44bd 53b1 e0bc
000000f0: 1761 703d fd1f 553d 43ce 4cbd 39bc 48bd
00000100: 9295 2abd b521 fb3b dd90 52bc 4ca1 223c
00000110: b1a3 b739 2b1d bdbd 76a8 8f3c 1876 93bd
00000120: d92a e03d 1dd7 a2bb 8ea5 b0bb be85 c03b
00000130: 0436 b03c deee d83d 69a1 95bc cb4c fa3b
00000140: cad3 c43d 43ee 8abc 6b76 483d 0837 893d
00000150: ba73 5cbd 0715 d3bc c288 f43c 5652 2e3d
00000160: 0cfa cb3d 9bd1 973a 84bc c2bd 4d0c c7bd
00000170: 848b 45bc 8111 9bbd 448a 8bbd b2ee 14be
00000180: 59b0 acbd 8f2c 2bbd 0096 c2bd 6828 73ba
00000190: 3c5c 983d a0a5 14bd f60d e6bc 9e71 a4bc
000001a0: a77a 933d 3df0 d2bb 7f56 fc3c cd49 e6bc
000001b0: b93a 6e3c f125 04bd c22f ed3d 7123 833d
000001c0: 6dd5 ba3d c045 fdbc 1cd4 ae3d 8880 8a3c
000001d0: 7950 223d 440a cfbc 0339 8a3d df21 583d
000001e0: a068 98bc 10bd 7fb9 7bec 15bd 6818 003d
000001f0: 7c15 bc3d 3251 9dbc fcba 7bbd 8038 bf3d
00000200: eaa0 943d a189 bd3d 32d4 2c3d b5a6 cbba
00000210: 15cc 8c3c 989b 66bd 292a bc3d a233 ef3d
00000220: 0c33 73bc 995a 02be 6284 213d f4e1 1cbe
00000230: f074 46bd 9ea9 afbc 1c40 983c 293f 92bd
00000240: 3851 af3c e389 a638 1147 bcbd 4c9f 1abd
00000250: e663 a3bc 9f9a 02be 10cb b0bd 17b4 4c3d
00000260: cdc6 29bd 0e88 ee3d 0f33 9bbd 808b 8d3b
00000270: c898 e1b9 8016 0fbd 1420 97bc dc52 92bd
00000280: 6d2f 463c 57fd e1bd 0e8e c6bd faf5 563d
00000290: 8259 50bd 728e 4dbd 401a f93c 1fbb 733d
000002a0: b63a 803d e155 523d 28ef bd3c 5c69 2e3d
000002b0: 452a 163b e2c6 d53c 568f 913c e0ff 58bd
000002c0: 573f 2fbd 9654 aa3d fa58 97bd 4209 43bd
000002d0: c9f1 b1bc 442c 8bbc 8c98 37bd ef1a e7bd
000002e0: a787 a73d dbd8 debb aaf8 0f3d 6210 903c
000002f0: dc5a 513d 1a8a 6dbd 5905 92bd 6e0c bdb9
00000300: 4ad8 b73d 008e 9bbc 9ea5 49bd d589 893c
00000310: 06cd edbc f025 95bc e8cf f1bd 9ee4 fcbd
00000320: ea76 8ebd 53ce 0dbe dd3a 4d3d 34c8 75bd
00000330: 0352 0dbe c041 10be e2ce c8bd 8173 6cbd
00000340: 7b80 f93d e260 283a 62ef 9ebc e62e 413d
00000350: 7482 d43d 0274 b3bc 7993 b43c 17d2 6bbd
00000360: b8a3 493c 88b3 91bd 56b1 83bd 82de 553d
00000370: ed86 98bd 45d7 f4bc 90ee afbc 3aab c43c
00000380: 7766 f1bc 5d77 97bd 50e7 83bd 47a3 38bd
00000390: 9daf 4dbc 4889 08bc b269 d9bc 72d3 c9bc
000003a0: 9822 a8bd 1046 c03d 83d7 03be 54b0 323d
000003b0: 0fc6 24bc dab8 d33c d1bb a9bd ce48 64bd
000003c0: 6936 a43d d1b8 00bc a358 dbbd 946b 06bd
000003d0: eb1f afbd 4e11 f1bd cb11 f9bc a8aa edbd
000003e0: b06e 29bd 9169 c0bd 1738 fdbc 7445 993d
000003f0: 053a b33d 00d6 763c e5d9 9d3d eb77 f53d
-0.10471316 -0.14533956 0.020597462 -0.051812455 -0.08358786 -0.13240272 -0.07239929 -0.02319919
-0.09308174 -0.042434663 0.08384373 -0.01870372 0.06591469 0.08252363 0.07591043 -0.03216203
0.02310253 0.11145171 -0.02748738 0.12420758 0.023168566 -0.053197235 0.12636818 0.14193529
0.06513153 0.06679353 -0.0068960926 0.039557237 -0.062806666 -0.056679726 -0.10979976 0.020828879
-0.13827656 0.0058485596 -0.12311002 0.076596364 -0.07575486 0.049671233 -0.040656947 0.018187715
0.003209327 -0.006335194 0.05608743 -0.12127716 0.0059397197 0.081480294 0.0055975122 -0.008872079
-0.012665427 -0.015441668 0.003943215 0.06663551 -0.014359754 -0.023020022 -0.07888909 0.0695941
-0.0050120014 0.059558745 -0.047902707 -0.027428305 0.058686342 0.05203246 -0.050001394 -0.049007628
-0.041646548 0.0076639303 -0.012851921 0.0099261515 0.0003502644 -0.09234079 0.017536383 -0.07200259
0.109456725 -0.004969491 -0.0053908294 0.0058753183 0.021510132 0.10592435 -0.018265443 0.007638549
0.09610708 -0.016959315 0.048941057 0.066999495 -0.053821303 -0.025766863 0.029850367 0.04255899
0.09959802 0.0011582853 -0.09508613 -0.09719143 -0.012057189 -0.07571698 -0.068134815 -0.1454418
-0.08432073 -0.04179054 -0.095012665 -0.00092757354 0.07439467 -0.036290765 -0.028082829 -0.020073708
0.072011285 -0.00643733 0.030802963 -0.028111363 0.014540368 -0.032262746 0.11581375 0.06403244
0.09122739 -0.030917048 0.085365504 0.016906992 0.039627526 -0.02527345 0.06749155 0.052766677
-0.018604577 -0.00024389126 -0.03660248 0.031273276 0.09183785 -0.019203756 -0.06145762 0.093369484
0.072572544 0.09254766 0.042194553 -0.0015537353 0.017187158 -0.05630073 0.09187729 0.1167977
-0.0148437135 -0.12729873 0.03943289 -0.1532057 -0.048451364 -0.021443184 0.018585257 -0.07140953
0.021401033 7.94118e-05 -0.09193242 -0.037749574 -0.019945096 -0.12754296 -0.08632481 0.049976435
-0.041449357 0.11647044 -0.07578098 0.004319608 -0.00043029175 -0.034933567 -0.018447913 -0.071447104
0.012096268 -0.11034649 -0.096950635 0.052480675 -0.05086661 -0.050184675 0.030408025 0.059504624
0.06261198 0.05135143 0.023185328 0.042580947 0.0022913378 0.026095811 0.017768543 -0.052978396
-0.042785015 0.08316915 -0.07390018 -0.04761625 -0.021721737 -0.016988881 -0.044823214 -0.11284434
0.081801705 -0.0068007535 0.035149254 0.017585937 0.05111204 -0.057993032 -0.07129926 -0.0003605815
0.08976801 -0.01898861 -0.04923021 0.016789356 -0.029028427 -0.018206567 -0.11807233 -0.12348293
-0.06956275 -0.13848238 0.050104965 -0.06000538 -0.13800816 -0.14087582 -0.09805085 -0.05772734
0.12182709 0.0006423128 -0.019401256 0.047163866 0.103764445 -0.021905903 0.022042977 -0.057573404
0.0123071 -0.07114321 -0.064303085 0.052214153 -0.0744761 -0.029887805 -0.02147606 0.024007428
-0.029467804 -0.073958136 -0.06440604 -0.04507759 -0.0125540765 -0.008333512 -0.026539657 -0.024636958
-0.08209723 0.09388363 -0.1287518 0.04362519 -0.0100569865 0.02584498 -0.08287776 -0.055733494
0.080181904 -0.007856564 -0.107102655 -0.03281744 -0.0855101 -0.11770879 -0.030403992 -0.11604816
-0.041365325 -0.09395135 -0.030910535 0.0748395 0.08751301 0.01506567 0.07707576 0.11985763

conv1.bias f4 [32]
00000000: 1cab 773d e773 a93d 9eb7 973c 5ddc a0bd
00000010: ce0a 213d fa52 14ba bee9 a03d 57a5 babd
00000020: b5fb 4bbc 0996 b73d 0830 ba3b a0ec 653d
00000030: bc43 833d 8f40 ca3d 189e c3bd 077d 1fbd
00000040: b8e2 d13d 0656 51bd f69f d0bd 3f29 83bd
00000050: 2d9b 38bd c64d bdbc 62d3 683b 379c 8fbc
00000060: 4cd3 65bd f845 9a3d e985 97bd ff13 44b9
00000070: 7636 bbbd d78b 943d a9b0 413d 4054 bfbc
0.060465917 0.0827406 0.018520173 -0.07854531 0.039316945 -0.00056581164 0.07857083 -0.09113567
-0.012450148 0.08964164 0.0056819953 0.056133866 0.06409404 0.09875595 -0.09551638 -0.038937595
0.10248321 -0.05110743 -0.1018676 -0.064043514 -0.045069862 -0.023108374 0.0035526385 -0.017530544
-0.05610971 0.07532877 -0.07398588 -0.00018699466 -0.09141247 0.07253235 0.047287617 -0.023355603

bn1.weight f4 [32]
00000000: fdd4 853f 0d67 863f 05f1 823f 12d4 833f
00000010: a35e 833f aa00 823f 74da 823f ebbd 843f
00000020: 1f17 863f 9624 813f d1b8 823f 086f 833f
00000030: 1837 803f 60d5 813f 478a 7f3f df00 873f
00000040: ba08 823f 02d3 823f fb55 833f 3dc8 833f
00000050: fc52 7f3f 005c 803f 84b5 803f dadf 843f
00000060: 8aec 7c3f 7054 823f 49c1 813f 1a27 853f
00000070: f2d6 853f 7ee8 653f bfb6 793f af7e 853f
1.0455624 1.0500199 1.0229803 1.0299094 1.0263256 1.0156453 1.0222917 1.0370458
1.0475806 1.008929 1.0212651 1.0268259 1.0016813 1.0143242 0.9982037 1.0547141
1.0158913 1.0220644 1.0260614 1.0295483 0.99736 1.0028076 1.0055394 1.0380814
0.9879843 1.0182018 1.0137111 1.0402558 1.0456221 0.8980788 0.97544473 1.0429286

bn1.bias f4 [32]
00000000: fadb 39bc a5d5 6cbc c36a e2bb 1aad a53c
00000010: c4b0 d93b b9e9 d4bc 0933 b43c 5375 99bc
00000020: 94aa 0e3c b6c8 0cbb 89da 06bc 90df 11bd
00000030: f1d3 a7ba f90b 6abc b716 cebc 03b8 21bc
00000040: 083f 283c aafd 29bb 093f 07bc 6579 b13c
00000050: ca97 bcbc c441 f9bc 5900 2dbc ed72 013d
00000060: 1ce4 71bd 8a74 48bc 13bf 673c f632 27bd
00000070: 87b5 e33c 3456 37bd 95e3 90bc 37e6 003c
-0.01134395 -0.014455234 -0.0069096996 0.020224143 0.0066433866 -0.025990354 0.021996992 -0.018732702
0.008707661 -0.0021481938 -0.008230814 -0.035613596 -0.0012804252 -0.014285081 -0.025157316 -0.009870532
0.010268934 -0.002593855 -0.008254775 0.02166433 -0.023021597 -0.030426867 -0.010559165 0.031603742
-0.059055433 -0.012234816 0.014144677 -0.040820085 0.02779652 -0.044759944 -0.017686645 0.0078673875

bn1.running_mean f4 [32]
00000000: 2ff9 763d 9aa6 a73d 8fee 9b3c b0d4 9ebd
00000010: f638 213d 9333 76ba c02c a13d 50b4 b9bd
00000020: ef8c 46bc ce14 b93d 2162 c73b 18cf 643d
00000030: 8ed7 833d 228a cb3d e57b c5bd 0c5f 20bd
00000040: 9df2 cf3d 398e 4dbd bf76 d0bd a45e 84bd
00000050: bd0e 3cbd 9255 c1bc c39e 3f3b aae3 87bc
00000060: c6ab 65bd 8c68 9b3d 964e 96bd 83af 16ba
00000070: feb7 b9bd 1eca 973d 43cd 413d b068 b7bc
0.060296234 0.081860736 0.019034652 -0.07755411 0.039360963 -0.00093918404 0.078698635 -0.09067595
-0.012118562 0.09037171 0.006084696 0.055861562 0.06437598 0.09938456 -0.09642772 -0.039153144
0.10153697 -0.050184462 -0.10178899 -0.06463364 -0.045912493 -0.023600373 0.0029238916 -0.01658805
-0.05607202 0.075883 -0.07339208 -0.0005748199 -0.09068297 0.07411598 0.047314893 -0.022388786

bn1.running_var f4 [32]
00000000: 4a5c 653e 6bb0 203f aaed 7c3e 2d37 363f
00000010: 01f0 af3e 3519 ab3f a634 923e be90 a63d
00000020: 6e58 593f 438c 353e 9230 2e3f a717 0b3e
00000030: fe6e e03e b5b8 683f 2991 563e 3d84 9d3e
00000040: de3b 103f 4d8f 113f dd23 bd3e e520 a23f
00000050: 0bd9 513f 096b 073e c94f 233f 3b59 c33f
00000060: fa23 013e bf9f 4f3e 9180 003f ebed 813e
00000070: 59c6 823e 4963 623f bae7 f53e 5320 863e
0.22398487 0.6276919 0.24700037 0.7117794 0.34362796 1.3367068 0.28555793 0.08133076
0.8490056 0.17729287 0.6804286 0.13583241 0.4383468 0.9090684 0.20953812 0.30764952
0.5634135 0.56859285 0.36941424 1.2666289 0.81971806 0.13224424 0.6379362 1.5261606
0.1261138 0.20275782 0.50196177 0.2537683 0.25541952 0.8843275 0.48028356 0.26196536

depthwise.weight f4 [32, 1, 3, 3]
00000000: 2f58 82bd ca39 683e 2bbd abbd acb9 5abe
00000010: fa86 453e a367 363e 3bfb 1abe a71b 1a3c
00000020: cbfc 743e b991 963e 88d6 00be f60f 83be
00000030: e8cc 893d bae9 703e 46aa 953d 91ea a43e
00000040: 9166 44be f63a d1bd 6c7a 2fbe 2b23 0c3e
00000050: 56d8 883e fbed d8bd 55c0 3ebe 174c 87be
00000060: 3dc4 363e 6304 80be ccf0 8bbe 56cf 52be
00000070: 504c 663e 9fff adbe 40fe 043e c06c 4fbe
00000080: 8a57 93be 5ed2 c8bb dbcb 593e 6605 9dbd
00000090: b9ff 363e ba6a 903e 8ec5 133e 57fe 833e
000000a0: 22d0 9d3e 8a66 973e 3ee7 3bbe d6de 5fbe
000000b0: f5c1 39be 1a94 20bd 0e32 7f3e 9122 0cbe
000000c0: 8d24 9a3e 697b 573e bc01 863e 7850 95be
000000d0: a78f 7a3e 43f9 65be dc45 9c3e db3b 1c3e
000000e0: 5b98 5b3e 4318 5f3e 61d9 e4bd 3bde 04bd
000000f0: a598 b23c 9dd6 83be 357d 563e b69b 1f3e
00000100: 2dcb 153e 64ea 04be b842 923e 945d ae3e
00000110: 4223 78bd b3cf 873e 3477 1dbd d2a6 9a3e
00000120: 7169 af3e b7de 383e 852f 773c e87a 83bd
00000130: 7404 943e 29c4 8cbc 081b 803e 9565 30bc
00000140: ba17 90be 25a9 0a3e 99fb 323e ece0 62be
00000150: 640b 003e 4a1c 9abc dcbb 1a3e 956b 953e
00000160: ee6c 453e b535 15ba f037 ab3e e28b 913e
00000170: 75fc 173e 8544 9bbd 6964 7f3e e078 9c3d
00000180: 5ffc 343e 14dd 58bd c685 8b3e b7fa d73d
00000190: 8356 953e 2bdc c3bd 6397 0f3d 84cd 783e
000001a0: faad a03e c4aa 713e 51ea 92be c67c 103e
000001b0: e2f9 a7be 3645 483e 0a88 b83d 743e a9be
000001c0: b64f 893e 19cd 03be 1e10 95bd bf93 9dbe
000001d0: b5e2 50be 9a4a 86be 7168 9d3c 4cc3 98bd
000001e0: a507 e33d d68a 93be d95b 813e 62fe 67be
000001f0: 0ff8 e5bd c9cb 923e 06cc 853e f9d7 9cbe
00000200: 4af7 25be c04a 363e 34bc 203d 75b0 a7be
00000210: c70e 98be 1f01 183d 13ce 92be 304b 41be
00000220: d60d ac3d dd03 80be 490d 9a3d dc68 b73d
00000230: 8436 91be 2d62 503e 6af0 2ebe f4ff f93c
00000240: 0b18 70be 94fb 7b3d 796c a0be f9ff 483e
00000250: a05a 9dbe e358 9fbe 8c74 4abe 2c58 11be
00000260: 513d 953e edce 883d c2f4 813e 89b0 713e
00000270: 33eb 9ebd 2539 203e affa b13e 9818 41be
00000280: a3b2 353e c122 26bc 7950 7a3c 5f50 7b3e
00000290: 4e29 0abe 3fc5 a93e b096 953e dfa3 993d
000002a0: 07a6 44bd 0af1 963d da85 843e 4666 a63e
000002b0: 54cf 9f3e 3e6d 15be 7d1c ad3e 88f1 503b
000002c0: a33a a7bd a8d2 5b3d b1a8 66be 85ac ae3e
000002d0: ea40 733e a9aa 22be a816 d33d 927b e03d
000002e0: 5a09 8a3e e8f6 bdbd deee 083d c3a1 883e
000002f0: c3f2 18be e5c5 e5bb f76f 8d3e caff ef3d
00000300: 3488 9e3e b36c 323e 7a45 7d3e 014a a43e
00000310: 34f3 41be 0064 0abe 5a2f 9ebd 8131 86be
00000320: ae1b 71be d171 2f3c d014 9d3e e6df 823e
00000330: f387 a8be ccd3 0dbe cdad 363d 20ff 723e
00000340: 3d5b 72be 5360 db3d 8a86 c63d b3fc f4bc
00000350: 6512 e33b 65b1 a7be e75c 3cbe 44fd 7fbe
00000360: 17e4 043e aaf8 363e 7f73 d7bd 0994 b73c
00000370: 4cd9 a0be e4ca 34bd 8431 84be f08d dbbd
00000380: 460c 5cbe 10f4 84be be34 41be a7df 053c
00000390: 0556 0cbe 7c59 1c3e be5d b93c be49 f2bd
000003a0: 5ae8 ee3d 136f 28bd 02dd 0fbe a0ed 4f3e
000003b0: 814a a1be e4e4 86be 84bc 0d3e 9386 45be
000003c0: 2d46 15be e534 2cbd da94 3ebc 8a04 a9bd
000003d0: 102f 9fbe ee7b a3be 06e2 883d 2559 8c3b
000003e0: 6800 853d 2bdf a7be d734 57bd f6db 84be
000003f0: 2bf8 d3bd 9bb4 a2be ff1f e7bd 65ff b8bc
-0.06364476 0.22678295 -0.0838569 -0.2135989 0.1928977 0.17812972 -0.151349 0.009406007
0.23924558 0.29408053 -0.12581837 -0.25598115 0.06728536 0.2352666 0.07307868 0.3221021
-0.19179751 -0.10216324 -0.17136544 0.1368529 0.2672755 -0.10592266 -0.18628056 -0.2642524
0.17848296 -0.25003347 -0.2733215 -0.20586905 0.22490048 -0.33984086 0.12987614 -0.20256329
-0.28777725 -0.0061285933 0.21269171 -0.07667045 0.17870988 0.28206426 0.1443083 0.25779983
0.30822855 0.2957042 -0.1834993 -0.21862349 -0.18140395 -0.03920374 0.24921438 -0.13685061
0.3010601 0.21043171 0.26173198 -0.29162955 0.24468862 -0.22458367 0.30522048 0.15257208
0.21444838 0.21786599 -0.11174274 -0.032438498 0.021801302 -0.25749674 0.209462 0.15586743
0.14628287 -0.12980038 0.28566527 0.3405577 -0.0605805 0.2652565 -0.03844376 0.302054
0.34260133 0.18053709 0.015087013 -0.06419927 0.28909647 -0.01718338 0.25020623 -0.010766407
-0.28143102 0.13541086 0.1747879 -0.22156113 0.12504345 -0.018812317 0.15110725 0.2918364
0.19279835 -0.0005691902 0.33441114 0.28427035 0.14842398 -0.075814284 0.24940647 0.076402426
0.17674397 -0.05294521 0.272505 0.10545867 0.29167566 -0.09563478 0.035056483 0.24297148
0.31382734 0.23600298 -0.28694394 0.14110097 -0.32807833 0.19557652 0.090103224 -0.3305546
0.26818627 -0.12871207 -0.07278465 -0.30776784 -0.20398982 -0.2622879 0.01921484 -0.07459125
0.110854425 -0.2881686 0.25265387 -0.22655633 -0.11228954 0.286711 0.2613222 -0.30633524
-0.16207615 0.17801952 0.039241984 -0.32751814 -0.29698774 0.037110444 -0.28672847 -0.18876338
0.084010765 -0.25002947 0.07522065 0.08955547 -0.28361905 0.20349951 -0.17083898 0.030517556
-0.23446672 0.06151922 -0.31332758 0.19628896 -0.30733204 -0.31122503 -0.19771022 -0.14193791
0.29148343 0.06680093 0.25382048 0.23602499 -0.077597044 0.15646799 0.3476157 -0.18857038
0.17743926 -0.010140122 0.015277975 0.24542378 -0.13492319 0.331583 0.29216528 0.07501959
-0.0480099 0.07370193 0.2588337 0.32499903 0.31212866 -0.14592454 0.33810797 0.0031882245
-0.08165481 0.053667694 -0.22525288 0.34115997 0.23755231 -0.15885414 0.10307056 0.10961069
0.2696026 -0.09275609 0.033430927 0.26685914 -0.14936356 -0.0070121163 0.27624485 0.1171871
0.3096329 0.17424278 0.24733534 0.3208771 -0.18940431 -0.1351471 -0.07723875 -0.26209643
-0.23545715 0.010708288 0.3067994 0.25561446 -0.3291622 -0.13850325 0.044599343 0.23730135
-0.23667617 0.10711732 0.0969363 -0.029905653 0.006929683 -0.3275253 -0.18394814 -0.24998957
0.12977634 0.17868295 -0.10520076 0.022409456 -0.31415784 -0.044138804 -0.25819027 -0.10720432
-0.21489057 -0.25967455 -0.18867776 0.008170999 -0.13704689 0.1526851 0.022627708 -0.118304715
0.11665411 -0.041121554 -0.14049152 0.2030549 -0.31502154 -0.26346505 0.13841444 -0.19289617
-0.14577551 -0.04204263 -0.011632169 -0.08252819 -0.31090593 -0.31930488 0.066837355 0.004283088
0.06494218 -0.3278745 -0.052540626 -0.25949067 -0.10350069 -0.31778416 -0.112854 -0.02258272

depthwise.bias f4 [32]
00000000: 202e a6be ee4d 4c3c a938 223e e931 163e
00000010: 1a80 c7bd a138 9cbe ade5 303e 0319 9dbe
00000020: 22f1 00be adbc c9bd 063a 0d3e 2492 86bd
00000030: 9001 f5bd 716a 883e f110 64be c6a4 183e
00000040: 32c9 ab3d fe99 6abe 4bb2 2c3e 49e5 afbc
00000050: e596 963e a000 443d f68a 473e d2c5 603e
00000060: 2b15 f6bd 05b6 cebc e160 313e 26e1 a53b
00000070: 27ea 093e ee04 9abe 9e2a 49be 0ed6 a83e
-0.32457066 0.012469752 0.15841927 0.14667477 -0.0974123 -0.30511954 0.17275114 -0.30683145
-0.12591985 -0.0985044 0.13791665 -0.06570843 -0.11963189 0.26643708 -0.22272088 0.14906606
0.08387984 -0.22910306 0.16864888 -0.021471636 0.29411998 0.04785216 0.19486603 0.21950462
-0.12015756 -0.025233278 0.17322113 0.00506224 0.13468228 -0.30081886 -0.19645163 0.3297581

pointwise.weight f4 [64, 32, 1, 1]
00000000: a454 243d b7c1 b73d 8815 373e 2de5 10be
00000010: 9a4d 95bd aa07 18be 908b 343e 69bd ae3d
00000020: 5598 0e3e 6cae e63d 7f20 94bd 0ea7 05be
00000030: 3ac0 b2bd 9408 113e 99d0 c83d 42f0 4c3e
00000040: 905c 763d c927 053e 60f5 173e b289 2bbe
00000050: 9998 85bd 3a35 28be 354e 8b3d 63b4 e0bd
00000060: 2895 d03d 3183 02be 7ce2 dabd fe35 1a3e
00000070: feaa c6bd 31ce 73bc c95f 7dbd 77f5 213e
00000080: e88f a63b 599b 223e f106 fdbd 7836 413d
00000090: 9523 503c 14c4 943d 68b0 80bd a9a8 fe3c
000000a0: 0daf f5bd f624 213e c2e9 313e 010d 22be
000000b0: 6a23 f4bd 9512 0bbd 2b08 afba 1cd7 c93d
000000c0: 82d8 f53d 84ce 263e ff9c f6bd 8e3a d0bd
000000d0: d3c1 59bd 1f7f 153d d0d6 16be 1a95 2bbe
000000e0: ad1e 8c3d ae63 8ebd 932b 6d3d 352b 483c
000000f0: 3944 583d 3aca c5bb 23e5 e2bd 9b7b 0bbd
00000100: c6fe fb3d 0e32 7dbd 1cb2 a23d 8d5d 3fb9
00000110: c7a1 99bd cb23 fb3c 8b87 5e3d b8b4 b93d
00000120: 752b d03d b398 7ebd dabb 49bd ab21 9bbd
00000130: e22f 113d 5833 edbd bed8 1cbe 383c 89bd
00000140: fab5 22be 575a 313d 92e7 13bd 6fdd 30be
00000150: c4ba 603d 6453 283d 0d64 4b3e 1ed0 f03c
00000160: 7da0 733d eac5 5c3c 630e 17be 4229 c53d
00000170: 398b a0bd aebc f23d 1ccf 19be 3af2 24bd
00000180: ff22 3d3e 0c1a f23d f23e c53d 5259 043d
00000190: 0bd5 f8bd 4dff 113d 07fa 90bd ef6f edbd
000001a0: 7de7 ca3d 9c93 9bbd bc5a 003d 81f4 6e3e
000001b0: 1afc 923c 729c 36be 5e24 28bd d26b 1fbe
000001c0: 5e04 a5bc 8e57 35be 1b24 c1bd b952 c53d
000001d0: 2817 38bd 1e9b 3b3e bdd6 2a3e 4067 8cbd
000001e0: 8ed4 fe3b 9331 ac3c d73d 913d b529 72be
000001f0: ef88 11be 6020 133e 949e 933d d8e8 e5bd
00000200: 6f0a a2bd edd4 e9bc f65e babc b731 ca3d
00000210: aaf6 c33d 4624 06bd 4c16 63bd 058a d0bd
00000220: 1208 373e ae7b 083e 6d83 ee3d fd50 1bbe
00000230: 341a 59bc 7d8b afbc 5a3b 1cbe ec8b e4bc
00000240: 297e 1dbe d859 763d e11a 16be 3600 89bd
00000250: 003f f4bc 0ba4 8cbd c57c df3a 627e 803d
00000260: 57a1 92bd 1fbf 1bbe 6214 0cbe 3d7c f63d
00000270: c87c 79bd 7908 2abe 7de0 63bd 8db6 933d
00000280: d997 73be 00f0 0e3e edbb 8b3d 49a5 6fbd
00000290: 2cc6 81bd 18c7 36bd dfd7 7dbd 1d37 aabc
000002a0: 905b b63d 8373 a63d d32a 92bd 6b11 a3ba
000002b0: 7e8e f53d 000a bc3d 5990 403e 1831 7c3e
000002c0: 9568 003d cc51 9ebd 8393 9ebd 64a1 5a3d
000002d0: dce5 ea3d 85a2 373e 97cd a4bd b252 033e
000002e0: a73d 62be 00d0 47be dd8c 16bd 447a 88bd
000002f0: 8415 f73d c0f0 e5bd f14a b73d 51eb a83d
00000300: 11aa ccbd 0e20 7f3d a80d fdbd 3f0a 0c3e
00000310: b4d0 0f3e 9c12 82bc 282c 233d db14 563e
00000320: 2690 0d3e faa5 083e f8d8 cdbc 4774 66be
00000330: 9b18 36be 326c c23c 423e 1b3e 1e84 f63d
00000340: dabf 3cbb 0aed b93d 8896 80bd 658d 173e
00000350: c5e6 263e 50ee 13be 5a67 4d3d 2dd9 4dbd
00000360: 7e9d 833d cbd9 b03d 05d2 aebd f6e4 4b3e
00000370: 81df 76bb b3fa 19bc 6224 723c 05c5 383e
00000380: 1d11 9dbd cf16 2e3d 5982 27be f4b3 353b
00000390: d4b1 41bc 2acb 95bd 244c 2ebc cfd7 23be
000003a0: 5171 713d b567 83bb 92fc 013c b843 c03d
000003b0: 4522 3fbe fcef dcbd c569 7abd 4730 f13d
000003c0: 4882 d1bc e698 5c3c 6480 fcbd 96ae dc3d
000003d0: 83e3 273e c389 f1bd 3da5 c8bd 2961 b4bd
000003e0: 4ee9 a63d c14f 8abc 8267 11be 18ac 9e3d
000003f0: 750d 42bc afbf 123d 7d44 28be 7e64 7d3d
0.040119782 0.08972495 0.17879307 -0.14149924 -0.07290192 -0.14846674 0.17631364 0.08532221
0.13925298 0.11263737 -0.07232761 -0.13052008 -0.087280706 0.14163429 0.09805412 0.20013526
0.06014687 0.13003458 0.14839697 -0.16751745 -0.06523246 -0.16426554 0.06802026 -0.10971906
0.10184699 -0.12745358 -0.1068773 0.15059659 -0.09700583 -0.014880703 -0.061858926 0.15816294
0.005083073 0.15879573 -0.123548396 0.047171086 0.012703796 0.072639614 -0.06283647 0.031086283
-0.11996279 0.15736756 0.17374328 -0.15825273 -0.11920817 -0.033953268 -0.0013353875 0.09855482
0.12004186 0.16289717 -0.120416634 -0.101674184 -0.05316336 0.036498185 -0.14730382 -0.16756096
0.068417884 -0.06952606 0.057902884 0.012217333 0.052799437 -0.00603607 -0.110788606 -0.034053426
0.123044536 -0.061815314 0.07944128 -0.0001825003 -0.0750156 0.030656716 0.054328483 0.090676725
0.10164539 -0.062157344 -0.049251415 -0.07574781 0.035446055 -0.11582059 -0.15317056 -0.06700939
-0.15889731 0.043299045 -0.036109515 -0.1727197 0.054865614 0.041095152 0.19862385 0.029396113
0.059479225 0.013474921 -0.14751582 0.0962701 -0.078390546 0.11852394 -0.15020412 -0.040270068
0.18470381 0.11821374 0.096311465 0.032311745 -0.1215001 0.035643864 -0.07078939 -0.11593615
0.09907434 -0.07596514 0.03133653 0.23335458 0.017942477 -0.17833117 -0.041050307 -0.15568474
-0.020143684 -0.1770918 -0.09430715 0.09634919 -0.04494396 0.18320891 0.16683479 -0.06855631
0.0077768033 0.021019733 0.07091873 -0.23648722 -0.14212392 0.14367819 0.07207981 -0.11226052
-0.07912146 -0.028543914 -0.022750359 0.098727636 0.09568532 -0.032749437 -0.055441186 -0.10182575
0.17874172 0.1332843 0.11646161 -0.15167613 -0.013250876 -0.021428818 -0.15257016 -0.027898751
-0.15380158 0.060144275 -0.14658691 -0.06689493 -0.029815197 -0.06867226 0.0017050734 0.062741056
-0.071596794 -0.15209626 -0.1367965 0.12035415 -0.060910016 -0.16604795 -0.05563401 0.07212553
-0.23788394 0.1395874 0.068229534 -0.058507238 -0.063366264 -0.044623464 -0.06197345 -0.020778233
0.08904183 0.08127501 -0.07137074 -0.0012441104 0.11990069 0.09181595 0.18805064 0.24628103
0.031349737 -0.07730445 -0.077429794 0.05337657 0.114696234 0.1793309 -0.08047026 0.12824515
-0.22093831 -0.1951294 -0.03675543 -0.06663945 0.12064651 -0.1122756 0.08949841 0.08248008
-0.09993375 0.06228643 -0.1235612 0.13675784 0.14044458 -0.015878014 0.039837033 0.20906393
0.1382452 0.13344565 -0.025127873 -0.22505294 -0.17782824 0.023733232 0.15160468 0.12036918
-0.0028800876 0.09078415 -0.062787116 0.14800031 0.16298969 -0.14446378 0.05014739 -0.050255943
0.064265236 0.08635291 -0.08536152 0.1991156 -0.003766984 -0.00939815 0.014779182 0.18043907
-0.0766928 0.04250222 -0.16358317 0.0027725669 -0.011822183 -0.07314141 -0.0106382705 -0.16000293
0.058945958 -0.0040101656 0.007933753 0.09387916 -0.18665417 -0.10787961 -0.061136026 0.11776786
-0.025574818 0.013464188 -0.12329176 0.10775487 0.16395383 -0.11793854 -0.09797142 -0.08807594
0.08149968 -0.016883733 -0.14199641 0.07747668 -0.011844029 0.035827335 -0.16432376 0.061863415

pointwise.bias f4 [64]
00000000: 7a84 78bd d89a 043e 2db1 863d 9f24 95bc
00000010: bbdd f43d bbc8 2abe b330 08be 7b8c 2e3d
00000020: bd56 69bb 14d0 7e3d ca03 b9bd c62a 123e
00000030: 3459 edbd 782f 54ba e92e 973c 1efb 2d3e
00000040: d401 80bd 1078 543d d659 81bd 7850 8a3d
00000050: 88dc 273e 3896 c83d 4ef8 243e b832 243d
00000060: 2e00 303e d742 d6bd ad77 3fbd cf5f d9bd
00000070: 724e f3bc 9ebd b13c ac1c 3a3e b9da 46be
00000080: b3c4 06be 5587 bf3c 7e8c 25bd e7c3 083e
00000090: 5bb6 8e3d 4769 0cbe 93ac 0c3e 4177 acbd
000000a0: bbf3 b23b 4ac7 75bd d40f 053d 36ad 0c3e
000000b0: 256d 45bd e02b 03bd 061b ae3d 2665 8c3d
000000c0: cc96 5f3c 2225 cf3b 9582 743d 55e2 4fbd
000000d0: e130 01be 4a03 6abc d0ee 63bd 15a0 e0bd
000000e0: 77bb f83d e829 15be 049b 253e ffa4 b13d
000000f0: 065f 173d 7543 1bbe 906a e7bc 3291 ecbd
-0.060673214 0.12949693 0.06576762 -0.018205939 0.11956354 -0.16678135 -0.13299827 0.04261444
-0.0035604679 0.062210158 -0.09033926 0.1427413 -0.1158928 -0.00080942316 0.018454986 0.16990325
-0.06250349 0.051872313 -0.06315963 0.067536294 0.1639272 0.09794277 0.16110346 0.04008743
0.17187569 -0.104619674 -0.04674499 -0.10613977 -0.029700492 0.021696862 0.18175 -0.19419374
-0.13160972 0.023379961 -0.040417187 0.13355981 0.06968375 -0.13712035 0.13737707 -0.084211834
0.005461184 -0.06000451 0.032485798 0.1373795 -0.04819979 -0.032024264 0.08501248 0.0685523
0.013646793 0.0063215652 0.059694845 -0.050752956 -0.12616302 -0.014283011 -0.05564767 -0.10968033
0.12145131 -0.14566767 0.16172415 0.08674049 0.036955856 -0.15162452 -0.028249055 -0.11551131

fc.weight f4 [2, 1024]
00000000: 6171 343d d011 90bd 763f 0d3c b615 eb3d
00000010: 2dd3 883d d6d0 b7bd 8f3a 44bd b079 6f3c
00000020: e9a4 b93c 93f1 bcbd ea9b f8bc c1ca 8c3b
00000030: 565f c83c e718 31bc 953c 14bd 2529 a0bc
00000040: d800 803c e668 a23b 9e6c f83c 11b7 af3a
00000050: ff41 e93c b82b 973c e8e8 2a3d c858 6e3c
00000060: 8185 493c a92a e2bc 9984 cb3c 88f4 6e3b
00000070: 5f58 843c 43c1 e33b f3de a13b dac4 383d
00000080: 0642 d4bb 97f8 d73c 0c9d 2d3c 394b 673d
00000090: eb4f 323c ac23 c5ba bcda 92bc 199a 6abc
000000a0: 8295 9ebc 8b09 a1bb d45b 893c f0eb 633c
000000b0: f505 cd3c 0c29 9dbb e40b 6eba ef6f 853c
000000c0: 2af6 5bbd 721f e1bd 5547 a1bd 4ea7 a2bd
000000d0: 6a97 e8bd eb8a afbd 0372 00be 5812 2abc
000000e0: a892 d0bd 245e 45bd 04e7 82bd acb7 c4bc
000000f0: 2642 01be be87 ecbd 37c8 61bd eda9 19bd
00000100: bb1e a13d b4a2 a13d 5c44 063d b4bb 2f3d
00000110: 8ab4 a73d 794c 4b3d 5c89 5f3d fe7f c33c
00000120: a036 573d 5cea 8f3d 4a79 533d d508 443c
00000130: 3e55 a13d 82d7 833c 42e6 be3c 739a 843d
00000140: 07f8 dfbd 21cf 02be f3ea 05be f0c6 e8bc
00000150: 90a3 e9bd bcf3 07be 3946 c0bd cfed a43c
00000160: 839a a2bd 9dcb babd bb28 adbd 3dbb 2fbd
00000170: a3ed babd de8f 6cbd 4832 d3bd a9b3 4cbd
00000180: 1000 283d fe63 013d 3eed 9e3d 105e 6a3d
00000190: 3162 743d 760d 8bbd e599 90bd e494 2e3d
000001a0: dac7 5f3c 32f8 78bd 382e bcbd 3d7e 96bd
000001b0: c36a 98bb 2701 59bc ba23 aabc 5f81 8abc
000001c0: ad9b 2b3d 08f1 123d 8fe3 8b3d 37b7 563c
000001d0: cec8 083d 9eea bb3c d346 453c eb16 8e3c
000001e0: bd3b 923d 8d57 5c3d 9a63 b03c 1400 573d
000001f0: 5a4d 423d 1bea b73c 38d2 323d 73e6 053d
00000200: 2c40 15bc 98b9 cdbc c359 fbbb 4f26 a4bc
00000210: 47df 71bd bcec 98bc efcc 8bbd 3b0b eabc
00000220: 55c1 81bd 53af 52bc 3118 3ebd 09e0 46bc
00000230: b411 20bd f4d3 cbbc cc97 cabc a56d 9ebc
00000240: 541c 653b 40ee 503c ce3b af3c 85b4 f03a
00000250: 9510 cfbc d63b 3abd a5fe dfba 618b 12bc
00000260: 4b79 a2bc 2eb6 efbb 3c30 123c b19e febb
00000270: 9aef 3abc 540c 993c 22fa 873c 5235 57bc
00000280: 7cf2 6d3d d2a8 e73c 2e8d 413d 4f87 59bc
00000290: 9846 10bc 0842 be3b 5ae2 39bc 6fa7 6cbc
000002a0: 16bf 04bd dcae d63b 512a b63c 817f b43c
000002b0: dc5b ddbc b7ef 43bd 2551 2abc b276 843c
000002c0: 40dd 333c d10e 363d e3ab ce3d 9501 c73d
000002d0: 786d 453d bcab 3d3d 54f7 303b 6885 ba3c
000002e0: 240e c73d e46a 0f3d 8043 fd3c 232b 8c3c
000002f0: 7716 c33d 8ffe c93d b27b c43c 05db 6b3d
00000300: 7b48 693c 969e 6c3d 4a65 bf3d cbb4 ac3d
00000310: 76c0 5a3c 5468 81bc ebe3 363a 5d36 84bb
00000320: 7898 2a3d f017 863d 336f 353c 8447 cd3c
00000330: 099d 253d 1935 733c a0c0 203c 4780 42bc
00000340: 7903 a1bc dfac edbc eed9 00bd bc17 6b3c
00000350: ad26 8cbd 9cb3 66bd 93ee 95bd a625 0c3d
00000360: 8622 83bd a357 44bd a69d 5fbd 6486 f3b9
00000370: b78e 6bbc 6dbb 50bd b641 b1ba 6980 4bbd
00000380: 662a acbb f40b 413c cdbd 383d 195c c53c
00000390: a02d 8ebb 7304 553c 8f46 06bd bdc0 71bc
000003a0: 6bfd 97bc 1ac9 da3b f1fb d2bb 51c6 10bc
000003b0: ff67 063c 6a7f 073d 17d3 23bb 82d7 44bc
000003c0: f6b6 1f3c 394e b4bc 993e 3abc 0550 313c
000003d0: b25d d83c 0704 133d f3c3 053d 97b0 ddbc
000003e0: edc6 0c3d af8d 8a3c 0a95 2e3b 4f12 113d
000003f0: e257 613d 090d 803c de87 593d 3dfb 1a3d
0.04405344 -0.070346475 0.008621087 0.114787504 0.066809036 -0.08975379 -0.04790741 0.014616415
0.022661643 -0.09225764 -0.030347783 0.004296631 0.024459522 -0.01080916 -0.036190588 -0.01955087
0.015625402 0.0049563525 0.03032523 0.0013405998 0.028473852 0.018453464 0.041726023 0.014547534
0.012299896 -0.027608233 0.0248435 0.003646167 0.01615542 0.006950529 0.0049399077 0.045109607
-0.006477597 0.026363654 0.010596525 0.056468222 0.010883312 -0.0015040538 -0.017926566 -0.014318966
-0.0193584 -0.0049144677 0.01676742 0.013911232 0.025027255 -0.004796153 -0.00090807513 0.016288726
-0.053701557 -0.10992326 -0.07874934 -0.07942067 -0.11357005 -0.085714184 -0.12543492 -0.01038035
-0.101842225 -0.048185483 -0.06391719 -0.024013363 -0.1262289 -0.11549328 -0.05512258 -0.03751557
0.078671895 0.07892361 0.032780036 0.042903617 0.08188732 0.049633477 0.054574355 0.023864742
0.05254233 0.070271224 0.051629342 0.011964996 0.07877587 0.016093973 0.023303155 0.06474771
-0.10935979 -0.12774326 -0.13077907 -0.028415173 -0.1140815 -0.13276571 -0.09388394 0.020132927
-0.07939627 -0.091208674 -0.08455034 -0.042903174 -0.09127357 -0.05775439 -0.10312325 -0.049976025
0.041015685 0.0315895 0.07760094 0.05721861 0.059663955 -0.06789677 -0.07060603 0.042622462
0.013658488 -0.060783572 -0.09188503 -0.07348297 -0.004651399 -0.013244904 -0.020768989 -0.016907392
0.04189651 0.035874397 0.06830513 0.013105205 0.033394627 0.022939023 0.012040812 0.017344913
0.071403004 0.053794432 0.021531869 0.05249031 0.04743705 0.022450497 0.04365751 0.032690477
-0.009109538 -0.025112912 -0.0076706125 -0.020037798 -0.059050824 -0.018667571 -0.06826197 -0.028569808
-0.06335703 -0.012859183 -0.04640979 -0.012138375 -0.039079383 -0.02488134 -0.024730586 -0.019339392
0.0034959512 0.012752116 0.021390822 0.0018364346 -0.025276462 -0.04546722 -0.001708944 -0.008944363
-0.019833228 -0.0073154187 0.008922633 -0.0077703823 -0.0114096645 0.018682636 0.016598765 -0.013135271
0.05809258 0.028278742 0.04725378 -0.013276889 -0.008805893 0.0058062114 -0.01134547 -0.014444216
-0.032408796 0.0065516066 0.022236975 0.022033455 -0.027021341 -0.04783603 -0.010395323 0.01616988
0.010978043 0.044447724 0.100913785 0.097170986 0.0482001 0.046306357 0.0027002888 0.022768691
0.09719494 0.03501405 0.030915976 0.017110413 0.09525769 0.09863006 0.023984764 0.05758192
0.014238472 0.057768427 0.09345491 0.08432921 0.01335155 -0.015796818 0.00069767114 -0.004034801
0.04164931 0.065475345 0.011073875 0.025058515 0.040432964 0.014844202 0.00981155 -0.011871404
-0.019654976 -0.029013095 -0.031457834 0.01434892 -0.06843314 -0.056323633 -0.07320895 0.03421559
-0.06403069 -0.04793514 -0.054593705 -0.000464487 -0.014377288 -0.050959993 -0.0013523612 -0.04968301
-0.0052540777 0.011782635 0.045102883 0.024091767 -0.004338935 0.013001549 -0.032782134 -0.014755425
-0.018553456 0.006676805 -0.006438725 -0.008836345 0.008203506 0.033080496 -0.0024997646 -0.012014272
0.009748211 -0.022009956 -0.0113674635 0.010822301 0.026411865 0.035892513 0.032657575 -0.027061744
0.034369398 0.016913263 0.0026639127 0.03541785 0.055015452 0.015631216 0.05310809 0.037837256

fc.bias f4 [2]
00000000: 82ae ddbb 0e2a c83c
-0.0067651877 0.024434116
