model/CNN/saved_models/split_pad3_patch50/smallcnn4_fold4_pad9_patch50.pth (torch, 35659 bytes, 12 tensors)

conv1.weight f4 [32, 10, 3, 3]
000000 8c 1a 0e bc db 92 5b 3c 11 d7 c4 bd cf 4d 45 3b
       -0.008673321 0.013401712 -0.09611333 0.0030106192
000010 35 b3 be 3d ac 4d 0a bd 9a 9f 18 bd 00 31 cc 3c
       0.09311525 -0.03376548 -0.037261583 0.024925709
000020 0a 2a 13 be 1f 32 89 3c 2c 99 a4 3d e5 f7 6b 3d
       -0.14371505 0.016747532 0.08037028 0.057609458
000030 8c b6 19 bc ec ed e9 bb cd 80 17 3d 59 6d 97 3d
       -0.0093819015 -0.007138958 0.03698807 0.07393903
000040 20 36 c4 3d a1 4e d2 3d ab 10 89 3b 57 4b 2f bc
       0.09580636 0.102689035 0.004182895 -0.010699115
000050 72 9b 08 3e 7d 9a e7 3d 16 3f fd 3d 5e e7 9c 3d
       0.13340548 0.11308763 0.12365548 0.07661317
000060 2a 61 59 3d b7 8a 06 3d d1 c8 92 bc 79 c3 8d 3d
       0.05307118 0.032847133 -0.017918022 0.06922049
000070 aa 7b 18 3d 2e bf 77 bc d0 26 9f bd 16 a5 f6 3c
       0.03722731 -0.015121264 -0.07771075 0.030108016
000080 03 dd 8f bd d2 b0 5f bd 39 e0 ec bd 28 fc d8 bd
       -0.070245765 -0.05461199 -0.115662046 -0.1059497
000090 36 10 7c 3d a9 95 c6 bd 30 63 9d bd a0 27 bb bd
       0.061538897 -0.09696514 -0.07684934 -0.09138417
0000a0 17 ec bd bd 0e 21 11 3d 54 68 02 3d 9c 0d aa bd
       -0.09273546 0.035431914 0.031837776 -0.08303377
0000b0 c5 72 1c 3d 27 ff 0d 3d d0 ed ce 3c 25 d7 ab bd
       0.03819539 0.03466716 0.025259882 -0.08390645
0000c0 aa ef 59 bd 7b 9b 7f 3c a5 aa a9 bc fc 74 a7 bd
       -0.053207077 0.015601034 -0.020711252 -0.0817661
0000d0 02 88 12 bd 89 c6 e2 bd 3f 3c b1 bd d1 27 96 3d
       -0.03577424 -0.11073024 -0.08654069 0.07331813
0000e0 45 2c ee bc ce 72 b3 3d c7 7e 24 3d 39 94 c3 bd
       -0.029073844 0.08762132 0.040159967 -0.095497556
0000f0 10 3a 8c 3c 0a ee 58 bb 26 26 b8 bd e8 64 31 bd
       0.01711753 -0.0033100867 -0.08991651 -0.043309122
000100 96 a7 a3 3d a3 ff 29 3d 27 28 fa bb 16 cc 7f 3d
       0.07990949 0.04150356 -0.007634181 0.06245049
000110 08 2d f1 3c 21 b6 53 3d 6d 6c d0 bd d3 c5 a7 3c
       0.029440418 0.051687364 -0.101769306 0.020480072
000120 e5 13 59 bd 45 88 90 bd a6 bf 77 3d f3 ab 69 bc
       -0.05299749 -0.07057241 0.060485505 -0.014262187
000130 c4 aa a1 3d bc 3a 8e 3c 41 12 08 3c 0b 8e ae 3d
       0.07893899 0.017361991 0.008305133 0.08523186
000140 88 1e cd 3d fa 52 b9 3d cf 1b 17 3e ff 4d f4 3c
       0.10015589 0.0904903 0.14756702 0.029822348
000150 11 64 0a 3e 4e e8 06 3d 8f 33 8d 3d 6a b4 8b 3d
       0.13514735 0.032936387 0.068946 0.068215206
000160 1c 4e ac bc b3 8c ca 3d 9f 8c 53 bd 08 35 56 bd
       -0.02103334 0.098901175 -0.05164778 -0.05229667
000170 d2 64 cf bd f4 f0 14 bd 8a 33 e9 bd b7 91 0f be
       -0.10126652 -0.036362603 -0.113867834 -0.1402043
000180 4f 79 8e bd 8f 3a f7 3d 92 01 5e bd d2 4d dc 3d
       -0.069567315 0.12071716 -0.054200716 0.107570305
000190 89 35 8d 3d 01 1d ef 3d 2d 3c e6 3d 4d 27 c6 3d
       0.06894977 0.11675454 0.11241946 0.09675465
0001a0 4e cb 2b 3d ff 6b 46 3d e0 47 36 3c 10 ab 40 3c
       0.041941933 0.048442837 0.011125535 0.0117595345
0001b0 0c 7d d2 3c 47 4d 5e bd 84 8e 49 3d 9e 2f 60 3c
       0.025694393 -0.054272916 0.04920818 0.013683228
0001c0 a4 fc 35 3d f8 2e cd 3d 85 1e 53 3c 33 d5 83 3a
       0.04443039 0.10018724 0.012885694 0.0010058045
0001d0 50 c8 69 bd be ad 26 be 64 8d 28 3d 57 38 40 3c
       -0.0570758 -0.16277215 0.041150466 0.011732182
0001e0 3a 8b 1c bc 39 83 67 3c bd b5 e2 bc e0 4d 7e 3d
       -0.009554679 0.014130407 -0.02767455 0.062085986
0001f0 3f 53 82 bd 09 96 26 3d 23 04 d7 3c c0 26 ef 3b
       -0.06363534 0.04067043 0.02624709 0.0072983205
000200 26 3f cd 3d 82 c1 c4 bd 44 62 93 bd 57 3a 03 3d
       0.1002181 -0.09607221 -0.07196477 0.03203806
000210 10 2a 19 bd 7a 6d 87 bd 95 4b 72 bd e3 d2 d3 bd
       -0.03739363 -0.06612678 -0.059154112 -0.10342958
000220 4c 71 d0 bd 52 f4 f0 bd a3 3b 8f 3c e0 92 a5 bd
       -0.1017786 -0.117653504 0.017484492 -0.08084655
000230 66 b8 c3 3c 46 a1 cd bd 80 d6 62 3d ea 40 83 bc
       0.023891639 -0.10040526 0.055380344 -0.016022164
000240 78 da c4 3c dd 64 01 be c1 b3 18 bd 6f 7b 34 3d
       0.024029955 -0.12636133 -0.0372808 0.044063028
000250 34 51 a7 3d 81 0c 33 bd 10 cc b9 3d 6c d3 37 3c
       0.08169785 -0.043713097 0.09072125 0.0112198405
000260 33 c1 99 bc a4 6f ad 3d 1c a8 d7 bd 4b f5 ab 3d
       -0.018768882 0.084685594 -0.10530111 0.08396395
000270 64 a5 68 3d e6 ca c7 bd 5f 93 c4 3b 77 4c fc bb
       0.056798354 -0.09755497 0.0059990133 -0.007699545
000280 7a a3 b2 3d dc e5 c9 3c f2 ae d1 bd c7 97 4b 3d
       0.08722587 0.024645738 -0.10238446 0.049705293
000290 1b 16 3d 3a 14 1f 61 bd 78 60 a7 3d a1 64 5e 3d
       0.0007213072 -0.05496128 0.08172697 0.054295186
0002a0 d8 ba c3 bc 6b 59 37 3c 39 29 39 3d 15 0b e7 bc
       -0.023892805 0.0111907525 0.04520533 -0.028203527
0002b0 45 b5 9e bd 99 d3 88 bd 60 4e de 3d 3d 5e 67 3d
       -0.07749418 -0.06680984 0.108547926 0.056486357
0002c0 de a6 23 ba 63 3c a7 bd 8f 17 26 bc 1b 19 c5 bd
       -0.00062428217 -0.08165815 -0.010137453 -0.09623929
0002d0 0f db 80 bd 4b 6a 37 bd 3f ec b5 bc 9c 5d f6 3c
       -0.06291782 -0.044779103 -0.022207377 0.030073933
0002e0 c3 d1 71 3d a2 fa de 3c a8 93 7a bd c7 c9 fa bc
       0.059037935 0.02721912 -0.061175972 -0.030613793
0002f0 ef df 1d bc 7c da d4 3d b4 c7 7b 3c 9f be 7f 3d
       -0.009635909 0.10393235 0.015367437 0.06243765
000300 ff 2f e2 3d db 0d 55 bd b5 b4 ce 3d 6e 21 c8 3d
       0.11044311 -0.052015167 0.10093061 0.09772001
000310 22 c3 1d 3d 5b 0b 95 3d d4 a5 6d bd ef fb 78 3d
       0.03851617 0.072775565 -0.058019474 0.060787138
000320 8d 67 c0 3c 50 a8 86 3d b0 2c 99 3d 36 e8 ba 3d
       0.023486877 0.06575072 0.074792266 0.09126322
000330 8e bb 91 3d 3b 7b e5 3d 75 35 b0 ba 7d 24 01 bc
       0.07115851 0.11205145 -0.0013443666 -0.007882235
000340 a3 2b 0b be 27 30 4d bc 3b 88 2d be d4 35 d6 bd
       -0.13590865 -0.012523687 -0.16946499 -0.10459486
000350 5b c7 04 be c6 ce 21 3c 4c 70 0d bd 93 9f e0 bd
       -0.12966673 0.009875959 -0.034530923 -0.10967936
000360 58 d0 6b bc ea 2c b2 bc ef d2 bd 3c 74 66 d0 3c
       -0.014392935 -0.021749932 0.02317187 0.025439478
000370 7b e4 92 bd ac 3d a9 3b 57 c0 cd bd 36 d7 e4 bc
       -0.071724854 0.0051648226 -0.100464515 -0.027934652
000380 af 68 89 3b 7e 72 11 3d a1 c8 f9 bd e9 4f 6f 3d
       0.0041933875 0.03550958 -0.1219647 0.058425818
000390 34 42 07 bd 39 40 5c bc 2e 61 85 3c e3 79 a5 3d
       -0.03302212 -0.013443046 0.01628169 0.08079889
0003a0 44 3f 08 bd 49 9f 84 bb 21 2a 51 bd bc 8c fb bb
       -0.03326346 -0.0040473086 -0.051065568 -0.007676689
0003b0 dc 0d b8 bd 19 84 8a bd 0b fb 88 3d 84 13 8c 3d
       -0.089870185 -0.06763477 0.06688508 0.0683966
0003c0 6d c5 dc bd a2 c7 ac bc 87 7f 04 bd 81 ff e2 ba
       -0.107798435 -0.021091286 -0.032348182 -0.0017318578
0003d0 0c d6 df bc ae eb 5f bc 4a 0d 84 bd 2c 3f 9e 3c
       -0.027323745 -0.01366703 -0.06447847 0.019317232
0003e0 8a 94 30 3b e3 67 44 3d ff 25 7c 3d a0 8b b5 bc
       0.0026944005 0.047950637 0.061559673 -0.022161305
0003f0 6e 01 c4 bb c1 a2 15 3d d3 e6 b2 3d 1d df bc 3d
       -0.0059816157 0.036532167 0.087354325 0.09222243

conv1.bias f4 [32]
000000 5b a8 40 bd 06 4c ac bd 09 67 2c 3d 94 7d a2 bd
       -0.047035556 -0.08412938 0.04209045 -0.079341084
000010 8a 2c 7c bd 41 96 b7 bb 46 be 00 3c 1c 49 91 bd
       -0.061565913 -0.0056026285 0.007857865 -0.07094023
000020 5d c1 ae bd f0 b0 2c 3d 63 41 59 bd b3 f3 66 bd
       -0.08532975 0.04216093 -0.053040873 -0.056384753
000030 eb 14 96 bd 4b c1 86 3d 7f 69 71 bd c9 c0 e3 3c
       -0.073282085 0.065798365 -0.0589385 0.027801888
000040 51 ee a8 3d a1 65 76 3c 85 4e c1 3d be 6a 87 bd
       0.0824858 0.015038879 0.094388045 -0.06612156
000050 b2 a7 89 3d 3c d3 4b 3d 43 1f 38 3d 37 5b bf 3d
       0.067214385 0.049761996 0.04495169 0.0934357
000060 ca 4e 96 bd 84 00 b1 bc 46 92 bc bd 8b dc 07 3d
       -0.073392466 -0.021606691 -0.09207587 0.03316931
000070 60 f2 9f 3d ad 1e a1 bc 76 4d 4f 3d 60 9c a7 bd
       0.07809901 -0.019667948 0.050610982 -0.08184123

bn1.weight f4 [32]
000000 ba aa 81 3f 18 7d 84 3f f5 2e 86 3f b9 de 8d 3f
       1.0130227 1.0350676 1.048308 1.1083595
000010 36 90 83 3f 4e 49 82 3f 2b 5d 8c 3f b0 88 81 3f
       1.0278385 1.0178621 1.0965933 1.0119839
000020 5a 95 85 3f c9 52 85 3f 5c 7d 83 3f f9 6d 82 3f
       1.0436203 1.0415889 1.0272632 1.0189811
000030 59 dd 7a 3f 0e ad 80 3f be 5e 81 3f bc f9 85 3f
       0.97994 1.0052812 1.0107038 1.0466838
000040 70 b1 82 3f 6f 83 7a 3f 10 7a 7f 3f cf 0c 82 3f
       1.02104 0.978568 0.9979563 1.0160159
000050 d4 13 84 3f f6 96 86 3f 62 f6 7d 3f 64 1d 83 3f
       1.0318551 1.051482 0.99204075 1.0243344
000060 45 9d 84 3f 79 67 84 3f ca 94 83 3f 70 6a 84 3f
       1.0360495 1.0344077 1.0279782 1.0344982
000070 9e 7a 84 3f 99 04 86 3f a2 d6 81 3f 4a e5 86 3f
       1.034992 1.0470153 1.0143626 1.0538723

bn1.bias f4 [32]
000000 31 a1 f4 bc 39 47 b2 bc bd fa 4f bc cf 13 3d 3d
       -0.029862018 -0.021762477 -0.012694058 0.04616147
000010 70 22 21 3b 1c 11 3c bc bd af 89 bc d9 b7 59 3b
       0.0024587177 -0.011478689 -0.016807431 0.0033221154
000020 cd 8f 0d 3d 1d 75 25 3c 42 70 50 3c c1 5e 71 3c
       0.034560967 0.010098723 0.012722077 0.014732064
000030 d1 bc 50 bd 87 9b 92 bc 61 a9 13 bc db bb 04 bc
       -0.05096132 -0.017896427 -0.009012551 -0.008101429
000040 81 9b ac bc ef ba 23 bd 76 63 f4 bc 27 8e 08 bc
       -0.021070244 -0.039973196 -0.029832583 -0.008334673
000050 98 9f 24 bb 2e eb e2 bc ff 8e 7e bc 7e 3f 37 bc
       -0.002511954 -0.027700033 -0.015537023 -0.011184571
000060 a1 83 fe 3c f0 af 44 bc 0c 5f 94 3b 2b 29 38 3c
       0.031068625 -0.012004837 0.004527932 0.011240284
000070 c0 22 a4 bc 45 2c 3b bb 9f 58 44 bb fa 64 c7 3c
       -0.020036101 -0.0028560322 -0.002996005 0.024340142

bn1.running_mean f4 [32]
000000 35 ec 40 bd a1 4a ae bd 78 be 2c 3d f9 58 a3 bd
       -0.047100265 -0.08510328 0.042173833 -0.079759546
000010 2b 0c 78 bd 64 31 8c bb 95 93 fd 3b 23 dd 90 bd
       -0.06055848 -0.0042783488 0.0077385404 -0.070734285
000020 29 f5 ae bd 5a 0e 2c 3d d5 4a 5b bd 7f b6 67 bd
       -0.08542854 0.042005874 -0.053538162 -0.056570526
000030 5f 4d 96 bd c7 55 86 3d cd eb 70 bd b9 ae e2 3c
       -0.07338976 0.065593295 -0.058818627 0.027671205
000040 f7 74 a9 3d 4a 31 72 3c ee 9d bf 3d 59 a8 86 bd
       0.082742624 0.014782259 0.093562946 -0.065750785
000050 a5 6c 89 3d 2e c1 4c 3d 2d 91 38 3d f6 f9 be 3d
       0.067101754 0.049988918 0.045060325 0.0932502
000060 b8 bb 96 bd 27 ed ad bc 5a 46 bc bd 76 89 06 3d
       -0.07360023 -0.021231247 -0.09193106 0.032845937
000070 a1 29 9e 3d 59 3f a7 bc 76 2f 53 3d 93 d7 a7 bd
       0.07722784 -0.020415949 0.051558934 -0.081954144

bn1.running_var f4 [32]
000000 fb fe 23 3e a7 ce bc 3e 2c 1f 17 3e 1a 2d b6 3e
       0.16015236 0.36876413 0.14757985 0.35581285
000010 c8 f6 d7 3e 37 61 c4 3e bb de 64 3e db c0 82 3f
       0.42180467 0.3835542 0.2235059 1.0215105
000020 4d 74 64 3f 7b 66 0d 3e 8a ca 2a 3f 5e a5 82 3f
       0.8923996 0.13808624 0.667153 1.0206716
000030 77 33 06 3e da 43 c7 3d 30 11 a8 3e 6b ed 7b 3e
       0.1310557 0.097297385 0.32825613 0.24602287
000040 8f ab bb 3e 9a 82 6c 3e 72 15 d1 3e 38 59 1a 3e
       0.36654326 0.23096696 0.40836674 0.15073097
000050 0e be d7 3d 5d e9 49 3e 98 15 6d 3e 6a 69 63 3f
       0.10534297 0.19717927 0.23152769 0.88832724
000060 e2 e3 98 3e b1 2a c9 3d c7 0d bf 3e 8c 21 4f 3f
       0.2986136 0.09822596 0.373152 0.80910563
000070 ac 1d af 3e a8 0b 05 3f 16 5d 86 3f da 19 40 3e
       0.34202325 0.5197091 1.0497158 0.18759862

depthwise.weight f4 [32, 1, 3, 3]
000000 ad 4d 66 be 6f 51 70 be 5b 07 25 3e 30 37 60 be
       -0.22490568 -0.23468564 0.16116087 -0.21896052
000010 d8 5c fc bd f7 ec 14 3e f4 da 12 be 0b 71 d7 3c
       -0.12322396 0.1454352 -0.14341336 0.02629902
000020 dd 4e 58 3e 41 76 b5 bb 7d f9 45 3e e3 89 97 be
       0.21123834 -0.0055377786 0.19333453 -0.29597387
000030 cc 9f c3 be fe 95 a1 bd 6c e7 fa bd dd 1f a1 be
       -0.38207853 -0.07889937 -0.122511715 -0.31469622
000040 08 b0 ad be 49 49 86 3e ce e9 60 3e 63 40 c2 3e
       -0.33923364 0.26227787 0.2196419 0.37939748
000050 2a dd a1 3c 0d e0 17 3e 1a df a3 3e 03 1b 85 3e
       0.01975878 0.14831562 0.3200615 0.2599717
000060 40 f7 ed 3c 91 8e 80 bc b8 37 76 be 21 96 74 3e
       0.029048562 -0.015692981 -0.24044693 0.23885395
000070 0c 09 9d be ac 97 a1 be 91 a9 b9 3c 9d ae 53 3d
       -0.30670965 -0.3156103 0.022663863 0.051680196
000080 fe 54 c0 bd 83 fb 70 3d 89 a5 65 be db b6 12 bc
       -0.09391211 0.05883361 -0.22426428 -0.008954729
000090 bc a4 0a 3e 38 01 32 be a4 ee 64 3e 87 5a 4e bb
       0.13539404 -0.17383277 0.22356659 -0.0031487064
0000a0 ae 1a 9e be 7f f6 13 be d3 66 ba be 9c 9b 09 be
       -0.3087973 -0.144495 -0.36406574 -0.13438267
0000b0 f1 2c 6b 3e 29 ca ac bd 75 2e 89 be 73 6d a1 be
       0.22966363 -0.084369965 -0.26793256 -0.31528816
0000c0 3c cf c7 bc 13 c4 95 be d7 ea b9 bd 32 8e 92 bd
       -0.02439081 -0.29251155 -0.09077995 -0.07156028
0000d0 a7 26 24 bd b3 f0 9a be c0 df 20 3e 51 38 c3 3e
       -0.040075924 -0.30261764 0.15710354 0.38128904
0000e0 94 da 81 ba f8 b1 1a bd 1e 29 bf 3d 46 bc d2 bc
       -0.000990706 -0.03776738 0.09334014 -0.025724541
0000f0 d7 2e a0 3e d1 38 37 3e b2 44 78 be 2e ef 7d be
       0.31285736 0.17892767 -0.24244955 -0.24798271
000100 3e 89 bc 3d be b9 7f be 94 ff 0d be a9 a5 30 3e
       0.09205864 -0.24973199 -0.13867027 0.17250694
000110 29 95 c7 bd fe 9a e7 3d 08 b7 85 be fc 05 a8 be
       -0.09745247 0.11308859 -0.26116204 -0.32817066
000120 b1 26 ac be 4f 46 3a be 20 89 8b bb 42 b3 0f be
       -0.3362327 -0.18190883 -0.00425829 -0.14033225
000130 45 78 5b 3e a1 48 cc 3c 1f 24 39 be f3 bb 7b 3e
       0.21432598 0.024936976 -0.18080185 0.24583416
000140 4f 83 46 be 63 47 77 bc bc cc fd bd b9 fb 92 be
       -0.19386028 -0.0150927035 -0.123925656 -0.28707674
000150 18 b9 62 3e c3 2c 9e 3d 9f 94 a8 3e 4c 38 b5 3d
       0.2214092 0.07723381 0.3292589 0.088486284
000160 b2 03 ac 3e 41 ca 42 bd d2 cc 2d 3e b7 1f e7 3c
       0.3359657 -0.047556166 0.16972664 0.028213365
000170 19 3d ac 3e 32 06 73 3e e8 0b 69 3e 3a 38 80 3d
       0.33640364 0.23732832 0.22758448 0.06260724
000180 82 f2 af 3e 5c 0d 8d bc 1b 8d 8b 3e e4 b1 40 3e
       0.34364706 -0.017218284 0.27256092 0.1881786
000190 66 4f 47 3e 42 52 51 be 26 ae 81 be e0 4f 41 3e
       0.19463882 -0.20441535 -0.25328177 0.18878126
0001a0 60 b6 f4 3c 88 e5 6e 3e 9c 88 18 3e b4 ff 5f 3e
       0.02987212 0.23329747 0.14895862 0.21874887
0001b0 ca e4 a7 3c be ac aa 3e a2 d9 ba bd b0 c3 50 3e
       0.020494837 0.33334917 -0.091235414 0.20387149
0001c0 ef 20 28 be c7 f6 8f bd 1c a6 74 3e 3c 33 7c be
       -0.16418813 -0.07029491 0.2389149 -0.2462892
0001d0 d4 a2 8b 3e 28 2e 66 3e 02 36 24 be 55 73 8d 3d
       0.27272666 0.22478545 -0.16036227 0.069067635
0001e0 06 50 e9 3d 88 8a 13 be 5d 95 5c be 2e e4 a1 be
       0.113922164 -0.14408314 -0.21541353 -0.316194
0001f0 04 10 f0 3d c8 97 80 be f3 e6 97 be d0 da b6 bd
       0.11721805 -0.251158 -0.29668388 -0.08928454
000200 8c 47 20 bc 98 a8 f3 bd 6d b2 a1 be 85 11 09 3d
       -0.009782683 -0.11897391 -0.3158144 0.033463974
000210 a7 33 47 be 66 5d fa bb 06 89 95 be 59 b0 19 bb
       -0.19453298 -0.0076405285 -0.29206103 -0.0023451059
000220 40 9d 94 be c3 6b 0d be ea 16 ae be 58 d3 39 3e
       -0.29026222 -0.13810639 -0.34001857 0.18147027
000230 a9 f3 a3 3d 72 38 62 bd c0 2e 34 be b8 77 58 be
       0.08005459 -0.05522961 -0.17595959 -0.21139419
000240 9a e2 29 be 60 1f 92 3e 83 29 6c be ea 81 9c 3e
       -0.16590348 0.28539562 -0.2306271 0.30567867
000250 e0 ca 2a 3d f3 05 45 be d0 96 83 3e 4b b9 1b 3e
       0.041697383 -0.1924055 0.25700998 0.15207402
000260 b3 a9 96 3e 49 49 9d 3e 40 12 9b 3e 40 a5 9b 3d
       0.29426345 0.30719975 0.3028736 0.07599878
000270 e5 84 29 be c4 6e 8c be d3 d6 90 3e 89 84 a0 3e
       -0.16554601 -0.27428257 0.28288898 0.31351116
000280 47 89 26 3e 89 9d 17 bd 6f a4 fe 3d 01 b2 26 3e
       0.16263305 -0.03701547 0.12433707 0.1627884
000290 2f 36 60 3e f9 d8 9b 3e 49 60 86 be 50 3a d4 3d
       0.2189567 0.30438974 -0.26245335 0.10362685
0002a0 ce 08 92 be 90 26 e6 3d bc a3 a6 bd 4f 4a a4 be
       -0.28522342 0.11237824 -0.081366986 -0.32087943
0002b0 9f 8d de 3d 08 3c a6 be cb 9d 6c 3e 90 20 5c be
       0.10866856 -0.32467675 0.23107068 -0.21496797
0002c0 68 41 9c bd f2 ef 71 3e 27 67 52 be 26 84 5f be
       -0.07629663 0.23626688 -0.20547162 -0.21827754
0002d0 f3 37 b9 bd da 81 75 bd b3 7f 31 be 88 59 85 be
       -0.090438746 -0.05993829 -0.1733387 -0.2604487
0002e0 32 09 81 be c5 3b c6 3d f2 b4 5d bd 50 94 17 be
       -0.25202328 0.09679369 -0.05412764 -0.1480267
0002f0 16 f7 7f be bf 0c 0b 3e 7c 04 bf 3e ed 37 a4 bc
       -0.249966 0.13579081 0.3730811 -0.020046199
000300 aa ba a6 3e 24 0a 4d 3e 61 58 80 bd 30 e4 a5 3e
       0.32564288 0.200234 -0.06266857 0.32400656
000310 4c 41 98 3a 8c 13 12 be 3b 67 0c be 13 22 2e bd
       0.001161614 -0.14265269 -0.13711254 -0.042512964
000320 02 9c 19 3e 19 5a 6d be 95 47 01 3e e3 77 20 be
       0.15000919 -0.23178901 0.12624963 -0.15670733
000330 fa 22 44 3e ac 62 9c be db 7b 1e be 23 64 99 be
       0.19153967 -0.3054403 -0.15476935 -0.2995921
000340 e2 40 82 bd d0 27 5f 3e 80 9f a9 3e 44 c9 37 be
       -0.06360032 0.21792531 0.331295 -0.1794787
000350 30 45 ab 3e 53 19 ac 3e 78 4d 2e 3e 6f 6f 01 3e
       0.33451223 0.3361307 0.1702174 0.12640165
000360 0b c1 59 bc e0 33 a7 be 02 86 19 be 22 8f 94 be
       -0.013290654 -0.32656765 -0.14992526 -0.29015452
000370 72 25 ff bd 9e 00 64 3e 26 4e a7 be 96 85 13 3e
       -0.12458314 0.2226586 -0.3267681 0.14406428
000380 41 75 11 be e1 77 03 be 3d 24 96 be dd 40 71 3d
       -0.14204885 -0.12838699 -0.29324523 0.05889975
000390 ba 00 ed bd fd b5 25 bd 7c 4a a9 be cd 50 09 be
       -0.11572404 -0.04045676 -0.3306464 -0.1340973
0003a0 6b 38 9e be 56 8c 0d 3e 34 a2 a9 3e 5d 5f 4a be
       -0.30902418 0.13823065 0.33131564 -0.1976294
0003b0 0d c8 99 3e 2c 1f 08 3e 16 8a 80 3d 42 6c 8a 3e
       0.3003544 0.13293141 0.06276338 0.2703572
0003c0 95 6b a3 3d ff 63 75 be e6 ec ab 3d f1 15 b7 3d
       0.07979504 -0.23963927 0.08394794 0.08939732
0003d0 95 6d 30 be 65 fd c3 bd d9 e4 25 3c 42 7f b5 be
       -0.17229302 -0.095698155 0.010125362 -0.35448653
0003e0 9f 3f 7e be 2d 5d 72 bd 97 70 84 be 7b 53 19 3e
       -0.24828957 -0.05917089 -0.2586715 0.14973252
0003f0 81 7b 1a 3e 0c 62 62 bd 21 16 1c be 8f 34 b8 be
       0.15086176 -0.055269286 -0.15242817 -0.359776

depthwise.bias f4 [32]
000000 4d 98 60 3e 85 da 14 3e 33 dd 6e be d3 fe 19 3e
       0.21933098 0.14536484 -0.23326568 0.15038614
000010 24 5e a1 3e df 35 32 be bb 91 72 3e 36 b1 b4 bd
       0.31517136 -0.17403363 0.23688404 -0.08822863
000020 02 62 0d bc 47 f6 2a be da 41 73 3e a9 69 10 3e
       -0.008629324 -0.1669551 0.23755589 0.14102806
000030 0f e9 0a 3e 42 c4 18 3e 43 1d 5f 3d 36 ef 0a 3e
       0.13565467 0.14918616 0.054471266 0.13567814
000040 74 0f e4 bd 0b 26 4c 3d a2 6e 01 3e 7b 46 c9 bd
       -0.1113576 0.049840968 0.1263986 -0.09827896
000050 ab 9c 01 be cf 34 ae bd f8 aa 40 be f0 f7 3d be
       -0.1265742 -0.08506166 -0.1881522 -0.18551612
000060 e8 cc 8c 3d 59 e1 9c 3e 56 87 be 3d ed 67 5d 3d
       0.0687502 0.30640677 0.09303157 0.05405419
000070 a9 bf 20 be 71 3a 36 3e 6f 03 73 3e ac 0c 77 3d
       -0.15698113 0.17795731 0.23731779 0.06031482

pointwise.weight f4 [64, 32, 1, 1]
000000 d7 55 8d 3d 35 ff 59 bd 83 24 9d 3c bf d9 2d 3e
       0.06901138 -0.0532219 0.01918245 0.16977595
000010 7b d1 3a 3d 52 cc 30 be a1 cf b3 bd 32 a0 62 bd
       0.045609932 -0.17265442 -0.087798364 -0.055328555
000020 64 3a 10 3e f5 b4 57 3e 15 cf ef 3c 39 b2 e6 bd
       0.14084774 0.21065123 0.02927355 -0.11264462
000030 26 66 1c 3e 69 8c 75 3c 37 32 3f be aa 5f fd 3d
       0.15273342 0.01498709 -0.18671499 0.12371762
000040 d0 87 a6 bd 3c 7b d3 3d 42 ab 0c be 16 22 1d be
       -0.08131373 0.103262395 -0.13737205 -0.15345034
000050 57 77 00 3e d1 41 21 be 53 75 27 be 9d 39 f5 3d
       0.12545525 -0.15747763 -0.1635335 0.119738795
000060 91 95 d5 3d f8 6b f0 bd 63 46 cb 3d 30 a9 47 bc
       0.10428918 -0.117393434 0.099255346 -0.012186334
000070 0a 1e 76 3d 81 e8 86 bc d7 e7 7e 3d 11 60 f6 3d
       0.06008724 -0.016468288 0.06223282 0.12030042
000080 11 f2 90 3d d2 3f ae 3d 31 30 dd bb 32 12 42 3e
       0.070774205 0.085082665 -0.0067501296 0.18952253
000090 12 04 f1 bd 2d fd 45 be b7 ca ae bd c8 db d7 3b
       -0.117683545 -0.1933486 -0.085347585 0.0065874793
0000a0 2e 49 eb bd 3f 60 c5 bd 80 6a 73 bd 15 32 bd 3d
       -0.11488567 -0.09637498 -0.05942774 0.09238068
0000b0 93 78 14 bd 5b 58 a2 ba 5c e0 02 bd d4 c7 2a be
       -0.0362478 -0.0012385951 -0.031952247 -0.16677791
0000c0 93 1a 72 3d 63 3e 17 be ca 1e c8 bc 46 e8 1f be
       0.059107374 -0.14769892 -0.024428744 -0.15615949
0000d0 e3 a9 1c be 2f 52 bc bd c3 60 fb 3d ff f2 7c bc
       -0.15299182 -0.09195363 0.12274315 -0.015438794
0000e0 e7 60 bd bd 1b 61 e2 bb b5 76 87 3d 45 95 d4 bd
       -0.09246998 -0.0069085485 0.066144384 -0.103800334
0000f0 b0 62 8e bd 6b 43 e7 bd 66 14 ab 3d 21 92 d1 bc
       -0.06952417 -0.11292156 0.083535 -0.025582375
000100 99 f3 50 3d df 91 81 bd a7 8f 2f 3e 08 e1 b9 bc
       0.051013563 -0.06326651 0.17144643 -0.022690311
000110 d2 eb 74 bb 45 04 c0 3d fd 47 a4 3d f5 01 1e 3e
       -0.0037372005 0.09375814 0.08021543 0.15430434
000120 c7 00 99 bd 4b f7 f4 3c 67 74 cd bd c0 ec c5 3d
       -0.074708514 0.029903075 -0.100319676 0.09664297
000130 69 7f e7 3d 1d 5d 76 bd ad 40 eb 3d 0b 8c 1e be
       0.113035984 -0.060147393 0.11486945 -0.1548311
000140 7e 2d de 3d bb 06 96 3c b5 cc ba 3d 11 5e ce bc
       0.10848521 0.018313756 0.09121076 -0.025191339
000150 79 d7 bc 3d b0 42 2f 3e 84 2e fe bc 02 7c 14 bd
       0.09220786 0.17115283 -0.03102804 -0.036251076
000160 e6 7b b0 3d f8 4a db bd 10 24 35 3e e1 7f c5 bc
       0.08617382 -0.107076585 0.17689538 -0.024108829
000170 67 d5 d1 bd bf a8 32 be fc 61 36 bd 75 36 3b 3e
       -0.102457814 -0.17447184 -0.04452704 0.18282492
000180 3b e8 25 bd 79 33 cb 3d 3b f9 0c be f3 22 33 be
       -0.040504675 0.09921927 -0.13766949 -0.17493801
000190 d2 76 82 be ea f4 0e 3c 18 82 07 3e 39 bb 07 3d
       -0.25481278 0.008725384 0.1323322 0.033137534
0001a0 90 b8 0d 3e ce f5 a5 bd ff 72 c8 bd e2 c2 19 3e
       0.13839936 -0.08103524 -0.09787559 0.15015748
0001b0 7d 57 00 be b8 4c cd 3d f6 34 d0 bd 3f 9e c7 bd
       -0.12533374 0.100243986 -0.101663515 -0.0974698
0001c0 a3 66 07 3c e5 21 12 be bb a7 f6 3c 26 ed d9 bd
       0.008264217 -0.14270742 0.030109277 -0.106409356
0001d0 af ce 1d bd 23 c3 c6 bc 93 55 fc bc 47 40 4e 3d
       -0.038527187 -0.02426297 -0.030802524 0.05035427
0001e0 38 c0 a5 bc 78 68 d8 3d 45 19 33 3e aa 31 f1 3d
       -0.020233259 0.10566801 0.17490108 0.11777051
0001f0 43 5c da ba 28 41 57 be 69 66 f2 3d ab 22 4c 3e
       -0.0016659576 -0.21020949 0.118359394 0.199351
000200 ff 32 ee 3d 5e 68 25 3d 51 62 b1 3d a1 80 1b be
       0.116308205 0.040382735 0.086613305 -0.15185787
000210 67 89 d5 3b 18 de 00 3e ec 31 33 3d 43 78 45 bc
       0.006516624 0.12584722 0.04374878 -0.012052598
000220 52 be 99 3d 94 1a e7 bc 39 c7 1b 3e c9 db c7 3d
       0.07507004 -0.028210916 0.15212716 0.097587176
000230 fe 4d 95 bd c8 53 1e be 50 5f 13 be d2 1e 10 be
       -0.072902665 -0.15461648 -0.14391828 -0.14074257
000240 39 2d 12 3d 16 40 a4 bd 98 e3 99 bd 9c a9 ae bc
       0.03568766 -0.08020036 -0.07514113 -0.02132111
000250 d0 71 3a 3e 12 c0 16 3e 71 ab 2a be b6 a9 74 bd
       0.18207479 0.14721707 -0.16666962 -0.05973216
000260 2d 4b c5 bd 45 0c 0b be 0a 34 5c bd b1 62 10 be
       -0.09633479 -0.13578899 -0.053760566 -0.14100148
000270 ac 43 db 3d a6 96 03 3e ea 1e 78 bc 58 c0 3c bd
       0.10706267 0.12850437 -0.015144089 -0.04608187
000280 a3 bd 91 3d 67 7f 5f bd d2 63 0f 3d 83 9d 10 3e
       0.071162485 -0.05456486 0.035007305 0.14122586
000290 30 c6 13 be 91 7c 20 be f1 55 f3 3c 5a 34 af 3d
       -0.14431071 -0.15672518 0.029704066 0.08554907
0002a0 49 9d f2 bd bb 49 6c 3e 56 17 19 be 2d 40 e1 3d
       -0.11846406 0.23075001 -0.14950308 0.10998569
0002b0 ec 05 f6 3d 1c f3 68 3d 36 f5 18 be 35 00 d2 3d
       0.12012848 0.056872472 -0.1493729 0.10253946
0002c0 3e c2 07 bd e2 e2 35 be 47 10 eb 3d 1d cc 31 be
       -0.03314423 -0.1776233 0.11477714 -0.1736302
0002d0 1b a0 a8 bd 94 4f 3f bd 0a a9 c8 bd ff c9 3a bc
       -0.08233663 -0.04670675 -0.09797867 -0.011400699
0002e0 f9 2e dc bd 4f cd c9 bd 3a 44 fb 3c 88 d9 d5 3d
       -0.10751147 -0.09853613 0.030672181 0.104418814
0002f0 90 5e 3e 3c ed 96 b7 bb 06 6c 24 be cd a5 3a 3e
       0.011619225 -0.0056027086 -0.16056833 0.1822731
000300 83 06 8c be ce 8c 01 bd 1a 5a f1 3d e6 71 08 3e
       -0.27348718 -0.031628422 0.11784764 0.13324699
000310 7d 0c 5f bd 5f aa f7 3a ba d3 35 3e 06 02 39 be
       -0.05445527 0.0018895379 0.17756549 -0.18067178
000320 27 30 ed 3d b5 e4 7d bd a1 4c 0c be dc cf 8f bd
       0.1158145 -0.06198569 -0.13701107 -0.07022068
000330 11 c2 9a 3d 96 97 cd 3d b7 9f 10 be df e5 2f 3c
       0.075565465 0.10038678 -0.14123426 0.010735958
000340 48 02 20 3e 01 87 69 bc da 1b 2c be a7 a6 04 be
       0.1562587 -0.014253379 -0.168075 -0.12954198
000350 1c f8 45 3e 45 1b f7 3d 6a 43 24 be d0 31 24 bb
       0.19332927 0.12065748 -0.16041341 -0.0025054105
000360 1b 0f 12 3e e1 fb 1d be 5e e1 8b bc c8 1b 05 3e
       0.14263575 -0.15428115 -0.017075237 0.12998879
000370 8d 1b 01 be 95 e5 e4 bd 69 c4 b1 3d 38 68 db bd
       -0.12608166 -0.11176602 0.086800404 -0.107132375
000380 62 a1 d9 3d fd 28 13 3c fd 85 c0 3d 3e 49 ff 3d
       0.106264845 0.00898194 0.09400556 0.12465142
000390 f8 19 58 be 81 6e 4c bd 7b 53 ba bd 5c e5 d6 bc
       -0.21103656 -0.049910072 -0.09097954 -0.026232414
0003a0 9c a2 02 3e 08 ca de 3d e2 54 4b 3c df b7 2f be
       0.12757343 0.10878378 0.012410374 -0.17159985
0003b0 03 a2 30 3e 32 14 86 3d 3c e7 9f bd 3f 41 c5 3d
       0.17249303 0.06546821 -0.07807776 0.09631585
0003c0 8b 0f 74 3d f6 65 13 bd 17 fb 12 3e a2 14 eb 3d
       0.059585135 -0.03598591 0.14353596 0.11478545
0003d0 89 2b ab bd 38 95 0b be 48 fc d2 bd 30 15 ff bc
       -0.08357913 -0.13631141 -0.10302025 -0.031138033
0003e0 18 f9 29 be 73 11 f2 bc 45 ed 02 3d 8d f0 c4 3d
       -0.16598928 -0.029549336 0.03196456 0.09616194
0003f0 ee f5 0c 3e b4 fc 09 be 90 3e b9 3d 6a cd 97 3e
       0.1376569 -0.13475305 0.09045136 0.29648906

pointwise.bias f4 [64]
000000 e5 a5 16 be 4f 16 c1 bd 23 55 97 bd 8a 24 fc 3d
       -0.14711721 -0.09428083 -0.073892854 0.12311657
000010 be 91 06 3d 9c cf d1 bd d8 5d f7 bb 8b 9f 32 bd
       0.032853834 -0.102446765 -0.007549029 -0.043609183
000020 d5 65 87 bd d1 a9 cf bd 97 38 1e 3e b5 de 91 3d
       -0.0661122 -0.10139812 0.15451275 0.07122556
000030 d6 fa 17 3e d3 b2 37 be 6c 96 0f 3e 41 a3 db 3c
       0.1484178 -0.1793931 0.14022225 0.026811244
000040 68 2b ee 3d 43 94 1f bd bf 87 eb bd fd 95 a0 bd
       0.11629373 -0.038959753 -0.11500501 -0.07841108
000050 b3 40 3a bd fc 6b a2 bd f3 a8 48 3d 0f bc 83 bd
       -0.04547186 -0.07930753 0.048989248 -0.06432354
000060 cc ee 9e bd da 38 2e bd fb 24 97 3d 9d 40 cc 3c
       -0.07760391 -0.042534687 0.073801 0.024933154
000070 ee 06 34 3e a5 3e f7 bd a1 d5 4e 3c 08 37 a4 3d
       0.17580768 -0.12072495 0.012624175 0.08018309
000080 ec a2 af bd 39 73 ad bd 47 44 b5 3d 76 06 82 3d
       -0.08575997 -0.084692426 0.088509135 0.063488886
000090 f9 74 22 3b 18 ff be 3b 5f ec da bd d0 ad 0a 3e
       0.002478896 0.0058287494 -0.106896155 0.13542867
0000a0 eb 15 9a 3d d1 6e 15 be 49 a4 a0 bd 0c fa 31 3e
       0.07523712 -0.14593054 -0.07843835 0.17380542
0000b0 cd 2f 85 bd e9 f3 20 3e 55 b9 bd 3d ff 38 e3 3d
       -0.06503258 0.15718044 0.09263865 0.110948555
0000c0 b9 44 06 3c f5 f9 20 be d9 14 95 3c 18 93 b6 3d
       0.008195096 -0.15720351 0.018198417 0.08914775
0000d0 0d 26 1e bc f0 8d 0e 3e 23 66 ae 3d 39 4e 80 3d
       -0.009652627 0.13921332 0.08515575 0.0626492
0000e0 bc 47 2f bd c1 ea 9e bd 8d b7 1d 3e f7 ea 3b bc
       -0.04279302 -0.077596195 0.1540205 -0.011469594
0000f0 10 4f 83 bc 46 a2 f2 3c 35 99 22 3c f8 21 99 3d
       -0.01602891 0.029618394 0.009924223 0.07477182

fc.weight f4 [2, 1024]
000000 8c 99 28 3b fb 9b 0d bc 8d 4f 2c 3d db fb 5c 3d
       0.0025726287 -0.008643146 0.042068053 0.053951126
000010 f7 b6 cc 3b 77 20 da 3b 03 c9 09 3d d4 04 1b 3b
       0.006247397 0.006656702 0.033638965 0.0023654
000020 e6 52 8d 3a 43 57 ca bb 41 9a 8e bc 08 ed dc 3c
       0.0010782152 -0.006174953 -0.017407538 0.026968494
000030 59 6e 03 bd f2 fb 21 3c ca 37 19 3d c4 88 d8 3c
       -0.032087658 0.009886729 0.03740672 0.026432402
000040 2a 6f 95 3c 53 23 08 3c 00 12 12 3d a4 b1 3a bc
       0.018241484 0.008309203 0.035661697 -0.011394892
000050 b9 13 12 3d c3 49 70 3d ab ae af 3d 54 39 10 3d
       0.03566334 0.058664095 0.08578237 0.035210922
000060 f4 c5 ce 3c 57 66 ee 3c 82 98 dc 3c b8 b6 80 3d
       0.025240876 0.029101534 0.02692819 0.06284851
000070 5c dc 79 bc 43 c2 11 bc ad fc c3 3c 7a ac 7c 3d
       -0.015250292 -0.008896413 0.023924196 0.061687924
000080 a6 f6 60 bd d0 df 97 bd ec b0 ab bd 14 b6 df bc
       -0.054922722 -0.07415736 -0.083833545 -0.027308501
000090 d6 37 8e bd bd 7f c3 bd b7 d7 e3 bd 7f 22 22 bd
       -0.069442436 -0.095458485 -0.11125129 -0.03958368
0000a0 3c 52 07 bd d6 4f f6 bc 40 7b 00 be 5b e6 e5 bd
       -0.03303741 -0.030067366 -0.12547016 -0.112255774
0000b0 a5 c4 14 bd 3a 40 99 bd 7c 73 b8 bd b5 0d fc bd
       -0.036320347 -0.07482953 -0.09006402 -0.12307302
0000c0 71 9a f7 3c 8e 04 4d 3d 5d ed a5 3c a8 4f ba bc
       0.03022501 0.05005317 0.020254785 -0.022743061
0000d0 bd e9 45 3d 00 77 0f 3e 1a 34 db 3d ec 8c 30 3d
       0.048318613 0.14010239 0.10703297 0.043103144
0000e0 40 ba fa 3c 65 50 9b 3d 0d 26 2e bd e0 8e 18 3d
       0.030606389 0.075836934 -0.042516757 0.03724563
0000f0 8f 69 07 3d d3 2a 66 bb e0 5a ec 3c 07 90 55 3c
       0.033059653 -0.003512074 0.028851926 0.013034827
000100 fc 49 04 bd bf ee 65 bc 6c 58 26 3c e7 5b 0c bc
       -0.03229712 -0.014033972 0.010152917 -0.008566833
000110 6a ed 66 39 14 81 1c bc 6b 3b 6b bd 34 80 39 3c
       0.00022022953 -0.009552259 -0.057429712 0.01132207
000120 ab 6e 31 3c 28 ca f9 3c fc c7 8e 3b ef 7a 3e 3c
       0.010829608 0.030491903 0.004357336 0.011625989
000130 af ea 7b 3c cb 17 9e 3c 03 91 58 bd 03 40 37 bd
       0.015375777 0.019298455 -0.05287267 -0.04473878
000140 6c c2 3b 3d 25 6c ad bb 63 8e 60 bc 47 a3 18 3c
       0.045839712 -0.005292433 -0.013705823 0.009316272
000150 30 55 ea 3c 31 f1 52 3d b4 c2 40 3d 9b 09 b0 3b
       0.028605074 0.05149955 0.047060683 0.005372239
000160 4a 29 4d 3d 9c 82 a8 3c ea 3c 89 bc 3f 04 43 3c
       0.050088204 0.020570092 -0.016752679 0.011902868
000170 96 3e 59 bc 29 48 e8 3c 75 9f 47 3d 6a 38 29 3d
       -0.013259551 0.028354721 0.048736054 0.041313566
000180 33 a1 09 bc d1 36 34 bd e0 67 99 bd 82 70 67 3c
       -0.008400249 -0.04399759 -0.07490516 0.014125945
000190 48 2d 7e 3c 1c 07 0e bd 6c d9 25 bd 36 54 bc 3c
       0.015513726 -0.03467475 -0.040490553 0.022989374
0001a0 9a fc 6f bc 30 a1 f2 3b 22 a8 85 3c bf 97 7e ba
       -0.014647627 0.007404469 0.016315524 -0.0009711943
0001b0 ee af 68 bc 7b 3f 00 bd 43 02 54 bd 8d b1 5b bd
       -0.014202101 -0.03131054 -0.05175997 -0.053636122
0001c0 b5 42 cf 3c 56 09 e4 3b f7 64 d2 3c d0 89 10 3c
       0.025300363 0.0069591207 0.02568291 0.00882192
0001d0 51 ca 1c 3d 9e d4 43 3d 6b a9 58 3d a1 94 9b ba
       0.03827888 0.04781019 0.052895945 -0.0011869856
0001e0 6c 8d 55 3d 7e c4 90 bc 9b 38 be bc b2 b6 2b bd
       0.052136824 -0.01767182 -0.023220351 -0.04192228
0001f0 a6 e9 d4 3c c7 f8 fb 3a 08 1b a7 3c 21 54 10 3d
       0.025990319 0.0019223922 0.020398632 0.03523648
000200 4a 7e 21 bc 0f 48 fe 3c 64 7c c5 3a d4 5b 1f 3d
       -0.00985677 0.03104022 0.0015066979 0.038905933
000210 8f e6 a1 bc 06 5d 9f 3c ad 81 ca 3c 03 f8 8d 3b
       -0.01976326 0.019453537 0.024720037 0.004332544
000220 24 ba 31 3d 0f 39 31 3d 0a 1b 17 3d 93 03 1d 3c
       0.04339041 0.043267306 0.03689102 0.009583372
000230 c1 aa 93 bc d3 81 9e bc 45 5d 0c 3d bb 92 bc bb
       -0.018025758 -0.019349014 0.034268636 -0.0057547963
000240 84 8d f4 bb 7e 66 84 bc ae 0f a8 3c 0b 42 b6 3c
       -0.007463159 -0.016162153 0.02051529 0.022248289
000250 f9 78 60 3c eb ec 8f 3c ea 54 25 3d 55 0b 56 3d
       0.013700717 0.017569026 0.040364183 0.0522569
000260 e1 6f 6b 3d 99 27 96 3c f6 aa e5 bc 95 77 88 3d
       0.057479743 0.018329429 -0.028035622 0.066634335
000270 fe 34 d5 bc 80 70 74 bc af 6a 71 3d 6e 38 5b 3d
       -0.026026245 -0.0149194 0.058939632 0.053520612
000280 62 56 63 bc cf 49 af 3c 1f 2b 6b 3c 3b 97 df 3c
       -0.013875576 0.0213975 0.014353543 0.027293792
000290 b8 ff 6b 3c 7d 28 55 3c 21 fb 88 3d 6e 9b 82 3b
       0.01440423 0.013010141 0.06688524 0.003985814
0002a0 2f 7b 53 3c 17 af 22 bc d5 a8 8a 3b 00 27 04 3c
       0.012907787 -0.00992944 0.004231552 0.008065939
0002b0 6b 59 f3 3a b5 99 df 3a 50 77 46 3d ab 59 9e 3d
       0.0018566077 0.0017059358 0.04845363 0.077319466
0002c0 4a 74 92 bc 17 a5 ef 3b c7 b5 57 3d cd 11 4f 3c
       -0.017877717 0.0073133814 0.05266359 0.012638521
0002d0 e9 eb 32 bc 33 16 24 3d 48 e9 3e 3d 7c 8f 2b 3d
       -0.010920503 0.040060233 0.046609193 0.041884884
0002e0 38 78 39 3d 37 3a a7 3d af 12 e3 3b be 54 83 bc
       0.045280665 0.081654005 0.0069297175 -0.01603162
0002f0 a3 ed 29 3c 14 e5 2d 3d c1 fd 91 3b ac 06 21 3d
       0.010371598 0.042454794 0.0044552987 0.039313003
000300 1a 99 cb 3b f2 7d d1 3c 55 48 fb 3c d9 ab 2d 3d
       0.0062133195 0.02557275 0.030674139 0.042400215
000310 87 86 f4 bc 18 65 db 3b 90 ed bc 3a 19 c7 a7 3c
       -0.029849304 0.006695401 0.0014414061 0.02048068
000320 46 cd d3 3c 65 15 9a 3d 03 30 97 3d 6d 67 25 3d
       0.025854718 0.07523612 0.073822044 0.040381838
000330 80 0c e5 3b 4d 42 e3 3c 5d b1 a7 3c 6e f6 11 3d
       0.0069900155 0.027741576 0.020470316 0.035635404
000340 aa 39 c5 bd ce ad 09 be 37 cb 13 be 12 dc c5 bd
       -0.09630139 -0.13445207 -0.14432989 -0.09661116
000350 ad fb 0e be 59 9d 2d be fa e9 03 be b4 60 6c bd
       -0.13963194 -0.16954555 -0.12882224 -0.05770941
000360 47 c0 cf bd 62 d8 cd bd fc 93 fb bd 7b 2f 9a bd
       -0.10144096 -0.10051037 -0.12284085 -0.075285874
000370 dd 4a e9 bd d2 94 cd bd 50 33 f8 bd 2e c2 03 be
       -0.11391232 -0.10038151 -0.12119162 -0.12867042
000380 a3 5a 4c 3c 02 69 34 3d 88 7f be 3d cc 51 24 ba
       0.012472781 0.044045456 0.093016684 -0.0006268292
000390 8a 62 a4 3b 5f 7b 06 3d 51 3a ec ba 1e 0d eb bc
       0.0050166296 0.0328325 -0.0018022751 -0.028692778
0003a0 fa 2a 4a bc ad 57 0e 3d 50 37 de bc 52 23 ce bc
       -0.012339348 0.034751583 -0.027125984 -0.025163326
0003b0 9f 33 1b 3d ed d2 60 3d 7f 4d 2f bc 84 c9 95 bc
       0.037891027 0.054888655 -0.010699629 -0.018284567
0003c0 13 a1 2a bd 67 a8 2d 3d ab 71 65 3d d9 8e 33 3d
       -0.04165752 0.04239693 0.056016605 0.043837402
0003d0 81 4f ad 3c 8d 8b c7 3c a2 da 32 bb c8 1d 3a 3c
       0.021156074 0.024358535 -0.002729096 0.0113596395
0003e0 4a dd 1c 3d 53 69 8c 3d b1 fa 82 3d 95 a6 5f 3d
       0.038296975 0.068560265 0.06395472 0.054602224
0003f0 a0 ae ba 3c 40 81 02 bc 36 5e d7 3b 56 25 15 bd
       0.022788346 -0.007965386 0.00657251 -0.03641256

fc.bias f4 [2]
000000 73 e7 40 3c c3 c2 8b bc
       0.011773932 -0.017060643
