model/CNN/saved_models/split_pad3_patch50/smallcnn4_fold3_pad9_patch50.pth (torch, 35659 bytes, 12 tensors)

conv1.weight f4 [32, 10, 3, 3]
000000 26 1d 93 bd 4a 20 46 3b 49 56 a8 3c 16 28 90 3d
       -0.07183294 0.0030231648 0.020548956 0.07038896
000010 cc 4a 75 3d 1d c6 97 3d 50 ad 6a bd de bd b2 3d
       0.059885785 0.07410834 -0.05729419 0.087276205
000020 45 0c c7 3c 96 68 c4 bd 6d b3 8f bd 38 f9 b8 bd
       0.024297843 -0.09590261 -0.070166446 -0.0903191
000030 32 f4 ee bc 38 83 4c bd 3f ea 76 bd 5a a7 69 3c
       -0.029169176 -0.049929827 -0.06028199 0.014261091
000040 b9 3e 53 3d 91 56 b0 bd 5d f9 dc bd 03 39 3d bc
       0.05157349 -0.08610261 -0.1078975 -0.011549237
000050 06 c7 04 be 96 78 b1 bd 1a a6 53 3a 6f 67 e2 bd
       -0.12966546 -0.08665578 0.00080737623 -0.11054885
000060 5c 27 9a bc 52 5d 42 bd 39 45 a4 bd cc 9b 11 3d
       -0.018817596 -0.04745228 -0.08021016 0.03554897
000070 86 b8 46 3e 81 dd 69 bd c4 1b 39 3d 4c da 1c 3e
       0.19406328 -0.05709601 0.045192495 0.15317649
000080 5e 3c 45 3d d8 4a f6 3c 8f ba c3 3d 8c 5b a1 bd
       0.048153274 0.030064985 0.095570676 -0.07878789
000090 ec cd a2 3c 09 95 10 bd ff ea 10 bd fa 96 a3 bd
       0.019873582 -0.03529838 -0.03538036 -0.07987781
0000a0 c1 1b 8b bc 22 a1 8b bd 3c 7e 8a bd 67 c0 c8 ba
       -0.016981008 -0.06817843 -0.067623585 -0.001531613
0000b0 6b aa 61 bc f5 a1 92 3d 50 80 7b bd 6b 7c 55 bd
       -0.013773541 0.07159797 -0.061401665 -0.052120607
0000c0 1c 53 54 3d 04 ac 20 3d 63 c8 b6 bd 8b 51 61 bd
       0.05183707 0.039226547 -0.089249395 -0.055009406
0000d0 f6 69 51 3c 75 6f fa 3b 11 2b c6 bd 7b 25 00 3d
       0.012781611 0.0076426812 -0.09676183 0.031285744
0000e0 cc 1f 7e 3d 66 08 95 3d 00 19 d4 bd fd 20 c3 bd
       0.062042043 0.072769925 -0.10356331 -0.095277764
0000f0 55 27 f0 ba 16 19 e1 bb 85 27 d5 3d 8f 9d 94 bd
       -0.0018322269 -0.0068694456 0.104079284 -0.072566144
000100 98 14 87 bd 93 d8 f6 bc b6 5a 0d be 8f 71 f5 3c
       -0.06595725 -0.030132568 -0.13804135 0.029961376
000110 ef f2 6f 3d 32 56 0e 3d a7 f6 ae 3d bf 99 1f bd
       0.05858129 0.03475017 0.08543139 -0.038964983
000120 15 7b f1 3c 66 b5 81 bd 40 3a 39 3d 60 0a 27 3c
       0.029477635 -0.06333427 0.045221567 0.010195345
000130 bb cb 3b bb bc dc ff 3c 88 98 71 bd ad 2d a7 bd
       -0.0028655368 0.031233184 -0.058983356 -0.08163009
000140 0d 9b 28 3d a4 3a 7a 3d ce 57 a5 bd 61 91 29 3b
       0.041163493 0.06109108 -0.08073388 0.0025874006
000150 2e b1 9f bd 53 32 95 bd 00 36 94 3c c7 f8 d0 3c
       -0.07797466 -0.07284989 0.018092155 0.025509251
000160 8f 58 41 3d 64 01 80 3d eb ab 4b bd e4 b3 98 3d
       0.047203597 0.06250265 -0.0497245 0.074561864
000170 1d 14 ea bd a0 87 d7 3c 4b 38 d3 bd aa d0 01 3d
       -0.114296176 0.026309788 -0.103134714 0.03169314
000180 ef 55 1f 3d 49 da cc bd f2 98 6e ba 62 09 e8 bd
       0.038900312 -0.10002572 -0.000910177 -0.11329915
000190 c7 5e 87 3c 2c b1 08 be 5d 4e 30 3d d9 40 d2 3c
       0.016524686 -0.13348836 0.043043483 0.025665687
0001a0 6f 14 43 bd 8e f1 5a bd 22 c9 db bc d9 ac d0 3c
       -0.04762691 -0.05345302 -0.026829306 0.025473045
0001b0 29 3f 61 bd 89 d9 b1 3c 9c 6f c9 3c e4 c2 a2 bc
       -0.054991875 0.021710174 0.024589352 -0.019868322
0001c0 e9 62 29 bd d2 7d cb bd c3 06 75 3c 03 3f 94 3d
       -0.041354094 -0.09936108 0.014955225 0.07238581
0001d0 ab 7f 76 3d dc 6b 9c 3d 3e e6 bf 3d a9 82 9c 3d
       0.060180347 0.0763776 0.09370087 0.07642109
0001e0 a5 ff 09 3e a5 a2 85 bd ae 67 09 3e 38 e3 74 3d
       0.13476427 -0.065251626 0.13418457 0.059787005
0001f0 f2 71 8e 3d 99 7a 14 3d 2b fe 4c 3c d0 7a 39 bb
       0.06955327 0.03624973 0.01251177 -0.0028301962
000200 d6 79 ae bb 73 5f ba bd 9f e7 a9 3d 40 73 d9 3d
       -0.0053245826 -0.09100237 0.08296131 0.10617685
000210 f2 1b 74 bd ad 8f ac bd 3c 56 33 39 ee 16 1f 3c
       -0.059596963 -0.084258415 0.00017102895 0.009710057
000220 f4 68 51 bd 37 1c 4b 3d 63 74 30 bd 0f b1 c7 3d
       -0.05112548 0.049587455 -0.043079745 0.09750568
000230 88 5d e2 bc e6 ea ae 3c 55 40 5c 3d f2 14 85 bd
       -0.02763249 0.021352243 0.05377229 -0.064981356
000240 8f b7 ec 3d 12 fa be bc a5 ad f1 3d c1 47 86 3d
       0.115584485 -0.023312602 0.11800698 0.06556655
000250 3a be 83 3d f8 39 cc 3d 4a 46 27 3d 79 71 6f 3d
       0.06432767 0.09971994 0.040838517 0.058457825
000260 71 d3 09 3d 1e 8d e0 3c 98 17 c0 bd 1e 08 25 3d
       0.033648912 0.02741104 -0.093795 0.040290944
000270 e7 3f d7 bc 8f 86 c9 bd b0 49 6a 3d 8c 2f b1 bd
       -0.026275588 -0.09840118 0.05719918 -0.08651647
000280 fc e3 81 3c 6f 6c c7 3c 3b 66 8f bd 97 ef 26 bc
       0.015855782 0.024343697 -0.07001921 -0.010188959
000290 8a 1c a3 3d 37 bc 48 bd 51 d4 8e 3c d9 f3 07 3d
       0.07964428 -0.04900762 0.017435225 0.033191536
0002a0 50 20 6c bd 84 5b 2d 3d cd 32 b7 bd 1f 13 0a 3d
       -0.057648003 0.042323604 -0.08945236 0.03370964
0002b0 1b c5 bf bd cd b8 ff bd 49 ee c8 bd b7 84 5b 3d
       -0.09363767 -0.1248642 -0.09811074 0.053593364
0002c0 6e 5f a7 3c 2b ab e1 3d 50 e9 1b 3d 22 9e d0 bd
       0.020431247 0.11018976 0.0380643 -0.101864114
0002d0 f3 19 be bd 1f 13 bd 3d f0 59 41 3d b6 02 db bd
       -0.09282293 0.09232163 0.04720491 -0.106938764
0002e0 d7 53 85 bd b5 74 47 bd ce 2f e5 bd 86 f9 c4 3d
       -0.06510132 -0.048695285 -0.11190759 0.09617905
0002f0 ea e7 95 3d eb a7 92 3d c8 22 aa bd ee c6 f9 bd
       0.07319625 0.07160934 -0.08307415 -0.12196146
000300 48 b9 bc bd 7c 4f 58 bd c6 5d 13 be 3e 97 1b bd
       -0.09215027 -0.052810177 -0.1439124 -0.037986033
000310 12 e9 f2 bc e4 6d 6b bd ca 40 90 bd 4d 37 a3 3d
       -0.029652152 -0.057477847 -0.070436075 0.07969532
000320 4f fb 8d bd da be cb 3d 85 54 87 bd db d0 a5 3d
       -0.06932699 0.099485114 -0.06607918 0.08096477
000330 59 5c c4 3d 23 f0 8b bd ed 65 99 bd 1f ff ef bc
       0.095879264 -0.06832912 -0.07490144 -0.029296456
000340 b6 e6 d6 3c 0e e9 53 3d 3c 04 cd 3c 56 1c 00 3e
       0.026233058 0.05173593 0.025026433 0.1251081
000350 9b 9b 16 bd 98 8f f9 3d 99 2d 1a bd 8c 5e 6e 3d
       -0.03676949 0.121855915 -0.03764114 0.058195636
000360 2d 83 9a 3c d8 5a 67 3d bb 64 7e 3d 95 75 c1 3d
       0.018861378 0.05648312 0.062107783 0.09446255
000370 bf 6d 0e 3d 7a ea 01 3e 8f fe 8a bd 61 bc d1 3d
       0.03477263 0.12687102 -0.067868344 0.102410085
000380 95 6d 70 3c d2 81 a9 bd 24 d0 98 bd 67 b4 83 3d
       0.014674564 -0.082767144 -0.07461575 0.064308934
000390 f8 2f 0f bc c0 95 d7 3b 11 f8 33 bd 2c 64 b2 3c
       -0.008739464 0.006579131 -0.043937746 0.021776281
0003a0 46 e4 29 bd ad 59 b8 bd 2d 98 67 bd 23 03 0b bd
       -0.041477464 -0.09001479 -0.05654161 -0.03393854
0003b0 1f 01 09 be 65 dc 70 bd f8 1b 2c bd bb 55 2e bd
       -0.13379334 -0.058803935 -0.04201886 -0.042562228
0003c0 41 99 0b 3b 05 7b cd bd 9f a5 9d 3c 1c 7e 9c bc
       0.0021301063 -0.1003323 0.019244013 -0.019103102
0003d0 b2 37 be 3d 7f 97 9f bc a4 d6 3a 3d 71 6c 1d 3d
       0.09287967 -0.019481419 0.045614854 0.038433496
0003e0 65 8b 97 3d eb 82 ae 3d d2 57 62 3d a5 19 78 3d
       0.07399634 0.08521064 0.055259533 0.06057133
0003f0 31 f0 76 3d 16 3c 27 bd 01 4e 94 bd e0 f9 17 3c
       0.060287658 -0.040828787 -0.072414406 0.009275883

conv1.bias f4 [32]
000000 5e 59 9c bc 81 fe 95 bd 5a 45 9b 3c ab 7c 16 bb
       -0.019085582 -0.073239334 0.018953968 -0.0022962491
000010 84 06 9c 3d 93 ea 34 3d a1 44 0c 3d d6 ba bc bc
       0.0761843 0.04416902 0.034245137 -0.023038309
000020 86 d2 82 3c bb c3 5c 39 d6 20 32 3d 2a d4 bb bd
       0.015969526 0.0002105375 0.043488346 -0.091713265
000030 c0 ee 9d bd 70 ba cb bd 32 b2 a6 3d d3 f1 a8 bb
       -0.077115536 -0.099476695 0.08139457 -0.005155781
000040 55 49 15 bd a1 7b 89 bd 49 bb 00 bc 7c a4 fc bc
       -0.036446888 -0.067130335 -0.007857152 -0.030840151
000050 86 cc b5 3d a7 b1 bd 3b 56 24 c3 3d 59 6e a1 3d
       0.088769004 0.005789 0.09528415 0.07882375
000060 93 84 9d 3d 36 8c 18 bd 77 0e b4 bd f7 b1 b9 bd
       0.07691302 -0.03724309 -0.087918214 -0.09067147
000070 2f 26 94 3d c8 05 3e bd 22 50 68 bd b6 6d b6 bd
       0.072338454 -0.046392232 -0.056717046 -0.089076445

bn1.weight f4 [32]
000000 78 ee 83 3f d9 b8 80 3f 47 e1 81 3f 5a 5f 8d 3f
       1.030715 1.0056411 1.0146874 1.1044724
000010 6c 76 85 3f 2f c1 82 3f fa a0 85 3f 73 44 8b 3f
       1.0426764 1.0215205 1.0439751 1.0880264
000020 85 cd 7d 3f 19 df 85 3f e7 a1 81 3f db 75 80 3f
       0.9914172 1.0458709 1.0127534 1.0035967
000030 43 01 88 3f e4 22 7d 3f d6 ad 84 3f 4c 3a 83 3f
       1.0625385 0.98881364 1.036555 1.0252166
000040 ac 15 83 3f b3 c1 82 3f ef 32 80 3f ca 0d 84 3f
       1.0240989 1.0215362 1.0015544 1.0316708
000050 8b d3 84 3f e6 a4 84 3f 35 8f 83 3f 86 3c 84 3f
       1.0377058 1.0362823 1.0278078 1.033097
000060 32 09 85 3f 0b a6 85 3f 80 8c 84 3f 73 ef 8b 3f
       1.0393431 1.0441297 1.0355377 1.0932449
000070 31 19 84 3f d9 54 89 3f c5 ea 81 3f 98 9b 7b 3f
       1.0320188 1.0729018 1.0149771 0.9828429

bn1.bias f4 [32]
000000 2e be 3e 3c 9f 69 c3 bb aa f1 e8 bc 82 77 a0 bc
       0.011642022 -0.0059635187 -0.028435547 -0.019588236
000010 f0 66 f6 bc c6 30 7b bc 88 c7 e8 bc 32 3a 0d bd
       -0.030078381 -0.015331453 -0.028415456 -0.034479327
000020 e3 01 d8 bc ab f5 e6 bc 65 a9 14 bb 1c 02 67 3b
       -0.026368087 -0.028193315 -0.0022683975 0.003524906
000030 37 61 4e 3c e1 9a 4f bc 54 74 b4 3c ad 06 d0 bc
       0.01259642 -0.012671203 0.022028126 -0.025393808
000040 b4 b7 8a b9 b8 9c 96 3a 5d 5a 29 3b fa 6d 00 bd
       -0.0002645828 0.0011490798 0.0025841214 -0.03135488
000050 5d 1b 61 3c f8 9a a8 bb 88 ef b1 3c eb 3f 52 bb
       0.013739434 -0.005145427 0.021720663 -0.0032081555
000060 de a4 aa 3b 1e a3 37 3c 05 2f e7 bb 76 c9 63 3c
       0.005207642 0.011208324 -0.0070551657 0.0139030125
000070 00 a6 87 bc 67 ef 3a 3c 9d 58 00 bc 45 19 dc bc
       -0.016558647 0.011409617 -0.007833627 -0.026867518

bn1.running_mean f4 [32]
000000 e8 bb 9b bc 68 bc 95 bd 60 e9 9b 3c de 57 0e bb
       -0.0190105 -0.07311326 0.01903218 -0.0021719853
000010 a0 97 9c 3d d8 a0 35 3d df f3 0d 3d 27 96 be bc
       0.07646108 0.044342846 0.0346564 -0.023264958
000020 dc 76 7e 3c 90 ee 20 3a 65 bf 33 3d ae 64 bb bd
       0.015531268 0.0006139064 0.0438837 -0.091500625
000030 9a f5 9e bd df 57 cd bd 6b 68 a8 3d 9a de b9 bb
       -0.077616885 -0.10026526 0.08223041 -0.005672288
000040 13 25 15 bd 86 d2 89 bd dd fe 03 bc ea ab f9 bc
       -0.03641231 -0.06729607 -0.00805637 -0.030477483
000050 a7 f7 b6 3d 28 6e b5 3b bb d0 c3 3d 16 c7 a0 3d
       0.08933955 0.0055368133 0.095612966 0.07850473
000060 5c be 9c 3d 87 cd 1a bd 30 2f b4 bd 7d 81 b9 bd
       0.07653496 -0.037793662 -0.08798063 -0.09057901
000070 ba ad 94 3d b7 e5 3d bd cd b0 66 bd c0 53 b7 bd
       0.07259698 -0.04636165 -0.056320954 -0.08951521

bn1.running_var f4 [32]
000000 57 fb 30 3e 27 fe 51 3e 8a 75 bf 3d f5 99 e0 3d
       0.17283379 0.20507108 0.09348591 0.10966865
000010 92 d5 84 3e dc f1 c2 3d 83 83 b6 3e f1 4c 53 3e
       0.2594419 0.09518787 0.3564721 0.2063482
000020 e0 c2 cd 3e 1f 73 a4 3e 6a 02 8c 3e da 78 8f 3f
       0.4018774 0.3211908 0.27345592 1.1208756
000030 47 55 c2 3e 4b fc de 3f c5 a1 b4 3f 07 26 70 3f
       0.37955686 1.7420744 1.4111868 0.93808025
000040 23 90 9d 3e b8 37 93 3e a2 d9 c5 3e a5 cb 2d 3e
       0.3077403 0.28753448 0.38642603 0.16972215
000050 2a 48 07 3e 64 bc 33 3e 4a a9 0d 3e cd ab 55 3e
       0.13211122 0.17552334 0.1383411 0.20866318
000060 1d 9b a7 3e 60 05 71 3f 48 13 7e 3e 31 c7 86 3e
       0.3273553 0.94148827 0.24812043 0.26323846
000070 c1 af 67 3e 1c 71 20 3e 9c 20 de 3e 70 8b 29 3f
       0.22625639 0.15668148 0.43384254 0.6622839

depthwise.weight f4 [32, 1, 3, 3]
000000 fd 3d 23 3e 62 2e 3a be d9 26 88 3e d8 d6 82 bd
       0.15941615 -0.18181756 0.26592138 -0.063886344
000010 69 6b 59 3e 68 7e 8f bd f2 0e 5d bd 49 2c a3 ba
       0.2123238 -0.07006532 -0.05396933 -0.0012449111
000020 4c af a3 3e e0 17 2f 3e 3f 8c 2c 3e 00 8c 00 3e
       0.31969678 0.17098951 0.16850375 0.12553406
000030 56 96 bf bd a5 2a 42 3e ba a7 73 be 38 2d be 3c
       -0.09354846 0.1896158 -0.23794451 0.023214921
000040 1c f7 82 3e 12 50 a2 bd 72 0a 9f 3e a6 7b b4 bb
       0.25579154 -0.079254285 0.31062657 -0.005507904
000050 5e af 20 bd 13 93 5b 3e 63 23 8b 3e 26 87 42 3e
       -0.039229743 0.21442823 0.27175435 0.18996868
000060 35 40 84 be c2 4f aa bd 9d 41 25 3e 10 bc 8a be
       -0.25830236 -0.08315994 0.1613831 -0.27096605
000070 62 8e 38 be 9b 3d 88 be ba 79 5e be a4 f6 a1 bb
       -0.18023065 -0.266095 -0.21726122 -0.004942732
000080 f0 a9 be bd 94 89 58 3e 0c 61 bf 3d 50 24 08 be
       -0.09309757 0.21146232 0.09344682 -0.13295102
000090 cf c3 96 be 77 65 56 3e 2a 94 96 3e d3 d2 4c bd
       -0.29446265 0.20937143 0.29409915 -0.050005745
0000a0 d3 66 6d be 26 5d 05 be b7 99 3d 3e 01 f3 69 be
       -0.23183756 -0.13023815 0.18515669 -0.22846605
0000b0 2e 9b 82 be c3 bd b6 3c 16 a2 61 3e 7d 45 91 be
       -0.25509018 0.022307282 0.22034487 -0.28373328
0000c0 24 9b 9d 3e 17 bd db 3d be 41 70 3d da a0 44 3e
       0.30782425 0.107294254 0.058656447 0.19201985
0000d0 40 c5 38 3e af f0 3a 3d 8b 61 80 bd d9 d3 e7 bc
       0.18043995 0.04563969 -0.06268605 -0.028299259
0000e0 75 03 92 3e 54 d2 ac be d9 13 83 3e bf 34 92 bd
       0.28518263 -0.33754218 0.2560108 -0.07138967
0000f0 21 e3 9b 3e 68 50 97 bd 33 24 69 bd 4e 3f 60 be
       0.30446723 -0.07388383 -0.056919288 -0.21899149
000100 8e f6 60 3e e6 12 cc bc af c0 9a be 2c 7f e2 3b
       0.21969053 -0.024911355 -0.3022513 0.0069121327
000110 f8 00 c1 3e 21 3f 3d 3e dd 6f 55 be c2 c2 e1 bc
       0.37696052 0.18481113 -0.20843454 -0.027558688
000120 50 9c d1 bc 61 f0 b4 3d c8 27 91 3e 6a 01 84 be
       -0.02558723 0.08834911 0.28350663 -0.2578233
000130 f1 8c 6c be 42 2b 94 3e e2 99 81 be 77 e3 94 3e
       -0.2310064 0.28939253 -0.25312716 0.29079792
000140 33 7b dc bd 94 f4 77 3d 66 b6 ce 3e 09 1c 52 3e
       -0.10765686 0.060535982 0.40373534 0.20518507
000150 ed d8 b6 be 8c 7e 8e 3e 40 42 18 be b3 45 47 3d
       -0.35712376 0.27830923 -0.14869022 0.048650455
000160 4b f5 b3 be 5b e2 63 be 52 1e 91 3e b2 51 72 bd
       -0.3514808 -0.22254317 0.28343445 -0.059159942
000170 0e 10 e1 bd bb f3 01 be bc 72 b5 3e df 57 8f 3e
       -0.1098939 -0.12690632 0.35439098 0.27996728
000180 b6 37 9a 3e e6 d5 99 3e 88 87 28 3e 04 f2 65 be
       0.3012063 0.30046004 0.16457951 -0.22455603
000190 93 22 1c 3d 39 a1 51 be 46 41 50 be a8 74 20 be
       0.03811891 -0.20471658 -0.203374 -0.15669501
0001a0 91 43 a6 be ad 4b ff 3b 4a 32 9d 3e 52 03 f7 3d
       -0.32473424 0.0077910037 0.3070243 0.1206118
0001b0 76 cc 1a be 37 84 13 3e 6f 4e f1 bb 73 7e 87 3e
       -0.15117058 0.14405905 -0.0073640863 0.2646366
0001c0 11 01 77 be 22 77 b8 3e d2 e7 4e be ec 72 92 3e
       -0.241215 0.3602839 -0.2020562 0.28603303
0001d0 f4 28 d0 3d 5c 9f 9e 3e f1 71 44 bd f5 19 7e 3e
       0.10164061 0.30980957 -0.047960225 0.2481459
0001e0 be 84 97 3e 07 91 98 bd 26 cf 30 be f1 50 8c bd
       0.29593462 -0.07449537 -0.17266521 -0.06851376
0001f0 fb 93 80 3e ea 8e 0d bd 1a e1 b9 be 62 ad 49 bd
       0.251129 -0.03456012 -0.3630455 -0.049237616
000200 37 0f ed 3c fd d8 af be 12 65 c7 bd 89 c5 95 be
       0.028937919 -0.34345236 -0.097360745 -0.2925227
000210 33 80 0b bd 2e 72 02 bd e3 6f 58 3d 93 ad 2a 3e
       -0.034057807 -0.03184717 0.05284108 0.16667776
000220 14 91 04 3e 3a 16 a5 3e c6 f0 e8 ba 29 68 0b 3e
       0.12945968 0.3224352 -0.0017771951 0.13613953
000230 fd 31 9f be 98 6a d9 bd b1 76 07 bd fe 99 72 3e
       -0.31092826 -0.10616034 -0.033072177 0.23691556
000240 f1 db a2 bd fd 65 ac 3d 4b ed b8 3d e5 33 7d be
       -0.07952107 0.0841789 0.09029635 -0.24726827
000250 49 54 3c 3e 6d 26 87 3e f1 59 0c 3e 53 67 99 3e
       0.18391527 0.26396504 0.13706185 0.29961643
000260 28 c9 a5 3a 4a 84 9f bd 2b 58 a5 3e 6b f2 6d 3e
       0.001264845 -0.07788904 0.3229383 0.23237006
000270 42 23 64 be 87 3b 28 3e 54 8b 78 bd 01 e2 22 be
       -0.22279075 0.16428958 -0.06067975 -0.15906526
000280 e4 dc 65 3e 41 2f 00 bd 3d 39 05 3e f7 f1 7d be
       0.22447544 -0.031295065 0.13010116 -0.24799334
000290 7c 0b 37 3e 6b 9a 12 bc 82 32 a2 be 71 88 ac bc
       0.17875475 -0.008947949 -0.3167916 -0.021061154
0002a0 b9 29 a1 be 76 35 d7 3d fe 4e f0 3d 58 ae ac be
       -0.31477144 0.10508244 0.117338166 -0.33726764
0002b0 a9 80 78 3e 92 b8 a4 be 97 f2 4e 3d a9 94 64 be
       0.2426783 -0.32172066 0.05052432 -0.22322334
0002c0 9a a5 9a be 5e 00 69 be 0d 79 45 3d 35 60 aa be
       -0.3020447 -0.22754046 0.048211146 -0.33276525
0002d0 33 8a 3d 3d ef 46 07 3e 38 ef 74 bd 85 3a 54 be
       0.046274375 0.13210653 -0.05979845 -0.20725448
0002e0 68 bb a7 3d 56 9c 57 3e 21 e2 84 3e f3 77 b6 3e
       0.08190042 0.21055731 0.25953773 0.3563839
0002f0 da 55 3b 3e 89 e8 e1 3c 15 a1 f1 3d 6d ee a2 be
       0.18294469 0.027576702 0.11798302 -0.3182253
000300 70 3a 87 be e5 eb c9 bd 48 29 df 3d 05 06 20 bd
       -0.26411772 -0.098594464 0.10896546 -0.03906824
000310 bb 86 3a be 1e eb b3 be ef ac 0b 3e c0 67 20 3e
       -0.18215458 -0.35140318 0.13640188 0.15664577
000320 81 09 ad 3e 7c e8 24 3b 45 42 07 3e b0 1c 91 be
       0.33796313 0.0025162986 0.13208874 -0.283422
000330 e7 4f f8 3d 93 6e 0e be e8 36 56 3d fe f5 f3 3d
       0.12124615 -0.13909368 0.052298456 0.11912154
000340 67 2b 10 be fe ee 92 be 48 18 28 be 3b 36 4d be
       -0.14079057 -0.28697962 -0.16415513 -0.20040219
000350 68 16 b5 be 76 94 b2 bc 8f c0 0e 3e 74 78 13 be
       -0.35368657 -0.021799307 0.13940643 -0.14401418
000360 5b 14 bb 3e 94 68 8f 3e 53 58 b0 3e de b4 4a be
       0.36538967 0.28009474 0.34442386 -0.19795558
000370 f1 b2 8e bd ee e7 18 be 63 54 8f be 60 7c 9a 3e
       -0.06967724 -0.14932224 -0.2799407 0.30173016
000380 f9 14 9f 3b 38 14 88 3e e2 21 ad 3e b6 e0 8d 3e
       0.004854795 0.26577926 0.33814913 0.27710503
000390 b9 b7 3e 3d b5 f2 2d bd 9d 58 b1 3e fb d6 f7 bd
       0.04656193 -0.04246779 0.3463792 -0.12101551
0003a0 24 ed 02 3d 05 e6 e2 3d 1f 1a b9 3d 89 46 82 be
       0.031964436 0.11079029 0.09038185 -0.2544444
0003b0 42 43 a8 be 8c c8 66 3e 70 13 c9 bd 7c 88 9c 3d
       -0.32863814 0.2253744 -0.098181605 0.0764322
0003c0 30 8c 50 be 75 f6 a0 be ee b9 8b 3e bc c4 21 3e
       -0.20365977 -0.31438032 0.2729029 0.15797704
0003d0 ed 1e 5a bd 8f 68 74 be 8b ee ab bc 3f 69 1e 3d
       -0.05325215 -0.23868011 -0.02098777 0.03867459
0003e0 df 79 d0 3c ff c6 74 bd 4f b1 b7 3e ac c4 53 3e
       0.025448738 -0.05976009 0.35877463 0.20680493
0003f0 c9 68 b2 bd ca 02 83 3e 24 28 a8 3d be ed 9e bd
       -0.087113924 0.25588065 0.08210781 -0.077601895

depthwise.bias f4 [32]
000000 10 23 4e 3e 08 59 93 3e ad 36 4f 3e 6a f5 11 3e
       0.20130563 0.28778863 0.20235701 0.14253774
000010 3b bd a8 3e 42 cb 57 3c 86 42 9f be 4a a9 58 3d
       0.3295687 0.013171019 -0.3110544 0.05289582
000020 c6 9d 9c be 60 f2 d3 3d 6e fe 50 3e a3 6c ab bd
       -0.30589122 0.10348964 0.20409557 -0.0837033
000030 4d c9 35 be c0 ff ce bd e2 ab 76 3e 53 fa 3b 3d
       -0.17752571 -0.10107374 0.24089006 0.045893025
000040 89 80 59 3e 81 2a 9f 3e 1c 36 88 be 97 21 b6 3c
       0.21240439 0.31087115 -0.26603782 0.022232814
000050 5f 57 20 be 1f e7 0b be 9a 5a d9 bb f0 a3 81 3e
       -0.1565833 -0.13662384 -0.006633115 0.25320387
000060 df c2 35 be 08 29 8d be 23 e6 89 3e b2 34 8a be
       -0.17750119 -0.27570367 0.26933393 -0.26993328
000070 f2 1c e6 3d be fd 83 be 6d c2 8f 3e cd d4 51 3e
       0.1123599 -0.25779527 0.28078023 0.20491333

pointwise.weight f4 [64, 32, 1, 1]
000000 dd 30 3e be 48 bf 01 be a9 6c 0c 3c a2 ee 2b bc
       -0.18573327 -0.12670624 0.0085708285 -0.010493906
000010 d3 74 f4 bd ab 79 73 3c dd 42 47 3e 53 0a 3d bd
       -0.11936345 0.014860551 0.194591 -0.046152424
000020 a2 d3 ab bd 68 bd 13 be 24 4d c8 3d fc 36 0c be
       -0.08389975 -0.14427722 0.097803384 -0.1369285
000030 dc 35 0a 3d 8f be b6 bc 4d b6 b5 3d 58 90 0f 3d
       0.03374277 -0.022307662 0.08872662 0.035049766
000040 2a 89 4a be 48 ba 11 3e 89 f6 b6 bd bb 1a 13 be
       -0.19778886 0.14231217 -0.089337416 -0.14365666
000050 ff 0e 34 be 0c 4b a3 3c 49 c4 18 3d ed fa b7 bd
       -0.17583846 0.019933246 0.037296567 -0.08983407
000060 e0 f2 b9 bd 63 d9 03 be 60 a3 e5 3d 8a 20 46 bc
       -0.09079528 -0.12875895 0.11212802 -0.012092719
000070 af 25 7a 3d f8 ee f4 bd 0c 55 f9 3d b5 27 39 3d
       0.061071094 -0.11959642 0.121744245 0.045203883
000080 3c dd 99 3c f4 70 a1 3d ac 13 c4 bb 59 43 59 3d
       0.01878225 0.07882872 -0.0059837904 0.053042743
000090 ad 5a b9 3d c6 c5 36 bd dd 2a 7e 3d 92 26 18 be
       0.09050498 -0.044622205 0.062052596 -0.14858463
0000a0 10 c6 ba 3d a5 2f 37 3e 06 f6 ef 3d ce 8f e7 3d
       0.09119809 0.17889269 0.11716847 0.113067254
0000b0 6d d5 78 3d 57 72 93 3d 50 87 4f bd aa 20 2f bd
       0.060750414 0.07199543 -0.050666153 -0.04275576
0000c0 f1 fd 3f be 98 27 13 be 15 ca 16 3e fa c5 53 be
       -0.18749215 -0.14370573 0.14725526 -0.20680991
0000d0 82 37 6d bc fc bb 49 3d c4 58 10 be 66 ab 52 3d
       -0.014478566 0.04925154 -0.14096361 0.05143299
0000e0 60 8f be 3d df f4 22 3e 17 d6 3a be fb e2 97 3d
       0.0930469 0.15913723 -0.18245731 0.0741634
0000f0 93 94 1b 3d 87 95 9e 3d a2 ae 9c 3d c3 fd 24 3d
       0.03798349 0.07743364 0.07650496 0.04028107
000100 e6 6f 79 3b e3 45 72 bd c1 31 d7 bd d8 fb a7 3d
       0.0038061081 -0.05914868 -0.10507537 0.08202332
000110 9e 8b 4f 3c b2 19 e9 bd 3b 15 37 be da 04 c3 3d
       0.012667565 -0.11381854 -0.17879193 0.0952241
000120 1c d3 c6 bd 23 12 13 3d 10 e4 d0 3c a5 c3 1b be
       -0.09708235 0.03590597 0.025499374 -0.15211351
000130 c1 96 8e 3b da e5 3b be e8 e0 1e 3c 6f 6b fb 3d
       0.0043514674 -0.183494 0.0096971765 0.12276351
000140 f1 e6 11 3d 52 47 3a 3e 9c 7a 8c bd 5d b4 e3 3d
       0.035620634 0.18191269 -0.068593234 0.11118386
000150 84 98 2c 3e f0 e8 a7 3c c7 61 ab 3d 33 bc a8 bd
       0.16855055 0.020496815 0.08368259 -0.08239021
000160 fb b2 8f be fd 1a 8a be 1c e0 e1 3d 3c 51 32 bd
       -0.2806624 -0.26973715 0.110290736 -0.043534502
000170 8c 1b 14 3d 55 74 97 bd 55 c9 f1 3c b9 08 cb bc
       0.036159083 -0.073952354 0.029514948 -0.024784433
000180 37 36 96 bd ee 87 bf 3c a2 5f 15 3d 4e a7 03 3e
       -0.073345594 0.023380246 0.036468156 0.1285679
000190 95 08 41 3d 6b 6b e9 3d 7a 85 40 be 39 14 4e be
       0.047127325 0.113974415 -0.18800917 -0.20124902
0001a0 5e bf c2 bd e2 a8 c9 3d 6a a7 eb bd 15 fa 10 3a
       -0.09509157 0.09846665 -0.11506541 0.0005530429
0001b0 37 01 40 be 78 91 ca bc 86 12 05 3d 68 e5 7d 3c
       -0.18750463 -0.024727568 0.03248837 0.015496589
0001c0 07 04 10 3e 52 ea 05 3e 7c 41 96 bd 2a 39 c2 3d
       0.14064036 0.13077667 -0.07336709 0.094835594
0001d0 5e f5 93 3c 5c 7f 52 3c 98 8b 94 bd 9d 62 34 3e
       0.018061336 0.012847748 -0.07253188 0.17615743
0001e0 fe 03 54 3d 7b 37 09 be 56 8c ba 3d f1 da 96 3d
       0.05176162 -0.1340007 0.09108798 0.073659785
0001f0 a8 f4 c6 bd 74 bb 72 3e 7c e6 4f bd 96 20 fb bd
       -0.09714633 0.2370432 -0.050756916 -0.12262075
000200 49 19 e0 3d 11 8e 37 3e 32 ea c6 bd 48 50 a5 3d
       0.10942323 0.17925288 -0.09712638 0.08071953
000210 08 24 8d bd a0 8f 30 3c ce 8a 1a bd 2e 34 8b bd
       -0.06891638 0.01077643 -0.03773003 -0.06797062
000220 ff c5 da 3c 79 19 1f 3d fa fc a4 3d b0 fc d7 bc
       0.02670574 0.038842652 0.08056064 -0.026365608
000230 9c 4d 7b bd ba 47 5e bd a2 a2 b2 bd 7f 28 50 bd
       -0.06135331 -0.054267623 -0.08722426 -0.05081987
000240 fd 08 21 3d 31 7b 82 bc b4 1f 3c be a9 52 14 3e
       0.039315213 -0.015927883 -0.18371469 0.14484657
000250 e8 22 10 3e 05 73 71 bd 54 f7 2a 3d 46 2d 0d be
       0.14075816 -0.05894758 0.041739777 -0.13786802
000260 29 6c 82 be 0c b3 fc ba c7 5e 71 3d 25 01 33 bd
       -0.25473145 -0.0019279434 0.058928277 -0.043702263
000270 f2 e7 62 3d 9d 19 c4 3d 2f 25 2e 3e df fe fd bd
       0.05539698 0.09575198 0.17006372 -0.124021284
000280 aa 48 82 3d 7a e1 c2 3c 3d 67 2d 3e e5 57 98 3c
       0.06361516 0.023789156 0.16933914 0.018596599
000290 61 43 f2 bd 95 d3 d2 3d d3 22 ba bd 0b cd 4b bd
       -0.11829258 0.10294262 -0.090886734 -0.04975609
0002a0 40 48 03 3e 47 2a 7c be 22 01 6a 3d ab 97 ff bc
       0.1282053 -0.24625503 0.057129987 -0.03120025
0002b0 8d 5f b5 bb 16 46 dd bd 92 6e 31 3d dc b5 e3 bd
       -0.005535072 -0.108043835 0.04331834 -0.11118671
0002c0 c6 56 03 be b2 b1 27 3e ca 76 50 3d ec 61 6b be
       -0.1282607 0.16376379 0.050894536 -0.22986573
0002d0 e0 aa 1a 3e da 81 15 3e 61 2f 0c be 3e 38 21 3e
       0.15104246 0.14600316 -0.13689949 0.15744111
0002e0 4d f0 34 3e 5e 1e 07 be 92 76 62 be 1c b8 05 3e
       0.17669792 -0.13195178 -0.22115543 0.13058513
0002f0 22 6b a9 bd 0d f9 40 bd f6 97 b9 bd 33 6e 40 3e
       -0.08272387 -0.047112513 -0.090621874 0.18792038
000300 e6 cc 20 be cd d9 81 bd e3 5b ac bd b8 aa 0f bd
       -0.15703163 -0.0634037 -0.084159635 -0.03507492
000310 29 ac 2c be 5a 72 f7 bd 7e f0 24 be 27 ac 74 be
       -0.16862549 -0.12082358 -0.16107365 -0.23893796
000320 a1 e4 3c bd 70 5a 86 be 16 f3 2c 3d e4 28 c0 ba
       -0.046116475 -0.26240873 0.042224012 -0.0014660624
000330 53 1e af 3d 7b e3 31 3e d7 65 1b 3a 75 5d e7 bd
       0.08550706 0.17371933 0.0005927956 -0.112971224
000340 73 58 3c 3d 3f c1 c2 bc 12 b2 cc bd cd 3d 8a bd
       0.04598279 -0.023773788 -0.09994902 -0.06750069
000350 23 a0 91 bd bf 0c 51 3c df d3 b6 bc 0f cd 80 bd
       -0.07110622 0.012759387 -0.022317825 -0.06289112
000360 1b c0 31 3d 14 5d ab bd 7e b7 e4 bd d9 86 a5 3e
       0.043396097 -0.083673626 -0.11167811 0.32329443
000370 93 9f 60 3a 2e 0a bb 3d 98 d2 7a 3d fa 53 ef bd
       0.00085687 0.09132801 0.061235994 -0.11685939
000380 ae 0d 05 be 55 db 02 3e 40 18 b1 3d f2 18 06 be
       -0.129935 0.12778981 0.086472034 -0.13095453
000390 ae cc e9 3d f5 ea bb bd 32 27 55 3e 9a f5 f4 3d
       0.11415993 -0.09175674 0.20815733 0.11960907
0003a0 82 24 80 3d be 72 26 3e 1d 2c 13 be 65 8c 20 be
       0.06256963 0.16254708 -0.14372297 -0.15678556
0003b0 62 06 b7 bd 35 25 ca bc 24 ba 95 3d 24 cd 08 be
       -0.08936764 -0.024675945 0.07310894 -0.13359505
0003c0 3f 0c 8c 3d 7a 75 88 bd 7d d6 7f bd 1b d0 1f be
       0.06838273 -0.06663032 -0.06246041 -0.1560673
0003d0 9c d2 b3 3c 45 b8 b1 3d 5d 74 b1 3d cd b7 03 be
       0.021951012 0.08677725 0.08664773 -0.12863083
0003e0 6b 0f 05 3e b3 2b 00 bc 09 c7 46 be 45 37 85 bb
       0.12994163 -0.007822919 -0.19411863 -0.0040654265
0003f0 42 ae 8c 3d 9d 65 dc 3d 92 fd 2d be ef 30 a3 3b
       0.068691745 0.10761569 -0.1699126 0.0049801986

pointwise.bias f4 [64]
000000 51 eb b4 bd 37 40 d7 bc 69 7e 91 3d 20 d0 29 3e
       -0.088339455 -0.026275737 0.07104189 0.165833
000010 3c 0f c1 bc ce 12 07 be c8 0a 6f bd d1 36 a6 bc
       -0.023566835 -0.13190767 -0.05835989 -0.02028981
000020 77 15 c8 3c 75 17 c0 bd 89 61 22 be 4e 6f 13 be
       0.024424298 -0.09379474 -0.15857519 -0.14397928
000030 e4 f2 27 bd c7 32 09 3d 0f e3 a5 bd 0d c1 ac 3d
       -0.041003123 0.03349569 -0.080999486 0.08435259
000040 4e 9b 0a bb 8d dd 6a bd 33 53 ef 3b 54 42 8a 3c
       -0.0021149698 -0.057340194 0.0073036193 0.01687733
000050 2c 45 36 3e e0 06 7f 3c eb de f3 3d 3a cd 47 3d
       0.17799824 0.015565604 0.119077526 0.048779704
000060 df 2c 99 bd a8 e0 ec bd 54 76 c6 bd d2 53 2a bd
       -0.074792616 -0.11566287 -0.09690538 -0.041583844
000070 aa a9 04 be 8c bc 50 bd 3f 21 9c 3a 0b ee 2c 3d
       -0.12955347 -0.050961062 0.0011911764 0.042219203
000080 7d 5b 42 bd 4e d7 55 3d d7 11 55 bd ac 43 19 3d
       -0.04745053 0.052207284 -0.052018967 0.037418053
000090 b3 b3 0a 3e 9d 1e 92 bd 15 92 ca 3d 91 20 10 be
       0.13545112 -0.07134745 0.09891144 -0.14074923
0000a0 9e 46 c9 bd 31 2e 00 be cf 90 08 3b d9 ca 08 be
       -0.09827922 -0.1251762 0.0020838266 -0.1335863
0000b0 51 3c e2 bc 0c 41 e2 3d ad 19 45 bd bb d3 b8 bd
       -0.027616652 0.11047563 -0.04812019 -0.090247594
0000c0 38 7b 26 bd d2 e2 e4 3d 4c cc 7b bd 76 67 de 3b
       -0.040644854 0.11176075 -0.06147413 0.006787236
0000d0 58 96 b0 3c 11 91 49 3e b1 2c 8e 3d ab ca 9f 3d
       0.021556064 0.19684245 0.06942118 0.07802328
0000e0 f9 c1 05 3e 19 ee e0 3d 30 da 37 bd 3c ef 06 be
       0.13062276 0.109829135 -0.044885814 -0.13177198
0000f0 05 45 c9 bd 93 05 dc 3d f1 50 82 3d 3c 34 07 be
       -0.098276176 0.10743251 0.063630946 -0.1320352

fc.weight f4 [2, 1024]
000000 92 e9 86 3a 1f bf 4d 3c 5f 99 d6 3b 8a 10 8c bc
       0.0010292998 0.012557774 0.006549045 -0.01709773
000010 57 35 4a bc c0 e7 ce 3c 30 1e 07 bd bb c1 4a bc
       -0.012341819 0.025256991 -0.032987773 -0.0123752905
000020 b4 6c 26 bc 0b 2b 83 ba 3e 26 d5 bc af af b3 bc
       -0.010157753 -0.0010007335 -0.026019212 -0.021934358
000030 53 33 7f bc 36 d6 e2 bb bb ea c0 39 e6 a0 ce bc
       -0.0155762015 -0.0069225086 0.00036795982 -0.025223207
000040 21 12 89 39 47 af 5b bc fb 63 33 bd 4f fa 8d bc
       0.00026144183 -0.013408489 -0.04379652 -0.01733127
000050 67 4e 42 bd c0 fe 0e bd 26 bc 2f bd d5 0b 0f bd
       -0.04743805 -0.034910917 -0.04290404 -0.034923393
000060 4c b9 0e 3c 31 8e d7 3c 4a f5 69 3c 26 3f 26 bd
       0.00871117 0.02631292 0.014279673 -0.040587567
000070 30 ff e7 b9 2b 06 68 3c 30 8f c1 bc 58 9c 38 bd
       -0.00044249883 0.014161627 -0.023627847 -0.045070976
000080 09 57 82 3c 6e a0 2b 3d 50 98 2b 3d b2 e3 d4 3c
       0.015910642 0.041901045 0.041893303 0.02598748
000090 3c bb 40 3c cc d6 69 3d 41 2f d9 3d bf 90 3e 3d
       0.01176339 0.057089612 0.10604716 0.04652476
0000a0 1a dd 90 3c e4 e7 38 3d eb 12 42 bc 64 6c 3b 3d
       0.017683554 0.045143023 -0.011845331 0.045757666
0000b0 03 07 f2 3c 76 2e 37 38 04 a5 ad 3c 0b bf 3f 3d
       0.02954436 4.367387e-05 0.02119685 0.046813052
0000c0 5d e9 71 3d 2d 59 9f 3c 38 d3 66 3b a3 3e 0f 3c
       0.059060443 0.019451702 0.003522111 0.008742961
0000d0 53 bb d1 bc 26 f1 9a bd df 6a 00 be 25 ce b8 3c
       -0.025602018 -0.07565527 -0.12540768 0.022559235
0000e0 28 bc b0 bd 5e 1e d2 bd 5d 32 9c bd a6 60 21 3d
       -0.08629638 -0.10259698 -0.076267935 0.03939881
0000f0 ff e2 be 3c 7e 39 09 3b 5b e1 c4 bd 75 dd 9e 3c
       0.0233016 0.002093881 -0.09613296 0.019392708
000100 80 43 94 3d a4 36 c0 3c 8a fd 54 3d 73 e5 17 3d
       0.07239437 0.023463555 0.051999606 0.037084054
000110 8d e5 a3 3d f8 28 5f 3d ba 24 a2 3d bd ca 9c 3d
       0.08002768 0.05448243 0.07917161 0.07655857
000120 8f ad ab 3d 77 4e 00 3c cf e9 65 3c 58 ec 7d 3d
       0.08382713 0.0078312075 0.014032795 0.061992973
000130 7f 3f 00 3d fc 5b 40 3b 7e 7a 97 3c f1 a1 27 3d
       0.031310555 0.0029351702 0.018491026 0.040925924
000140 bf 37 7a bd 32 cc 31 bd 34 25 cd bd f9 84 a0 bd
       -0.06108832 -0.043407626 -0.100168616 -0.078378625
000150 36 87 9b bd dc 2b aa bd 55 4f a4 bd ab bf 86 bd
       -0.07594149 -0.08309147 -0.08022944 -0.065795265
000160 d8 a8 98 bd f8 20 8f bd 6a db 8a bd a5 5a b9 bd
       -0.074540794 -0.0698871 -0.06780131 -0.09050492
000170 fc bc b3 bd 04 9c 91 bd dc 25 7c bd d1 2e d3 bd
       -0.0877628 -0.07109836 -0.061559543 -0.10311664
000180 d5 55 fc bd 90 77 00 be 00 a2 0a be 2e 31 37 bd
       -0.12321059 -0.1254561 -0.1353836 -0.044724636
000190 29 9b 10 be 83 25 c8 bd 77 be 21 be e0 b1 40 bd
       -0.14121689 -0.0977278 -0.15795313 -0.047044635
0001a0 c1 6a df bd 70 7b f4 bd da e8 18 be 64 d4 9f bd
       -0.109090336 -0.11937606 -0.14932576 -0.07804182
0001b0 74 e7 a8 bd fe dd ea bd fa 05 9d bd fd 40 b0 bd
       -0.08247271 -0.11468123 -0.076671556 -0.086061455
0001c0 42 b1 bb bd ad fb 70 bd e2 bd 31 bd 12 da 7a 3c
       -0.091646686 -0.058833767 -0.043393977 0.015310781
0001d0 c6 fb 6d bd 5a 9b 57 bd de 78 59 bd 3b 21 48 bd
       -0.058101438 -0.05263839 -0.053093784 -0.048859816
0001e0 2e f6 b6 3b 8e be 39 bc c0 b4 b4 bc 1a 7c 28 bd
       0.005583546 -0.011336936 -0.022058845 -0.041133977
0001f0 f6 e5 60 bd 2e a2 9d bc 8b f3 5b bd 32 2b 73 bd
       -0.054906808 -0.019242372 -0.053699058 -0.059367366
000200 b4 00 b9 3b 91 d1 2e 3d ba 6f 0b 3d 44 ba 6d 3d
       0.005645836 0.042680327 0.034042098 0.058038965
000210 40 cf 9c bc 45 b2 a2 3c ac 1c 84 bc 13 fe 27 3d
       -0.019141793 0.019860396 -0.016126953 0.04101379
000220 d2 15 43 bb de fc 61 3d e8 d9 84 3d 8f e3 2d 3d
       -0.0029767645 0.055172794 0.06486875 0.042453345
000230 8f da 89 3c 8a 02 d4 3b 90 c0 0e 3d 66 27 9a bb
       0.01682785 0.0064700292 0.03485161 -0.0047044037
000240 88 e4 22 bd bc b7 a1 bd 64 27 9c bd 26 7b 12 bd
       -0.039768726 -0.07896373 -0.07624701 -0.035761975
000250 70 c0 85 bd ec 1e 82 bd 5f 07 90 bd f6 6b 36 bc
       -0.06530845 -0.06353554 -0.07032656 -0.011134138
000260 af 36 4d bc d2 89 af bd a6 1f 77 bd 3a 28 40 bd
       -0.012525245 -0.08571209 -0.060332917 -0.046913363
000270 9e 94 e0 bc 49 62 88 bd 30 81 8f bd 26 1e be bd
       -0.027414616 -0.066593714 -0.070070624 -0.09283094
000280 39 81 8f bd 65 8c 93 bd 2e d2 e4 bd 73 d6 aa bd
       -0.07007069 -0.072045125 -0.11172901 -0.08341684
000290 1a 61 f1 bd 22 90 0a be 83 52 ca bd 16 1e 94 bd
       -0.11786099 -0.13531545 -0.09879019 -0.07232301
0002a0 fe a3 7d bd c6 04 ab bd 7a 40 e6 bd 51 51 92 bd
       -0.061923973 -0.0835052 -0.11242767 -0.07144416
0002b0 2a cd ae bd c2 df 28 bd 6c be ac bd a2 55 ff bd
       -0.08535226 -0.041229017 -0.084347576 -0.12467505
0002c0 f4 02 3b bc 24 f3 33 bc 75 d5 85 bc 3c 18 ad 3a
       -0.011414278 -0.010983262 -0.016337136 0.0013206075
0002d0 04 85 eb bc b9 57 be bb 2d cc 9c bd 54 6a c3 3b
       -0.02874995 -0.005808797 -0.07656131 0.005963603
0002e0 9f b9 87 bb 1a 79 3b bc 10 42 36 bc 27 c1 09 bd
       -0.004142001 -0.011442447 -0.011124149 -0.03363147
0002f0 a2 cc 9f bc 0c 4e f3 bc 2c 52 20 bd 89 1b 3a bd
       -0.019506756 -0.029700302 -0.039140865 -0.045436416
000300 59 64 33 bd 7c 4d 9a bc 97 19 8b bc ec 48 a2 bc
       -0.04379687 -0.018835776 -0.016979976 -0.019810162
000310 fb b2 33 3b cb 32 5b bd 03 02 bf bd b1 3b a6 bc
       0.0027419913 -0.053515237 -0.093265556 -0.020292135
000320 3c f0 24 bd 19 85 84 bd 78 52 84 bd 68 0c 57 3c
       -0.040268168 -0.06470699 -0.06461042 0.0131255165
000330 52 ab 1e bd 6a f7 61 bb dd 00 80 bd 41 fb 54 bd
       -0.038737603 -0.0034479746 -0.06250165 -0.051997427
000340 61 bb 18 3d 18 b4 56 3c c0 e1 8d 3a bf 6e 28 3d
       0.037288073 0.013104461 0.0010824725 0.04112124
000350 3a 37 6c bc 81 b4 04 3c c2 4b 72 bc 2a 3e d4 3c
       -0.014417464 0.008099676 -0.01478857 0.025908548
000360 a8 ae f5 3c 2e 2b 44 3d 99 1b 00 3d 15 07 74 3c
       0.02999051 0.04789274 0.03127632 0.014894267
000370 65 17 fb 3c 7a eb 08 3d cd 06 27 3d e3 76 c0 bc
       0.030650804 0.033427693 0.04077797 -0.02349419
000380 75 26 22 3d de e2 3d 3d 40 52 e7 3d 0c d1 46 3d
       0.039587457 0.046358936 0.11294985 0.048539206
000390 d5 f3 1f 3b d5 f6 94 3d 3f 84 8e 3d 95 ab 7f 3d
       0.002440681 0.07273642 0.06958818 0.062419493
0003a0 38 bf d2 3d 1d 72 fa 3d aa 3d 13 3e f0 4a c3 3d
       0.10290378 0.12228797 0.14378992 0.095357776
0003b0 e2 d9 37 bc f7 ca 28 3c b9 f3 ad 3d 72 9f cf 3d
       -0.011221381 0.010302297 0.08493752 0.10137834
0003c0 4a 98 07 be 16 e0 0b be 34 1e ef bd b8 82 94 bd
       -0.13241687 -0.13659701 -0.11675683 -0.07251495
0003d0 fc c4 c6 bd 2d b8 f7 bd c9 bb 0f be 7e 7c c3 bc
       -0.097055405 -0.120956756 -0.14036478 -0.023863073
0003e0 02 2f fa bd 2a f2 c0 bd b7 38 9d bd 15 30 4e bd
       -0.12215997 -0.09421189 -0.07676833 -0.050338823
0003f0 84 a9 bf bd 88 e7 02 be cc 95 ea bd 29 3f eb bd
       -0.093585044 -0.12783635 -0.11454353 -0.11486656

fc.bias f4 [2]
000000 4a 87 36 3c 86 84 cb bb
       0.011140654 -0.0062108664
