model/CNN/saved_models/split_grid/smallcnn4_fold4_pad9_patch50.pth (torch, 35659 bytes, 12 tensors)

conv1.weight f4 [32, 10, 3, 3]
00000000: ebfb 52bd 6540 44bd d09f c2bd c464 0dbc
00000010: 7f6e 1f3d 4634 b1bd 1835 94bd 4441 a5bd
00000020: 4a2c 823d 4261 d13d 979c 073d 19de f03c
00000030: 0677 d4bd ca17 1dbd 65d3 87bc 408e 85bb
00000040: 2bdf 99bc f2a9 abbd 36f5 b1bc 4d30 c7bc
00000050: a159 11be 937f 073d d83c 53bd 00b1 25bd
00000060: ac6a c5bd 7e1a 6a3d d20c 47bd c472 52bd
00000070: a5c1 253c f00f 7c3d 369c 8e3d ec09 8f3d
00000080: edd2 a23d 4d9d 3a3d 15f9 573d 84d6 2abc
00000090: 75f0 793c 383d 103d 3351 cdbc f91f 16bc
000000a0: 665a 41be 3e8e 2abe 70cf be3d e3f1 8bbd
000000b0: 7311 46bc 2e49 babc 1565 32bd 306e 9dbd
000000c0: 99c0 75bd 4121 4ebd 9d1e bcbd 7ae3 4d3d
000000d0: d884 07bc 913d 96bd 4bfd 61bd 4c00 dd3d
000000e0: 2d8d 28bd dded dcbd 7095 2f3d e57d 2ebd
000000f0: 0d60 5f3b 5871 67bd 59ec 7a3d dbbc 903a
00000100: 6d81 e9bd c1ca 0cbd 29ac 7b3d a18f 6b3c
00000110: b064 cabc 141d 90bd 24d3 cebd b512 ecbc
00000120: bef1 0bbd a1db c83d 18e5 b3bc 73ae ec3d
00000130: 3a87 033c 09db 163e 666a a93d d691 2ebd
00000140: 116a 393d dc71 893d d4fc dcbc 619c a43d
00000150: 395b 483d 584d acbd 6fe6 16bd 5d9a b1bc
00000160: 31c3 b5bd 2940 963c cf45 83bd 56c3 533d
00000170: 17e7 813d 4f7e 50bc cb71 fd3d 4c1d ad3d
00000180: 0e61 c63d bdc9 88bd 9680 68bd fba0 17bd
00000190: e139 653d fa54 e4bd 42f0 0dbc cce0 63bd
000001a0: f29e 5dbd 9c33 bfbd 4db4 7dbc 91a1 6d3c
000001b0: 7131 38bd d3c8 f4bd 670b f0bd e14f 1dbe
000001c0: 2a33 ddbc ba08 08be 447f 01bd 31f5 0d3d
000001d0: c4d2 493d 932a 8fbc 4cec b43c 337c c13d
000001e0: 6f06 e23d 34bb 793c 22fb 8c3d 4c71 eabc
000001f0: 8550 2bbc b2b6 103d ec98 10bd 64b7 8bbd
00000200: 7689 ac3b 88bb 99bd 8fcc 043d 0285 a1bd
00000210: 464b 8c3b db27 cf3d 29a9 16bb d2ad 95bd
00000220: 3369 953d b4b2 3ebb 8dba 53bd d219 e73d
00000230: 5f6c bd3d 50bd c93d 7555 e63d 5a36 b13c
00000240: 56b7 4d3d 1259 933d 6721 cebd 0837 08bd
00000250: 25a7 13bd a4e2 583b 5a4a 4dbc 0d6b e13b
00000260: 6a35 a93d 4b7d 11bd 62de 60bd 89c8 1cbe
00000270: 43c5 67bd 239f 6dbd f2f8 f8bd 1292 cebd
00000280: a1f1 79bc 059a c4bc 968f e93c 8248 a73c
00000290: c26f a9bd e5ef 7e3d f892 fd3c 5d67 a83d
000002a0: da8d acbc 779f f53d 3ee6 8bbc f660 5abd
000002b0: 4689 cebc 166a 443c 1ed0 b3bd f543 a6bd
000002c0: 7dd6 403d 3d90 c83c 8873 7f3d c6ec 5f3d
000002d0: 7b10 58bd 4366 c5bb 3820 69bd f664 f43d
000002e0: 5354 f13d 740a 02bd 8bda e33d 9edd 953d
000002f0: 3491 573d 5303 fc3c e33d 903c 3ed9 cebd
00000300: 553e 5ebd b8b4 06bd 5c5b 133d c219 873c
00000310: 74ee a5bd d74a 13be 0756 f5bd bd2f 0abd
00000320: c888 e53c 3ffa 0b3c 6275 70ba 5927 15bd
00000330: 1022 ab3c 4ab9 8ebd 4946 5abc 5665 c4bd
00000340: d3b1 233d b722 483d 986e 71bd 601e 753d
00000350: 3704 dfbb bfa6 b13c 3a59 03be 9c60 edbd
00000360: 102a b0bd d5ed 57bd 54b1 d3bc 2025 9fbd
00000370: 7398 d63d da71 6cbc eedc a23d 9014 a23d
00000380: da1e a6bd 7246 cebd e8d6 d139 3493 a6bd
00000390: b3f9 813c 11ec a1bc a3d0 95bd b4d7 e43d
000003a0: b205 c0bc 8bb8 1dbc 8cae 85bb c9e6 3fbc
000003b0: 6ce9 cabd f398 393c fd57 b03d 6971 e83c
000003c0: d58c aa3c 6003 943b 5324 9b3d c742 38bc
000003d0: 76e5 11bc 02dc cbbc bd1e 563d 4d2b 8a3d
000003e0: 1d86 cfbd 92d2 ae3d c57b babd 24ad c83d
000003f0: bb12 97bd 363c 653b c454 c93d 44b8 47bd
-0.05150978 -0.047912974 -0.09503138 -0.008629981 0.038923737 -0.086525485 -0.07236689 -0.08069089
0.06356104 0.102236286 0.03310832 0.02940278 -0.103742644 -0.038352765 -0.016580293 -0.0040757954
-0.018783173 -0.08382024 -0.021723371 -0.024315024 -0.14194347 0.03308065 -0.051571697 -0.040452003
-0.09639487 0.05715417 -0.04859621 -0.05137898 0.010116969 0.061538637 0.069633886 0.06984314
0.07950387 0.04556017 0.052727778 -0.010427121 0.015255083 0.035214633 -0.025063133 -0.009162896
-0.1888214 -0.16655824 0.09316909 -0.068332456 -0.012089121 -0.022739973 -0.04355343 -0.07687032
-0.05999813 -0.050324682 -0.091855265 0.050265767 -0.0082714185 -0.073359616 -0.0551732 0.10791072
-0.04115026 -0.10787556 0.042867124 -0.04260053 0.003408435 -0.056504577 0.061260555 0.0011042611
-0.11401639 -0.03437305 0.06144348 0.0143775055 -0.024706215 -0.07036796 -0.10098866 -0.028817514
-0.03416609 0.09807516 -0.021959826 0.11556711 0.008027846 0.14731993 0.08272247 -0.04261955
0.04526717 0.0671117 -0.026976027 0.080376394 0.04891512 -0.0841319 -0.036840852 -0.021680051
-0.088751204 0.01834114 -0.06409799 0.05169996 0.06342905 -0.012725427 0.1237522 0.084528536
0.096864805 -0.066791035 -0.056763254 -0.037018757 0.0559634 -0.111490205 -0.008663239 -0.055634305
-0.05410666 -0.093360156 -0.015484882 0.014503852 -0.044969026 -0.11952367 -0.11720925 -0.15362503
-0.027001936 -0.13284579 -0.03161551 0.03465766 0.049273267 -0.017476356 0.022085331 0.09447517
0.11036383 0.015242387 0.06883837 -0.028618477 -0.010456209 0.03533048 -0.035302088 -0.06822088
0.00526541 -0.07506472 0.032421645 -0.07886697 0.004281434 0.10115024 -0.002298901 -0.07308544
0.07295456 -0.0029098215 -0.05169158 0.11284222 0.09249186 0.098505616 0.112467684 0.021632362
0.05022367 0.07194723 -0.10064965 -0.033255607 -0.036048073 0.0033094073 -0.012529934 0.0068792165
0.08262141 -0.03551988 -0.05489958 -0.15310873 -0.056584608 -0.058013093 -0.121568576 -0.100864545
-0.015255363 -0.023999223 0.02851085 0.020420317 -0.08273269 0.0622405 0.03095387 0.0822284
-0.021063734 0.11993306 -0.017077561 -0.053315125 -0.025211941 0.0119881835 -0.087799296 -0.081184305
0.047079552 0.02448284 0.06236604 0.054669164 -0.052750092 -0.0060241534 -0.05691549 0.11933319
0.11783662 -0.03174825 0.11125668 0.07317661 0.05262871 0.030763304 0.017607635 -0.101000294
-0.054258663 -0.03288719 0.0359758 0.016491774 -0.08102122 -0.14384018 -0.11979299 -0.033736933
0.028019324 0.00854355 -0.0009172765 -0.036414478 0.020890266 -0.06968935 -0.013322421 -0.09589641
0.03996451 0.04886123 -0.05894336 0.05984342 -0.0068059224 0.021685956 -0.12827006 -0.115906924
-0.08601773 -0.05271705 -0.025841393 -0.07770753 0.10478296 -0.014431441 0.07952295 0.07914078
-0.08111353 -0.1007203 0.00040023704 -0.081335455 0.015866136 -0.019765886 -0.07315185 0.111739546
-0.023440216 -0.009626518 -0.0040796455 -0.011712738 -0.09907803 0.01132797 0.086105324 0.02837439
0.020819107 0.004517004 0.07575288 -0.01124639 -0.008904805 -0.024885181 0.052275408 0.0674654
-0.10133002 0.08536257 -0.091056384 0.09798649 -0.073766194 0.0034978515 0.09830621 -0.048759714

conv1.bias f4 [32]
00000000: 088f 98bc de43 d4bc 19f5 98bd 2e2f 7a3d
00000010: 5f4d a6bb 89db 06bd 162e 0c3d 8b77 b03c
00000020: 0835 63bc 8de6 b4bc 3903 a23d a7ba 7f3d
00000030: ad3d 513d 9dbf 9d3d 9abf a83d 4cd0 c1bc
00000040: c1f2 cbbd ef88 8a3d a313 463c 4dfc 84bd
00000050: 8058 b23d 7bc6 153d 0f2a 4f3d 867f 4ebd
00000060: 7cc4 c53d ae09 903d 5754 413d c65f b73d
00000070: ea6e 463d 04f8 b7bd 4bc5 4f3d 24a3 18bd
-0.01862289 -0.025911268 -0.07468624 0.06108015 -0.0050751413 -0.03292421 0.03422364 0.021541378
-0.013867624 -0.022082591 0.07910771 0.062433865 0.05108421 0.07702563 0.0823967 -0.023658894
-0.09958411 0.06764399 0.012089643 -0.06493435 0.08708286 0.03656624 0.05057722 -0.050414585
0.09656617 0.07033096 0.047199573 0.08953814 0.04844562 -0.08982852 0.050725263 -0.037264958

bn1.weight f4 [32]
00000000: e209 7f3f 0b36 863f 85e3 873f 1aec 873f
00000010: b250 833f 77a6 8c3f 520d 8b3f 67a4 9b3f
00000020: 2353 863f 1644 843f 3626 943f 8ae8 843f
00000030: 6725 813f dbe7 803f cfc0 8b3f c74b 873f
00000040: c3a8 7f3f 7844 813f 4cf5 833f b0d2 853f
00000050: 8196 823f 9521 8a3f ff6d 863f d1db 8d3f
00000060: d970 853f c05d 853f f019 913f 5684 6c3f
00000070: 5720 893f ac73 823f 26d2 813f 272d 853f
0.99624455 1.0485243 1.0616308 1.0618927 1.0259001 1.0988301 1.086344 1.2159547
1.0494121 1.0333278 1.1574161 1.0383465 1.0089539 1.0070757 1.0918216 1.057
0.99866885 1.009902 1.0309234 1.0454922 1.020218 1.0791498 1.0502318 1.1082708
1.0425063 1.0419235 1.133604 0.9238943 1.0712994 1.019155 1.0142257 1.0404404

bn1.bias f4 [32]
00000000: e2d4 fbba 7a55 4a3c 11ae 633d 2ffb 26bd
00000010: ab8f 393a 539f bdbc d5a0 3f3d 7e3c 213e
00000020: 2c5a 8e3c 0919 433c 6eaf f83d cfeb 1dbd
00000030: 1018 55bc 030f 8abc 033e 563c ff82 bc3b
00000040: 5e93 6ebb 7e03 c9bc ada1 ff3b 66cb 583c
00000050: 9268 98bc bb7b 1e3c b97c 333d 8acd 8b3d
00000060: 3206 313c 33cb 3bbc 88b2 19bc dc85 5dbd
00000070: a335 0abd 4f93 c53b bc80 b0bc 7acd 993c
-0.0019213224 0.012349481 0.055585925 -0.04076689 0.0007078598 -0.02314726 0.04678424 0.15745732
0.017376982 0.011907824 0.121428356 -0.038554963 -0.013006225 -0.016852861 0.013076308 0.0057529206
-0.0036403756 -0.024537798 0.0078012557 0.013232088 -0.01860455 0.009673054 0.043820117 0.06826313
0.0108047 -0.011462021 -0.009380944 -0.054082736 -0.03374256 0.0060295234 -0.02154576 0.018774737

bn1.running_mean f4 [32]
00000000: 0771 95bc 98f2 d8bc d402 9bbd 0127 7a3d
00000010: 26cf b8bb 3b8b 06bd fe66 0c3d d2cd b03c
00000020: 8da3 4fbc e009 adbc b670 a13d cdbf 7f3d
00000030: a571 513d 2154 9e3d cfac a93d 6d23 bfbc
00000040: 36be cabd b8bf 8a3d cf2e 463c 753f 86bd
00000050: d618 b13d 87b6 143d 75fa 4c3d e228 4dbd
00000060: c76c c73d 3baa 8f3d f38e 3f3d 584e b93d
00000070: 1b18 483d c8fe b7bd 1167 4e3d 5eb9 13bd
-0.018242372 -0.026482865 -0.07568899 0.061072353 -0.0056399284 -0.032847624 0.03427791 0.021582518
-0.012673271 -0.021122873 0.07882826 0.062438775 0.05113377 0.0773089 0.08284914 -0.023332322
-0.09899561 0.06774849 0.012096121 -0.06555072 0.08647315 0.036306884 0.050043542 -0.050087817
0.097375445 0.07014891 0.046767186 0.09048146 0.048851114 -0.089841425 0.05039126 -0.03606545

bn1.running_var f4 [32]
00000000: 5f5f 813e 7cfa 0d3e a6f3 f93e 8c64 833e
00000010: 78f1 1d3f 83f7 283e 0e4b a03e d1ad 6d3e
00000020: 9828 4b3e 24e2 1e3f e38b 533e e623 e33e
00000030: 3e40 723e d180 2a3e 87f2 803e 5d8d 973e
00000040: adf7 d03e 4621 e13e 5b96 513e b50b 3e3f
00000050: d9ee 183e 6bcb dc3e bc8d d93e 0818 093f
00000060: ea0a f63d f3a8 f83d 3b34 b63e 7145 ab3f
00000070: a25d 5b3e d0f7 173f ff41 403e 7c55 823e
0.25268075 0.13865083 0.48818702 0.2566265 0.6169658 0.16500668 0.31307262 0.23210837
0.19839704 0.62063813 0.20658831 0.44363326 0.23657319 0.16650702 0.25185034 0.2960004
0.40813962 0.43970698 0.20467512 0.74236614 0.14934863 0.43123946 0.42490947 0.53552294
0.120138004 0.121415995 0.35586724 1.3380567 0.21422437 0.59362507 0.18775176 0.25455844

depthwise.weight f4 [32, 1, 3, 3]
00000000: 484d 5d3e eee2 393e ba58 c5bd fe2f 603e
00000010: 07ec a43d e96e 85be 8429 a63e 347f 4c3e
00000020: 9bcb 1c3d 2f32 983e c53e e73d 06b7 b73e
00000030: 0097 cf3d 151c 0ebe 0c02 903e 7265 1ebe
00000040: c9bd a13e 7650 943d 34a9 2c3e 1462 68be
00000050: 8964 76be ab7b 07be 00f9 3cbe 1f33 df3c
00000060: 1d77 813e c954 aebc ab9f 44bd a174 6dbe
00000070: 5e5d 3bbe 5c0b 073e 51cc abbe 377b aa3d
00000080: 31e6 dfbd 2680 603e d61f c2be 4077 2f3d
00000090: 2e95 cf3d fe3d cfbd d343 22be 31cf ad3e
000000a0: 8a61 94be a24d 983e d666 bbba 428d 623e
000000b0: 9bbd 373e 0dde a33d da6e 8d3e 231f 8e3e
000000c0: 9a6a b53e 53fa 163e 54eb a73d 1643 8dbe
000000d0: 4fd2 66be 4ef3 e43d 8925 c3bd e509 8abd
000000e0: ca43 b0bd 60ed a2be ef20 23be 4339 e2bd
000000f0: 0792 dc3c c1b4 b23d d365 4e3e bf4a dcbe
00000100: 8c22 dabd a947 8b3e 53a7 3cbe e838 e5bd
00000110: a1f7 d83c 1192 813e e918 913e 23ce 803e
00000120: fd65 403c fbb5 d13d dc28 56be c0d9 a0bc
00000130: f99a bdbe 28f6 83be 9ca4 983d ed0e c6be
00000140: 87ce f8bc 07a0 ab3e 4b6e 733c 0a20 573e
00000150: 6711 0cbe ccd8 d53d 916c 0a3d f003 d53d
00000160: ef2c 783e ceba 913b f357 893e 9334 be3e
00000170: 04bf 0e3e 2c06 11be 288a d43e cbf2 703e
00000180: e642 e63d 963a 08be 0e30 7abe 0905 bebe
00000190: 3f0a 92be 51cb 323e b118 b33d 3ebf 74be
000001a0: 2837 173d 1755 973e ec22 a1bd b3bb 1fbe
000001b0: 5466 823e b301 8d3e 9123 bdbd 9c15 213e
000001c0: 43fb 353e 6927 a73e b243 02be 29e4 163e
000001d0: 236e 24bc 85d6 0ebe b2d1 323e 83b6 d2bb
000001e0: 58df 403e acb7 6b3e 3e31 05be 8b82 87be
000001f0: a95a 843e 339f ab3e f265 64be ad54 c53e
00000200: f9d0 153e 98c0 bf3e 9d5b f8bd 8aff aa3e
00000210: bd11 953e 137d a2bd ba32 853e 0075 a53b
00000220: 1a99 4dbe 0a49 f9bd b32e 503e d808 56bd
00000230: 2a0e 90be fdb8 3f3b 719b dabc 3034 a0be
00000240: 87c0 a2be 85f5 543c 2b3f 21bc 31a4 aabe
00000250: 092a 673e 9a91 2f3e aec9 263e 32c5 84be
00000260: 2b5d aebe 9d04 703e 3cd2 85be 303f 0c3e
00000270: 4612 b03e b4c0 663e 5983 95be 56e4 a43e
00000280: 8a3f eabc b518 bc3d c715 3fbe f354 4a3e
00000290: f73e 84bd 6325 2c3e 13c0 99be f49c c3bd
000002a0: e09d 82be 8cd4 25bd 0ac4 9cbe 4173 7f3e
000002b0: cb56 ab3d 1ca0 78bd a4de dc3d c164 30be
000002c0: 915f 303e 07e1 80be 1a44 70be ec29 bcbe
000002d0: da68 2c3e c593 763e a34d e9bc f0e4 c4bd
000002e0: 5d4f a83e c596 4e3e bb06 163e b989 9cbd
000002f0: 4a95 8f3e 0c44 0fbe bc90 233e 9a83 173e
00000300: f40a b93e fc74 9b3e b55b da3c 1560 77bd
00000310: fd48 773d def9 bb3d b9f8 aabd f9e1 b5be
00000320: d6ec abbe 960b 8bbc d66f 5b3d dfb0 8c3d
00000330: 4099 1dbd de3f 073e 7410 fd3d 9610 a53e
00000340: b11d 793e 2cc8 d73d 8fba a5bd 7225 2bbc
00000350: f4aa 7fbe a447 abbe 643b 1f3e 1813 6abe
00000360: 533c 3cbd 5748 823e 630f 3c3e be75 963e
00000370: dc64 a83e 5985 173e 576b 9bbd 04c2 3fbe
00000380: 8744 2dbc 7937 963b 57eb 4abd 6c83 b0be
00000390: 144a 97be af36 0bbd c556 e23d e55f 54be
000003a0: 03fd 5ebe 22dc b9be 385a cdbe 45c3 92be
000003b0: eb6b c0be 6ad7 dabe ef81 59be ff42 cdbe
000003c0: 6656 833e 28eb 99be e611 a73d 47e9 7abe
000003d0: 691f 3fbe 062e 533e ea8e 733e 16ea 483e
000003e0: d5e2 263e ec0c 79be 6c9d 60be 27a0 113d
000003f0: 63fe 643d 2b0d 81be dcd8 bfbd 6413 e4bd
0.21611512 0.18152973 -0.09636064 0.21893308 0.08052831 -0.2606118 0.3245355 0.19970399
0.03828011 0.29725787 0.11291269 0.35881823 0.10136223 -0.138779 0.28126562 -0.15468386
0.31590107 0.07241909 0.16861421 -0.22693664 -0.24061789 -0.1323077 -0.18454361 0.027246056
0.2528619 -0.021280663 -0.048003834 -0.23189022 -0.18297336 0.13187927 -0.3355432 0.083242826
-0.109325774 0.21923885 -0.37914914 0.042838335 0.10135876 -0.10119246 -0.15846185 0.33947137
-0.28980666 0.2974673 -0.0014297615 0.22124198 0.17943422 0.08001337 0.27623636 0.2775813
0.35432893 0.14743929 0.08199182 -0.27590245 -0.22541164 0.11179219 -0.09528644 -0.067401685
-0.0860668 -0.31821728 -0.15930532 -0.11046078 0.0269251 0.08725882 0.2015603 -0.43025777
-0.106511205 0.2720311 -0.18423204 -0.11192495 0.026485266 0.25306752 0.28339317 0.2515727
0.011743066 0.10239788 -0.20914024 -0.019635081 -0.37032297 -0.2577374 0.07453272 -0.38683262
-0.030371917 0.3352053 0.014857839 0.21008316 -0.13678513 0.10441741 0.033794943 0.10401142
0.24235891 0.0044473177 0.26824912 0.37149486 0.13940054 -0.1416251 0.41511655 0.23530118
0.112432286 -0.13303599 -0.24432394 -0.37113217 -0.28523442 0.17460372 0.08744944 -0.23901078
0.036917835 0.29557106 -0.07867989 -0.15598945 0.25468695 0.2754036 -0.092352994 0.157309
0.1777163 0.32647255 -0.12721136 0.14735474 -0.010036024 -0.1394902 0.17462805 -0.0064304485
0.18835199 0.23019284 -0.13007066 -0.26466784 0.25850418 0.33519897 -0.22304514 0.38541165
0.14630498 0.37451625 -0.12126849 0.33398086 0.29115096 -0.07934012 0.26015264 0.005049348
-0.20077935 -0.12172134 0.20330314 -0.052254528 -0.28135806 0.0029254549 -0.026685448 -0.31289816
-0.31787512 0.01299799 -0.009841721 -0.33328393 0.22574629 0.17145386 0.16287872 -0.25931698
-0.34055457 0.2343926 -0.2613696 0.13695979 0.34388942 0.22534448 -0.29201773 0.32205456
-0.02859475 0.091844 -0.18660651 0.19758968 -0.06457322 0.16811137 -0.30029353 -0.09551421
-0.25511074 -0.040485904 -0.30618316 0.2494631 0.08366164 -0.060699567 0.10784653 -0.17225935
0.17223956 -0.25171682 -0.23463479 -0.36750734 0.16836873 0.24079807 -0.028479403 -0.09613979
0.3287305 0.20174702 0.14651005 -0.07643456 0.28043586 -0.13990802 0.1597318 0.14796296
0.3614117 0.3036269 0.026655057 -0.060394365 0.06037234 0.09178518 -0.08348221 -0.35523966
-0.3357913 -0.016973298 0.053573452 0.06869673 -0.03847623 0.13207957 0.12356654 0.32239217
0.24327733 0.10536227 -0.08092224 -0.010445939 -0.24967557 -0.33453095 0.1555 -0.22858846
-0.045955967 0.25445816 0.18365245 0.29386705 0.3288945 0.14796962 -0.07588833 -0.18726355
-0.01057542 0.0045842496 -0.049540844 -0.34475267 -0.29548705 -0.033987697 0.11051706 -0.20739706
-0.21776204 -0.3630076 -0.40107894 -0.28664604 -0.37582335 -0.42742473 -0.21240972 -0.40090176
0.25651854 -0.30062222 0.08157711 -0.2450305 -0.18664326 0.20623025 0.23784986 0.19620547
0.16297467 -0.24321336 -0.21935052 0.035553124 0.055906665 -0.2520536 -0.093675345 -0.11136511

depthwise.bias f4 [32]
00000000: 90ac 8c3e bfe1 75be 7860 dfbd e902 c9bd
00000010: bfa0 7cbd 4031 1ebe c2fe c5bd a1b3 723d
00000020: 53f8 a43e 50ce 533e b89e b2be b2fc a13e
00000030: 9507 5f3e c36b 9c3e 70c3 24be 4041 07be
00000040: fc98 00bd d2a1 973d e7f5 923e 63a0 f93d
00000050: 691c aebc 4ecf 5bbe 71d2 813e bba0 433e
00000060: d8c1 db3d 7435 883e c8a2 17bd 6d22 80be
00000070: 7539 8bbe bba2 fbbd 74b5 6ebe 04fe 4a3d
0.27475405 -0.24011897 -0.10907072 -0.09815008 -0.061676737 -0.15448475 -0.09667732 0.05925334
0.32220706 0.2068417 -0.34886718 0.31638104 0.21780236 0.30550966 -0.16090178 -0.13208485
-0.031395897 0.07403912 0.28703234 0.121887945 -0.021253781 -0.21465799 0.25355867 0.19104283
0.10730332 0.26603281 -0.037020475 -0.25026265 -0.27192274 -0.12286898 -0.23311406 0.049558654

pointwise.weight f4 [64, 32, 1, 1]
00000000: 9284 043e 2b5a 913c eebc d83d ecf3 3d3d
00000010: b68c c23d 6971 0bbe 325e 6dbd 9f2e c33c
00000020: 88e6 63be 2e2d b63d 5cfd e2bd 970e 013e
00000030: 3529 f6bd f527 383d 80a8 41be 0f16 84bd
00000040: 281b 483b 9310 84bd 7d1f 12be 7b05 203e
00000050: 7837 a53d df4f 62bd c5d8 bb3d efda f93d
00000060: 9c8c df3d 1735 a4bb d800 eebd 9279 fabd
00000070: 676f 9bbc b0ab 28bc 3b2a 9cbd c9ee 8b3d
00000080: 6c53 aa3d db2d 86bd f120 a03d 5077 0c3e
00000090: 1007 6abd a62c b43c 902d bebd 9242 23bd
000000a0: 9fbd 4fbe 3905 563e e3fb 0dbe 7144 433d
000000b0: 6aff 533c 9a7b 0ebe b532 163e db28 ca3a
000000c0: e5ea 713d 3827 89bd 7494 2cbe c3d9 6fbd
000000d0: d722 043e 6379 ce3d 0872 423e 2658 02bc
000000e0: d858 623e 9462 0c3e 8304 013e 98e4 d33d
000000f0: 6e8b 313e 701d 34be 6d74 84bd 700d 983c
00000100: 5288 22ba a9f2 91bd 3b5b e0bd 5c5b 083e
00000110: 2b51 a0bd 0f11 a0be a352 24be 3cb5 ff3d
00000120: 8a9f ed3c b6f0 013d 6c48 a03c 8097 023e
00000130: 67af 5cbd 9ae4 473d ebc1 e03c 9360 c2bd
00000140: 5642 fdbd 179d d63d 0b5e 183e 87e6 093e
00000150: 85a2 ba3d b7ad 62be 8344 89bd 9f8b 113e
00000160: 1583 34bd 7057 55be 65bd 953d f038 003e
00000170: 35c0 2dbe b8c7 153e 6a99 94bd a997 403d
00000180: 182a 413d 2f9d 733d 9d1d c83d ed9a d93d
00000190: 7695 afbc 52bd 313d 744b 3bbe 36a8 3ebd
000001a0: 34d5 633d 332e 433e 4e67 29be 4ded 113e
000001b0: 5d10 203e 8240 0a3e 060a f53d 7e11 353e
000001c0: f938 4bbe 66a2 573c a0e3 053e 94c3 7fbd
000001d0: 61ae 90bd 1bbe 5bbd ab3c 363e c40a 1fbd
000001e0: 97f2 493e 33ed 9f3d 36dd fd3d 38cc f53c
000001f0: bfcd d03d 0eca 26be d592 25bd fd76 923c
00000200: fb78 313e 0312 cb3d f3d1 a9bc 5357 153d
00000210: bc17 203e 1dc5 0cbc e8ec dbbd c2f7 99be
00000220: ee03 2a3e da50 9cbd 443c 5f3e 2f43 be3d
00000230: 6130 233d 9103 0cbe 6332 62be 0337 d0bd
00000240: 5377 02bd 3e98 b0bd 1eec 9cbc 264c 343e
00000250: 6546 183d 8866 f8bc d1c7 40be dd0f 4dbe
00000260: d350 d2bd c616 7fbd f3c7 423d 6eb0 13be
00000270: 1be8 433c 7323 0cbe ae6d ef3d 4830 d93d
00000280: 94ec 7e3b 3981 b2bc a787 c23d 1a8d 063d
00000290: c78a 123e 163b 70bd 7d34 3cbe 85cc 833d
000002a0: 8bb5 943d a46a f4bd d780 76be a461 0ebd
000002b0: 0dd8 793d 6b9f 663d f757 edbd 5f3e 4abd
000002c0: 93b1 a13d 89a0 2b3c e3e4 743d b000 61be
000002d0: a36d dd3c 2444 313e 0786 323e efe8 713d
000002e0: 7885 f83d 94a6 ba3d a2c4 dc3c a1a8 e03b
000002f0: 4b56 55bd 56d5 cd3d 59cb aabc a09c a6bc
00000300: 917d 7a3c b979 edbc eabf 9d3d 713c 8bbc
00000310: 2d6d 323e e27a 293e bdef 403e 6947 a4bc
00000320: d23e f7bd 8f5f 4ebd 3dcf 9dbc 36fb 12bc
00000330: 486a c43d 4f4a 913d 1911 693e c71c f8bd
00000340: da47 373e 514b 853d 4933 903e 6315 0e3e
00000350: a2f2 a2bd 5ee7 043e 3b5a 8ebd 76b1 20be
00000360: 8348 813b 27c4 10be bc59 de3d d208 02be
00000370: cc20 d2bd 8fb6 6cbd 05c7 7a3d cb01 403e
00000380: 0dff 64bd afe6 273e 3fc3 e83d 6115 03be
00000390: bd4c e5bc 9269 1b3b ea68 fcbd da55 6d3d
000003a0: 0316 0abe 6624 8d3d 6543 c5bb b058 343e
000003b0: 1d74 8f3d a752 fdbd e06d 7e3e 9e5f 92bd
000003c0: e104 c4bc b7b0 27bd b442 2a3d e552 113e
000003d0: c92f 6e3d d80b c53d 8807 60bd 788b 25be
000003e0: 4055 0ebd 1c02 aabd f444 193e f068 903d
000003f0: efb1 03be fa30 86bd 6e5c 213e b9aa b3bd
0.12941197 0.01774319 0.105829105 0.0463752 0.09499495 -0.13617481 -0.05795116 0.023825942
-0.2225591 0.08895336 -0.11083481 0.12603222 -0.12019578 0.04495998 -0.18911934 -0.0644952
0.0030533765 -0.06448474 -0.14269824 0.1562709 0.080672204 -0.055251952 0.09172205 0.121999614
0.10915491 -0.0050112116 -0.11621255 -0.12230219 -0.01897402 -0.01029484 -0.07625242 0.06832654
0.08316693 -0.06551715 0.07818783 0.13717389 -0.05713564 0.021993946 -0.09286034 -0.03985841
-0.20287178 0.2090043 -0.13865618 0.047672693 0.012939313 -0.13914338 0.1466778 0.0015423553
0.059061904 -0.066969335 -0.16853505 -0.058557283 0.12903915 0.100817464 0.18988812 -0.007955587
0.22104204 0.1370948 0.12599377 0.10346335 0.17338344 -0.17589355 -0.06467519 0.018561095
-0.0006200123 -0.07126362 -0.10954901 0.13316101 -0.078279816 -0.31263015 -0.16047148 0.124857396
0.029006738 0.0317237 0.019565783 0.12753105 -0.053878214 0.048801996 0.027436217 -0.09491076
-0.12366168 0.10479181 0.14879625 0.13466845 0.091130294 -0.2213658 -0.06702521 0.14213417
-0.044070322 -0.20834136 0.07311515 0.1252172 -0.16967852 0.14626968 -0.07255824 0.047019634
0.047159284 0.059476074 0.09771273 0.10625253 -0.021433573 0.04339344 -0.18290502 -0.046547137
0.05562325 0.19060592 -0.16543314 0.1425068 0.15631242 0.1350117 0.119648024 0.17682454
-0.19845952 0.013161277 0.13075113 -0.062442377 -0.0706451 -0.053648096 0.1779658 -0.038828626
0.19721447 0.07808914 0.12395708 0.030004606 0.10195493 -0.16288015 -0.040423233 0.017879004
0.17331307 0.09915545 -0.020729994 0.036460232 0.15634054 -0.008591917 -0.10738546 -0.30071837
0.16603062 -0.07632609 0.21800333 0.09290158 0.03984106 -0.13673235 -0.22089534 -0.10166743
-0.031852078 -0.08622788 -0.019155558 0.17607173 0.03717651 -0.030322328 -0.18826224 -0.20025583
-0.10269322 -0.062277578 0.047553968 -0.14422771 0.011957194 -0.13685398 0.116908416 0.10604912
0.0038898336 -0.021790134 0.0949853 0.03284941 0.14310752 -0.0586501 -0.18379398 0.064354934
0.07261189 -0.119344026 -0.24072586 -0.034761086 0.060997058 0.056304377 -0.115890436 -0.049375888
0.07895198 0.010475286 0.059788596 -0.21972919 0.027029818 0.1731115 0.1743394 0.059060033
0.12134832 0.091138035 0.02694923 0.0068560396 -0.05208425 0.10050456 -0.020848917 -0.020338356
0.015288726 -0.028988706 0.0770262 -0.016996594 0.1742446 0.16550782 0.18841453 -0.020053582
-0.12072529 -0.0503841 -0.019263858 -0.008971026 0.09590584 0.07094251 0.22760428 -0.12114864
0.17898503 0.06508506 0.28164127 0.13875346 -0.07956435 0.12978885 -0.06950804 -0.15692696
0.0039454116 -0.14137326 0.10856959 -0.12698677 -0.10260162 -0.05779129 0.061224956 0.18750684
-0.055907298 0.16396593 0.11365365 -0.12801124 -0.027990693 0.0023714048 -0.12324698 0.057943203
-0.1348496 0.06891708 -0.006019997 0.17611957 0.07004569 -0.1236928 0.24846601 -0.07147144
-0.023928108 -0.040940013 0.04156752 0.14191778 0.05815104 0.096214 -0.054694682 -0.16166484
-0.03474927 -0.083011836 0.1496771 0.07051265 -0.12860845 -0.0655231 0.15757915 -0.08772797

pointwise.bias f4 [64]
00000000: 71ef 083e cd59 243e 58c7 013d 7f4b d3bd
00000010: 362f c6bd 1959 0ebe c043 ebbc 3231 3bbe
00000020: ee7f 053e 8878 bdbc 94b8 ac3d 0e43 723c
00000030: 86ef 163e 3251 8abd 3af2 8e3d c371 fa3d
00000040: b920 c2bc 92d0 17bb b02b a6bd aa82 e2bd
00000050: 6ec2 803c 3a03 1c3e fa8a 16be 088f f93d
00000060: 38a8 e9bd c50a 2f3e 1737 3abe cba0 b73d
00000070: 9ada 003e 5bb5 af3b 47cd dbbd e662 ffbc
00000080: 8a0a e0bc d945 f13d 9693 e9bd 5f11 d43d
00000090: edb0 39be 79b6 a7bb 80e8 533d 734d 1a3e
000000a0: ca8e d63d 81d1 143e cb84 6bbd 2dbb 09be
000000b0: ce87 163e fb05 0b3b e607 30bd 501b 323d
000000c0: 8f3a 303e 9ed6 243e 4473 523d 10d9 243d
000000d0: 8419 7cbd d406 13bd d168 8d3d 2302 273d
000000e0: a94e 333e 59c4 283e 5b43 2cbe 4031 713d
000000f0: a9ef 90bd a5e5 223e 467e 06be 44fb 8c3d
0.1337259 0.16049881 0.03168425 -0.10317134 -0.096769735 -0.13901176 -0.02871883 -0.18280485
0.13037083 -0.023128763 0.08433643 0.014786495 0.14739808 -0.06753768 0.06979795 0.122287296
-0.023697244 -0.002316509 -0.081138015 -0.110600784 0.015717711 0.15235606 -0.14701453 0.12185484
-0.11409038 0.17093952 -0.18185078 0.08966216 0.1258339 0.0053621954 -0.10732513 -0.031175088
-0.027348775 0.117809005 -0.11405103 0.10354876 -0.18133898 -0.005118188 0.0517354 0.15068607
0.104764536 0.14533044 -0.057499688 -0.13450308 0.14700243 0.0021213281 -0.042976283 0.04348308
0.17209838 0.16097495 0.051379457 0.04024607 -0.06154777 -0.035895184 0.06904758 0.040773522
0.17510475 0.1648115 -0.16822569 0.05888486 -0.070769615 0.15907915 -0.13134107 0.068838626

fc.weight f4 [2, 1024]
00000000: a2ec ab3c 8915 fabc 0d27 7a3a 97a3 fc3c
00000010: b6d3 9c3c 2722 d13c d320 b23c f2e1 40bb
00000020: f3ff 093d 4e5a e039 0fd9 413d 0a77 cf3c
00000030: c4c4 5e3c 7452 77bb 179c 403b 0781 863c
00000040: 04c8 4d3d e022 a83d bd10 053d e575 903d
00000050: c00f 483d 30f2 373d e42a d43d 7faf 413d
00000060: c134 f63d 9b7a ac3d 86ce 373d f520 7b3d
00000070: 996e d53d 1a64 573d b77f 9a3d d809 8e3c
00000080: 0091 933c 4f3b 8dbc bbd8 83bc 87d5 08bd
00000090: e7c5 38bd 7b1b 41bd 70b4 7abd d8a6 48bd
000000a0: d217 c4bc d57d fabc 0c6d a3bd c260 12bd
000000b0: ecf7 e2bc ea86 ec3b a395 0abd efb8 0cbb
000000c0: 5975 8f3d 89c4 2b3d bb4c 723d 24c4 733c
000000d0: 9c55 7fbb 1790 973a 41f2 853d 16af ab3c
000000e0: bc47 bd3c 5380 073d 67ad 4e3d c684 aa3c
000000f0: 32da 873d c511 8c3d 74df 143c 80ba d93b
00000100: 141a 423d b07a d73d 4d78 d63d 438b 643d
00000110: b303 5f3d c7cf bd3d 0020 a43d d9c6 9e3c
00000120: e389 643d 3e1e c53d 3bd6 a03c 47df 44bc
00000130: 819c 093c 26bf cb3c c104 1bbd d281 1e3d
00000140: 5ceb 5c3d 91bc 513d a039 943d da3b ab3c
00000150: c793 a03d 2245 023e 37e3 5f3d 366e 0a3b
00000160: bd47 c83d 4dd3 d53d df92 793d e349 f3ba
00000170: d561 053e ba38 163e 499d 623d 9de8 613d
00000180: aa89 c7bc 472f 9a3c 6767 33bd 9cde d7bc
00000190: e9f4 80bd bc08 5abd ded2 34bd 57da d8bc
000001a0: 6cc7 32bc ed28 cabd 85bd 71bd 570f 21bd
000001b0: b4c0 46bc 7dbf 0ebd d8fa 05bd df23 62bd
000001c0: 98e4 563d 3361 1a3d 5d46 76bc 55c1 023d
000001d0: dc10 e6bc 587c 43bd 16d8 a1bb a422 173c
000001e0: 7f14 16bb d7e7 07bd d52e eabc 1a98 05bd
000001f0: 0a46 2ebc d2f1 c8bc 2994 6b3c 9de8 01bd
00000200: 372d c4bc 4a0f 44bc ce3e 24bd da1f 6ebc
00000210: 0bb2 75bc 3b49 60bc 1050 5dbd 037f c3bc
00000220: 1103 aebc 5d93 a23c 73cf 55bd 132c b1bc
00000230: f7fe d33c bed7 8fbc d804 52bd e82c d2bb
00000240: 4189 6f3d 7317 213c d99c b43b dfbc eb3c
00000250: 9d96 f63c 57cb 823d 5931 bb3d 8d33 bb3c
00000260: 097b 9a3d 444b f23c ba80 ec3c 68a5 25bc
00000270: ea70 123d ce62 b23d b05c 653d fa37 f9bc
00000280: def3 523d f2e0 533d 959b df3b 4067 b13c
00000290: 4779 6abb df33 22bd 5f1f e23c 4ceb 6fba
000002a0: 5e11 f23c f5fe 5ebc eb5e 0bbc bb42 073d
000002b0: 7523 fe3c 8ed3 dc3c 90a9 cf3c c75c 983b
000002c0: a084 f03c 53e4 5a3c 9900 1fbd d32f d23c
000002d0: 5130 16bd 1523 03be 3b11 f0bd c318 a9bc
000002e0: 97be 22bd ff86 e6bd 770d d2bd 949e 33bd
000002f0: 4d78 9dbd fae6 aabd e08c aabd 867b e6bd
00000300: b519 9fbd fddc 98bd a788 c6bd b17f 02bd
00000310: f91c b7bd 41c7 27bd 7d5d febc 74c7 c6bc
00000320: 658a a5bb 9403 0abd 531d a2bc 44f6 063b
00000330: ad75 28bd 6241 383c f051 5e3c 9542 3dbb
00000340: 76b9 d03c 5642 af3c 1956 363c 6cd6 923d
00000350: ca2e 823d 4440 003c 6445 1e3d 42e7 003d
00000360: e993 483d ea42 9b3c 2ec7 31bd 8158 163c
00000370: 93a5 763b f18b ec3c 50f3 df3c b10e 803d
00000380: 10fa 4b3d 7f19 5f3d b8c9 173d a18b ca3b
00000390: 6efb fabc 733f fd3c ad25 d7bc ec40 243d
000003a0: a9de f23c 4989 97bc 1163 933c b3d9 bf3c
000003b0: bc5c d63c b092 393d c20e 803b f98d 49bc
000003c0: 7d37 e33c a4f0 58bb d3db 42bc 9288 2ebd
000003d0: 8ec4 26bd b5b3 0e3a c5bc 0ebd b804 4cbd
000003e0: 300b 22bd 75ba 09bd 6735 40bd c124 5dbd
000003f0: 5d46 c73c dfce ea3a a745 bbbc 02c0 90bb
0.020986859 -0.030527847 0.0009542562 0.030839724 0.01914392 0.02552898 0.021744167 -0.002943155
0.033691358 0.00042791892 0.047326144 0.025325317 0.013596717 -0.0037738355 0.0029389912 0.016418947
0.050239578 0.08209777 0.032486666 0.070537366 0.048843145 0.044908702 0.10359743 0.047286507
0.12021781 0.08421823 0.04487469 0.061310727 0.104214855 0.0525857 0.07543891 0.017338678
0.018013477 -0.017240195 -0.016094556 -0.03340676 -0.04511061 -0.047145348 -0.061207235 -0.04898724
-0.02393714 -0.03057758 -0.079797834 -0.035736807 -0.027706109 0.0072182314 -0.03383411 -0.0021472534
0.07004804 0.041935477 0.059155207 0.014878307 -0.003896094 0.0011563328 0.06540347 0.02095751
0.023105495 0.033081364 0.050458338 0.020815264 0.06633414 0.06839327 0.0090864785 0.006644547
0.04738815 0.10521448 0.10472164 0.055796873 0.054446887 0.09268146 0.08013916 0.019381927
0.05579556 0.09624909 0.019633403 -0.012016124 0.00839913 0.02487142 -0.03784633 0.038698025
0.053935394 0.05120522 0.072375536 0.020902563 0.07840686 0.12721685 0.05466005 0.002112282
0.09779308 0.10440693 0.060931083 -0.0018561449 0.13025601 0.14670077 0.05532578 0.055153478
-0.024357636 0.018821372 -0.043799784 -0.026351266 -0.06296713 -0.053230986 -0.04414641 -0.0264713
-0.010911804 -0.09871087 -0.05901863 -0.03932127 -0.012130905 -0.034850586 -0.032709926 -0.05520999
0.052464098 0.037690353 -0.015031424 0.031922657 -0.028084211 -0.047726005 -0.0049390895 0.009224568
-0.00229004 -0.033180084 -0.028586784 -0.03261576 -0.010636816 -0.024529371 0.014378586 -0.031715978
-0.023947341 -0.011966536 -0.040098958 -0.014533961 -0.014996062 -0.0136893345 -0.05403143 -0.023864275
-0.021241697 0.019845659 -0.052199792 -0.021627462 0.025878413 -0.017558929 -0.05127415 -0.0064140446
0.058480505 0.009832251 0.0055118618 0.028776584 0.030101115 0.0638644 0.09140272 0.02285173
0.07542998 0.029576905 0.028869975 -0.010110237 0.035752214 0.08710252 0.055996597 -0.0304222
0.0515021 0.051728196 0.0068239667 0.021655679 -0.0035777853 -0.03960025 0.02760285 -0.00091521884
0.029549297 -0.013610591 -0.008506517 0.033022624 0.031022767 0.026956346 0.025349408 0.004649732
0.029360116 0.013360101 -0.03881893 0.02565757 -0.036667172 -0.12806351 -0.117220365 -0.02064169
-0.039732542 -0.11256217 -0.102564745 -0.043852404 -0.07688961 -0.083448365 -0.08327651 -0.11254029
-0.07768575 -0.07464025 -0.09694033 -0.031860057 -0.08941073 -0.040961508 -0.031050438 -0.024265029
-0.0050518983 -0.03369482 -0.019789374 0.0020593563 -0.04112785 0.011246057 0.01356934 -0.0028878797
0.02547906 0.021393936 0.011128926 0.07169804 0.063565806 0.007827822 0.038640395 0.031470545
0.048969183 0.018952806 -0.043402843 0.009176374 0.003763531 0.028875323 0.0273377 0.06252802
0.049799025 0.054467674 0.03705761 0.006181196 -0.03063747 0.030914044 -0.026263082 0.040100977
0.029647188 -0.01849808 0.017991574 0.023419237 0.026167266 0.045305908 0.0039080093 -0.012301915
0.02773642 -0.0033102417 -0.0118932305 -0.042610712 -0.040714793 0.00054436486 -0.034847993 -0.049809188
-0.03956145 -0.033625085 -0.04692593 -0.05399013 0.024325544 0.0017914436 -0.022860361 -0.0044174204

fc.bias f4 [2]
00000000: ad03 a03c 1f5e fdbc
0.019533003 -0.03092867
