model/CNN/saved_models/split_grid/smallcnn4_fold1_pad9_patch50.pth (torch, 35659 bytes, 12 tensors)

conv1.weight f4 [32, 10, 3, 3]
000000 08 29 e2 bc 76 4d cb 3b f4 0f 14 3d 91 bf eb bd
       -0.027607456 0.0062043024 0.036148027 -0.11511148
000010 a7 e5 0a 3c 1f fa 96 3c 29 a7 ce bd 95 22 a1 bd
       0.008477605 0.018429814 -0.10090477 -0.07867924
000020 37 d9 b8 bd d5 72 be bd a7 c6 4f bd 0f 95 60 3c
       -0.090258054 -0.09299246 -0.05072656 0.013707413
000030 7f 7f 0a bd a7 dd f1 bd 80 24 ba 3c f8 e1 06 be
       -0.033812996 -0.11809855 0.022722483 -0.13172138
000040 11 11 78 3c 69 18 8a bd c0 c4 5d 3d bd 44 09 bd
       0.015140788 -0.06742937 0.054142714 -0.03351282
000050 c5 8d 91 bd e3 e4 3d 3d d6 35 28 39 93 af 29 ba
       -0.071071185 0.04636086 0.00016041784 -0.0006473001
000060 ea 86 86 3d 56 d5 a6 bc f2 27 52 3d ec d2 a4 3d
       0.065687016 -0.020365398 0.051307626 0.08048043
000070 e6 4a f2 bb 57 4b e0 3d 1c d5 b3 3d f4 2c 1d 3e
       -0.0073941825 0.1095187 0.08780882 0.1534918
000080 d4 6f 04 3d 7b 47 7e 3c 32 81 19 3e 3c 1b 7b 3d
       0.03233321 0.015519972 0.1499069 0.06130527
000090 c2 cb 3a bd e4 f0 05 3e 4d 0b 88 bd a0 86 ff bc
       -0.045604475 0.13080174 -0.066427805 -0.031192124
0000a0 ce 18 88 3c c0 32 a0 bb f7 e5 9e 3d 01 f6 d6 3b
       0.01661339 -0.0048888624 0.07758706 0.0065600877
0000b0 d1 d8 52 3d 8a e6 ef 3c 57 a5 c6 3b d2 81 69 ba
       0.051476303 0.029284734 0.0060621905 -0.00089075894
0000c0 28 13 83 bc 06 4d c8 3b 59 c8 47 3d 53 00 6a bd
       -0.016000345 0.0061126975 0.04877505 -0.057129215
0000d0 74 c4 a0 3d cf 18 8d bc 41 81 22 3d 54 80 4d bd
       0.078499705 -0.017223744 0.039674047 -0.05017121
0000e0 93 b3 d8 3d e5 14 01 3e 5f 71 19 3e d8 4e 31 bd
       0.10581126 0.12605627 0.14984654 -0.043288082
0000f0 c5 a5 32 bc 9a a8 17 3d 55 24 1a 3d 98 09 1e bd
       -0.01090378 0.037026025 0.037632305 -0.038583368
000100 8b 34 ee 3c 40 91 a8 bd 19 10 e3 bc 09 df 54 bd
       0.029077789 -0.08230829 -0.027717637 -0.051970515
000110 2a 22 fe 3c 75 b4 8a 3d d2 44 3c bd 39 bc 6a 3d
       0.03102215 0.06772701 -0.04596407 0.05730841
000120 cf 47 2f 3c 00 e9 87 3c c2 ab b9 bd 3f 11 43 3d
       0.010698273 0.016590595 -0.09065963 0.04762387
000130 51 f6 ac bc 97 e7 e5 bd f9 fe 53 3a e4 c3 1e bd
       -0.021113547 -0.11225813 0.0008087005 -0.038761035
000140 64 5c dc bd 2d 1c f4 39 71 5f d3 bd fe bb 88 3c
       -0.107598096 0.000465603 -0.103209384 0.016691204
000150 e2 f9 c0 bd c4 6c 79 bd 75 b6 5c 3c 2f 34 d8 bd
       -0.09422661 -0.060894743 0.0134712355 -0.10556828
000160 c4 b6 10 bd 7b ae ab bd 44 58 e5 bd 4f 3c a0 3c
       -0.03533055 -0.08382889 -0.11198476 0.019560007
000170 62 d7 95 bd 1f bf 13 be 46 4d 2c bd 0a 86 53 3c
       -0.07316472 -0.14428376 -0.04206588 0.012910375
000180 51 fb 03 bd be cd 43 bd a1 cf f6 bc bb 97 8f bc
       -0.032222096 -0.047803633 -0.030128302 -0.017528405
000190 ed 64 ae bd 4c ac b9 3d 29 57 85 bd aa cd 97 bb
       -0.08515344 0.09066066 -0.06510765 -0.0046326714
0001a0 2a de 48 bd d9 75 55 3d 4c bc c8 bd 1d cc d9 bc
       -0.049039997 0.05211434 -0.0980154 -0.026586587
0001b0 bb df 6a bb 5b b1 cb bd cb 47 c0 bc 64 41 5c bd
       -0.003583892 -0.09945937 -0.023471734 -0.0537733
0001c0 9e 01 a9 bd 2e 42 e3 3c 4c a7 39 bd 3f 3e 5c bd
       -0.082522616 0.027741518 -0.045325562 -0.0537703
0001d0 1a d7 a1 3d 0b 9c 0d bc ad f0 11 3e c1 3c 29 3c
       0.079023555 -0.008643161 0.14251967 0.010329426
0001e0 3e 2b a8 3d 5f f8 50 bd e7 e8 f2 bb 20 dc 0e 3e
       0.08211373 -0.051018115 -0.007413018 0.13951159
0001f0 f1 7a fa 3d a3 c3 6b bd 1c f6 05 ba c8 d2 57 bd
       0.122304805 -0.05755962 -0.00051102205 -0.05269125
000200 8b d7 71 bd 45 41 1f 3d 88 69 f9 3d ce 37 42 3d
       -0.05904345 0.038880605 0.121783316 0.0474165
000210 0e 28 f7 bc c0 d0 31 3c 0f ca 2d bd b9 91 50 3d
       -0.030170467 0.010852993 -0.042429026 0.050920222
000220 b7 e2 c9 bd 5d e8 33 3d 5c d5 9b bd 6c 8b 89 bd
       -0.098576955 0.04392277 -0.076090544 -0.06716046
000230 df 3f ac 3b c0 07 c9 3d ca c3 7c bc b6 20 4c 3d
       0.0052566375 0.09815931 -0.015427539 0.049835883
000240 29 88 be 3d 14 4d 77 bd 35 9e 24 3d f3 27 ae bc
       0.09303314 -0.06037624 0.04018994 -0.021259284
000250 d6 0b d5 3d 27 f8 3d bc cf 2d 41 bd 2c af 14 3d
       0.10402648 -0.011594809 -0.047162827 0.03629987
000260 33 48 50 3d 32 6e 83 bd 6e b3 d4 bb 15 62 35 bd
       0.050850105 -0.064175025 -0.0064911162 -0.04428299
000270 c0 99 c9 bc 4c 6d 44 bd 43 2c a1 bd ba 44 d2 3c
       -0.024609447 -0.047955796 -0.078697704 0.025667537
000280 96 21 88 bd 1d d8 72 3d 70 ac 51 bd ae ab a8 3c
       -0.06647031 0.059288133 -0.05118984 0.020589676
000290 95 23 c5 3d a8 61 cd 3d 98 5d cd bc 75 5c 83 3d
       0.09625927 0.10028392 -0.025069043 0.06414119
0002a0 b4 e1 dd 3c 6f c6 b4 bd 40 77 8b bd ff 82 1a 3d
       0.027085163 -0.08826911 -0.068098545 0.037722584
0002b0 80 f2 26 3d b9 8a 95 bd 00 af c9 bd ff 7a b6 bd
       0.04075861 -0.0730185 -0.09847832 -0.089101784
0002c0 dd b0 47 bd 3c 55 98 bd 35 b0 9d 3d f0 9f 21 3d
       -0.048752654 -0.07438132 0.076996244 0.03945917
0002d0 19 de 6f bd 64 9d 6f bd d4 71 65 3d 69 c6 78 3c
       -0.05856142 -0.05849971 0.056016758 0.015184023
0002e0 39 e0 ec 3c 4d 26 9f 3d 80 60 83 3d c9 d6 d6 3c
       0.028915511 0.07770977 0.0641489 0.026225464
0002f0 a8 f5 91 bd 1a 24 77 3d 18 86 86 3d c2 2c b5 bc
       -0.07126933 0.060337164 0.06568545 -0.022116069
000300 50 a0 91 bd 9c 8b b8 3d 27 23 e5 3c 96 19 75 3d
       -0.07110655 0.090110034 0.027970864 0.059838854
000310 0f f1 ad bc 88 e9 33 3d b0 80 93 3d c0 66 02 3e
       -0.02123311 0.043923885 0.072022796 0.12734509
000320 11 ff b1 3d 06 18 ab 3d 97 f1 12 bd 70 1b c0 bd
       0.08691228 0.083541915 -0.03587493 -0.09380233
000330 f5 f4 bb bd 70 54 11 3d 97 6c d1 3c f0 c3 b2 bd
       -0.09177581 0.035480917 0.025564475 -0.08728778
000340 61 60 ad bb 60 c7 8c bd 6b ee 25 bc 4b 78 ce bd
       -0.0052910303 -0.06873965 -0.010127644 -0.10081538
000350 a2 10 1f bc 59 80 01 3d a1 51 22 3d b5 26 f1 bd
       -0.009708555 0.031616542 0.03962863 -0.11774961
000360 69 e8 e4 bd c5 46 a9 bd ba ba be bd 2b 25 c8 bd
       -0.11177141 -0.08265451 -0.09312959 -0.09772714
000370 97 93 30 3d 60 f0 eb bd 0f 5a d3 bd a8 3e a3 3d
       0.043109503 -0.11520457 -0.10319912 0.07970935
000380 9e 86 2d bd fa ee 04 3c 0c 0a 4a 3c 02 0a a9 3c
       -0.04236471 0.008113617 0.012331497 0.020634655
000390 38 a6 80 3d 89 23 54 3c cf f0 93 3d 02 67 d5 bd
       0.06281704 0.012947925 0.07223665 -0.10420038
0003a0 41 8e b9 bd 4b 65 a6 bc 7a f3 94 bd da 82 81 3d
       -0.09060336 -0.020311972 -0.07273002 0.06323786
0003b0 90 9e 81 bd 51 05 d8 3a a9 35 a9 bb 1b 69 15 bd
       -0.063290715 0.0016481077 -0.0051638675 -0.03647719
0003c0 b9 4e 15 bd cd 46 c1 3b 32 45 c8 bc bc 7b c8 3b
       -0.03645203 0.0058983327 -0.024447057 0.006118266
0003d0 98 70 b3 3c 4e 3a a4 3d 21 05 bb bc 62 a2 ea bd
       0.021904275 0.08018933 -0.022829594 -0.11456753
0003e0 dc e7 92 3d c9 a9 14 bd 77 68 11 bd 6c 58 9f bd
       0.0717313 -0.036294732 -0.035500016 -0.07780537
0003f0 4c 46 e3 bd f2 25 76 3c 47 19 b5 bc d6 90 85 bd
       -0.110973924 0.015023695 -0.02210678 -0.06521766

conv1.bias f4 [32]
000000 a3 1b 4d 3d 2b 88 9d 3d 1d cf 8d 3d 04 0d 89 bd
       0.050075185 0.076919876 0.06924269 -0.06691936
000010 4e 1b a2 3d c1 56 a6 3d f2 3e 78 bd ca d5 38 3c
       0.07915364 0.08122016 -0.060606904 0.01128144
000020 ea 50 03 3d f9 ec 8a 3c 44 e7 a4 bd c5 55 20 ba
       0.032059588 0.0169587 -0.08051923 -0.0006116296
000030 d9 d6 a8 3c b1 3d c9 3d 36 29 b7 bc c3 a7 86 3d
       0.02061026 0.0982622 -0.022358518 0.06574967
000040 ca 4a bb bc 32 f4 93 bd d6 88 c0 3d 15 7a 61 3d
       -0.02286281 -0.07224311 0.094010994 0.055048067
000050 70 9c 6e 3d 3a 8c 23 3d 23 51 59 3d 22 9a d2 3d
       0.05825466 0.039928652 0.053055894 0.10283305
000060 1c c1 2a 3d 3e 4e c1 bc cd ec 28 bc 80 7e f4 3b
       0.04168807 -0.02359688 -0.010310364 0.007461369
000070 fa 43 b3 3b 86 bf 54 bc 3c 3a 5d bc 6c 80 7d bd
       0.00547075 -0.012985116 -0.013502654 -0.06189005

bn1.weight f4 [32]
000000 12 2c 83 3f 82 5f 83 3f a8 57 7c 3f 73 c4 8b 3f
       1.0247824 1.0263522 0.9857125 1.0919327
000010 f6 4d 87 3f 33 c1 83 3f cb ae 8a 3f bd c2 83 3f
       1.0570667 1.0293335 1.0834593 1.0293804
000020 69 08 84 3f 6f fc 85 3f 37 af 83 3f d8 c7 81 3f
       1.0315067 1.0467662 1.0287846 1.0139112
000030 81 fa 84 3f 26 5a 84 3f ce 43 84 3f 3d c8 87 3f
       1.0388948 1.0340011 1.0333192 1.0607983
000040 8e 64 83 3f 8a ad 82 3f 62 8d 83 3f a4 54 85 3f
       1.0265062 1.020921 1.0277522 1.0416455
000050 e0 fd 85 3f 54 85 83 3f c7 6e 84 3f ad 55 82 3f
       1.0468102 1.0275064 1.0346307 1.0182396
000060 e9 c7 83 3f 79 2d 82 3f ac 3e 84 3f 28 2c 81 3f
       1.0295383 1.0170127 1.0331626 1.00916
000070 49 ea 83 3f 5e 04 80 3f 5c 1c 87 3f 2f ed 83 3f
       1.0305873 1.0001333 1.055553 1.0306758

bn1.bias f4 [32]
000000 6c d9 83 bc e9 66 46 bc be cf a6 bc f0 9e 6a 3c
       -0.016094886 -0.012109497 -0.020362731 0.01432012
000010 eb 30 05 3d 7f 58 65 3b 62 95 01 3d a8 47 d0 3b
       0.032517355 0.0034995375 0.031636603 0.0063561983
000020 7f ea d1 3b 72 25 76 3d c8 59 b6 bc 9b 36 a3 bb
       0.006406128 0.060094304 -0.022259608 -0.0049808747
000030 ca 62 55 3c 39 c3 8b 3c b5 08 07 3c 74 fa e4 3c
       0.013024041 0.017060863 0.008241822 0.027951457
000040 67 ec 37 3b 69 41 d7 ba dc 3f 7b 3c c4 66 8f bc
       0.002806449 -0.0016422692 0.0153350495 -0.017505057
000050 08 61 af bc 60 e2 a2 bb d4 a2 48 3b 35 dc 3e 39
       -0.021408573 -0.0049708337 0.0030614631 0.00018201846
000060 5d 53 2a 39 77 2c e1 bc f9 e6 da 3b 44 7c b5 3a
       0.00016243519 -0.027487023 0.006680366 0.0013846238
000070 d7 6b be bc 72 c7 d4 bb c6 20 10 3d b2 ae 55 bc
       -0.023244781 -0.0064935023 0.035187505 -0.013042139

bn1.running_mean f4 [32]
000000 43 75 4e 3d 06 e5 9e 3d 03 15 8c 3d 45 cc 88 bd
       0.0504048 0.077585265 0.06839945 -0.06679586
000010 a0 1c a1 3d 7a 80 a6 3d ec ba 75 bd b7 18 30 3c
       0.07866788 0.08129974 -0.059992716 0.01074808
000020 68 c0 02 3d a7 51 88 3c 69 11 a4 bd 61 30 51 ba
       0.031921774 0.016640497 -0.08011133 -0.00079799263
000030 04 6f a6 3c 67 25 ca 3d bd 88 c2 bc c4 63 86 3d
       0.020316608 0.09870415 -0.023746843 0.065619975
000040 81 4b b8 bc 27 01 94 bd 26 d5 c2 3d dc 13 62 3d
       -0.02249694 -0.07226782 0.09513311 0.05519472
000050 2d ae 6d 3d d3 62 25 3d 0b 54 5d 3d df 03 d3 3d
       0.058027435 0.04037745 0.054035228 0.10303473
000060 6a 3f 27 3d 41 9e bb bc 73 bb 28 bc 86 7c 04 3c
       0.04083196 -0.02290261 -0.010298598 0.008086329
000070 d6 05 a2 3b 09 ca 53 bc ea 5f 55 bc 88 db 7e bd
       0.0049445434 -0.012926587 -0.013023356 -0.06222108

bn1.running_var f4 [32]
000000 76 17 eb 3d 7c 71 2d 3e 39 46 01 3f bd e7 06 3e
       0.11479084 0.16937822 0.50497776 0.13174339
000010 d2 09 3b 3f ff 0c 9d 3d e7 65 43 3e 6f 3f 99 3e
       0.7306186 0.076684944 0.19081841 0.29931208
000020 d2 e3 af 3d d3 f1 07 3f 1d 9e 06 3e a5 c0 ee 3d
       0.08588375 0.5310337 0.13146253 0.11657838
000030 fb d3 d5 3e 96 00 3e 3e 89 a1 b7 3f fb 75 f3 3d
       0.4176329 0.18554911 1.4346172 0.11887737
000040 ba 8a 2d 3e 6e 1c 91 3e 70 90 54 3f 85 f2 16 3e
       0.16947451 0.28342003 0.83032894 0.14740951
000050 3a cd 0c 3e 90 2c b3 3e 19 e3 86 3e fb 02 98 3f
       0.13750163 0.34994936 0.26345137 1.187591
000060 32 93 45 3e 44 e6 41 3e fe 73 c7 3e 0c 13 26 3e
       0.19294432 0.18935496 0.38955683 0.16218203
000070 7a 26 13 3e 7a 7d 1b 3f a4 47 f8 3e 6b 76 a8 3e
       0.14370146 0.6073834 0.48492157 0.32902846

depthwise.weight f4 [32, 1, 3, 3]
000000 ac 63 a8 3c 3f ed 95 bd 13 7f bb 3e dc cd 80 3e
       0.02055534 -0.07320642 0.36620387 0.25157058
000010 2e 89 67 be a1 9b 0b be b1 25 fb 3d ea de 2d be
       -0.22610924 -0.13633586 0.122630484 -0.16979566
000020 9f b5 af 3e ce 55 6d 3e 9b 4f 8e 3d 71 c6 86 3d
       0.34318253 0.23177263 0.06948777 0.065808184
000030 49 cf 1f 3d d5 0d d6 3d 93 bf 59 bd eb 5d 10 3d
       0.039016042 0.10451857 -0.053161215 0.035245817
000040 7d 8e e5 3d 0a 60 53 3d b7 94 6d be f4 c7 9b be
       0.11208818 0.05160526 -0.23201261 -0.3042599
000050 72 c3 a3 3c 16 87 33 be 56 5b f1 3d 81 29 39 3c
       0.019990657 -0.17532 0.11784999 0.011301399
000060 17 69 1a be 64 fa 68 3e f1 33 6c 3d 3f d4 d3 be
       -0.15079151 0.22751766 0.057666723 -0.41372868
000070 a3 e6 59 3e 30 47 86 3e 88 ab 7a be 18 b7 ad be
       0.21279387 0.26226187 -0.24479496 -0.33928752
000080 87 0a 64 be 9b ed 51 be cc 50 2b be 5a 17 aa bd
       -0.22269641 -0.20500796 -0.1673004 -0.08305235
000090 d8 22 77 be a9 a3 d8 bd 0f d6 89 3e c5 e1 85 bd
       -0.24134386 -0.10578091 0.26921126 -0.06537203
0000a0 09 34 ed bd 15 bd 0a 3e ee 0d cf bc 75 88 1f be
       -0.115821905 0.13548692 -0.025275197 -0.15579398
0000b0 7c 89 e5 3d ca 16 7f 3e 35 96 a7 3e 4f 16 10 3e
       0.11207864 0.24911037 0.32731786 0.1407101
0000c0 c2 53 7b 3b 3f 64 35 3e 33 dc 15 be a6 c9 60 be
       0.0038349484 0.17714022 -0.1463478 -0.21951923
0000d0 c9 6b 5d 3e 12 62 43 3e 53 d1 0a be 9b b9 86 3e
       0.21623148 0.1908038 -0.13556413 0.2631348
0000e0 ce d3 f0 3d 9d d3 31 3e 85 54 82 3d dd a5 bd 3e
       0.117591485 0.1736588 0.06363777 0.37040606
0000f0 77 58 18 3d 9d 02 5d be 80 2d 51 3e 27 41 45 3d
       0.03719374 -0.21583028 0.20427513 0.048157837
000100 c4 fb 7c 3e 20 87 04 3e 75 9f 67 be 8b 3c 13 bd
       0.24705416 0.12942171 -0.22619422 -0.03594641
000110 a1 73 cc 3d 8b a1 5f 3d 43 9e 93 bd 4c 6c 9b 3e
       0.09982992 0.05459742 -0.072079204 0.3035606
000120 da 9d 96 3e 96 69 b4 3e 1d 08 2b 3e 5e fc 4c 3e
       0.29417306 0.35236806 0.16702314 0.20018145
000130 9e 42 e8 bc ce 92 a9 3d 03 e7 4a 3e d8 41 0f 3e
       -0.028352078 0.08279954 0.19814686 0.13989961
000140 ea 72 3b be dc 57 92 3e c7 c5 2b 3e f8 1b 8f be
       -0.18305555 0.28582656 0.16774665 -0.27951026
000150 cb 85 a5 bd db 4c 9b 3e 4e be a5 be f8 be 70 3e
       -0.080821596 0.30332074 -0.32371753 0.23510349
000160 c5 d5 df 3c 7c 54 5f be ae af ae be 50 6f 69 3d
       0.027323613 -0.21809572 -0.34118408 0.05699092
000170 d3 83 da 3d 54 a7 5d 3e 12 48 6f be f9 37 2a be
       0.10669675 0.21645862 -0.23367336 -0.16622914
000180 01 ae 74 3e 01 93 b9 be fd 77 ab bd cb bd 12 be
       0.23894502 -0.36244968 -0.08372495 -0.14330213
000190 3c c7 c9 3d a1 59 61 3e a2 82 06 3d ad 80 a4 bd
       0.09852454 0.22006847 0.032839425 -0.080323555
0001a0 d9 1a 97 3e ea f1 1c 3e a3 97 68 be 86 f6 ad 3c
       0.2951267 0.15326658 -0.22714095 0.021235716
0001b0 d1 18 81 be d2 ec d5 bb 77 9c 16 be d3 17 bc be
       -0.25214246 -0.0065284753 -0.14708124 -0.36736926
0001c0 31 64 3f 3c df 9f 92 be 25 0f 28 be 61 4e 84 bd
       0.011681602 -0.28637597 -0.16412027 -0.06460262
0001d0 cc 1a 87 3d 24 ba b6 bd 31 f5 92 bd 41 d6 40 3e
       0.06596908 -0.08922222 -0.07175673 0.18831731
0001e0 af 5b 73 be c0 e9 d9 3d fb 02 86 be 29 c0 fc bd
       -0.23765443 0.106402874 -0.2617415 -0.12341339
0001f0 7e 8b fc 3b 8d 5d d5 3d 9a 0d be 3e ef fb 53 3d
       0.0077070585 0.10418234 0.37119752 0.051753934
000200 67 bf 3a be 01 94 b4 3e 8a e1 56 3e b2 f9 87 be
       -0.18237077 0.35269168 0.20984474 -0.2655769
000210 e3 5b f3 3d b7 01 53 3e 1b cb 8e 3e ca d5 9a 3e
       0.118827604 0.20606123 0.27889332 0.30241233
000220 7d 0b 30 3e 0e 0c 86 bd cf fd dc 3d 73 0d 16 3e
       0.17191882 -0.06545268 0.10790598 0.14653568
000230 dc 49 ac 3e 1a ed 4d be cb 9f 9d 3e bb 54 2e 3e
       0.336501 -0.20109978 0.30785975 0.1702451
000240 34 cb a4 be 9f 4f b3 bd 02 bd 38 3d ff d2 8e 3e
       -0.32186282 -0.08755421 0.045102127 0.27895352
000250 c2 3f 7f be 6f a0 82 be 28 ff 30 3c ab 8e 8f bd
       -0.24926665 -0.25513026 0.0108030215 -0.07009634
000260 4b cc c1 3d 05 c8 8b be d0 42 90 be 72 bf 14 be
       0.09462794 -0.2730104 -0.28175974 -0.14526156
000270 e4 95 4d be 3d 16 0a 3d 1f 8f 29 3d 63 2e 81 3e
       -0.2007671 0.033712614 0.041396257 0.25230703
000280 8b a6 a6 be c7 00 7e 3e bd 46 0b be f4 77 cf 3c
       -0.32548937 0.24804984 -0.13601203 0.025325753
000290 c2 86 60 be db a0 0a 3e cb 90 76 be fc c1 dd bd
       -0.21926406 0.13537924 -0.24078672 -0.10828015
0002a0 1c 4d f8 bc 06 3d 3f bd cb f4 6d be ea 96 7e 3d
       -0.030310206 -0.046689056 -0.23237912 0.06215564
0002b0 75 bf 20 be d4 5f 8e be bc 3a 45 3e 25 b6 84 bc
       -0.15698035 -0.27807486 0.19260687 -0.016200135
0002c0 09 c2 89 bd b7 f7 2a 3b 75 31 06 be 38 c8 b4 be
       -0.067264624 0.002608759 -0.13104804 -0.35309005
0002d0 a3 d0 8a bc 14 8f 98 be 35 3a 9e 3c 07 32 26 3b
       -0.016945189 -0.2979666 0.019314865 0.0025359408
0002e0 4a 6e a9 bd 8e 16 9f be 93 05 92 3d 7e 2e 19 3e
       -0.08272989 -0.31071895 0.071299694 0.14959142
0002f0 56 b9 be be 79 46 52 be 2f 3d 05 3e 5b 33 28 3e
       -0.37250775 -0.20534696 0.13011621 0.1642584
000300 9d e8 40 3e e7 2d a5 be 13 c6 0e 3e 78 ad 60 be
       0.18838735 -0.32261583 0.13942747 -0.21941173
000310 26 4f 07 be e0 f1 8d be 5a 4a 1f 3e 72 15 b9 bd
       -0.13213786 -0.27723598 0.15555707 -0.090372935
000320 23 e4 11 3d 77 be 93 be 50 1e 7b be dd 6c 3a be
       0.03561796 -0.2885625 -0.24523282 -0.1820559
000330 4d 0f 3a be de 5d 56 be f8 10 4c be ec 5f 70 be
       -0.181699 -0.20934245 -0.19928348 -0.23474091
000340 14 c0 41 3d a9 49 8c 3e 02 89 1d be 82 31 a6 3e
       0.04730232 0.27399948 -0.15384296 0.32459646
000350 b1 31 37 3e 8e 3c 00 3c d8 e2 88 3e 3a 62 b3 3e
       0.1789005 0.007826937 0.26735568 0.35035878
000360 bc 5f 7b be af cd a4 be bc d5 e1 bd 86 22 80 bb
       -0.24548239 -0.32188174 -0.11027095 -0.0039103655
000370 9e 79 29 3d 86 d8 70 be af d8 3e bd a9 17 47 3e
       0.04137575 -0.23520097 -0.046593364 0.1944262
000380 ad 1c ba bd 1d c2 ee 3d 19 8c a7 be 77 72 0e be
       -0.09087501 0.11658118 -0.32724074 -0.13910852
000390 f1 b8 4e be ca 0d b0 be 01 fe db bd 8b 84 36 bc
       -0.20187737 -0.3438552 -0.10741807 -0.011139999
0003a0 bf 60 12 be d3 06 b5 be df 3e 56 bd 8d 52 74 be
       -0.14294718 -0.3535677 -0.052306052 -0.23859616
0003b0 2f a7 48 3d 23 bd 94 bc 04 c6 93 be d3 c2 4a be
       0.048987564 -0.018156594 -0.2886201 -0.19800882
0003c0 d8 e6 63 3d a5 73 75 be cd cd 5b 3e 0e 9b bd 3d
       0.05564007 -0.23969896 0.21465226 0.0925809
0003d0 95 88 05 be c7 10 8e be 2e d2 85 be d1 2a 97 3e
       -0.13040383 -0.27747175 -0.26136917 0.29524854
0003e0 d2 13 95 bb 1e ea 86 3e 49 e3 2e 3e af d4 74 3e
       -0.004549482 0.26350492 0.1707889 0.23909257
0003f0 ff 5e 27 be 80 98 b1 be 2a 5f 04 3d 0e ac c2 bd
       -0.16344832 -0.3468666 0.032317318 -0.09505473

depthwise.bias f4 [32]
000000 cd ee 51 be aa 1e 63 be 56 a9 00 be 07 1f f8 3d
       -0.20501252 -0.22179666 -0.12564597 0.12115293
000010 29 c3 98 3d 78 e2 34 bd ca 33 2f be a1 71 21 3d
       0.07459099 -0.04416129 -0.171096 0.039415006
000020 e4 78 35 3e 61 f3 17 bd f5 b1 71 3e e4 ac 74 3e
       0.17721897 -0.03709734 0.23603041 0.23894078
000030 3f 1e 78 be 8f 64 a8 bd 39 fe 18 be 84 1e 38 3e
       -0.24230288 -0.08222305 -0.14940728 0.17980391
000040 43 5c 2a 3e 40 ab 34 be 0a 65 48 3d 5d e2 f0 bd
       0.16636758 -0.17643452 0.048924483 -0.11761925
000050 1b 78 6e 3e 8b 58 3a 3e 9d b3 96 be d7 d6 8e 3b
       0.23288004 0.18197839 -0.2943391 0.004359107
000060 e9 08 9b be 4e 91 6c 3e b1 ac a3 bd 3d 2d 89 3e
       -0.30280235 0.23102304 -0.07991923 0.26792327
000070 f5 5f 82 be c0 60 a7 3e 47 76 ea bc c8 50 5d bc
       -0.25463834 0.32691002 -0.028620852 -0.013508029

pointwise.weight f4 [64, 32, 1, 1]
000000 82 f8 32 3d 76 58 bf 3d 83 2e 10 3e 88 ea 1a be
       0.043694027 0.093430445 0.14080243 -0.15128529
000010 b5 f2 2c be eb 22 53 be 40 94 be 3d 5e 52 50 3c
       -0.1688946 -0.20618789 0.0930562 0.01271495
000020 10 db c7 3c de e9 64 3d 19 fc 83 be 07 d9 08 be
       0.02439645 0.055887096 -0.25778273 -0.1336404
000030 60 6e 8a bc 78 6c e6 3b 70 63 3d bd 9d d7 19 be
       -0.016898334 0.0070319735 -0.04623741 -0.15023656
000040 fe a3 16 3e 24 2b 4e 3e b8 94 2c bd 27 d2 5c be
       0.14710996 0.20133644 -0.042134017 -0.21564542
000050 ea 11 35 be a3 9e 46 be 94 49 db 3d b3 aa 05 be
       -0.17682615 -0.19396453 0.10707393 -0.13053398
000060 1a a5 b9 bd 3f ce f3 bd 3d 7a 0e be 5a e6 82 bd
       -0.09064694 -0.11904573 -0.13913818 -0.06391592
000070 80 5a 6a bb a2 f5 9f bd 47 ff 02 be 85 67 12 3e
       -0.0035759509 -0.078105226 -0.12792693 0.14297302
000080 ea 22 ff 3b 0d dc f0 bb f3 89 0f be 48 0f 29 be
       0.0077861445 -0.007350451 -0.14017467 -0.16509736
000090 a2 4b 19 bd 15 ef 19 3d e0 f3 3b 3e be 9c e3 bc
       -0.037425645 0.037581522 0.1835475 -0.027784701
0000a0 8e e2 40 be 40 63 a5 bd 5b 58 b5 bd f7 3a 80 3d
       -0.18836424 -0.08075571 -0.08854743 0.06261247
0000b0 5f 8b 12 3e 7c 24 ad 3a 03 45 07 be 1e 4f d6 3d
       0.14310978 0.0013209726 -0.1320992 0.10464309
0000c0 92 c6 bf 3d 2f 36 15 be ed 8a 1a 3e 94 95 26 3e
       0.09364046 -0.1457145 0.15092058 0.16267997
0000d0 26 f4 95 3b d2 88 45 bd 53 5f ab bc 36 88 f3 3d
       0.004576224 -0.048226185 -0.020919478 0.118912145
0000e0 cd 61 0f 3d a7 fb fa bd 37 e2 1b be b4 1f e8 bd
       0.03500538 -0.1225503 -0.15223013 -0.11334172
0000f0 d5 84 0e be 8d 41 5a bd a6 00 19 bd 92 a8 7f bd
       -0.13917859 -0.05328517 -0.037354134 -0.06241662
000100 a0 b3 fa bd 68 20 fe 3c dd 2e 1b 3e 05 bd 0a 3d
       -0.12241292 0.031021312 0.15154596 0.03387167
000110 51 27 35 be 1f e4 0e be e7 43 78 3c e8 fd 0a 3e
       -0.1769078 -0.13954209 0.015152908 0.1357342
000120 6e e6 42 bd 39 18 cd 3d 94 92 44 3d 8b 5a 3c 3e
       -0.047583036 0.10014386 0.04799135 0.18393914
000130 e8 e3 bc 3d 0f a7 f8 bd 68 b2 53 3d f4 e7 77 3c
       0.09223157 -0.12141239 0.051683813 0.0151309855
000140 8e 2f 1e be 5a c3 ac bd 05 24 1a 3e 71 0f 76 bc
       -0.15447828 -0.08435698 0.15052803 -0.01501833
000150 70 b7 80 3d a5 f8 fc 3c 45 74 cd 3d ad ce 3c 3e
       0.06284988 0.030880282 0.10031942 0.18438216
000160 f8 4b 3f be 9f 2f e2 3d 37 9b cb bd 6a c6 1e be
       -0.18681324 0.11044239 -0.09941714 -0.15505376
000170 0d 06 f4 3d ac 1b 33 be 58 e3 13 bd 9e 02 21 bd
       0.119152166 -0.17491025 -0.036105484 -0.039309137
000180 ad a0 73 3d b2 bc a9 3d b8 55 94 3d 79 bd c0 bd
       0.059479404 0.08287944 0.07242912 -0.09411139
000190 33 ed 68 3d 44 99 d7 3a 9d 6d 82 3b 7e 2d fd bc
       0.056866836 0.0016448875 0.003980352 -0.030905481
0001a0 60 47 7a bd a6 a2 b3 bd ad fd 8a bd c4 2f 09 be
       -0.061103225 -0.08771257 -0.06786666 -0.13397127
0001b0 b3 4d 06 3e 42 33 e9 bd e6 65 e0 bd 7f ed 82 bd
       0.13115577 -0.1138673 -0.109569356 -0.06392955
0001c0 bd e0 44 be fb 0f 1e 3e d1 54 c4 bd f1 5b 14 3e
       -0.19226356 0.15435784 -0.0958649 0.14488198
0001d0 db 0c cc 3b 7e be 1d 3d 0c db 20 be 9f ed 40 3d
       0.0062271184 0.038511746 -0.1570856 0.047101613
0001e0 a6 5f 9f 3d 73 7f d1 3c 62 34 da 3d ea da 50 3e
       0.07781915 0.025573468 0.106545225 0.20396009
0001f0 ef ae 47 bd 08 bb c2 3d 65 2f bd bd 3a e6 45 3d
       -0.048750814 0.0950833 -0.092375554 0.048315264
000200 2f ca 6c 3e 44 dd 40 3e c9 51 2b be ab b1 42 bc
       0.23124002 0.18834406 -0.16730417 -0.01188318
000210 af ae 4a be b4 d5 2a bd 1f c3 0e 3e e8 06 98 3d
       -0.19793199 -0.04170771 0.1394162 0.07423192
000220 ab a3 e2 bc b4 6e 12 3e 8b 10 15 bd ef d0 e3 bd
       -0.027665934 0.14300042 -0.03639273 -0.11123835
000230 c6 a7 23 3d 8e 2f 71 bd c7 95 27 3e b1 27 00 be
       0.039954923 -0.058883242 0.1636573 -0.12515141
000240 33 a6 2d 3d 95 43 0f be 10 07 5a bd da c4 0c be
       0.042394828 -0.13990624 -0.05322939 -0.13746968
000250 88 87 91 3d b2 07 1d be b9 22 d0 3d d4 6d ee bd
       0.07105929 -0.15334967 0.10162873 -0.11642042
000260 8d 2a fa 3d 4c b3 d3 bd 80 e9 4c be 00 92 f8 3d
       0.12215147 -0.103369325 -0.20010948 0.12137222
000270 a8 fa a5 bd 77 02 9a 3d c3 46 28 3c 0b e7 74 bd
       -0.081044495 0.075200014 0.010270777 -0.059790652
000280 90 73 a4 bd f3 f5 64 bd e6 2d 38 3e 96 3e c6 bd
       -0.08029854 -0.055898618 0.17986259 -0.09679906
000290 9e a7 20 3e 3a d8 0b 3e 4c 7c 1f 3e 7f d1 04 be
       0.15688941 0.13656703 0.15574759 -0.12970541
0002a0 06 12 19 3e 0d c4 43 3c ef 53 dd 3c b9 68 e1 3d
       0.14948282 0.011948598 0.027017562 0.110063024
0002b0 fa 97 88 bd ec 00 1c be 14 51 d7 bc 3f 25 90 3d
       -0.06669612 -0.15234727 -0.026283778 0.07038354
0002c0 59 46 1d 3d 9e aa 27 3c 74 66 26 3d a6 c5 a9 bd
       0.038397167 0.010233549 0.04062505 -0.082896516
0002d0 4e b6 e4 3d 8a 60 8b 3d 06 96 2e be c7 c4 91 3d
       0.11167584 0.06805523 -0.17049417 0.071176104
0002e0 b9 29 15 3d 1e bd 85 bd b5 c6 1d be 0c 80 ce bd
       0.036416743 -0.06530212 -0.15407832 -0.10083017
0002f0 d2 d7 44 3e f5 dd af 3d 3d b0 84 3c 9f 96 15 3e
       0.19222954 0.08587257 0.016197318 0.14608239
000300 19 79 4c be 40 aa ff 3d 75 67 d9 bd 88 1a ea bc
       -0.1996807 0.124836445 -0.10615436 -0.028577104
000310 1c 04 d6 bc e7 b8 ac bd ab 96 35 3e 91 75 32 3e
       -0.026125006 -0.08433705 0.17733257 0.1742766
000320 50 89 d4 3c 2c 5c 05 3e d4 ce 0a 3e 45 c2 09 be
       0.025944382 0.13023442 0.13555461 -0.13453014
000330 4c 6c f1 3d 8d 50 c9 3d ed f6 db bd fb 2a 78 3c
       0.11788234 0.09829817 -0.10740457 0.015146966
000340 a9 4b fd bd a0 83 30 3e cc 94 11 be 5e 3a c2 bc
       -0.12367947 0.17237711 -0.14216918 -0.023709472
000350 1e 54 f1 3d 3e a7 33 3c a8 93 c0 bd 33 5a 46 3e
       0.11783622 0.010965167 -0.09403163 0.19370346
000360 59 d0 b0 3c 3b e6 1a 3d 57 9d ea bd 0e 81 01 be
       0.021583723 0.03781722 -0.114557914 -0.12646887
000370 97 85 81 3d d5 86 53 3e 5b b9 31 be cd 52 81 bd
       0.06324308 0.20656903 -0.17355864 -0.06314621
000380 0f 97 44 be 8f 81 39 bd d9 4e 62 be c8 0f 2c be
       -0.1919825 -0.045289572 -0.2210039 -0.16802895
000390 7b bb cc 3d cc 1e 54 3e 52 db 7f 3d cc 40 1c 3e
       0.099966966 0.20714873 0.06246502 0.15259093
0003a0 5a a3 7c 3e 1f 0e b9 3d fc e1 be 3d a0 42 45 3e
       0.24671689 0.090358965 0.09320447 0.19263697
0003b0 6b 93 06 3d be d7 9a bd eb bf 36 3e 1f 58 9c bd
       0.032855432 -0.07560681 0.17846648 -0.07633995
0003c0 a2 ef 9e bd 4e 14 56 bd ce a9 85 3d 40 a4 64 3d
       -0.0776055 -0.052265458 0.06526528 0.055820704
0003d0 99 85 91 3d 22 46 bd 3d 86 40 cc 3d 61 3d 02 3e
       0.0710556 0.092418924 0.09973244 0.12718727
0003e0 3b 5f 08 3e 6c 82 17 3d af bc c1 bd 8b 96 00 be
       0.13317578 0.036989614 -0.09459817 -0.12557428
0003f0 a3 b0 3e bd 36 75 23 3e f5 d5 da bc a8 aa e6 3d
       -0.046555173 0.15962681 -0.02671335 0.11263019

pointwise.bias f4 [64]
000000 d5 d5 d6 3d 21 f1 17 be 24 68 0b 3e b4 53 e3 3c
       0.10490004 -0.14838077 0.13613945 0.027749874
000010 b7 e7 98 bd ee ed 9b bd 37 2f a6 bd 53 b4 f4 bd
       -0.07466071 -0.07613741 -0.08114474 -0.119484566
000020 3e 13 ac bd b2 70 fc bd 3e ad a4 bd 69 75 23 be
       -0.08402108 -0.123261824 -0.08040856 -0.15962757
000030 4b c1 76 bd 43 6c 78 bd 3b 44 d9 3d 6d bc ab 3b
       -0.060242932 -0.06065012 0.10608717 0.005240968
000040 9c e2 94 3d 03 8a 3b be 9d c5 cc bc 52 17 c1 3d
       0.07269785 -0.18314366 -0.024996573 0.09428276
000050 37 cf 43 bd aa df 8b 3b d8 80 ce bd c0 29 05 3e
       -0.047805037 0.004268606 -0.10083169 0.13004208
000060 c8 65 04 3e d7 cb 28 bd 8a 22 21 3e 16 55 a8 bc
       0.12929451 -0.04121002 0.15735832 -0.020548385
000070 52 0f 2f be ce 73 0c 3e a7 2b 1a 3e e1 26 9c bd
       -0.17095688 0.13716051 0.15055715 -0.07624603
000080 ce f6 13 be c8 41 1f bd 7f ac bb 3d 4d cb f2 3d
       -0.14449617 -0.038881093 0.091637604 0.11855183
000090 af bd c9 3d 5e f6 04 be 7e 60 f8 bc 81 6a 28 be
       0.098506324 -0.12984607 -0.030319449 -0.16446878
0000a0 09 2e 31 be 06 6e ee 3d 45 7f 21 be 6b 5c 39 bd
       -0.17302717 0.11642079 -0.15771206 -0.045254152
0000b0 05 18 cf bd c3 a6 20 3e bf 91 08 be 8c b1 0b be
       -0.10112003 0.15688615 -0.13336848 -0.13641948
0000c0 00 c8 f8 bd 21 2c 63 3c 63 a7 01 3e de 47 dd 3d
       -0.12147522 0.013865502 0.12661509 0.10804723
0000d0 b3 e0 ca bd 5a f7 eb 3d 0f 61 71 bd d9 88 e4 bd
       -0.09906139 0.11521788 -0.058930453 -0.11158914
0000e0 7a d5 e7 bc df 93 d3 bd 4d c5 b1 3d 78 b2 13 3d
       -0.028300036 -0.103309385 0.0868021 0.036058873
0000f0 bc f6 95 bd 5e 07 5f bd a4 e9 30 3e e2 86 f2 3d
       -0.073224515 -0.054450385 0.17276627 0.11842133

fc.weight f4 [2, 1024]
000000 28 aa 02 be a8 67 d4 bd 47 cc e9 bd 0c e2 26 bd
       -0.12760222 -0.10371333 -0.11415916 -0.04074292
000010 83 26 cf bd 6e 56 4b bd 5b d5 82 bd 40 78 19 bd
       -0.101147674 -0.049642973 -0.063883506 -0.037468195
000020 ab b4 7f bd 12 e9 ac bd 72 e6 9c bd 52 7d c0 bd
       -0.062428158 -0.08442892 -0.076611415 -0.09398903
000030 6e 86 de bd a5 3b 81 bd 4a a8 8d bd ec 8e 8a bd
       -0.10865484 -0.063102044 -0.06916864 -0.067655414
000040 14 09 2c bd 0c 75 2d bd ee c0 07 bd a8 e6 20 bd
       -0.042000845 -0.042347953 -0.033142976 -0.03928247
000050 75 9b 8e bc 0b 19 a9 bc 62 af 5d bc e7 a0 9c 3a
       -0.017408112 -0.020641824 -0.013530584 0.0011949808
000060 d6 34 1c bc e6 8c 5e bd 4d 55 2f bd fe 0d 2c bd
       -0.009534081 -0.05433359 -0.04280596 -0.04200553
000070 12 10 8a bd 96 48 96 bc a7 90 8b bb 60 40 35 bb
       -0.067413464 -0.018345159 -0.0042591873 -0.0027656779
000080 58 a5 ee 3c ab e2 42 3d 85 87 cd 3c 83 a5 70 3c
       0.029131576 0.04757945 0.025089035 0.014687899
000090 43 84 e0 3c fb ba 40 3d d5 95 10 3d 05 71 ad bb
       0.027406817 0.04705332 0.03529914 -0.005293014
0000a0 5b b7 14 3d 2c 46 1f 3d 74 11 79 3d c4 91 0b 3c
       0.036307674 0.03888528 0.06080766 0.00851864
0000b0 91 57 61 3d 95 42 6a 3d 51 66 b7 3d 23 b0 19 3d
       0.05501515 0.057192404 0.08955062 0.037521493
0000c0 b3 43 a1 3a 4b 5f 8a 3b 95 f3 e8 3c 62 b6 0d 3d
       0.0012303501 0.0042227856 0.028436461 0.034597762
0000d0 22 d0 65 3d 4c 4c 5d 3d 9e a3 47 3d 62 b0 16 3d
       0.056106694 0.05402784 0.048740022 0.036789306
0000e0 39 33 7c 3d bb 93 27 3d 5e 8d 21 bc 43 7c 7c 3d
       0.061572287 0.04091237 -0.009860365 0.061641943
0000f0 e2 32 b0 3d e6 4b 35 3b d2 01 dd 3c b4 9f b6 3d
       0.08603455 0.0027663647 0.026978407 0.0891718
000100 f0 fa aa bd 28 88 53 bd 13 11 20 bd 60 f6 15 3c
       -0.08348644 -0.05164352 -0.039078783 0.009152979
000110 ff e2 ad bd 53 f0 97 bd 82 07 7c bd a1 b1 ab bc
       -0.08490562 -0.07418885 -0.061530598 -0.020958724
000120 fb 42 65 bd 54 64 ad bd 49 a2 07 bd f4 92 9d bc
       -0.05597208 -0.08466402 -0.03311375 -0.019235112
000130 a4 79 7e bd f8 f1 b5 bd 02 27 82 bd 0f 2a 76 bc
       -0.062127724 -0.088840425 -0.063550964 -0.015024676
000140 95 98 bc bb cd b4 4c 3d 1d 97 a6 3c 44 f3 26 3d
       -0.005755494 0.049977113 0.020335728 0.04075934
000150 99 fc 52 3d 2a 73 2e 3b 0b 43 3b 3d 94 33 e4 3c
       0.051510427 0.0026618936 0.045718234 0.027856626
000160 df 24 60 3d ab 3b f5 3b 69 86 c9 3c fb 7f 36 3d
       0.054722663 0.0074839196 0.024600225 0.044555645
000170 25 16 b6 bc bd 01 29 bc de b9 3a 3d ea 1e 38 3d
       -0.022227356 -0.010315356 0.045587413 0.044951357
000180 44 b7 3b 3a 86 6b 0f bd 83 b9 f8 3c 81 50 7f 3d
       0.00071607926 -0.03501465 0.030361896 0.062332634
000190 cf 75 c1 3c b1 56 b6 3d a0 56 b9 3d 2e fd 93 3c
       0.023615746 0.08903254 0.090497255 0.018065061
0001a0 01 34 e8 3c 44 74 c1 3c 08 e0 9b bb e0 9d 13 3c
       0.02834511 0.02361501 -0.004756931 0.009009808
0001b0 bd f2 ae 3c 09 d8 10 3d 95 fd 15 3d 0e 55 d5 3d
       0.021355981 0.035362277 0.036618788 0.104166135
0001c0 38 b1 66 bc 46 77 5c 3c b2 23 a3 3c 6a 79 90 3c
       -0.014080338 0.013456171 0.019914482 0.01763602
0001d0 83 cd 11 bd b8 f2 86 3d 6f c1 ac 3d 09 bb 10 3d
       -0.035596382 0.06589264 0.08435332 0.03533462
0001e0 79 9d 1e 3b 48 21 28 3d 73 0f 11 3d 1f 90 0c bd
       0.0024202748 0.041047364 0.035415124 -0.034317132
0001f0 11 0a 87 ba 71 be fc 3b 4c 26 4d bc e4 b7 87 bc
       -0.0010302683 0.007713132 -0.012521338 -0.016567178
000200 3d 97 6e 3c 81 7b 17 bd 6e 18 ae 3c c8 f0 08 bc
       0.014562425 -0.036983017 0.021251883 -0.008358188
000210 d5 84 7e bd 66 7a 54 bb 42 bf 95 3c aa 26 ff 3c
       -0.062138397 -0.0032421588 0.018279675 0.031146366
000220 65 12 90 bc 8c 22 e5 bc 61 cc 02 3d 99 e6 d5 3c
       -0.017586896 -0.027970575 0.031933192 0.026110934
000230 1d a3 dd bc 33 35 79 3b 7f 8e 03 3c c1 e6 e6 3c
       -0.027055318 0.0038026094 0.008029579 0.028186204
000240 25 3a b8 3c b5 9f 86 3c 12 31 53 3d d4 7e 10 3a
       0.022488663 0.016433576 0.05156047 0.0005512063
000250 2e ff 7b bc 0e 9d 75 3c cc 33 04 3d 01 0e 82 3c
       -0.015380664 0.014991058 0.03227596 0.015875818
000260 c0 d2 9b 3c 7d 57 18 3d bc 0e 57 3d 51 8b 5c 3c
       0.019021392 0.03719281 0.052504286 0.01346095
000270 e3 02 02 3d 9e be 75 3d 0b 7d dd 3c 3c c6 03 3d
       0.031741034 0.05999624 0.027037164 0.032171473
000280 7f 94 ac 3c 5a e7 70 bd a1 eb 78 bc 39 e1 82 bd
       0.021066902 -0.058814384 -0.015192897 -0.06390614
000290 0d f6 72 bd ac eb 91 bd 2b b9 af bd 2b f8 63 bd
       -0.059316684 -0.07125029 -0.0858024 -0.055656593
0002a0 f3 61 16 bd cd 2f cf bd 21 3e 79 bd 0a 8d 18 bd
       -0.036714505 -0.10116539 -0.060850266 -0.03724388
0002b0 cf 8b 6f bc c8 a3 8c bc 7b 35 a9 bd ee 15 f5 bc
       -0.014620735 -0.01716794 -0.08262154 -0.029917683
0002c0 bf 94 e3 bd f0 dd 99 bd 16 83 65 bd 06 16 8a bd
       -0.111123554 -0.07513034 -0.056033216 -0.06742482
0002d0 68 31 d1 bd d5 24 79 bd 58 da b1 bd c8 4b 1e bd
       -0.102145016 -0.06082614 -0.08684224 -0.03864649
0002e0 e4 1c d8 bc bb 1d 81 bd a7 ff 4d bd 8e 87 27 bd
       -0.026380964 -0.06304499 -0.050292637 -0.04090076
0002f0 92 8c a9 bd 1f aa 65 bd bc 6e 93 bd 2b 9b 19 bd
       -0.08278765 -0.056070443 -0.07198855 -0.037501495
000300 82 18 25 bd 26 fa d9 bc 71 2a c5 3b 8f dd bc 3b
       -0.040306576 -0.026608538 0.0060170223 0.0057637165
000310 e2 bc a9 bc b8 46 11 bd 30 74 f7 bc 6c 39 cb 3c
       -0.02071995 -0.035467833 -0.03020677 0.024807654
000320 d8 69 5d bd cf f1 98 bb 39 32 0c bd e4 e9 fa bc
       -0.05405602 -0.0046674977 -0.034227584 -0.030629106
000330 62 fb 54 bd 5f 3f 78 bd 35 33 cf bc c0 ba 27 bd
       -0.05199755 -0.06060731 -0.025292972 -0.040949583
000340 6b 09 1a 3c 60 ce 9b bb 10 79 0c 3d e2 5d 79 3d
       0.0094016595 -0.0047548264 0.03429514 0.06088055
000350 6b 3c 83 3d 03 67 cd 3d 5b 40 40 3d 35 41 0a 3d
       0.06408008 0.100294136 0.046936374 0.033753593
000360 cd bc 1b 3d e2 93 96 3d 60 5b aa 3c 52 6b 0d 3d
       0.03802185 0.07352425 0.020795524 0.034526177
000370 b0 13 73 3d 28 9a 24 3d 03 6d 32 3d ef 45 95 3d
       0.059344947 0.040186077 0.043560993 0.072887294
000380 b5 68 ec bb d7 d1 a9 3c f7 66 22 3d d9 4e 8f 3c
       -0.0072146305 0.020729942 0.039648976 0.017493652
000390 67 2d 22 3b d6 91 4e bc dd f9 2c 3c 8c 53 5b bc
       0.00247463 -0.012608012 0.010557619 -0.013386618
0003a0 df 64 f7 39 7b 99 70 3c c5 76 b5 3c 0d df f4 3b
       0.00047186666 0.01468503 0.02215136 0.007472879
0003b0 7a 5a 01 3d c0 5b 55 ba 84 24 8f 3c 52 70 fc 3c
       0.031580426 -0.0008138977 0.017473467 0.030815277
0003c0 a3 3a 20 bd 06 d2 30 bd b6 67 df 3b 39 0b 8a 3c
       -0.03911842 -0.043169044 0.006817783 0.016851055
0003d0 9a 2c 82 3c 04 de 14 3c be 1f 99 3d ef ff 24 3d
       0.015890408 0.009086136 0.074767575 0.04028314
0003e0 64 e2 df 3c f7 af e8 3c a6 ac 47 3d a6 22 89 3d
       0.027329631 0.02840422 0.048748635 0.06696062
0003f0 c4 7e 72 3c 5c 38 97 3c 43 46 52 3d bb 28 3e 3d
       0.014800731 0.018459491 0.051336538 0.046425562

fc.bias f4 [2]
000000 cd ef 51 bc 43 53 c1 bc
       -0.012813521 -0.023599273
