model/CNN/saved_models/split_grid/smallcnn4_fold2_pad9_patch50.pth (torch, 35659 bytes, 12 tensors)

conv1.weight f4 [32, 10, 3, 3]
000000 fe 60 44 3d 36 29 86 bd 6a b4 75 bd ff 8d 08 3d
       0.04794406 -0.06550829 -0.05998651 0.033338543
000010 21 ab bd bb 35 ee b4 bc dc 2a a2 bd ee 5e b6 3b
       -0.0057882224 -0.022086242 -0.07918331 0.0055655157
000020 57 74 34 bd 96 6a ac bd f0 1a c7 bd ec c5 a5 3d
       -0.044056263 -0.08418767 -0.09721935 0.08094391
000030 d8 ca 9f 3d 2a 9f 6c bc 81 3b 4c bd fb af 11 3c
       0.07802361 -0.014442245 -0.049861435 0.008892055
000040 3b 34 6f bd 80 6b a4 3d 99 ef b9 3d 78 b9 bb bc
       -0.05839942 0.080283165 0.09078903 -0.022915587
000050 22 18 85 bd 83 66 a3 3d 7b 1a fb bd d7 21 9a 3d
       -0.064987436 0.07978537 -0.1226091 0.07525986
000060 d0 25 79 bd b8 81 c1 bd a7 45 c5 bd 23 65 06 3b
       -0.060827076 -0.0944857 -0.09632426 0.002050706
000070 e2 3e 85 3d ef 51 a8 bc 68 0a 06 bc f7 09 27 3d
       0.065061346 -0.020546881 -0.008181192 0.040780988
000080 e1 d5 97 bd 6e 8f 9d bd ff 26 4a bd 20 20 af bd
       -0.07413841 -0.07693373 -0.049353596 -0.08551049
000090 f6 15 cc 3d 16 39 9e bd 21 4a 1d bd cf 05 93 bd
       0.09965126 -0.07725732 -0.038400773 -0.07178842
0000a0 a4 5a 80 3d 99 8b 18 bd d3 35 e4 bc 2e 55 69 3d
       0.06267288 -0.037242506 -0.027857697 0.056966
0000b0 e5 ac 0c be a7 93 90 bc 68 5e 2a 3d 6b 4a 85 bd
       -0.13737829 -0.017648531 0.04159394 -0.06508335
0000c0 8f f4 03 3e a6 a6 90 bd 69 47 d0 bc 45 20 2e 3d
       0.1288626 -0.07063036 -0.025424676 0.042511243
0000d0 b1 20 bb bd 55 c8 da 3c 54 ff d8 3d 91 78 8e bd
       -0.09137095 0.026706854 0.10595575 -0.0695659
0000e0 05 9d 85 3d c1 9d f4 bc 62 f5 41 bd 04 40 f8 bc
       0.0652409 -0.02986038 -0.047353156 -0.030303963
0000f0 4d 2a 2b bd 5d 6e e6 bd 4c 14 d2 bd 6b 89 9d 3c
       -0.041788388 -0.11251519 -0.102577776 0.019230565
000100 8d 49 79 bd 2d 1e d6 bd f9 c0 9a 3d bd c3 d5 3d
       -0.06086116 -0.10454974 0.07556338 0.10437725
000110 6d 4d cf bd 5f aa bd bd 8b 62 02 3d d3 ad 1b be
       -0.1012219 -0.09261011 0.03183226 -0.15203027
000120 01 dd 94 bd 54 2f cc bc c5 9d 6d 3d 98 cd b9 3d
       -0.07268716 -0.024924912 0.05801179 0.09072417
000130 26 04 33 3d 14 c7 ce 3c 5e 40 b3 bb 2e 4f 32 3d
       0.043705128 0.025241412 -0.0054703197 0.043532543
000140 52 8f c5 bd fc 9a f1 3c 05 bb 66 bd 4f 3d 80 3c
       -0.09646477 0.029492848 -0.0563307 0.015654234
000150 51 ee 7a 3c 30 40 0f 3c 2e 48 72 3c df 13 97 3c
       0.015315608 0.008743331 0.014787717 0.018442092
000160 93 7b 0d be 4c ad 16 be c0 45 a4 bd 7c 3b 83 3d
       -0.13816671 -0.14714545 -0.08021116 0.0640783
000170 76 88 20 3c d7 b6 c3 bd fa 07 79 3d 5e 65 96 3d
       0.00979816 -0.09556358 0.060798623 0.07343553
000180 ad 71 05 be fa 68 88 bc cb 3b 83 bd 6f cf 5d 3d
       -0.13031645 -0.01665162 -0.06407889 0.054152902
000190 b1 59 f1 bd 65 c9 42 bc ab 3a e5 bd d5 87 ae 3c
       -0.117846854 -0.0118888365 -0.11192831 0.021305004
0001a0 4f b5 ca bd b3 f7 d2 bd 4e 25 fa 3b 5b 50 58 bb
       -0.09897863 -0.10301151 0.0076338416 -0.003300688
0001b0 aa 85 b1 bc 26 98 bd bc 22 41 c7 3c 43 46 5c bd
       -0.021670181 -0.02314384 0.02432305 -0.053777944
0001c0 64 b1 15 3d fc 97 00 bd ea 4a 22 3d 1a f3 b6 bd
       0.036546126 -0.031394944 0.039622225 -0.08933087
0001d0 61 db 47 bc 68 24 10 bd 19 8b 51 3d 64 23 ec bc
       -0.0121983 -0.03519097 0.051158044 -0.02882547
0001e0 f2 4c ad 3d 51 4e a4 bd 74 93 2e bd 98 5d 93 3d
       0.08461942 -0.0802275 -0.04262109 0.07195586
0001f0 fd cc 7a 3c 0d 4a 07 3d 11 52 9e 3d 57 8e e6 3c
       0.015307662 0.033029605 0.07730497 0.028144045
000200 46 2a af 3c 77 02 e6 3d ad 9e 00 3e a7 51 81 3d
       0.021382462 0.11230939 0.1256053 0.06314402
000210 cb 02 0c 3c 12 1a 04 3e e6 f8 2c bd 68 a9 d8 bd
       0.008545588 0.1290057 -0.042229556 -0.10579187
000220 d0 87 ec bd c9 76 3b bc 04 1c c3 bd ac e5 62 bc
       -0.11549342 -0.011441895 -0.09526828 -0.013848703
000230 ef 46 e1 bb 83 84 24 bd e7 03 a1 bd 0e 7f 84 3d
       -0.006874911 -0.040165436 -0.078620724 0.06469546
000240 50 5d 04 3d 26 8c bd bd e3 57 63 bd 32 6c f9 bd
       0.032315552 -0.09255247 -0.055503737 -0.1217884
000250 78 63 8a 3d af 3d a2 bc 0f 4a 37 3d 8f b0 11 bd
       0.067572534 -0.019804804 0.044748362 -0.03556877
000260 64 3c 39 bc 1a 41 95 bd 30 b1 0a 3d 83 bb 69 3d
       -0.011305902 -0.07287808 0.033860385 0.05706359
000270 8f 83 93 3d 38 04 ee 3b cc a2 3f 3d 38 1a 6f bd
       0.07202827 0.0072636865 0.046786115 -0.058374614
000280 52 9b 33 bc 34 13 c6 3c 54 93 ce ba 0a b7 f6 3c
       -0.010962324 0.024179079 -0.001576046 0.030116577
000290 53 2d a1 bd 44 df 2e bc 1c 2a f1 bc 94 e9 cb bd
       -0.07869973 -0.010673348 -0.029439025 -0.09956661
0002a0 b6 7f 31 3d 85 8d 40 3d d2 a6 70 bd ba 7c 41 3d
       0.043334685 0.047009964 -0.058752842 0.04723809
0002b0 7f 43 be 3d fe e1 47 3d 00 3d 2c 3d 38 ab 80 bd
       0.092902176 0.048799507 0.04205036 -0.062826574
0002c0 d0 d0 90 bd 4d 15 f4 bc c3 03 86 bd 6a 78 e0 3b
       -0.07071078 -0.029795313 -0.06543686 0.006850292
0002d0 42 23 91 bd 1e 54 6c 3d ec 6f 74 bd 4d 6a f7 3b
       -0.07086803 0.057697408 -0.05967705 0.007550514
0002e0 6f b8 80 bd 50 96 5c bd 33 9f 88 3d 1c 6a 94 bc
       -0.06285178 -0.053854287 0.0667099 -0.018117003
0002f0 1a 06 e5 3b ee 92 aa bd 6f 55 c1 3c 27 0e af bc
       0.0069892528 -0.08328806 0.023600308 -0.021369053
000300 a4 f8 26 bd 04 7d 88 3d 0f b1 ab bd 89 43 ee 3c
       -0.040764466 0.0666447 -0.083833806 0.029084938
000310 10 65 81 bc 82 15 cc bd 1d 4f d3 bd 62 ab af bd
       -0.01579526 -0.0996504 -0.10317824 -0.085776106
000320 be e7 b0 bd 7b 13 97 bd e7 c6 2f 3d b8 94 a8 bd
       -0.08637951 -0.073767625 0.042914297 -0.08231491
000330 08 7b 4b bd e0 0d 28 bd ae 55 5f bc 66 7d 99 bc
       -0.04967788 -0.041028857 -0.0136312675 -0.018736552
000340 d0 d4 6e bd 37 c5 54 bd 8e 1a 25 3d 89 b4 ee 3c
       -0.058308423 -0.05194589 0.040308528 0.02913882
000350 dd 3d 00 bd 75 cd 88 bd 3f d3 a8 3d 93 c4 f8 bc
       -0.031308997 -0.06679813 0.08243417 -0.030367171
000360 aa 7d 1a 3d db 61 0d 3e f4 54 5c bc df 4e dc 3d
       0.0377175 0.1380686 -0.013447989 0.10757231
000370 dd 38 e4 3d ad f8 cd bb 62 f0 23 3d 2c 37 21 bc
       0.11143658 -0.006285748 0.04002417 -0.009839814
000380 82 af ec 3d cd 2f 7b bd 82 e9 c4 3d 81 42 ae 3c
       0.11556913 -0.061324883 0.096148506 0.021271946
000390 64 4d 5f bd cd 1e bb 3d 41 88 94 3c 70 ed dc 3d
       -0.054517165 0.09136734 0.018131377 0.10787475
0003a0 e7 ed 89 bd 82 5b ae 3c d2 b3 1b 3d dd c4 27 bd
       -0.067348294 0.021283869 0.038013287 -0.040959228
0003b0 5e 51 c0 3c 01 0e 3d 3d c3 86 16 bd d0 c4 04 3d
       0.023476299 0.046155933 -0.036749613 0.032414258
0003c0 32 48 bd 3d aa af 34 bd 51 5a 73 3d 3c 5a 37 bc
       0.09242286 -0.04411284 0.059412304 -0.011190947
0003d0 3c 99 dd 3b 19 04 8e bd 3b f2 fe 3c 96 95 90 bd
       0.0067626517 -0.06934375 0.031121364 -0.07059781
0003e0 75 0d a4 bd b4 2c b4 bd b9 8b 31 bb 49 a1 de 3c
       -0.08010379 -0.08797589 -0.0027091338 0.027176516
0003f0 e6 93 32 bd 43 fd fd 3d c2 37 cb 3c 5f f2 09 bd
       -0.04359808 0.124018215 0.02480686 -0.03367841

conv1.bias f4 [32]
000000 17 0c 8d bd 1b ca 85 3d 50 6e 90 bc f2 6c 8e bd
       -0.068870716 0.06532689 -0.017630726 -0.069543734
000010 ea e7 92 bc df a3 a9 bd 1f 2d b9 3d 81 1d bc ba
       -0.01793285 -0.08283209 0.09041809 -0.0014352055
000020 59 69 bb 3d df de 79 3d ed 69 12 bd 60 c2 15 bd
       0.09150953 0.061003562 -0.03574555 -0.036562324
000030 3b 6e 98 bd 4e 47 04 3d 24 19 bd bb a3 2c 8f bd
       -0.074429 0.032294564 -0.0057708193 -0.06990936
000040 05 f2 1a 3d 4a 94 3b 3d 91 cd 85 3d b8 11 51 bd
       0.037828464 0.045795716 0.06533349 -0.05104229
000050 89 ad 1d 3d a6 86 db bd 5d 5f 80 bd a5 a2 4e 3d
       0.038495574 -0.107190415 -0.06268189 0.05044808
000060 c2 83 9d bc 04 73 ca bd f3 59 d9 bc 12 06 98 39
       -0.019227866 -0.09885219 -0.026532149 0.00028996222
000070 a2 51 b4 bd ed 38 b3 bd 3d 40 af 3d 6f 7d 9b 3d
       -0.08804633 -0.08751092 0.08557174 0.07592284

bn1.weight f4 [32]
000000 b8 14 80 3f 10 d6 81 3f 11 cd 83 3f 66 dd 81 3f
       1.0006323 1.0143452 1.0296956 1.014569
000010 c9 d1 80 3f 7d 79 84 3f d0 29 79 3f a7 7a 82 3f
       1.0064021 1.0349575 0.97329426 1.019368
000020 85 b1 82 3f 12 e0 81 3f 86 05 83 3f bd 8b 85 3f
       1.0210425 1.0146506 1.0236061 1.043327
000030 eb 50 84 3f fe 5c 85 3f c6 85 7f 3f 73 90 81 3f
       1.0337194 1.0419004 0.998135 1.0122207
000040 63 51 7f 3f 2a 4e 80 3f 33 1a 7d 3f 4a bf 7d 3f
       0.9973356 1.0023854 0.988681 0.9912001
000050 69 2c 83 3f a8 9d 81 3f 83 ef 80 3f 77 f6 83 3f
       1.0247928 1.0126238 1.0073093 1.030959
000060 f9 07 85 3f a6 38 81 3f 80 6a 81 3f a4 fd 82 3f
       1.0393058 1.0095413 1.0110626 1.0233655
000070 ef 4e 76 3f 42 10 81 3f a3 f5 82 3f ee 73 7c 3f
       0.96214193 1.0083086 1.0231212 0.98614395

bn1.bias f4 [32]
000000 e7 e7 b4 bb c8 53 22 bc ed 37 fd 3b 02 02 bd ba
       -0.005520809 -0.00990767 0.007727614 -0.0014420154
000010 44 8d 3e bb e5 57 36 3c 6f f2 e7 bc 33 8d 8b bb
       -0.00290759 0.011129354 -0.028313844 -0.0042587756
000020 00 3e e5 ba bd d3 06 3c 37 7c cd 3b 75 4f ae bc
       -0.0017489791 0.008229193 0.006270911 -0.021278122
000030 ce 62 10 3c 05 ea 05 3c fe 79 27 bc d9 cc 92 bc
       0.008812619 0.00817347 -0.010221956 -0.017919945
000040 0e f8 05 bc 37 61 03 bd 3d 4c df bb d1 ee d7 3a
       -0.008176817 -0.032075133 -0.0068145082 0.0016474371
000050 da 96 b7 bc c0 d8 e0 bc 31 c3 03 bc 3b 6d 9a 3c
       -0.022410799 -0.027447104 -0.008042143 0.018850913
000060 25 13 0a 3d 99 cf d4 bb 5d 15 4c bc a9 67 d8 bc
       0.033709664 -0.006494474 -0.012456265 -0.026416617
000070 4c 11 14 bd ac 5f 78 ba b1 db 3d 3c 57 81 39 bc
       -0.036149308 -0.00094747054 0.011588023 -0.011322341

bn1.running_mean f4 [32]
000000 2a 89 8d bd fc 09 85 3d ad a9 89 bc 8c 7b 8f bd
       -0.069109276 0.06496045 -0.01680454 -0.070059866
000010 7f 6e 99 bc 75 54 aa bd 28 49 b9 3d 3e 6f d0 b9
       -0.018729446 -0.0831689 0.090471566 -0.00039755733
000020 cf 79 bc 3d f5 93 7f 3d 26 1b 16 bd a6 20 18 bd
       0.09202921 0.062396962 -0.036646985 -0.03714051
000030 a7 bc 97 bd 01 7e 01 3d ed 2d bd bb ee d2 8e bd
       -0.074090295 0.031614307 -0.005773297 -0.069738254
000040 4d 3f 16 3d 76 89 3c 3d 17 f0 85 3d 3d 08 4f bd
       0.036681462 0.04602953 0.06539934 -0.050544966
000050 db eb 1c 3d 61 2f da bd c6 d7 7d bd 17 f9 4f 3d
       0.038310867 -0.10653568 -0.061973356 0.05077466
000060 f1 b5 9c bc c3 4b c9 bd 4c 90 d5 bc 37 6b c1 b7
       -0.019129725 -0.098289035 -0.026069783 -2.3057319e-05
000070 76 ae b4 bd 1a 64 b4 bd 1e 2e b0 3d 8c c2 9a 3d
       -0.08822338 -0.08808155 0.08602546 0.07556638

bn1.running_var f4 [32]
000000 84 c2 e7 3e 5a a2 d8 3d 16 5a 2a 3f 0c 84 6b 3e
       0.4526559 0.10577841 0.6654371 0.2299959
000010 c1 6f 65 3e 92 c0 59 3e ee 1c d9 3e f2 98 0d 3f
       0.22405912 0.21264866 0.42404884 0.553115
000020 1a c8 18 3e b4 c4 75 3f 59 25 28 3e 44 71 0c 3e
       0.14920083 0.9600327 0.16420497 0.13715082
000030 c9 fd fb 3d 9e 1b 3a 3e 1e c6 87 3f 42 6e 2f 3f
       0.12304265 0.18174598 1.0607336 0.68527615
000040 0e 13 61 3f 7f 68 81 3e a1 fa bb 3e fb 50 68 3f
       0.879197 0.25275037 0.36714652 0.90748566
000050 6f 08 09 3e 15 4d 08 3e 55 d4 4c 40 81 9f 52 3f
       0.13382123 0.13310654 3.2004597 0.82274634
000060 1f 1d 29 3e ff 72 85 3e 87 91 9a 3e 8d 70 f5 3d
       0.16515015 0.26064298 0.30189154 0.11984358
000070 fb 96 c0 3e 5b 2a 16 3e bd 90 ab 3e 4e 6d fc 3d
       0.3761519 0.14664595 0.33508864 0.12325536

depthwise.weight f4 [32, 1, 3, 3]
000000 bc 52 88 be 83 70 b5 bd a0 e7 e1 bd 87 59 59 be
       -0.2662562 -0.088593505 -0.11030507 -0.21225558
000010 c0 4b 55 be 2e 3d f1 3d 05 0e 77 bc 15 a6 cb bd
       -0.20829678 0.11779247 -0.015079026 -0.09943787
000020 0f e9 8f 3e 79 ef 12 3e a4 29 19 3e 2a 81 3a 3d
       0.28107497 0.14349164 0.14957291 0.045533337
000030 f1 99 ab 3e 97 b9 25 3e b0 d4 2b bd 38 5a 82 be
       0.33515885 0.16184078 -0.04195088 -0.25459456
000040 d2 b8 5b 3e ba 39 90 bc 65 e3 0c 3e 7f 0a ab bc
       0.21457222 -0.017605651 0.13758619 -0.020879028
000050 95 db f0 bd b3 20 b1 bc b1 fd a9 3e 6f 28 a7 3e
       -0.11760632 -0.021622038 0.33201364 0.32648036
000060 7f e1 6f be e9 1e 1a bc dc c2 85 3e 8f 15 56 be
       -0.23425864 -0.009406784 0.26125228 -0.20906661
000070 fd a5 7e 3e 48 2c af bd 93 57 50 be f4 69 98 bd
       0.24868007 -0.08553368 -0.20345907 -0.07442084
000080 bf 2c b2 bd 41 2b 9e be fa b1 37 be 28 64 f0 3d
       -0.08699941 -0.30892375 -0.17938986 0.11737853
000090 03 23 96 be 44 29 7f be fc dd ae be db 44 43 be
       -0.29323587 -0.24918085 -0.34153736 -0.19069235
0000a0 61 68 47 3e fc ab 24 3e e7 3c 02 be 33 93 a4 be
       0.19473411 0.16081232 -0.12718545 -0.32143554
0000b0 c9 56 c4 bd f6 9f 44 3e a7 52 ab 3e 0f a7 90 3e
       -0.095868655 0.19201645 0.33461496 0.28252456
0000c0 e2 40 4d 3e 87 b4 58 3d e3 e4 98 3d 07 62 11 be
       0.20044282 0.05290654 0.07465532 -0.1419755
0000d0 3f a1 7f 3e a6 e8 a7 bd 89 67 f8 bc ec a8 4e 3b
       0.24963854 -0.08198671 -0.030322807 0.003153379
0000e0 52 fc 1e 3c f9 02 5b 3e 8b ae 05 3e 32 71 a2 be
       0.009703713 0.21387853 0.13054864 -0.31726986
0000f0 03 37 99 3e 57 02 28 3e 2c 95 68 be 8d e3 6e be
       0.29924783 0.16407143 -0.22713155 -0.23328991
000100 43 13 33 3e 39 d8 b1 3e ef 5a 6d bb df 6d c2 3d
       0.17487817 0.34735277 -0.003621753 0.094936125
000110 b8 44 80 3e de 15 94 3d c6 ff 65 3e f6 3e 93 3e
       0.25052428 0.07230733 0.22460851 0.28758973
000120 12 60 3f be 82 15 a7 3d 0c c1 ad 3e 6a e7 a7 3e
       -0.18688992 0.08158399 0.33936346 0.32793742
000130 7a ca 92 3e 99 84 84 bc b9 ac 25 3e 90 07 b7 3e
       0.28670102 -0.016176509 0.1617917 0.35747957
000140 4a 0d 98 be e7 65 fa bc 42 77 8c be e7 81 80 be
       -0.2969764 -0.030566169 -0.27434736 -0.25099108
000150 5e 38 ae be 19 70 9a be e4 ac 67 bc f0 27 7a 3d
       -0.3402738 -0.3016365 -0.014140341 0.061073244
000160 73 68 37 bc f3 0c bd 3d 53 da 19 be 7a 6f 77 3e
       -0.011194336 0.092309855 -0.1502469 0.24163619
000170 b8 ec 9c 3d a2 4f 41 be 28 9b 19 be 83 be 12 be
       0.07662338 -0.18878034 -0.15000594 -0.14330487
000180 12 12 26 be 95 b6 8c be e9 2c 04 be aa 25 05 3e
       -0.16217831 -0.2748305 -0.12907757 0.13002649
000190 60 c6 2c 3d aa f3 09 3b 62 c6 91 3e 49 58 ab 3e
       0.042181373 0.0021049776 0.28471667 0.33465794
0001a0 54 ca a2 3d f1 08 d3 3d cb d2 60 3e 9c 40 2d 3e
       0.07948747 0.1030444 0.21955411 0.16919178
0001b0 a6 96 e7 3c 40 65 59 be e3 8f 8f be 7e 5d 8e be
       0.028270077 -0.2123003 -0.28039464 -0.27805704
0001c0 9a bb f4 bd 90 15 c2 bd 99 09 ba be 5d 0a 03 3d
       -0.11949845 -0.09476769 -0.36335447 0.031992305
0001d0 96 be 31 3d c0 3a 89 3e 5e 79 1c be 4e af 3b be
       0.043394648 0.26802635 -0.15280673 -0.18328592
0001e0 ab a0 af 3d a2 3e 60 be cb d1 42 3e c4 29 0a 3e
       0.08575567 -0.21898893 0.19025342 0.13492495
0001f0 4f 36 29 be 07 d9 83 bb 8b 7c cc bd 21 65 f9 3d
       -0.16524623 -0.0040236744 -0.09984692 0.12177492
000200 23 a6 9a be 28 be f0 3c f3 26 a2 3e b7 4c 73 be
       -0.30204877 0.029387549 0.3167034 -0.23759733
000210 52 94 65 be c8 cf 99 be 78 57 98 be b4 e4 ca bd
       -0.22419861 -0.30041337 -0.29754233 -0.09906903
000220 b9 27 0b be f8 60 85 be b0 f8 82 be 29 c7 61 bd
       -0.13589372 -0.26050544 -0.25580359 -0.055121575
000230 ce a6 a5 be 95 fd 7e be f0 b0 dc 3d f8 09 69 3e
       -0.32353824 -0.24901421 0.10775936 0.22757709
000240 c0 3d 89 bd bd fd 29 be eb fc 3a be ec 84 f8 3c
       -0.06701231 -0.166007 -0.18260543 0.03033682
000250 c8 61 7b be 2c 1c cd 3d ac 2a ac bc b3 03 a5 be
       -0.2454902 0.10015139 -0.021016441 -0.32229385
000260 e2 6f a2 be b9 53 96 be eb 4b 4a 3e b4 98 51 3e
       -0.31725985 -0.2936075 0.19755523 0.20468408
000270 68 51 7c be 49 c3 53 be fb b1 22 be bf a0 aa be
       -0.24640429 -0.20679964 -0.15888207 -0.33325765
000280 d9 f5 6d be 90 02 0e 3e b4 98 8a 3c d7 34 29 be
       -0.23238315 0.13868165 0.016918518 -0.16524063
000290 7f cc 0c be fe b7 1b be ce 84 11 bd da 4d a7 3e
       -0.13749884 -0.15206906 -0.035527043 0.32676584
0002a0 b9 55 70 bd 10 b2 96 3e fa 3e 9a bd b5 d0 8e 3e
       -0.0586755 0.29432726 -0.07531543 0.27893606
0002b0 9b bc c3 39 71 6c f2 3c 9a b0 21 be 81 19 33 3e
       0.0003733382 0.029592725 -0.15790024 0.17490198
0002c0 86 5f ae bd aa 05 7c 3e 41 38 3c bd 6f 26 21 3e
       -0.085143134 0.24611536 -0.045952085 0.15737318
0002d0 36 fc 60 be 6e 08 af 3e 21 e9 6b 3e d5 e3 bb 3e
       -0.21971211 0.3418612 0.2303815 0.3669726
0002e0 d5 f5 9e 3e fd 17 55 3e 51 14 4f 3e cc da 9c 3d
       0.3104693 0.20809932 0.20222594 0.0765892
0002f0 2f 9f 73 be 44 23 ab 3e 5c 31 67 be f9 ed 89 3e
       -0.23791192 0.33425343 -0.22577423 0.2693937
000300 b0 71 55 3e 52 b2 99 3e 30 e1 36 3e cb da 02 3e
       0.2084415 0.3001886 0.1785934 0.12778775
000310 3b 35 22 3e 9c 79 b5 3e 5a f9 ac 3c 9e b0 9b 3d
       0.15840618 0.35444343 0.021114994 0.076020464
000320 d5 64 3a bd 10 79 1d be df d6 8d 3e a7 fc 3c 3e
       -0.045506317 -0.15378213 0.27702996 0.18455754
000330 d0 59 00 be 6b b8 24 bd 26 e5 37 3e 08 13 2f 3e
       -0.12534261 -0.040214937 0.17958507 0.17097104
000340 05 ce b1 3d a4 39 b2 3e ce f5 52 3e 80 63 14 be
       0.08681873 0.348096 0.2060158 -0.14491081
000350 be c2 a0 3e a1 36 d4 bd 92 52 79 3e 08 be 3b 3e
       0.31398576 -0.10361982 0.24347904 0.1833421
000360 8e 55 98 be 83 2c 7b 3e bc 7c 9f be e3 3d a5 3d
       -0.29752773 0.24528699 -0.31149852 0.080684446
000370 db aa d5 bc 88 45 c2 bd 9b f9 41 3e 58 74 dc bc
       -0.026082447 -0.09485918 0.18942873 -0.026910946
000380 06 df be 3e 04 a0 8c 3e e3 2e 93 3e 5c 85 a7 3e
       0.37279528 0.27465832 0.2874671 0.32718933
000390 0a b4 e9 bd a9 1d 54 be 02 c3 8e be f5 34 67 3e
       -0.11411293 -0.2071444 -0.27883154 0.22578795
0003a0 26 78 97 3d 3d 7e 75 3e 2d be ab be 6a c8 1f bd
       0.07395963 0.23973937 -0.3354353 -0.03900949
0003b0 6a 75 c0 3c ef 37 8f 3d 63 77 82 3e 3c 47 ae be
       0.023493487 0.0699309 0.2548171 -0.34038723
0003c0 8d 53 10 be 4a bd 71 be 03 71 27 3e 2d a9 97 3e
       -0.14094372 -0.23607364 0.16351704 0.29621258
0003d0 eb cf 42 3e 68 12 a2 3d 9b 16 b4 3e 80 a6 bf 3d
       0.19024627 0.07913667 0.35173497 0.09357929
0003e0 7a b6 1e be 7d c8 02 be e6 b8 70 be 4b 00 a5 3e
       -0.15499297 -0.12771793 -0.23508033 0.32226786
0003f0 e7 0a a8 3d 07 8e 08 be 9e 01 e4 bd bb 47 e3 bd
       0.082052045 -0.13335429 -0.11133121 -0.11097666

depthwise.bias f4 [32]
000000 8f c2 a7 bd 42 38 13 3d 79 f5 73 3e 4e d0 82 3e
       -0.08191406 0.035942324 0.23824109 0.2554955
000010 45 92 6f bd 72 07 c9 bd 1e 61 d6 3c 3e 40 7e be
       -0.058489103 -0.09815873 0.026169356 -0.24829194
000020 28 b4 bc bd da a1 4d 3e 2f a8 d9 3d fc 75 39 be
       -0.092140496 0.20081273 0.106277816 -0.18111414
000030 e8 1e 9e 3e c1 4a 6c be c9 e3 1e 3d d6 bd 61 3e
       0.30882955 -0.23075391 0.03879145 0.22045073
000040 39 b4 45 3d 8d d9 88 3d b5 4c 7c 3e d3 8d 56 be
       0.048267577 0.066821195 0.24638636 -0.20952539
000050 8d 4e 1e 3c 7c 82 9f be 80 f6 8b 3c 02 47 6e bd
       0.009662283 -0.3115424 0.017085314 -0.058173187
000060 30 54 03 be 9e b9 30 be 23 80 a1 3e ac 04 56 3e
       -0.12825084 -0.17258307 0.31543073 0.2090022
000070 29 34 be 3b 67 f2 a6 be 52 3c 1d 3e 65 0c 6a 3e
       0.005804558 -0.32606813 0.15355042 0.2285629

pointwise.weight f4 [64, 32, 1, 1]
000000 db a9 bf bd 4d 72 8e bd 71 7f 06 be 2e 2b 1e 3e
       -0.09358569 -0.06955395 -0.13134553 0.15446159
000010 a1 37 f9 3c d8 6f 0e 3e 6b 34 76 3d d3 c5 22 be
       0.030422034 0.13909853 0.060108583 -0.15895776
000020 60 6e 00 3d 90 74 97 3c a5 29 1d be 33 c9 6f 3e
       0.03135526 0.018488199 -0.15347917 0.23416595
000030 9a ba 8b bd fb 61 17 bd 6d e2 ac bd e4 a4 b6 3c
       -0.06822701 -0.036958676 -0.08441625 0.022295423
000040 5f 11 d9 3d 24 84 08 be 2a 46 3f be 69 87 31 3e
       0.105990164 -0.13331658 -0.18679109 0.17336811
000050 d3 98 0b be 2b e0 1c 3e 23 49 1e 3e 5f 57 f9 bd
       -0.13632517 0.15319888 0.15457587 -0.12174868
000060 61 3f bc 3d ad ae 1e be 09 db bb bc 4f 4d 24 3e
       0.09191776 -0.15496321 -0.022931593 0.16045116
000070 cd cf b3 3d 46 20 73 3d a3 ee 11 3d 04 03 fb bd
       0.08779869 0.05935695 0.035627972 -0.122564346
000080 07 9c 6b 3d 6b fa 8f bd 13 72 a3 3d 64 0b 1f 3c
       0.057521846 -0.07030185 0.07980742 0.009707306
000090 0c f1 1b 3e 3b 26 0a 3e 3b ac f1 3d d9 85 b5 bd
       0.15228671 0.13491146 0.118004285 -0.0886342
0000a0 88 51 50 3d 34 89 f5 3d 55 8d 8a 3d 12 d9 3b 3e
       0.050859004 0.1198906 0.06765238 0.18344525
0000b0 5f 09 a1 3d 87 94 43 3d b9 8e 27 3e 48 e5 c2 bd
       0.078631155 0.04774907 0.16363038 -0.09516388
0000c0 03 4b 1f 3e 8e 74 f2 bd 29 db 21 bd dc 64 97 bd
       0.15555958 -0.11838637 -0.039515648 -0.07392284
0000d0 50 cb c8 3c 76 16 11 bc a7 5a 11 3e 79 aa 21 39
       0.02451101 -0.008855453 0.14194737 0.00015417663
0000e0 ad e2 3d be 7d a0 12 bd a2 48 07 bd 19 82 0c 3e
       -0.18543501 -0.035797585 -0.033028252 0.13721503
0000f0 75 d8 24 be 01 2c 25 be 57 c0 1d 3e 0d 82 04 be
       -0.16098197 -0.16130067 0.15405403 -0.12940235
000100 d0 45 e3 bd 33 3f 2a 3e 15 24 e7 3d ec 08 51 3c
       -0.110973 0.16625671 0.11286179 0.012758475
000110 5c 40 2d be 63 c4 fe bd 53 ee 6e 3d 31 ef 09 3d
       -0.16919082 -0.124398015 0.058332752 0.033675376
000120 5b 08 0b be c5 ef be bd d6 8b 8f 3d 55 f3 46 be
       -0.13577406 -0.09323076 0.070090935 -0.19428761
000130 0d 65 b4 bc da d7 33 3e 18 67 e2 3d 8a 0b 7d 3d
       -0.022020841 0.1756281 0.1105482 0.061778583
000140 88 51 e3 3d f8 53 8f 3d a2 e8 bd bd 3f d6 1c 3c
       0.11099535 0.06998438 -0.09272887 0.009572565
000150 62 a4 ca bc 2e 2a 33 3e af 5b 68 3d cb 50 5f b8
       -0.024736587 0.17496559 0.05672806 -5.3242587e-05
000160 d3 03 36 be cd 10 09 3e 6e b1 f9 bd 0f f9 fe 3d
       -0.17774896 0.13385315 -0.12192045 0.12449848
000170 85 a0 cc 3d 05 c8 1f 3d 25 c0 fa 3c 11 7b c3 bd
       0.09991554 0.039009113 0.0306092 -0.095449574
000180 1a 08 f9 3c bf 5a 3b bd 8d 14 e4 bd 8b 23 35 be
       0.030399371 -0.04574084 -0.11136732 -0.1768934
000190 ed 7f db 3d ec a3 51 3e 33 41 0b 3d 2a 56 9a 3d
       0.10717759 0.20472687 0.033997726 0.07535966
0001a0 13 b1 4e 3c 3b 6d 72 3e 27 1c 4b be 45 d0 0c 3d
       0.01261546 0.2367448 -0.19834958 0.03437831
0001b0 d1 00 9d bd bf 77 9b 3d 79 98 21 3e c1 f3 fe 3d
       -0.07666171 0.07591199 0.1578082 0.12448836
0001c0 fa c3 3a 3d 20 45 ad 3d 41 0b cf 3c 6c 5f 26 be
       0.045597054 0.0846045 0.025273921 -0.16247338
0001d0 a4 fb ee bd e8 b8 95 3c 98 d2 14 3d 28 64 9e 3b
       -0.116690904 0.018276647 0.03633365 0.004833717
0001e0 3f d3 1f be b6 d0 d1 3c af d5 1a 3e e7 16 8a 3c
       -0.15607928 0.025612216 0.15120576 0.016856624
0001f0 53 5c 26 3e e0 a7 cf 39 79 2a b3 bd 3c 5e c1 3c
       0.16246156 0.00039607193 -0.087483354 0.023604505
000200 14 ea 7f 3d 91 28 2a be 1e 6d 47 3e c7 e9 6a be
       0.062479094 -0.16617037 0.19475219 -0.22940741
000210 91 56 1e bd 10 3d a1 bd 34 65 10 3e 3f ac 66 3d
       -0.038656775 -0.07872975 0.14101106 0.05631661
000220 51 9b 01 be e3 9e f7 bd 2c 7b 1a be 72 7e 53 be
       -0.12656905 -0.12090852 -0.15086049 -0.20653704
000230 ef f0 3f be cb 52 76 3d b7 6c 94 bc 20 4d 37 3d
       -0.18744253 0.06013755 -0.018118246 0.044751287
000240 44 47 a3 3d ce 44 89 3b 83 53 fa bd 4a 6b 4b 3e
       0.07972577 0.0041891104 -0.1222296 0.19865146
000250 1d a3 0c bd ee bb e9 bc c5 5a f8 3d d8 8a f0 bc
       -0.034335244 -0.028531995 0.12126688 -0.02936308
000260 a8 0c 8e bd 38 ac 3c be 35 4c 20 be c2 17 fe 3d
       -0.06936008 -0.18425071 -0.1565407 0.12406875
000270 8e 73 2a 3e b8 d9 09 3e f2 84 70 3e b8 b5 5e bd
       0.16645643 0.1346196 0.23488215 -0.05437252
000280 c3 1b 37 3d ab a1 d2 bc bd 6a 15 3e 47 21 fb bd
       0.04470421 -0.025711855 0.14591499 -0.122622065
000290 c2 d9 16 be 11 ef c6 bc ab 90 af 3b 92 9d d4 3d
       -0.14731506 -0.024283918 0.005357822 0.10381617
0002a0 a5 33 6b 3c 86 6f 62 3e fd 82 0f be f9 dc 45 be
       0.014355575 0.22112855 -0.14014812 -0.19322576
0002b0 88 84 0a be d6 3b 90 bd 9b 5c aa 3d 1b a4 49 3e
       -0.13527119 -0.07042663 0.08318444 0.19691508
0002c0 67 cd 60 bd 61 6e 6d 3d d5 41 e2 bd 26 4e 35 be
       -0.054883387 0.057966594 -0.11047713 -0.17705593
0002d0 95 68 03 3e c5 dc 0f be ed 20 91 bc 10 9f cd bd
       0.12832864 -0.1404906 -0.017715896 -0.100401044
0002e0 fb 2b 1f bd 76 b9 20 3e 56 e3 9a 3d 40 35 dc 3d
       -0.038860302 0.15695748 0.07562892 0.10752344
0002f0 c9 18 47 3d 44 4a 23 be 51 fe 6c bd c9 45 a1 3b
       0.04860762 -0.15946299 -0.057859723 0.004921649
000300 b0 de e3 bd 20 46 ac bd d0 d6 68 3c ee 4b 05 3e
       -0.11126459 -0.08411813 0.014211372 0.13017246
000310 ff 67 34 be c4 a2 3e 3d 9d 2b 10 3d 45 6e ca bd
       -0.17617796 0.046541944 0.035197843 -0.098843135
000320 f0 cf 4a 3e 96 ba 13 3e 2d cd 01 bd 5f 87 21 be
       0.19805884 0.14426646 -0.03168981 -0.15774296
000330 98 9f 19 be fa df c9 bd b5 f4 e8 3d ae 6a fa bd
       -0.15002286 -0.09857173 0.11374799 -0.12227379
000340 3b 1c 08 bd 53 ea 1b 3d ab a3 3d 3c b3 ca 1d 3e
       -0.033230048 0.038065266 0.011574666 0.15409355
000350 2d a7 93 3d 81 c1 f9 bc f8 21 9a bd 52 cb ac 3d
       0.072096206 -0.030487778 -0.0752601 0.08437218
000360 7f 88 0a 3e 83 55 ee 3d a7 09 a6 bd 6c b0 5d bd
       0.13528632 0.11637404 -0.0810731 -0.054123327
000370 cf 78 0b 3e 93 18 10 3d a5 ac fe 3d 3f 2e 01 be
       0.13620304 0.035179686 0.12435273 -0.12615298
000380 0c af d1 bd 6c 44 d1 bd 36 d9 e1 3d d1 c4 0c bd
       -0.10238466 -0.102181286 0.11027758 -0.034367386
000390 e6 4e 0c 3e eb 81 19 3e 1d f3 40 be 96 f3 20 be
       0.13701972 0.14990966 -0.1884274 -0.1571792
0003a0 ca 02 d9 bd 81 26 2a 3e 86 ca 88 3c c9 6d 2c 3e
       -0.10596235 0.1661625 0.016698133 0.16838755
0003b0 99 36 ea 3d 54 28 a3 bb 10 e7 ab bd 6f dd 8a 3c
       0.11436195 -0.0049791727 -0.08393681 0.01695129
0003c0 3e 8d 0b be 34 df e6 3d ca 28 54 bd d2 dc af 3c
       -0.13628098 0.11273041 -0.051796712 0.0214676
0003d0 05 e0 1b 3e 8e 0c b6 bd 14 f9 d0 bd b9 ee 1b 3e
       0.15222175 -0.08889113 -0.10203758 0.15227784
0003e0 00 6d 8b 3c 30 de e5 bd e0 8a 09 be be 38 c3 bd
       0.017019749 -0.112240195 -0.13431883 -0.09532307
0003f0 01 34 24 be be 3b df bd 97 43 bc 3d e4 2e 39 bd
       -0.16035463 -0.10900067 0.09192579 -0.045210734

pointwise.bias f4 [64]
000000 1f 17 af 3d 85 74 53 bd 28 37 24 be e1 db d4 3c
       0.08549332 -0.051624794 -0.16036665 0.025983753
000010 1f 9c 45 3c 76 f0 01 be c0 15 1e 3e 3e 4a 8e 3d
       0.012061148 -0.12689385 0.15437984 0.06947754
000020 7f 4a ab bd 9d 67 3b bd 07 99 79 bd b0 d2 17 3e
       -0.083638184 -0.04575311 -0.060936954 0.14826465
000030 ce 4f 53 3d 79 4b 9f 3d 46 8e 0a 3d 6c e0 9b bc
       0.05158978 0.07778067 0.03382709 -0.019027911
000040 de 46 2e 3e 8a 9e ee bd 54 c0 9d 3d fa b7 43 bd
       0.17019221 -0.11651333 0.07702699 -0.047782876
000050 6a 32 2f 3e e9 cc f2 bc 06 e5 80 3d 4d 54 13 3e
       0.17109075 -0.029638724 0.06293683 0.14387627
000060 e9 2a 4f bd 6e 92 ad 3c 24 e9 f3 bd 6f 6c 28 3d
       -0.05057803 0.021187987 -0.119097024 0.041119035
000070 d1 ee 04 3e 49 b7 0d 3d e5 cd d3 3d 65 10 23 3d
       0.12981726 0.034598622 0.10342006 0.039810557
000080 ce a4 83 3d b6 d7 e3 3d 31 6b c7 bc 71 c1 e6 bd
       0.064279184 0.11125128 -0.024343105 -0.11267365
000090 82 8a cf 3c d3 f7 2c 3e 06 9b bd bd 70 72 89 bc
       0.0253346 0.16891412 -0.09258084 -0.0167782
0000a0 9c 4e 16 3e 73 28 13 be 4c 75 17 3d 62 10 00 3e
       0.14678425 -0.14370899 0.036977097 0.1250625
0000b0 b3 72 c3 bd a1 3e 84 bd 41 cd 2d 3c f1 f2 47 3c
       -0.095433615 -0.06457258 0.010608018 0.012203918
0000c0 7d df 1b 3e 90 a3 07 be d8 71 27 3e a9 6d 09 be
       0.15221973 -0.13245988 0.16352022 -0.13420738
0000d0 80 40 8b 3d b4 de 06 bc 90 ac 10 3e f7 6f 31 bc
       0.06799412 -0.0082318075 0.14128327 -0.010829917
0000e0 3b db e2 3d 8a e7 23 3e fd dc 13 3e a1 9e 7b 3b
       0.11076971 0.16006294 0.14439769 0.003839411
0000f0 6a 50 cd 3d 1d a6 96 bc 84 2d d8 3d e4 9f 7e bd
       0.100251034 -0.018389756 0.105555564 -0.062164202

fc.weight f4 [2, 1024]
000000 7a 98 b8 bc 26 e4 8b bd cc c5 60 bd 99 8a f0 bc
       -0.022533644 -0.06830625 -0.054876134 -0.029362964
000010 d4 ed 5d bd bf 1c d6 bc e2 80 24 bd a5 3c e0 bb
       -0.05418189 -0.026136754 -0.040161975 -0.006843167
000020 be 9a 74 bc 94 21 3a bd 3f 50 5d bd 49 24 45 3c
       -0.014929472 -0.04544218 -0.054031607 0.012032577
000030 14 55 7b bd 7d 4b 80 bd 4b 7a 26 bc 4f 34 2e bd
       -0.061360434 -0.06264398 -0.010160993 -0.042530354
000040 59 f1 56 bd f2 fd 8f bd b7 a2 3a bd a1 b3 44 bd
       -0.05247626 -0.07030858 -0.045565333 -0.04802287
000050 6a cb 29 bd c2 fb e9 bc 86 34 a4 bc b3 8f 0c bd
       -0.041453756 -0.02856243 -0.020044576 -0.03431673
000060 6b 42 6a bd e9 7b 31 bd 99 06 4e bc 0d 39 3a bd
       -0.057192247 -0.04333106 -0.012574815 -0.045464564
000070 68 fd 38 bd 17 9f 24 bc f9 95 6d bd 77 28 17 bd
       -0.045163542 -0.010047696 -0.058004353 -0.036903825
000080 ae 20 87 bc 1e 41 c9 3c 76 6c 35 3d 65 46 24 b9
       -0.016495075 0.024567183 0.04429289 -0.00015666483
000090 ef a3 8a bd 25 11 b8 bd 26 18 b8 bd 01 26 5d bc
       -0.06769549 -0.08987645 -0.08988981 -0.01349783
0000a0 4d 2f 34 bc 77 91 26 bd c7 ca 57 bc 82 36 70 bd
       -0.0109976055 -0.04066607 -0.0131709045 -0.058645733
0000b0 7c d8 ab bc c6 81 07 3c 27 1d 2a bd 69 c7 ca bd
       -0.020977251 0.0082706865 -0.041531708 -0.09901316
0000c0 28 f1 af 3d 29 6e 05 3d b1 e5 00 3d a9 9a 34 3d
       0.08590919 0.03257576 0.03146905 0.044092808
0000d0 80 c3 b9 3d c8 a5 8c 3d ed d6 42 3d 80 50 b7 ba
       0.09070492 0.06867558 0.04756825 -0.0013985783
0000e0 f0 d1 10 3d 72 3f 2b 3d 88 ab d9 3c b5 74 9c bb
       0.035356462 0.041808553 0.02657105 -0.0047746547
0000f0 9b 21 3b 3d c9 12 ae 3c 4f 3c 76 3d 2f e7 b3 3d
       0.045686346 0.021249192 0.06011611 0.08784329
000100 17 10 d8 3d f0 ef 02 3d 23 a8 cc 3d f1 3d 79 ba
       0.10549944 0.031967103 0.09993007 -0.0009507826
000110 3a 14 8b bd dc 34 0a bd 30 80 d7 39 41 58 14 bd
       -0.06790967 -0.033741817 0.00041103503 -0.036216978
000120 04 a9 85 3a b1 39 0d 3d 8f d2 8c 3d 69 3c 5d 3d
       0.0010197465 0.034478847 0.06876098 0.05401269
000130 47 d1 99 3b 4a 6d 8c 3d 67 4f 71 3d ec 99 8c bc
       0.0046941373 0.06856783 0.058913615 -0.01716324
000140 88 fa 8e 3d 02 ea b7 3c 7a 97 8f 3d e8 31 d8 3d
       0.06981379 0.02245045 0.07011314 0.10556394
000150 02 19 96 3d ca f0 94 3c 50 33 04 3d 61 3e 65 3d
       0.073289886 0.018181223 0.032275498 0.055967692
000160 7b 8b 84 3d 07 c6 27 3d b7 79 8b 3c ea 91 65 3c
       0.06471916 0.040960338 0.017025812 0.014011839
000170 03 f5 9f 3c 95 c8 f9 3c 5c d6 2a bc 83 5c 39 3d
       0.01952601 0.030491153 -0.010427084 0.04525424
000180 75 83 cd 3b 44 2b 28 3c 6b dd a6 3c d9 c7 18 3d
       0.0062717744 0.010264222 0.020369252 0.037299965
000190 a7 21 fc b9 e8 3c 08 3b 21 6f 0c 3c d7 25 42 3d
       -0.00048090258 0.0020788256 0.008571417 0.047399368
0001a0 a3 1b ef ba a3 12 e1 bc eb 82 ba bc 7e 48 14 3c
       -0.0018242489 -0.027474707 -0.022767505 0.009050487
0001b0 67 f0 d2 bc 87 10 cc 3c 21 58 9f 3c 93 b5 eb 38
       -0.025749398 0.024910225 0.019451203 0.00011239494
0001c0 ab ec 43 bd 73 c9 d2 3c 51 bf 07 bd 17 6c 72 bd
       -0.047833126 0.025730824 -0.033141438 -0.059185114
0001d0 60 85 68 bd 69 a8 28 3d b6 2f 01 bd 1a 7a b8 bc
       -0.05676782 0.041176233 -0.03153964 -0.02251916
0001e0 9e 96 3a bd b2 0b bd bc 0c 9b 0e bc 49 c5 34 bd
       -0.045553796 -0.023076866 -0.008703958 -0.04413346
0001f0 59 ad a3 bc 82 79 85 3c 9a 9b e2 bc ab 6d e2 3a
       -0.01998012 0.016293291 -0.027662087 0.0017275115
000200 8c fc c1 3c ea 86 a0 bb 36 3e 63 3c 46 4a 85 3d
       0.023679994 -0.0048988955 0.013869813 0.06508307
000210 85 78 ee 3c 29 c0 d7 3c 16 dd 8c 3d a4 6a 5b 3d
       0.029110203 0.026336746 0.06878106 0.053568497
000220 80 8f 48 3d 75 7b 0d 3d 8c 12 27 3d 3f b5 3e 3d
       0.048964977 0.034541566 0.040789172 0.04655957
000230 33 8c 0e 3d 44 d2 aa 3c 6e 69 5d 3d 14 09 4c 3d
       0.034801673 0.020852216 0.054055624 0.049813345
000240 f8 26 78 3d bb 73 34 3d 6d 83 8e 3d a5 e9 88 3c
       0.06058404 0.04405568 0.06958661 0.016712973
000250 0c 84 f8 3c fc fa 03 3c b7 07 5f 3d d8 ec 3b 3d
       0.030336402 0.008055445 0.054450717 0.04588017
000260 12 5d 1b 3d b8 83 b4 3c bc f2 de 3c a1 fc 85 3d
       0.037930556 0.022035465 0.027215354 0.06542326
000270 39 1b f9 3c 7a 53 71 3d e6 05 f6 3c 60 17 fc 3c
       0.030408489 0.0589175 0.03003211 0.030772865
000280 c3 26 d4 3c 42 50 77 3d 81 89 50 3d 33 a0 f7 bc
       0.02589739 0.060379274 0.050912384 -0.030227756
000290 50 2f 16 3c bb 68 c0 3c 86 d6 65 3a 99 d0 67 3b
       0.009166554 0.02348744 0.0008767623 0.0035372137
0002a0 01 ee 1c 3d 76 7c 53 3d 05 d1 a1 3d 8b bb 14 3d
       0.038312916 0.051632367 0.079011954 0.036311667
0002b0 5e a7 e0 3c 7d b4 20 3c 8d 14 4d 3d 0d 00 e6 3b
       0.027423557 0.009808657 0.050068427 0.007019049
0002c0 63 b0 6d 3b 6e 04 1d 3d 46 3c 31 3d c8 c8 02 bd
       0.0036268465 0.038334303 0.04327037 -0.03192976
0002d0 c9 f5 02 bd 16 a6 bc bc 0d f6 94 bc b1 37 a1 3b
       -0.03197268 -0.023028415 -0.018183732 0.004919969
0002e0 67 09 13 3d 03 af 89 bc 97 c0 07 bd 9a b8 c5 39
       0.03589764 -0.016807085 -0.033142652 0.00037712307
0002f0 6f 5f f0 bc b1 31 2d bb 3d b8 9b bc 0a bb 69 bc
       -0.029342381 -0.0026427323 -0.01900875 -0.014265785
000300 16 c4 06 bd 3a 8a d4 3c b7 9b 35 bc bb 78 61 bd
       -0.032901846 0.025944818 -0.011084489 -0.05504678
000310 63 00 0e bd 94 f8 f6 bc 7e 05 29 bd 39 f4 0b bc
       -0.034668338 -0.030147828 -0.041265003 -0.008542114
000320 a8 0b 10 bd 67 a7 e5 bc 73 80 be bd c5 1e 4e bd
       -0.035167366 -0.028033925 -0.093018435 -0.050322313
000330 f6 bf ff bc cd 4e c9 bc 5f 23 23 bc 37 da 9c bc
       -0.031219464 -0.024573708 -0.009957164 -0.019147022
000340 a1 08 88 3d 81 37 35 3d 39 45 85 3c c2 8e db 3d
       0.06642271 0.044242386 0.01626836 0.10720588
000350 8d 68 c5 3c 57 28 26 bd 60 da fe bb e6 c3 28 3d
       0.024097705 -0.040565815 -0.007777497 0.04120245
000360 a0 72 34 3c 5b 39 4b bd 2e 24 e5 bd 98 5b 0f 3c
       0.011013657 -0.049615245 -0.11188541 0.008749865
000370 20 25 74 bd 73 7c 05 bd 0d 68 bc 3c 99 64 cf 3d
       -0.059605718 -0.032589387 0.022998834 0.10126609
000380 cf 3d 93 3c 21 47 9f 3c c8 e6 08 3d 75 3b 60 bc
       0.017973809 0.019443097 0.033423215 -0.013686051
000390 43 eb 32 3c e7 fa 02 3d 8b b8 00 3d 4f 13 3f 3c
       0.010920349 0.03197756 0.031425994 0.011662318
0003a0 59 ae 5e 3d b5 1d a1 3d 8f b2 d1 3d fa dd 2f 3c
       0.05436549 0.07866994 0.102391355 0.010734076
0003b0 d0 db 70 3d 65 85 80 3d 9e 2f a4 3d 4b 17 09 bc
       0.05880338 0.06275443 0.08016895 -0.00836737
0003c0 67 1d 06 bc 6e 2b 9f bd d0 32 7d bd 04 4e 28 bc
       -0.008185721 -0.077719554 -0.061816037 -0.010272507
0003d0 d8 38 b8 bc 68 1a af bd 4f 11 56 bd 0b 2c 7d bd
       -0.022488043 -0.085499585 -0.0522626 -0.06180958
0003e0 81 27 6c bd ac 01 81 bd ac 96 11 bd 1d c0 e9 bc
       -0.05765486 -0.06299147 -0.035544083 -0.02853399
0003f0 18 ac 9c bb 5a 6e ad bd 33 ee 49 bb d2 7d 19 bd
       -0.0047812574 -0.084683135 -0.0030812144 -0.037473507

fc.bias f4 [2]
000000 cf c1 f6 3c 2d 40 b3 bc
       0.030121712 -0.021881187
