model/CNN/saved_models/split_grid/smallcnn4_fold5_pad9_patch50.pth (torch, 35659 bytes, 12 tensors)

conv1.weight f4 [32, 10, 3, 3]
0	0xbd7080ca	-0.058716573
1	0xbcea11ef	-0.028573005
2	0x3d64e52e	0.055882625
3	0xbb8bf7f0	-0.0042715
4	0xbdaf8b9c	-0.0857155
5	0x3d8ba48f	0.068184964
6	0xbd311036	-0.04322835
7	0xbd2632f8	-0.04057595
8	0x3d20795c	0.039178237
9	0xbe0b21ca	-0.13587108
10	0xbc3eca9b	-0.011644985
11	0xbb960d06	-0.0045791892
12	0xbd2a608e	-0.041595988
13	0xba260f06	-0.0006334636
14	0xbde2e2a6	-0.11078386
15	0xbdc1dafa	-0.094655946
16	0xbddad968	-0.10685998
17	0xbc61fd86	-0.013793355
18	0xbcd46269	-0.025925832
19	0x3ce49160	0.027901351
20	0x3c798d82	0.015231492
21	0x3d142de8	0.036176592
22	0xbd780246	-0.060549043
23	0xbcbe64d6	-0.023241442
24	0x3d834ac6	0.06410746
25	0x3bbe3f50	0.0058058873
26	0xbcc91727	-0.024547173
27	0x3dd592e2	0.10428406
28	0xbd31771b	-0.04332648
29	0x3dc7541c	0.097328395
30	0x3e0578eb	0.13034408
31	0x3e14ed5c	0.1454367
32	0x3dcde65a	0.10053702
33	0x3e199221	0.1499715
34	0x3d880f7a	0.06643577
35	0x3dcc69b7	0.09981101
36	0x3c46aeec	0.012126666
37	0x3db25566	0.08707695
38	0xbd3cf95d	-0.04613625
39	0x3c9b7c82	0.018980268
40	0x3d7b85fd	0.061407078
41	0x3cbebfd6	0.023284834
42	0xbc78beef	-0.015182241
43	0xbd5001f8	-0.050783128
44	0x3c8cb05a	0.017173935
45	0xbcd116c2	-0.025523547
46	0x3d91acd2	0.07113041
47	0x3be3ab92	0.006947943
48	0x3da1b367	0.078955464
49	0xbb7a7fef	-0.0038223227
50	0xbda6e827	-0.08149748
51	0x3d92c769	0.07166941
52	0x3bca733e	0.0061782887
53	0x3dc21fe5	0.0947874
54	0x3cc65fb8	0.024215564
55	0x3dacabf2	0.084312335
56	0x3d627e61	0.055296306
57	0xbda06a2b	-0.0783275
58	0x3d0d8b60	0.034556746
59	0x3cb9152f	0.022593109
60	0x3d837e6b	0.06420597
61	0x3d816de4	0.06319788
62	0xbcfb500c	-0.030677818
63	0x3d018560	0.031621337
64	0xbbdd1cbc	-0.00674781
65	0xbdb8df71	-0.09026993
66	0xbd393ff3	-0.045227002
67	0x3da3ead1	0.08003772
68	0x3d653238	0.055956095
69	0x3d806ef6	0.06271164
70	0xbdbda992	-0.092608586
71	0xbb09cbd6	-0.0021026037
72	0xbd8a5922	-0.06755282
73	0xbca40a64	-0.020024486
74	0xbbb7c5f2	-0.0056083137
75	0xbd46e416	-0.048557363
76	0xbdc507bb	-0.09620615
77	0xbd7c1e2f	-0.061552223
78	0xbda61c70	-0.08110893
79	0x3ca3571b	0.019938996
80	0xbd7ade44	-0.061247125
81	0xbdb0322e	-0.08603321
82	0xbdf2e069	-0.11859209
83	0xbd562538	-0.05228159
84	0x3ca8a7ee	0.020587888
85	0xbd085a6d	-0.03328936
86	0xbd5766f7	-0.05258843
87	0xbd59faa1	-0.053217534
88	0xbd906b49	-0.07051713
89	0xbc022bad	-0.007944983
90	0x3c7405cb	0.014893959
91	0xbd7bff88	-0.06152299
92	0xbc2fda1e	-0.0107331555
93	0xbcdf9e11	-0.027297052
94	0xbd453042	-0.048141725
95	0xbdf85393	-0.121253155
96	0x3c82095d	0.015873605
97	0x3d69307a	0.056930996
98	0xbce21aa0	-0.027600586
99	0xbc02ee3e	-0.007991372
100	0xbd8578e4	-0.06517199
101	0xbd315795	-0.043296415
102	0x3d6235c0	0.05522704
103	0x3d67dec0	0.056608915
104	0xbd3a465d	-0.04547726
105	0x3dbf47c6	0.093398616
106	0xbce8bd3d	-0.028410548
107	0x3b89f571	0.004210167
108	0x3e212ac3	0.15738969
109	0x3e03dbdc	0.12876838
110	0x3dc24f6e	0.09487806
111	0x3cd75292	0.02628449
112	0x3c756a38	0.014978938
113	0xbd16361e	-0.036672704
114	0x3c2fff7f	0.010742067
115	0x3cf98801	0.03046036
116	0x3c9cb3d9	0.019128727
117	0xbaec9d33	-0.001805222
118	0xbda9e5c0	-0.082957745
119	0x3d0650ea	0.03279201
120	0xbdc750a1	-0.097321756
121	0xbda278e2	-0.07933213
122	0xbc93ee55	-0.018057982
123	0xbd38a5f6	-0.045080148
124	0x3db1d060	0.086823225
125	0xbc0eca93	-0.00871529
126	0x3dc78eef	0.09744059
127	0x3dd3d347	0.10343032
128	0x3d98cd87	0.07461076
129	0xbc9130ed	-0.017723525
130	0xbd9ec268	-0.07751924
131	0xbdb8fcc1	-0.09032584
132	0xbdebabe5	-0.11507396
133	0x3da1686c	0.07881245
134	0x3c9f6fa2	0.01946241
135	0xb9980992	-0.0002899883
136	0x3d24e670	0.040258825
137	0xbd60c1a8	-0.054872185
138	0xbc3cf521	-0.011533053
139	0xbdacebb5	-0.08443395
140	0xbd943dd0	-0.07238352
141	0xbd8c206b	-0.06842121
142	0x3d738d88	0.059461147
143	0xbd6d764f	-0.057974156
144	0x3d9e708b	0.077363096
145	0x3d3407bb	0.043952685
146	0x3cf25d3c	0.029585473
147	0xbc36f256	-0.011166176
148	0xbbfa16d1	-0.0076321145
149	0xbe09c313	-0.13453321
150	0xbe073f17	-0.1320766
151	0xbcc40fd1	-0.023933323
152	0xbdfecbb6	-0.124411985
153	0x3cea447e	0.028597113
154	0x3e011d58	0.1260885
155	0x3dd2152f	0.10257947
156	0x3c93a767	0.01802416
157	0xbc1a0732	-0.00940113
158	0xbc7f813f	-0.0155947795
159	0x3c030cfc	0.007998701
160	0x3c88b9ce	0.016690161
161	0x3d81b776	0.063338205
162	0x3da4a44f	0.08039152
163	0x3d7c6662	0.061621077
164	0x3c99a81f	0.018756924
165	0x3db6c6b5	0.08924619
166	0x3d538e47	0.051649358
167	0x3dcbd90c	0.09953508
168	0xbd5eb93d	-0.054375876
169	0xbda08e3b	-0.07839628
170	0x3d6d22e7	0.057894614
171	0x3e0b42df	0.13599728
172	0x3d4717ef	0.04860681
173	0xbc0a3b2d	-0.00843696
174	0x3d548373	0.051883172
175	0x3d10d6ab	0.035360973
176	0xbd4feff8	-0.05076596
177	0xbd1654bf	-0.036701914
178	0x3d1b714b	0.03794984
179	0xbd9028ca	-0.0703903
180	0x3d2b0368	0.041751295
181	0xbc6fa9cf	-0.014627888
182	0xbd2a03e4	-0.041507617
183	0x3d7adafe	0.061244003
184	0xbd85383d	-0.06504867
185	0x3db21822	0.08696009
186	0x3d1337b1	0.035941783
187	0xbcf13c03	-0.029447561
188	0xbb181622	-0.0023206552
189	0x3cbabed6	0.022796076
190	0xbc8d8a1f	-0.017277775
191	0xbcca4471	-0.024690839
192	0xbd8df17a	-0.069308236
193	0x3c947907	0.018124117
194	0x3cb6baf0	0.022305936
195	0x3d808576	0.06275456
196	0x3d7debe4	0.06199254
197	0x3d7001df	0.058595534
198	0x3b848fbc	0.004045455
199	0xbd55e6a1	-0.052221898
200	0x3df4554e	0.11930333
201	0xbd38b57b	-0.04509495
202	0x3d53830c	0.051638648
203	0xbd12cfc5	-0.035842676
204	0x3dc154a5	0.09439973
205	0x3dd0137b	0.101599656
206	0xbb344357	-0.0027505958
207	0xbcdeecb8	-0.027212486
208	0xbd5b5c3d	-0.053554762
209	0x3d46c92f	0.048531707
210	0x3cb9cdd0	0.022681147
211	0x3ac2841a	0.0014840395
212	0xbdad4c13	-0.08461776
213	0x3d043891	0.03228051
214	0xbe20a033	-0.15686111
215	0xbda2d29d	-0.079503275
216	0xbdfe3bc9	-0.12413747
217	0x3d87903e	0.06619309
218	0xbca95c26	-0.020673823
219	0xbda78c05	-0.081810035
220	0x3d9b535f	0.07584261
221	0x3d843f0b	0.06457337
222	0xbd8e85f3	-0.069591425
223	0x3c03b050	0.008037642
224	0x3e0571f6	0.13031754
225	0x3d1bb584	0.038014904
226	0xbd39c192	-0.04535062
227	0x3d8267fd	0.063674904
228	0xbddab560	-0.10679126
229	0x3db63479	0.08896727
230	0xbd909d2c	-0.07061228
231	0x3d019547	0.031636503
232	0xbd37bda1	-0.04485858
233	0x3e0179e0	0.12644148
234	0x3c3c4c4a	0.011492798
235	0x3d5151d1	0.051103417
236	0xbd814192	-0.06311335
237	0xbd9bd230	-0.076084495
238	0x3c02b1e1	0.00797698
239	0xbc400fec	-0.011722546
240	0xbd3991f9	-0.045305226
241	0x3d3cfd63	0.046140086
242	0x3d5bb866	0.053642653
243	0xbc9fdffd	-0.019515986
244	0xbd852bb8	-0.06502479
245	0x3d82e076	0.06390469
246	0xbd574d3d	-0.052563895
247	0x3d8ad393	0.06778636
248	0x3e1022eb	0.1407582
249	0x3d91a99f	0.07112431
250	0x3e058f82	0.13043025
251	0x3db1b18e	0.08676444
252	0x3c16166b	0.009160618
253	0x3de1dc97	0.11028402
254	0x39bd09ae	0.000360561
255	0xbdce44b8	-0.10071701

conv1.bias f4 [32]
0	0xbddcdc65	-0.107842244
1	0xbdc32f2c	-0.09530482
2	0x3d1ac45f	0.03778493
3	0x3c18dd99	0.009330177
4	0xbd76e34d	-0.060275365
5	0x3d8b8eca	0.06814344
6	0xbd46f3df	-0.048572417
7	0xbd166584	-0.036717907
8	0xbd2d7cc8	-0.04235533
9	0x3c3c6d24	0.0115006305
10	0xbdb76ffb	-0.089569055
11	0x3d1d2fca	0.038375653
12	0xbdab3090	-0.08358872
13	0xbd5dad75	-0.0541205
14	0xbdc7808b	-0.097413145
15	0xbc65c40d	-0.014023793
16	0x3dc942a0	0.09827161
17	0xbd524722	-0.05133737
18	0xbd16ba43	-0.036798727
19	0x3d4f32be	0.0505855
20	0x3cdaf77b	0.026729336
21	0x3da2172c	0.07914576
22	0x3d4ea455	0.050449688
23	0x3da2730b	0.07932099
24	0x3d9a55c6	0.07535891
25	0xbc8a81b4	-0.01690755
26	0x3c32e103	0.010917905
27	0x3d8d0943	0.06886532
28	0x3d71e692	0.05905778
29	0xbdc9eadf	-0.09859251
30	0xbd56da05	-0.052454013
31	0x3d9518d9	0.0728013

bn1.weight f4 [32]
0	0x3f865df2	1.049742
1	0x3f825ed0	1.0185184
2	0x3f82aa56	1.0208232
3	0x3f85e39e	1.0460088
4	0x3f8176d0	1.0114384
5	0x3f857e8a	1.0429242
6	0x3f8ccc34	1.0999818
7	0x3f7f282c	0.9967067
8	0x3f830707	1.023652
9	0x3f814858	1.0100203
10	0x3f8ac41d	1.0841099
11	0x3f8129d5	1.0090891
12	0x3f846a94	1.0345025
13	0x3f82c639	1.0216743
14	0x3f817070	1.0112438
15	0x3f7af2ef	0.9802694
16	0x3f8464d1	1.0343267
17	0x3f87f61c	1.0621982
18	0x3f836f7c	1.0268397
19	0x3f84d073	1.0376114
20	0x3f81294b	1.0090727
21	0x3f81a539	1.0128547
22	0x3f7f7497	0.99787277
23	0x3f813326	1.0093734
24	0x3f837ad0	1.0271854
25	0x3f835e21	1.0263101
26	0x3f81c30f	1.0137652
27	0x3f861778	1.0475912
28	0x3f873098	1.0561705
29	0x3f812d99	1.009204
30	0x3f865c23	1.0496868
31	0x3f7b83be	0.982479

bn1.bias f4 [32]
0	0xbbb83909	-0.0056220335
1	0x3aa91fa8	0.0012903111
2	0xbb0f4d02	-0.0021865969
3	0x3cca8f46	0.024726521
4	0xbd01b40c	-0.031665847
5	0x3c472c06	0.012156492
6	0x3b20f83d	0.0024562024
7	0xbcf68d75	-0.030096749
8	0xbb9c2896	-0.0047655804
9	0xbc4a0508	-0.012330301
10	0x3cddcc89	0.027075069
11	0xbbf92250	-0.0076029673
12	0x3be1f260	0.0068953484
13	0x3c965d89	0.018355148
14	0xbc2543ca	-0.010086963
15	0xbd27e295	-0.04098757
16	0x3d105155	0.035233814
17	0x3c48aef4	0.012248743
18	0xbbf65346	-0.007517251
19	0xba3c1f2d	-0.00071762764
20	0x3ba7dbd5	0.0051226416
21	0xbc846cd7	-0.01616518
22	0xb8e8778b	-0.00011084889
23	0xbc284f87	-0.010272867
24	0xbcdae480	-0.026720285
25	0xbbbf6515	-0.0058409073
26	0xbb13c992	-0.0022550565
27	0xbd2fc111	-0.04290873
28	0xbca6ba8b	-0.020352622
29	0xbc47b5c4	-0.012189332
30	0x3cbddf0d	0.023177648
31	0xbc987ae5	-0.018613288

bn1.running_mean f4 [32]
0	0xbddcaa4d	-0.1077467
1	0xbdc38f53	-0.09548821
2	0x3d1de099	0.03854427
3	0x3c1d752f	0.009610458
4	0xbd777f16	-0.060423933
5	0x3d8b95a3	0.0681565
6	0xbd46753e	-0.048451655
7	0xbd1a7b2a	-0.037715115
8	0xbd2f1f2a	-0.04275433
9	0x3c2f589b	0.0107022775
10	0xbdb7c986	-0.089739844
11	0x3d1ca4bc	0.03824304
12	0xbdaa8e66	-0.083279416
13	0xbd602729	-0.054724846
14	0xbdc6655f	-0.09687304
15	0xbc618e16	-0.013766786
16	0x3dc7bef3	0.097532175
17	0xbd52ecc9	-0.051495347
18	0xbd19426b	-0.037416857
19	0x3d4f37ab	0.0505902
20	0x3cd791d1	0.026314648
21	0x3da13b24	0.07872608
22	0x3d4fa21b	0.050691705
23	0x3da3b71d	0.079939105
24	0x3d9aeec9	0.07565076
25	0xbc893e9b	-0.016753485
26	0x3c2fb438	0.01072412
27	0x3d8c6abe	0.06856297
28	0x3d73d305	0.059527416
29	0xbdcb0836	-0.099136755
30	0xbd58a21f	-0.052888986
31	0x3d916d71	0.071009524

bn1.running_var f4 [32]
0	0x3e066b76	0.1312693
1	0x3e880936	0.26569527
2	0x3f0a1c1a	0.5394913
3	0x3e835c0a	0.25656158
4	0x3e486c26	0.19572505
5	0x3d8f8877	0.070084505
6	0x3e93d145	0.28870597
7	0x3f18a505	0.596268
8	0x3e40bcf0	0.18822074
9	0x3ee17834	0.4403702
10	0x3e88b8d2	0.26703507
11	0x3e29b205	0.16571815
12	0x3e61e825	0.22061212
13	0x3f9c7570	1.2223339
14	0x3e9e0c71	0.30868867
15	0x3f0040ef	0.5009908
16	0x3de7eba9	0.113242455
17	0x3e27bea5	0.16381319
18	0x3e2da057	0.16955696
19	0x3e39d766	0.18148574
20	0x3ed6b8f4	0.41937983
21	0x3e550bd9	0.20805301
22	0x3ea8d552	0.3297525
23	0x3ea4a710	0.3215871
24	0x3dd417b6	0.10356085
25	0x3ddee725	0.10883931
26	0x3e72ce04	0.23711401
27	0x3e148cdd	0.1450686
28	0x3eb29969	0.34882668
29	0x3e58493c	0.21121687
30	0x3ddcc585	0.10779861
31	0x3ec97c0b	0.3935245

depthwise.weight f4 [32, 1, 3, 3]
0	0x3e899f57	0.2687938
1	0x3e86a06b	0.26294264
2	0x3d837377	0.064185075
3	0x3e928a37	0.28621075
4	0xbd5f43db	-0.05450807
5	0x3df931e0	0.12167716
6	0x3e0b4977	0.13602243
7	0x3e8a2721	0.26982978
8	0x3e1fbb18	0.15598714
9	0xbe8efe64	-0.2792846
10	0xbdbf2472	-0.09333123
11	0x3e34943a	0.17634669
12	0x3e824d57	0.2544963
13	0x3dc8fd30	0.09813917
14	0x3daf3fec	0.08557114
15	0x3e282e09	0.16423811
16	0x3e237fa8	0.15966666
17	0x3e9416de	0.28923696
18	0x3e2474da	0.160602
19	0x3e797792	0.24362019
20	0xbe95ddb0	-0.29270697
21	0xbe8439d6	-0.25825375
22	0xbe3f76cb	-0.1869766
23	0xbe4df6ef	-0.20113729
24	0x3dba5e7a	0.09100051
25	0x3c2ab2b3	0.010418582
26	0x3dbad307	0.091222815
27	0x3e320610	0.17385125
28	0xbe821722	-0.25408274
29	0xbea6165d	-0.32438937
30	0xbe25ceeb	-0.16192214
31	0x3d824ac0	0.06361914
32	0xbeb6d0e6	-0.35706252
33	0xbe408b1e	-0.18803069
34	0x3e0db24c	0.13837546
35	0x3e55aeea	0.20867506
36	0x3eadda59	0.3395565
37	0x3e55ccd3	0.20878915
38	0x3e0d028f	0.13770507
39	0x3e0b455f	0.13600682
40	0x3cc84f55	0.024451891
41	0x3e92ccef	0.28671977
42	0x3e90c951	0.28278592
43	0x3e10647d	0.14100833
44	0x3e2d3fd9	0.16918887
45	0xbded2115	-0.115785755
46	0xbea1a9c3	-0.3157483
47	0x3e02fb4c	0.12791175
48	0xbebcdad0	-0.3688569
49	0x3d1b6e42	0.037946947
50	0x3df443d5	0.119270004
51	0xbdaf1295	-0.08548466
52	0xbe9318ce	-0.28729862
53	0xbea56673	-0.32304725
54	0x3e30de57	0.17272316
55	0x3e4fdb74	0.20298558
56	0xbd57d769	-0.052695666
57	0x3e4b3e23	0.19847922
58	0x3dc4c051	0.09606994
59	0xbda3f77f	-0.080061905
60	0xbe863a61	-0.26216415
61	0xbe86b272	-0.26308018
62	0x3e41bfb4	0.18920785
63	0x3db87201	0.090061195
64	0x3e9035b3	0.2816597
65	0x3ea8cdc0	0.32969475
66	0xbe69a257	-0.22815834
67	0xbcbc3c1b	-0.02297788
68	0xbe15b7e7	-0.14620934
69	0xbe80fd2e	-0.2519316
70	0x3e708e75	0.23491843
71	0x3eab8288	0.33498025
72	0xbd8aee01	-0.06783677
73	0xbe6d27f5	-0.23159774
74	0xbe7b7000	-0.24554443
75	0xbeb438fe	-0.35199732
76	0x3c328051	0.010894851
77	0xbdfcbead	-0.12341056
78	0xbe3ab994	-0.18234855
79	0xbd863ebb	-0.06554934
80	0xbe72b5fe	-0.23702237
81	0x3e8bfbef	0.27340648
82	0x3e5d807e	0.21631047
83	0xbe878bc9	-0.26473835
84	0x3e90371b	0.28167042
85	0x3e6e94b2	0.2329891
86	0xbd16348b	-0.036671203
87	0xbd23479b	-0.03986321
88	0xbd8d67d4	-0.06904569
89	0xbe9f4938	-0.3111055
90	0xbec031aa	-0.3753789
91	0xbe058ed2	-0.13042763
92	0xbe1a802e	-0.15087959
93	0x3e52eab0	0.20597339
94	0xbd98ebf1	-0.07466877
95	0x3e582170	0.21106505
96	0x3d819dbf	0.06328916
97	0x3eab9e90	0.3351941
98	0xbd75757a	-0.059926488
99	0x3d38a0fb	0.045075398
100	0x3e73e279	0.23816861
101	0x3e7bba3d	0.24582763
102	0xbe1d7375	-0.15376075
103	0xbe84f57f	-0.2596855
104	0x3e941b55	0.28927103
105	0xbe21d4d7	-0.15803848
106	0xbe6950e8	-0.2278477
107	0x3ea96a54	0.33088934
108	0x3da27f71	0.07934464
109	0xbeaa26c0	-0.3323269
110	0x3e0a26fc	0.13491434
111	0xbde5c259	-0.112187095
112	0xbe649589	-0.22322668
113	0x3e7016f1	0.23446251
114	0xbe617be2	-0.22019914
115	0xbe17cee8	-0.14825022
116	0xbd8dc2d0	-0.06921923
117	0x3da4de78	0.08050245
118	0xbc42b112	-0.011883037
119	0x3e03f20c	0.12885302
120	0xbe624ed8	-0.22100389
121	0x3ebb37e5	0.36566082
122	0x3e6ebfa7	0.23315297
123	0xbdad4c55	-0.08461825
124	0x3e8a01cf	0.26954505
125	0xbd74186d	-0.059593607
126	0x3e6f29db	0.2335581
127	0xbe927615	-0.28605714
128	0xbe59e50e	-0.21278784
129	0xbdcf1d54	-0.10113016
130	0x3db07ea4	0.08617905
131	0xbe796939	-0.24356546
132	0x3e23f7d0	0.16012502
133	0xbe8ae4af	-0.27127597
134	0x3e732c76	0.23747429
135	0xbe7f695d	-0.24942537
136	0xbe9c7c39	-0.30563524
137	0xbe698949	-0.22806276
138	0x3c94d700	0.018168926
139	0x3e478c41	0.19487096
140	0xba9b5dbc	-0.0011853497
141	0x3e97d22b	0.29652533
142	0xbeb130a8	-0.34607434
143	0x3d4001ff	0.046876904
144	0xbe1b15a7	-0.15144978
145	0xbdf72e4f	-0.120693795
146	0xbe8cc585	-0.27494445
147	0xbe0800c1	-0.13281538
148	0xbe1ac577	-0.1511439
149	0x3e897d03	0.2685319
150	0xbea7e267	-0.3278992
151	0x3e9a6dc2	0.30161864
152	0x3ea094fb	0.31363663
153	0xbe9c6c02	-0.30551153
154	0x3dd982b5	0.106206335
155	0x3d80fd1f	0.06298279
156	0xbea98af1	-0.33113816
157	0xbe236e68	-0.15960085
158	0xbe0d4af3	-0.13798122
159	0xbe5fd297	-0.21857677
160	0xbce1ab1c	-0.027547412
161	0x3e42e276	0.190317
162	0xbd02c56f	-0.03192657
163	0x3e74c891	0.23904635
164	0x3e646df2	0.22307566
165	0x3e8131cc	0.25233305
166	0x3dcf5fb6	0.10125677
167	0xbd914f83	-0.07095244
168	0x3d62aad4	0.055338696
169	0x3e58f1df	0.21186016
170	0xbe9335e5	-0.28752056
171	0xbe1be561	-0.1522422
172	0xbe808462	-0.25101
173	0xbe99258e	-0.29911464
174	0x3d6dec4e	0.058086686
175	0xbe2c57cc	-0.16830367
176	0xbebc144d	-0.36734238
177	0xbe8483aa	-0.25881702
178	0xbe177cee	-0.1479375
179	0x3dbf78ba	0.09349199
180	0xbc1e299f	-0.009653478
181	0x3e2dca40	0.16971684
182	0xbe941320	-0.2892084
183	0xbe35080c	-0.17678851
184	0xbe3cfc6f	-0.18455671
185	0xbe0e59dd	-0.13901468
186	0xbe937b8b	-0.28805193
187	0xbe46d71b	-0.19417994
188	0xbe146984	-0.14493376
189	0x3e9723f4	0.29519618
190	0x3cc04a3b	0.023472896
191	0xbc9612be	-0.018319484
192	0x3c3982d4	0.011322696
193	0x3e80c5da	0.2515095
194	0x3dfe1c1b	0.124077044
195	0x3eb304d7	0.3496463
196	0xbd01cfb9	-0.03169224
197	0x3d9ead1d	0.077478625
198	0xbd942a70	-0.07234657
199	0xbe9ad937	-0.30243847
200	0x3d72e58b	0.05930094
201	0x3e732a43	0.2374659
202	0x3e012e98	0.1261543
203	0xbe5b3725	-0.21407755
204	0xbe76ad31	-0.24089505
205	0x3dbea4ac	0.093087524
206	0x3d7570c1	0.059921984
207	0x3e9133ca	0.28359824
208	0xbe8459ed	-0.25849858
209	0xbd4ddde4	-0.05026044
210	0xbbed0172	-0.0072328383
211	0xbe26bcb3	-0.1628292
212	0xbca51d3b	-0.02015554
213	0xbdc531c4	-0.09628633
214	0xbe209296	-0.15680918
215	0xbd679d80	-0.056546688
216	0x3eb8b4c3	0.3607541
217	0xbd2cee45	-0.04221942
218	0xbe075a57	-0.13218056
219	0xbe7b04f8	-0.24513614
220	0x3ea3c3d8	0.31985354
221	0x3e435ff7	0.19079576
222	0x3e74cb84	0.2390576
223	0xbe402cd5	-0.18767102
224	0x3e172ab6	0.14762387
225	0x3e2f1184	0.17096525
226	0xbe8b2e34	-0.27183688
227	0x3ddd1917	0.10795801
228	0x3e040167	0.1289116
229	0xbd666c80	-0.056255817
230	0x3de4bdeb	0.111690365
231	0xbe856685	-0.2605478
232	0x3eac4064	0.33642876
233	0x3e9a5bd0	0.30148172
234	0xbe841801	-0.25799564
235	0xbe97f22a	-0.29676944
236	0x3eaa0d31	0.3321319
237	0xbd48149d	-0.048847783
238	0x3e385da7	0.18004476
239	0x3e93ccd3	0.28867206
240	0x3e477c37	0.19480978
241	0x3e5cd106	0.21564111
242	0x3dd0f52b	0.10203012
243	0xbe8610ea	-0.2618478
244	0xbe27996c	-0.1636712
245	0xbe74f5f4	-0.23921949
246	0x3d4f890f	0.05066782
247	0x3ce0e2f4	0.02745197
248	0xbea4b4ec	-0.32169282
249	0xbe31fe21	-0.17382099
250	0xbdc1ed5b	-0.094691
251	0xbe9e8f36	-0.30968636
252	0xbc65db1e	-0.014029292
253	0x3eba76cb	0.36418757
254	0x3e54404b	0.20727651
255	0x3d5ee9ee	0.05442231

depthwise.bias f4 [32]
0	0xba0fdd49	-0.0005487991
1	0x3e97c63b	0.29643425
2	0x3d016e9f	0.031599637
3	0x3ea13894	0.31488478
4	0xbe9d53c7	-0.3072798
5	0xbe18c4f7	-0.14918886
6	0x3dc16647	0.09443336
7	0x3d855463	0.06510236
8	0xbd4ed651	-0.050497357
9	0xbdbc7a97	-0.0920307
10	0xbe2cdc7e	-0.16880986
11	0xbe8c7eef	-0.27440593
12	0xbd110c38	-0.035412043
13	0xbe1f6f28	-0.15569746
14	0xbd1bf743	-0.038077604
15	0xbdcc9f73	-0.0999135
16	0xbe325f28	-0.17419112
17	0x3dbc6237	0.091984205
18	0xbe884dd5	-0.2662188
19	0x3ca13d94	0.019682683
20	0x3d5a91f5	0.05336185
21	0x3d91d8f9	0.071214624
22	0xbe89cf58	-0.26916003
23	0xbcb46e82	-0.02202535
24	0x3c064651	0.008195476
25	0x3e16bc83	0.14720349
26	0x3e892b11	0.2679067
27	0x3e2b2213	0.16712217
28	0xbe8b8eb5	-0.27257314
29	0xbd96f54e	-0.07371007
30	0x3e4c7abe	0.19968697
31	0x3be052d1	0.00684581

pointwise.weight f4 [64, 32, 1, 1]
0	0x3cdf9cb4	0.027296402
1	0x3e366a09	0.17813887
2	0xbdf6ed45	-0.12056974
3	0xbe026568	-0.12733996
4	0xbc947113	-0.018120324
5	0xbe53dcb1	-0.20689656
6	0xbdaa95c1	-0.083293445
7	0x3e2daeb2	0.16961172
8	0xbe05c3d3	-0.13062982
9	0x3c81a768	0.015826896
10	0x3c0c3470	0.008557424
11	0x3da7686a	0.08174212
12	0xbe48df00	-0.19616318
13	0x3ceb46b7	0.028720243
14	0xbe303f5c	-0.1721167
15	0x3d1384bf	0.03601527
16	0x3e1fdbac	0.15611142
17	0xbc1fabe8	-0.0097455755
18	0xbdd6b357	-0.10483425
19	0x3d0e11d0	0.034684956
20	0xbd8e9820	-0.06962609
21	0x3d67a576	0.05655428
22	0xbe4385f5	-0.1909407
23	0x3dd87f1a	0.10571118
24	0x3e09ddeb	0.13463561
25	0x3e2874be	0.16450784
26	0xbce7e5f5	-0.028307894
27	0x3e407196	0.1879333
28	0x3dc6bbb8	0.09703773
29	0x3d666ab8	0.05625412
30	0xbc5c8aaa	-0.013460794
31	0x3ce471c8	0.027886286
32	0x3e3ce00a	0.18444839
33	0xbdac3f55	-0.08410517
34	0xbcec53bb	-0.02884852
35	0xbd88edfd	-0.06686018
36	0x3de14a90	0.1100055
37	0xbbd1e265	-0.006405162
38	0x3d04b003	0.03239442
39	0xbe00447f	-0.12526129
40	0x3d97ae47	0.07406288
41	0xbd305a80	-0.043055058
42	0x3e252c63	0.16130213
43	0x3e1a9f82	0.1509991
44	0xbc5fa100	-0.013649225
45	0xbe59b55c	-0.2126059
46	0xbdd7ac17	-0.105308704
47	0x3e157029	0.14593567
48	0x3e0429fd	0.12906642
49	0x3dccc59f	0.09998631
50	0x3cc47bba	0.023984779
51	0xbd8c500f	-0.068512075
52	0xbc9afe13	-0.01891998
53	0x3c50d17a	0.012745256
54	0x3e4499bf	0.19199274
55	0x3de202ad	0.110356666
56	0xbd9aaf28	-0.0755294
57	0x3ddf0759	0.10890073
58	0xbc17e90b	-0.00927187
59	0x3c1a8da3	0.009433183
60	0x3d2b2e14	0.04179199
61	0x3d06847c	0.03284119
62	0x3d8fe5f8	0.07026285
63	0x3c87fed2	0.016601
64	0xbe065131	-0.1311691
65	0x3e166859	0.14688243
66	0x3d46578f	0.048423346
67	0xbdb22642	-0.08698703
68	0xbdf1283a	-0.11775251
69	0x3c40cd8e	0.011767758
70	0xbcd1f039	-0.025627242
71	0x3e3ac6dd	0.18239923
72	0xba7c3d04	-0.0009622129
73	0x3d9bff66	0.07617073
74	0x3d9f519e	0.07779239
75	0xbe01a25c	-0.12659591
76	0xbc173d8b	-0.009230982
77	0xbd861b37	-0.065481596
78	0x3d534ef1	0.051588956
79	0xbe27db52	-0.16392258
80	0x3db527cc	0.08845481
81	0xbb84deaa	-0.004054864
82	0x3dac1ce8	0.08403951
83	0xbc4fa7d1	-0.012674288
84	0xbd8c5cbf	-0.068536274
85	0x3d93c589	0.07215411
86	0xbd6adae9	-0.057337675
87	0xbe167246	-0.1469203
88	0x3e19ff3f	0.15038775
89	0x3df5cfa7	0.12002497
90	0x3db9a2ad	0.09064231
91	0x3e0361e6	0.12830314
92	0xbd9cd1b7	-0.076571874
93	0x3e315ea3	0.17321257
94	0xbcd02804	-0.025409706
95	0x3e26c220	0.1628499
96	0xbdb517f0	-0.08842456
97	0x3b92d7bb	0.0044812835
98	0x3ddfb39a	0.10922928
99	0xbd608dbe	-0.054822676
100	0xbcac78a8	-0.021053627
101	0xbdb8b378	-0.09018606
102	0x3df751f0	0.12076175
103	0x3cb487f5	0.022037486
104	0xbcdb9465	-0.026804158
105	0xbe578c2f	-0.2104957
106	0xbe0eab9e	-0.13932654
107	0x3d5a3f2d	0.053282905
108	0xbdebd768	-0.11515695
109	0xbdc81bf9	-0.0977096
110	0xbd7d684d	-0.061867047
111	0xbe2a7140	-0.16644764
112	0x3e70b445	0.23506267
113	0x3e35aae6	0.17740974
114	0xbe22b860	-0.15890646
115	0x3d2923a5	0.04129376
116	0x3d3d3006	0.046188377
117	0xbd72ff73	-0.059325647
118	0x3d4e0f74	0.050307706
119	0x3df88fc0	0.12136793
120	0x3d96a749	0.07356126
121	0xbde71b55	-0.1128451
122	0x3e17df12	0.14831188
123	0xbd8fd9c8	-0.0702396
124	0x3daa56fc	0.08317372
125	0xbe34446a	-0.17604223
126	0x3dc5e378	0.09662527
127	0x3e2c7927	0.16843091
128	0x3d39ba55	0.045343716
129	0x3e0982eb	0.13428847
130	0xbd0a2223	-0.03372396
131	0xbdb3b0e9	-0.08773977
132	0x3d24726a	0.040148176
133	0x3e1d6bdb	0.15373175
134	0x3d70c259	0.058779094
135	0x3e188e35	0.14897998
136	0x3e0070d5	0.12543042
137	0x3e0b8dbb	0.13628285
138	0xbd74ff20	-0.05981362
139	0x3c8222d9	0.015885757
140	0x3e0946b6	0.1340588
141	0x3d18a613	0.037267756
142	0xbe3393bb	-0.17536823
143	0xbcf025d2	-0.02931491
144	0x3d934a3b	0.07191893
145	0x3e05f134	0.13080293
146	0xbc5d29f5	-0.013498773
147	0xbe317543	-0.17329888
148	0x3bc3b246	0.0059721796
149	0xbb237633	-0.0024942278
150	0x3e3fdc6b	0.18736427
151	0x39b75a25	0.00034971643
152	0x3d96d9bf	0.073657505
153	0xbe3709cb	-0.1787483
154	0x3cbddf85	0.023177871
155	0xbe11e380	-0.1424694
156	0x3e465cda	0.19371358
157	0xbd807178	-0.062716424
158	0x3e0971cb	0.13422315
159	0x3e2e7dbf	0.17040156
160	0x3c2bbb3e	0.010481654
161	0x3d62eef6	0.055403672
162	0x3e1c95c7	0.1529151
163	0xbc57d7e4	-0.013174031
164	0x3dffe84f	0.12495481
165	0x3e2e069c	0.16994709
166	0xbdbcfc39	-0.09227795
167	0x3deecfd4	0.11660734
168	0xbdd7c78c	-0.105361074
169	0x3dcc0907	0.09962659
170	0x3d63c808	0.055610687
171	0x3e8a17bf	0.26971242
172	0x3d1d5c26	0.038417958
173	0xbc3e000f	-0.011596694
174	0xbe0f2143	-0.13977532
175	0x3e1b16a5	0.15145357
176	0xbdab3110	-0.08358967
177	0xbcc47762	-0.023982707
178	0x3dcab964	0.09898642
179	0x3d37fafe	0.0449171
180	0x3da7f1e7	0.08200436
181	0xbdeaf506	-0.11472516
182	0x3e24f3d7	0.16108643
183	0xbe1176f4	-0.14205533
184	0x3e4bb7d0	0.19894338
185	0x3d29c799	0.041450117
186	0xbd218a9b	-0.039438825
187	0xbe474cec	-0.19462937
188	0x3e26eada	0.16300526
189	0x3e14109a	0.14459458
190	0xbe32bf6c	-0.17455834
191	0x3c044fa0	0.008075625
192	0xbe37aa43	-0.17936043
193	0xbd848339	-0.06470341
194	0xbe32dce7	-0.1746708
195	0xbe875270	-0.26430082
196	0xbe4085f5	-0.188011
197	0xbddcfc7d	-0.10790346
198	0x3c06790d	0.008207572
199	0x3d37ff8f	0.044921454
200	0x3a8ab80b	0.0010583414
201	0x3dcbbc4f	0.099480264
202	0xbc352d22	-0.011058124
203	0x3d24d250	0.040239632
204	0xbc7e51b3	-0.015522408
205	0x3e4ae706	0.19814691
206	0xbe0464b2	-0.12929037
207	0xbd889a10	-0.0667001
208	0xbd60b191	-0.05485684
209	0x3db38e4f	0.087673776
210	0x3c9745d2	0.01846591
211	0xbe41a3b1	-0.189101
212	0xbdf13079	-0.117768236
213	0x3dbf48a6	0.093400285
214	0x3dfb857a	0.12281318
215	0x3ca4c5a5	0.020113776
216	0xbdaeec59	-0.085411735
217	0x3df54052	0.11975159
218	0x3e016884	0.12637526
219	0x3c54beea	0.012984971
220	0xbe428b99	-0.18998565
221	0x3d958672	0.07301034
222	0x3e7b787a	0.24557677
223	0xbe1b3035	-0.15155108
224	0xbd484707	-0.048895862
225	0x3df732e5	0.12070254
226	0x3d85901b	0.065216266
227	0xbd765360	-0.060138106
228	0xbd2263bb	-0.03964589
229	0xbe169468	-0.1470505
230	0xbd8076f6	-0.0627269
231	0xbdcae572	-0.099070445
232	0xbdb58e6b	-0.08865055
233	0x3d0b0065	0.033935923
234	0xbc57b46d	-0.013165575
235	0xbdf54752	-0.11976494
236	0x3e0eb6ff	0.13936995
237	0x3dffc628	0.12488967
238	0x3dd26acb	0.102742754
239	0x3def18c3	0.11674645
240	0x3db5e1dd	0.088809706
241	0xbdf8464e	-0.121227846
242	0x3d985a23	0.07439067
243	0xbc1c1fbc	-0.00952905
244	0xbd9fc154	-0.07800546
245	0x3e0f058b	0.13966958
246	0xbe0325a8	-0.12807333
247	0xbd86c5fd	-0.06580732
248	0xbe2f9b3a	-0.17149058
249	0xbd89b214	-0.06723419
250	0x3d982a27	0.07429915
251	0xbcd4e234	-0.025986768
252	0x3df1a94f	0.11799871
253	0xbdee59dc	-0.11638233
254	0xbd8155bc	-0.06315181
255	0x3d87efd4	0.066375405

pointwise.bias f4 [64]
0	0xbdebf4ba	-0.11521287
1	0x3e100f4d	0.14068337
2	0x3bcfca2a	0.0063412385
3	0x3dde546c	0.10855946
4	0xbce3dbd5	-0.027814785
5	0xbdbe4751	-0.09290946
6	0xbd1f7206	-0.0389271
7	0x3e27a3fe	0.16371152
8	0x3de104e1	0.10987259
9	0xbd8834e7	-0.06650715
10	0xbd11817f	-0.035523888
11	0xbd68ee7a	-0.056868054
12	0x3e0dcb2b	0.13847034
13	0x3dafa6a1	0.08576704
14	0x3da7d813	0.0819551
15	0xbcb7f908	-0.022457615
16	0xbde46f16	-0.111540005
17	0x3cd793b0	0.02631554
18	0x3d8266b6	0.06367247
19	0x3c7c4a3e	0.01539856
20	0xbdff4eb3	-0.124661826
21	0xbd91b58e	-0.07114707
22	0xbdbbfd29	-0.09179146
23	0x3e16262f	0.14663003
24	0xbd2fbab0	-0.04290265
25	0xbe49a4f9	-0.19691838
26	0x3cc2261b	0.02369981
27	0x3d8de2b2	0.06928004
28	0x3dcb2626	0.099193856
29	0xbe19cfdd	-0.150207
30	0xbc23a8b7	-0.009988955
31	0xbe14f305	-0.1454583
32	0xbd9a9437	-0.07547801
33	0x3d54ad5d	0.051923145
34	0xbcaf5d49	-0.021406787
35	0x3de5bfc2	0.112182155
36	0x3ddaecb2	0.10689677
37	0x3e2e7f13	0.17040662
38	0x3d315d9e	0.04330217
39	0xbbecec37	-0.0072303074
40	0x3d7dbbae	0.061946563
41	0x3e1407b6	0.14456066
42	0xbdb63de4	-0.088985234
43	0xbda58a45	-0.080830134
44	0xbdcc33c3	-0.0997081
45	0x3ceefcc4	0.029173262
46	0x3d217696	0.039419733
47	0xbc8f7d9e	-0.017515954
48	0x3e223105	0.15839012
49	0x3dcfcda5	0.101466455
50	0xbe0a36a9	-0.13497414
51	0xbced9201	-0.029000284
52	0xbd4eb3cd	-0.05046444
53	0x3e1480e2	0.1450229
54	0xbd53692f	-0.051613983
55	0x3d9983b8	0.074958265
56	0x3e0600f3	0.130863
57	0x3e225a25	0.158547
58	0x3bafab45	0.005360993
59	0x3bb46cd0	0.0055061355
60	0xbca1f63a	-0.01977073
61	0x3d0fac99	0.03507671
62	0x3e130d07	0.14360438
63	0xbd9d8497	-0.07691305

fc.weight f4 [2, 1024]
0	0x3d8dd980	0.069262505
1	0x3d1640b6	0.036682807
2	0x3d8994cc	0.06717834
3	0x3d4c8ab6	0.049936973
4	0x3d7c79e8	0.061639696
5	0x3cdce49c	0.026964478
6	0x3ce60f2d	0.028083408
7	0x3d39994a	0.045312203
8	0x3d70e9c3	0.058816683
9	0x3b276fdf	0.0025548858
10	0x3cb6ea68	0.02232857
11	0x3a9877fe	0.001163244
12	0xbc2dbb19	-0.01060369
13	0x3d497491	0.049183432
14	0x3c60a588	0.013711341
15	0x3d2d44b9	0.042301867
16	0xbce6cf8c	-0.028175138
17	0x3d01ba3a	0.03167174
18	0xbd018d52	-0.031628914
19	0xbcf913e9	-0.030405002
20	0x3d04a56e	0.03238433
21	0xbd390dd0	-0.04517919
22	0xbd0f4693	-0.034979414
23	0xbcb4215b	-0.021988561
24	0x3ca6ebec	0.020376168
25	0xbd43558a	-0.047689
26	0xbd612e1e	-0.05497562
27	0xbcb8909c	-0.022529893
28	0xbc9377c8	-0.018001452
29	0xbc91ca23	-0.017796582
30	0x3c5a85c5	0.013337557
31	0xbd23371d	-0.039847482
32	0x3cefc5ef	0.029269187
33	0x3c34b21a	0.011028791
34	0x3caf3f31	0.021392437
35	0x3b2cb902	0.002635539
36	0x3d4d3e22	0.050108083
37	0x3d1d10c5	0.03834607
38	0x3c25a107	0.010109193
39	0x3b1afba9	0.0023648536
40	0x3c43e51f	0.011956482
41	0xbbf0c284	-0.007347407
42	0xbcf11517	-0.029429002
43	0xbcaf1de6	-0.021376561
44	0xbc94d2cc	-0.018166922
45	0xbb26788d	-0.0025401444
46	0xbcbbc766	-0.022922229
47	0x3d94a3fe	0.072578415
48	0xbd81b79f	-0.06333851
49	0x3bdd328e	0.0067504114
50	0xbc980729	-0.018558102
51	0xbd444b68	-0.047923476
52	0xbcbe5567	-0.023234082
53	0x3c053fd1	0.008132891
54	0xbd165411	-0.036701266
55	0xbc172dd2	-0.009227233
56	0xbba0ca6a	-0.004906942
57	0xbd52d94c	-0.05147676
58	0x3d419cee	0.0472688
59	0x3d0a023e	0.033693545
60	0xbd2388d0	-0.039925396
61	0x3d0fc6b8	0.035101622
62	0x3d07d3e1	0.033161048
63	0xbcfb799b	-0.030697634
64	0xbd8aa531	-0.06769789
65	0xbcfac8f3	-0.030613398
66	0xbd1d6a77	-0.03843161
67	0xbd654dd4	-0.055982426
68	0xbd4c646a	-0.04990045
69	0xbcd2cee7	-0.025733424
70	0xbd075123	-0.033036362
71	0xbce25612	-0.027628932
72	0xbd206d0d	-0.0391665
73	0xbb360fda	-0.0027780444
74	0xbd37874c	-0.044806764
75	0xbd37f902	-0.044915207
76	0xbcc9580a	-0.024578113
77	0xbd7fa06d	-0.062408853
78	0xbd66fd3a	-0.05639384
79	0xbd504af8	-0.050852746
80	0xbd1059c8	-0.035241872
81	0xbd5a7342	-0.053332575
82	0xbd99b57d	-0.07505319
83	0xbc7b297f	-0.015329718
84	0xbcb648f6	-0.022251587
85	0xbd1e17ec	-0.038597032
86	0xbcbbfc1c	-0.022947364
87	0xbd03e68e	-0.032202296
88	0xbd6b5507	-0.057454135
89	0xbd5be8ef	-0.05368894
90	0xbcfbc0fb	-0.030731669
91	0x3c7d9551	0.015477494
92	0xbd956f18	-0.0729658
93	0xbd8576c9	-0.06516797
94	0xbd766a94	-0.060160235
95	0xbd0e29bb	-0.034707766
96	0x3c0c3d3f	0.008559524
97	0x3db52396	0.08844678
98	0x3d608285	0.054811973
99	0x3ca82228	0.0205241
100	0x3d698b3d	0.057017554
101	0x3dd9f73e	0.10642861
102	0x3dcb94f1	0.09940518
103	0x3bdff6a2	0.006834821
104	0x3d91e70a	0.07124145
105	0x3d7cf71f	0.06175911
106	0xbca11901	-0.019665243
107	0x3c2a3bf4	0.0103902705
108	0x3cfcea2a	0.030873377
109	0xbbdcc48f	-0.006737299
110	0xbce28102	-0.027649406
111	0x3dc313ea	0.09525283
112	0x3cc90ce3	0.024542278
113	0x3c358461	0.011078925
114	0x3d4947cb	0.049140733
115	0x3d0d637e	0.03451871
116	0xbca70a2e	-0.020390596
117	0x3d5f2cc4	0.05448605
118	0x3d3d8ee0	0.046278834
119	0x3d119b42	0.035548456
120	0x3c392934	0.0113013275
121	0x3ce67c6a	0.028135497
122	0x3d15f8a0	0.03661406
123	0xbccaace9	-0.024740653
124	0x3d3c5a8e	0.045984797
125	0xbc2fee8e	-0.010738028
126	0x3c94f875	0.01818488
127	0x3d3f5168	0.046708494
128	0xbd85306e	-0.06503378
129	0xbdec4811	-0.11537183
130	0xbd61235d	-0.054965366
131	0xbd434dc9	-0.047681604
132	0xbd13255d	-0.035924304
133	0xbd677694	-0.05650957
134	0xbd967640	-0.07346773
135	0xbd8fe4f3	-0.070260905
136	0xbcdc90b6	-0.026924472
137	0xbdf4ef5e	-0.11959718
138	0xbd5ed5d5	-0.054403145
139	0xbd2718ec	-0.04079525
140	0xbc971f3a	-0.018447507
141	0xbd63b741	-0.055594686
142	0xbd261b2b	-0.040553253
143	0xbda6c6a8	-0.081433594
144	0x3ca09b20	0.01960522
145	0x3c9213a5	0.017831633
146	0x3cf259ce	0.029583838
147	0x3d17d7bf	0.037070986
148	0x3d16c893	0.036812376
149	0x3cba4624	0.022738524
150	0xbc0c9b0d	-0.008581889
151	0x3d1847ce	0.037177853
152	0x3c983d3a	0.018583883
153	0x3d337d19	0.043820474
154	0xbcbbb4c4	-0.022913344
155	0x3c994df0	0.018713921
156	0xbca21643	-0.019786006
157	0xbcefcf24	-0.029273577
158	0x3ca498e1	0.02009243
159	0xbb14fad8	-0.0022732522
160	0xbd60dc33	-0.0548975
161	0x3d043b21	0.032282952
162	0x3d8d6241	0.06903506
163	0x3d6391be	0.055558912
164	0x3d033866	0.032036208
165	0x3d808d7d	0.06276987
166	0x3c79f297	0.015255592
167	0xba967a00	-0.0011480451
168	0x3c366141	0.011131586
169	0x3c6c052e	0.014405532
170	0x3c7ba245	0.015358512
171	0x3cc81893	0.02442578
172	0x3c46227d	0.012093184
173	0x3ca83c0d	0.020536447
174	0xbc46432b	-0.012100975
175	0xbb3bd38c	-0.0028660027
176	0xbcc8bf16	-0.02450518
177	0xbc9db90a	-0.019253273
178	0xbca5450e	-0.02017453
179	0xbd461cd5	-0.04836734
180	0xbd08e7e9	-0.03342429
181	0xbdc03fdf	-0.093871824
182	0xbdaf1315	-0.085485615
183	0xbd12ff84	-0.03588821
184	0xbcf2408b	-0.029571792
185	0xbddf5dcc	-0.10906562
186	0xbd52e7de	-0.051490657
187	0xbb8f96c5	-0.004381987
188	0xbd7d8828	-0.061897427
189	0xbc8b428e	-0.01699951
190	0xbd84d291	-0.06485475
191	0xbd25f56e	-0.040517263
192	0x3d74ec1a	0.059795476
193	0x3bee3e53	0.007270613
194	0x3d51dc69	0.05123559
195	0x3d531c2b	0.051540535
196	0x3c52811d	0.012848166
197	0xbd085ecc	-0.03329353
198	0xbcc636d2	-0.024196062
199	0xbba3ab80	-0.0049948096
200	0xbb35872f	-0.0027698984
201	0xbc84070f	-0.016116647
202	0xbcc62789	-0.024188774
203	0xbaaa58e9	-0.0012996468
204	0xbc668d83	-0.014071825
205	0xbbe3153b	-0.006930021
206	0x3c67af70	0.014140949
207	0xbc5d3904	-0.013502363
208	0xbe0bbcec	-0.13646287
209	0xbdfdaca1	-0.12386442
210	0xbdda8a8a	-0.106709555
211	0xbd0c49b5	-0.03424998
212	0xbdd65de4	-0.10467127
213	0xbd3cbda4	-0.046079293
214	0xbda07c14	-0.07836166
215	0xbccc3e80	-0.024932146
216	0xbd9be961	-0.07612873
217	0xbd6c41af	-0.05767983
218	0xbd52e33b	-0.051486235
219	0xbd0cee93	-0.03440721
220	0xbb44bd33	-0.0030019998
221	0xbd973ce7	-0.07384663
222	0xbd542e74	-0.051802114
223	0xbd2172d1	-0.039416138
224	0xbc90737a	-0.017633189
225	0xbc84d777	-0.016216023
226	0x3c5381e5	0.012909387
227	0x3bec0c64	0.0072036255
228	0xbc1551d4	-0.009113748
229	0x3ba77e5c	0.0051114988
230	0x3d1c7bb6	0.038203917
231	0x3c9d202f	0.019180385
232	0x3d4bafcd	0.049728204
233	0x3d3f8cc7	0.046765115
234	0x3c7a20fc	0.015266653
235	0x3a84e374	0.0010138587
236	0xbc081339	-0.008305364
237	0x3d0109f8	0.031503648
238	0xbbc8b5ef	-0.006125204
239	0x3d210516	0.03931149
240	0xbdd3b6ba	-0.10337587
241	0xbdb36136	-0.08758776
242	0xbdcabb62	-0.09899022
243	0xbd8f1257	-0.0698592
244	0xbd4872eb	-0.04893772
245	0xbe033fc7	-0.12817298
246	0xbe027763	-0.12740855
247	0xbd56c96a	-0.052438177
248	0xbda239f5	-0.07921211
249	0xbd9f143f	-0.077675335
250	0xbd985f4b	-0.07440051
251	0xbc89f5fe	-0.016840931
252	0xbd200c67	-0.039074328
253	0xbcffd95b	-0.031231573
254	0xbcbc45a5	-0.022982428
255	0xbdb17b3b	-0.086660825

fc.bias f4 [2]
0	0x3d01b999	0.03167114
1	0xbbbb3fe6	-0.0057144044
