model/CNN/saved_models/split_grid/smallcnn4_fold3_pad9_patch50.pth (torch, 35659 bytes, 12 tensors)

conv1.weight f4 [32, 10, 3, 3]
000000 36 a4 ff 3c f4 72 aa 3b 3d a7 81 3c 35 0b a8 bb
       0.031206232 0.0052016918 0.015826816 -0.005128289
000010 9c e4 58 3d 99 cc e6 bc 5a 6d cb 3c 8a 17 a8 3d
       0.052952394 -0.028173732 0.024832416 0.08207615
000020 67 fb 9a 3d c5 43 03 bd 0b 2c 97 bd 21 9c 1a 3d
       0.075674824 -0.032047052 -0.073814474 0.037746552
000030 0c 7b 8f bd c4 ba c3 3d 4e fc c9 3b 21 6a 0a bd
       -0.07005891 0.09557107 0.0061641103 -0.03379262
000040 c9 62 8f ba 0d 28 43 bd ef 7c aa bd f5 02 0d bc
       -0.0010939474 -0.047645617 -0.083246104 -0.008606662
000050 1c 15 fc bd ae c6 94 bd 8b 39 44 3d 11 1b 6c 3d
       -0.12308714 -0.07264458 0.04790644 0.057643
000060 62 e0 ec bc bd 19 8e bd a1 0a 33 bd 10 35 c4 bd
       -0.028915588 -0.06938503 -0.04371131 -0.09580433
000070 5a 23 3a bd 9f 10 0d bd 3d c4 d7 3c 11 df 55 bd
       -0.04544387 -0.03443968 0.02633869 -0.052214686
000080 3b 04 48 bd 64 24 1f be 77 b3 17 be 99 6f 1b be
       -0.04883216 -0.15541226 -0.14814554 -0.1517929
000090 1b ad 1e 3d e4 ce d7 bc 17 52 89 3d 3c 67 a8 3d
       0.038739305 -0.02634377 0.067051105 0.082228154
0000a0 89 8a f6 3c ab d7 6e bd 81 7c d4 3c 7f 88 22 3d
       0.030095356 -0.058311146 0.025938274 0.039680954
0000b0 11 1d b8 3d d3 b0 73 bd f1 1e ea 3d bf f9 34 3d
       0.08989919 -0.059494805 0.11431683 0.04418349
0000c0 9c 8f 1b bd ea 57 0a 3d 2e e6 b5 3d 82 80 6e 3c
       -0.037978753 0.033775248 0.08881794 0.014557006
0000d0 32 9a 89 bd f7 be d8 bd 58 65 18 bd fd 67 4f bd
       -0.067188635 -0.10583299 -0.037206024 -0.05063628
0000e0 0b 24 9d bd 23 bb b7 3d e2 f8 8d bd 9d e7 89 bd
       -0.0767289 0.0897124 -0.06932236 -0.0673363
0000f0 73 db 83 3d 45 68 aa bd fd 7b a5 3c f3 7d 08 be
       0.06438341 -0.08320669 0.020200724 -0.13329296
000100 68 94 f2 bd cd 77 af bd 5a d2 a1 bb 74 ed b3 3d
       -0.118447125 -0.08567772 -0.004938406 0.08785525
000110 be 76 c4 3c f0 7c ca bc 18 55 75 3c c0 46 94 bb
       0.023982402 -0.024717778 0.014973901 -0.0045250356
000120 eb 3d b3 bd d8 2d 63 3d b9 8b 5d bc 7b 23 04 3e
       -0.08752044 0.055463642 -0.013522082 0.1290416
000130 4f 69 8f 3d d9 53 80 3d aa 35 51 3c a1 8d b6 3d
       0.07002508 0.06265993 0.012769142 0.08913732
000140 30 d4 77 bd 68 ac 7c bd 03 fd 11 bc a6 1e 30 bb
       -0.060505092 -0.061687857 -0.00891042 -0.0026873737
000150 15 33 f7 3c c7 f1 92 bc 8e a3 83 3d 2e 20 93 3d
       0.030175725 -0.017937554 0.0642768 0.07183872
000160 e7 a5 d1 bb 88 b1 1f 3d 34 8a ec bc dc e7 da 3d
       -0.006397951 0.038987666 -0.028874494 0.10688755
000170 23 ae 76 3d 72 bc d6 3d 58 f5 34 bd a8 ef d7 3c
       0.060224663 0.10485162 -0.04417929 0.026359394
000180 b4 55 3f 3d 86 53 81 3d 70 05 01 3e 39 b4 52 39
       0.046712592 0.06314759 0.1259973 0.00020094299
000190 bb 08 79 bd b2 76 32 3d e3 6e f9 bb a7 94 eb 3b
       -0.06079934 0.043570228 -0.0076120957 0.0071893516
0001a0 ec 80 68 bd 7e 09 66 3d fe 2d b1 bc 29 52 67 bc
       -0.056763574 0.056161396 -0.021628376 -0.01411871
0001b0 ba c5 7c bb a3 44 d2 3d c9 58 e7 3d 3d 1b ac 3d
       -0.0038570003 0.10266998 0.11296231 0.08403633
0001c0 b1 79 25 bd 7c a5 e6 3c 5e ee 2e bc ee 52 fd 3c
       -0.040399257 0.028155081 -0.010676948 0.030923333
0001d0 3f 85 c6 3d 00 4a 9d 3d ef 17 24 bd e2 f9 77 3d
       0.096933834 0.0768013 -0.040061887 0.06054104
0001e0 97 c6 2b bd ec b9 08 be f9 cd f2 3d 84 a9 9b 3d
       -0.041937437 -0.13352174 0.118556924 0.07600692
0001f0 54 1d a3 bd d8 5c e7 bb 29 55 3b bd be 84 8c 3d
       -0.07964578 -0.0070606284 -0.045735512 0.06861256
000200 a0 58 78 3d eb 55 a2 bc 6b cf 8b 3d f8 28 eb bd
       0.060631394 -0.01981636 0.06826671 -0.114824235
000210 f4 15 fc bc c2 b5 de bb de fa fc bd f6 a3 cc bd
       -0.030772187 -0.0067965696 -0.123525366 -0.099922106
000220 71 e2 9b 3b 3e 99 82 3d 61 d4 af bd 50 88 a1 bc
       0.0047572185 0.06376885 -0.0858543 -0.01971832
000230 b8 af 85 bd cb 2c a5 bd 8e d4 87 bd ee 8a 85 3b
       -0.06527656 -0.08065184 -0.066323385 0.0040753996
000240 67 a6 a3 3c a0 cd eb 3d ab fc 1b bc d9 32 11 3b
       0.019976808 0.11513829 -0.00952069 0.0022155552
000250 38 95 55 3d e3 47 a0 bd 49 c8 04 3d 7c b9 1a bd
       0.05214426 -0.07826211 0.03241757 -0.037774548
000260 34 b3 56 3b 4c 20 32 3d 9a e0 72 3d 30 8f 1e 3d
       0.0032760622 0.043487832 0.059296228 0.038710773
000270 cd f3 dc 3d b0 47 81 3d 66 b7 0c 3e b3 2d d1 3d
       0.10788689 0.063125014 0.13741836 0.102137946
000280 82 48 b8 3c 92 24 e5 3c 25 8d 1d 3b 4c 2a 3f 3c
       0.022495512 0.02797154 0.0024040428 0.011667799
000290 ab bb 06 bd 1c 5c c9 bc 8b 4e 65 bd bd 45 1e bd
       -0.032893818 -0.024580054 -0.055983108 -0.038640726
0002a0 2f 0e 3d bd 4e e6 ba 3d 7f 3c c2 bc 27 30 10 3d
       -0.046156105 0.091259584 -0.023710487 0.03520217
0002b0 9c 0c 04 3e de d2 99 bc 39 e3 c0 3d 2f 7f 99 bd
       0.12895435 -0.018777307 0.09418339 -0.074949615
0002c0 0c 65 73 3d 44 52 e1 bc 19 05 bb 3d a3 89 23 be
       0.059422538 -0.027505048 0.09131832 -0.15970473
0002d0 d0 24 dc bd 5e ff 9a bd 40 45 dd bd dc cc a6 bd
       -0.10749209 -0.07568239 -0.10804224 -0.081445426
0002e0 e8 46 91 bd d3 52 e6 bd ec 9f ee bd 9c 68 bb bd
       -0.070936024 -0.11246266 -0.116515964 -0.09150812
0002f0 c9 2c b9 3c 29 3b 62 bd d0 11 21 bc 23 9a af 3d
       0.022604363 -0.0552322 -0.009830907 0.08574321
000300 55 92 aa 3d af 96 4b 3c 2a 7f 9a 3d dc cc ad 3d
       0.08328692 0.0124260625 0.07543786 0.084863394
000310 80 8e 89 bd 75 79 1e bd ce 9b 14 3d 9b 73 a3 3d
       -0.06716633 -0.03869005 0.0362814 0.07981034
000320 6d 84 8e 3b db f3 8d 3c 12 01 4f 3c e6 1c 41 3d
       0.0043492825 0.017328193 0.0126345325 0.0471467
000330 13 33 a3 3d 82 c5 c7 bd 39 cc d6 bc 34 56 a0 bd
       0.07968726 -0.097544685 -0.026220428 -0.07828942
000340 99 93 ed 3b 80 42 83 3a 30 b7 e0 bc 18 f0 9b bc
       0.007250261 0.0010014325 -0.0274311 -0.019035384
000350 b6 ba ec bc 72 19 59 3d 86 3f b9 3c b3 bb fb 3d
       -0.028897624 0.053002782 0.022613298 0.1229166
000360 a6 f3 48 3d b7 65 5d 3d 2c 6b 49 3c a9 74 44 3c
       0.049060486 0.05405208 0.012293618 0.011990705
000370 16 6a ae 3d d8 ed 07 bd 50 7c 85 bd 25 b6 ca 3d
       0.08516328 -0.03318581 -0.06517851 0.098980226
000380 c0 73 b5 bc 80 36 b7 3d fb 5b 46 bc f5 4d 63 3c
       -0.02214992 0.08945942 -0.012106891 0.013873567
000390 ff 64 95 3d 2a 9d 11 3d 63 97 7e bd 27 8b 0c bb
       0.07294654 0.035550274 -0.062156092 -0.0021445246
0003a0 0a 8c e6 3d 97 a7 f0 bc f7 60 39 bd 5d e5 d0 3c
       0.11257179 -0.029376788 -0.04525849 0.025499994
0003b0 3f 3e e0 bc 39 41 b7 bc a8 90 fb 3d c3 01 fd 3b
       -0.027373431 -0.022369968 0.1228345 0.0077211573
0003c0 20 98 fd 3c bf 3d ec 3d 57 1d 53 3d 99 05 05 bd
       0.030956328 0.11535215 0.051541653 -0.03247604
0003d0 4b de 36 bc fc a1 44 3d 41 b9 a0 bd 8a 48 78 bd
       -0.011161397 0.048006043 -0.078478344 -0.060616054
0003e0 5a 4b 92 3d 8e fb 88 3c de 5b b7 bc 71 62 fb 3b
       0.071432784 0.016721513 -0.022382673 0.0076716472
0003f0 9f ab 10 3d 29 24 05 bd 31 b2 66 3d 0c 23 fc 3b
       0.03531992 -0.032505188 0.05632228 0.0076946076

conv1.bias f4 [32]
000000 55 3b b4 3d 72 a1 67 3d 18 ec 04 bd e8 34 64 bb
       0.08800379 0.05655045 -0.03245172 -0.0034821574
000010 b4 58 8f 3d b7 be bd bd 2a 3c 32 bc 30 51 74 3c
       0.06999341 -0.092648916 -0.010878602 0.014911935
000020 94 e5 09 39 31 d5 61 3c e4 c4 d4 bc 3d 11 25 bd
       0.00013150863 0.013783739 -0.025972791 -0.040299643
000030 c9 bb c6 3d 30 a2 d9 bc 71 0b 0e 3c f5 76 89 bd
       0.09703786 -0.026566595 0.00866972 -0.067121424
000040 b0 97 63 bc e9 fb 33 bd d6 9d c7 bd 5f dd 9b bc
       -0.013891146 -0.043941412 -0.09746902 -0.019026456
000050 04 53 8a bb b5 cc 12 bc 3b 8d 48 bd f0 1b a6 3d
       -0.004221322 -0.008959939 -0.048962813 0.081107974
000060 b3 c6 93 bd 40 78 61 bb b0 94 a6 bd 44 9d 86 3d
       -0.07215633 -0.003440395 -0.08133829 0.06572965
000070 01 cf e8 bd 92 cd 81 3d 76 40 ab bd 83 9c 52 bd
       -0.11367608 0.063380376 -0.08361904 -0.051418792

bn1.weight f4 [32]
000000 48 fc 83 3f b2 c9 84 3f ac 61 82 3f 1e 9c 87 3f
       1.0311365 1.0374053 1.0186057 1.0594518
000010 7a cd 86 3f 17 15 82 3f 44 92 81 3f cf 2e 85 3f
       1.0531456 1.0162686 1.0122762 1.040491
000020 c5 b5 82 3f a7 fd 84 3f 8f 9d 86 3f 75 92 7d 3f
       1.0211722 1.0389909 1.0516833 0.990516
000030 e0 76 84 3f 76 16 85 3f dc b9 80 3f c9 9d 8a 3f
       1.0348778 1.039748 1.005672 1.0829402
000040 45 d6 87 3f 69 b2 83 3f 30 19 84 3f 67 9e 82 3f
       1.0612265 1.0288821 1.0320187 1.020459
000050 e2 60 84 3f da ab 6e 3f 70 4c 86 3f c4 b5 80 3f
       1.0342066 0.93230975 1.0492077 1.005547
000060 64 54 7d 3f 30 94 83 3f a5 e6 84 3f 22 6b 82 3f
       0.98956895 1.0279598 1.0382887 1.0188944
000070 51 b0 85 3f 30 75 8c 3f 74 a5 87 3f 6e f8 89 3f
       1.0444432 1.0973263 1.0597367 1.077894

bn1.bias f4 [32]
000000 00 8a ba 3b 64 4f 2e 3c 63 2c 9a 39 de ac bc bc
       0.0056927204 0.010639045 0.0002940624 -0.023031648
000010 89 65 5d 3c 6a 24 dd bb d4 b5 e3 bb 29 23 e2 3a
       0.013512977 -0.0067487257 -0.006949166 0.001725291
000020 a2 0e 82 ba 0e 8e 0e 3c e1 da 95 bc d7 dd 18 bc
       -0.0009922574 0.008700861 -0.018292846 -0.0093302345
000030 bb 7c aa bc 9e 1b 8f bc ed 13 7b bc 68 03 82 3c
       -0.02081143 -0.017469224 -0.015324575 0.015870765
000040 c0 cc 7c bb 5b 22 8c bb fe 10 a9 bc 00 13 93 bc
       -0.003857419 -0.0042765564 -0.020637985 -0.017953396
000050 54 cc 54 3c 25 fb d5 bb 12 a8 f9 3c a4 c0 d9 bb
       0.012988169 -0.006530183 0.03047565 -0.006645279
000060 25 91 82 bc 0a 27 d1 bb 26 a8 6b ba c1 d5 6a 3b
       -0.01593835 -0.0063828276 -0.00089895946 0.0035832974
000070 d4 a0 ca bc 7a 08 cb 3c 7a 75 a0 3a 9c 59 05 3d
       -0.024734892 0.024784315 0.0012242042 0.03255616

bn1.running_mean f4 [32]
000000 7a 75 b4 3d 7e c6 63 3d 00 be 02 bd 9b b9 50 bb
       0.088114694 0.05560922 -0.03191948 -0.003184891
000010 18 c1 8f 3d 15 08 bf bd d3 08 2a bc da ec 83 3c
       0.070192516 -0.093277134 -0.01037808 0.01610415
000020 24 23 fd b9 51 63 64 3c 0b 54 d2 bc 27 5d 25 bd
       -0.00048282102 0.0139396945 -0.02567484 -0.04037204
000030 d3 4e c8 3d 2a 4c d7 bc 16 71 15 3c 4a 79 89 bd
       0.097806595 -0.026281435 0.0091212 -0.06712587
000040 5e 9e 5f bc 8c ab 33 bd 7e 92 c7 bd 95 d1 97 bc
       -0.0136485975 -0.04386477 -0.09744738 -0.018532554
000050 2f 66 a6 bb 75 4a e1 bb 38 89 47 bd ce 9a a5 3d
       -0.005078099 -0.006875331 -0.048714846 0.08086167
000060 d9 21 93 bd 14 81 84 bb 60 95 a7 bd 4c 8c 85 3d
       -0.0718419 -0.0040437076 -0.08182788 0.065209
000070 66 69 e9 bd 26 35 82 3d fd 81 aa bd f3 db 54 bd
       -0.11397056 0.063577935 -0.083255745 -0.051967572

bn1.running_var f4 [32]
000000 28 38 3b 3e 50 07 82 3e b5 73 c8 3e c9 ec 07 3e
       0.1828314 0.25396204 0.39150777 0.1327392
000010 a2 b0 a0 3e 3b 41 ee 3e 24 a8 53 3e 22 20 e0 3e
       0.3138476 0.46534142 0.2066961 0.43774515
000020 21 b8 93 3e 4c f6 f3 3e 5e 7f db 3d 1f 3d 65 3e
       0.28851417 0.47648847 0.10717653 0.22386597
000030 1f d6 da 3d c1 8a 22 3e ef 79 22 3f c9 5b 82 3e
       0.106853716 0.15873243 0.63467306 0.25460652
000040 a7 79 1f 3e e0 92 4b 3e ef fe 27 3e a7 ed 9b 3e
       0.1557375 0.19880247 0.16405843 0.30454752
000050 8b 3a 7c 3e ae c5 0d 3f 92 62 55 3f 6f 54 2a 3e
       0.24631707 0.5537976 0.8335353 0.16633771
000060 19 11 6a 3e f3 ce cd 3d f4 dc c4 3e 57 d6 57 3e
       0.22858085 0.10049238 0.38449824 0.21077858
000070 45 cf f7 3d 45 b5 a0 3e 6c d6 df 3d 66 90 96 3e
       0.121000804 0.31388298 0.109295696 0.29407042

depthwise.weight f4 [32, 1, 3, 3]
000000 b0 7d cb bd 47 5e 83 3e 43 0d b2 be a5 39 66 be
       -0.09936082 0.25657865 -0.34775743 -0.22482927
000010 3e f1 b6 bd 5c 0c 9d 3d f4 f9 9f be 08 84 28 bd
       -0.08932732 0.07668373 -0.31245387 -0.04114154
000020 c9 05 8c be 7a 82 84 3e 3b 0e 8d 3e cd 36 87 be
       -0.27348164 0.25880796 0.2754992 -0.26408997
000030 31 11 eb 3d dc 9f 98 3e 43 93 8a ba 73 48 ba 3e
       0.114778884 0.29809463 -0.0010572452 0.363834
000040 aa 6e 9a 3e 25 b8 36 3e b5 5f bd bd 65 76 27 3e
       0.30162555 0.17843683 -0.0924677 0.16353758
000050 de 80 a4 be e1 93 90 be 11 3c c6 3d 69 c2 d5 3d
       -0.32129568 -0.28237823 0.096794255 0.104374714
000060 cb 11 a1 be 10 ee b5 be da dc a2 be 1c 45 29 3e
       -0.31458887 -0.3553319 -0.3180912 0.1653027
000070 62 9b 1f 3e a0 c6 d4 bd 4e 4c 08 bd f1 eb 7a 3e
       0.15586618 -0.10389447 -0.033275895 0.24504067
000080 6f fd 08 3d 7e 10 cb bd 80 0a af 3e 9e 44 5d 3d
       0.033444818 -0.09915255 0.34187698 0.054020517
000090 1c e4 16 be 18 28 37 3e a8 fe 71 3e 47 2f e2 3d
       -0.14735454 0.17886388 0.236323 0.11044174
0000a0 59 68 80 3e b7 84 16 be d2 de a2 3d 38 2b 45 3d
       0.2507961 -0.14699064 0.07952656 0.04813692
0000b0 f9 64 01 3d 0c 78 d5 3d 9f ba 86 3e e5 4b 3b 3d
       0.031590436 0.10423288 0.26314256 0.045726676
0000c0 a8 d4 3f be 5e af 77 3e 81 ef 8d 3e 60 36 7a 3e
       -0.18733466 0.24187991 0.2772179 0.24434805
0000d0 8b 7c a8 3d 09 cb ac 3e fa e0 61 3e c3 f2 75 3a
       0.0822688 0.33748654 0.22058478 0.00093821826
0000e0 23 b7 82 be 87 8b 95 bd ac f2 1b be c0 61 a8 3c
       -0.25530347 -0.07302003 -0.1522929 0.020554423
0000f0 ed a4 6e be 1a 76 b1 bd a0 6e 57 be 77 47 ba 3d
       -0.23305102 -0.08665104 -0.21038294 0.09095662
000100 27 6a 33 3e 6e ab ed 3d 7b 66 0c 3d c5 b9 0b 3e
       0.17520963 0.11604963 0.03427742 0.13645084
000110 2b f3 41 3e 39 61 67 3e 6f 9b 76 3e c5 0c 96 3d
       0.18940417 0.22595681 0.2408273 0.07326654
000120 72 83 56 be 23 ca a5 be 00 f0 62 be 7f 6a 69 bd
       -0.2094858 -0.3238078 -0.22161865 -0.05698633
000130 fe 0c 27 3e 61 1e 93 3c 10 0e 05 3e 86 42 7d be
       0.1631355 0.017958822 0.12993646 -0.24732408
000140 b3 7b 1f 3e 39 1f aa 3e 6b 51 27 be 76 26 bb 3e
       0.15574531 0.33226946 -0.16339652 0.3655278
000150 92 f3 79 3e b6 39 84 3e 0c 55 47 be c1 7f 36 bd
       0.24409321 0.2582528 -0.19466037 -0.04455543
000160 1b 00 89 be d5 79 8a 3e f6 a5 da 3d e8 c4 0f be
       -0.26757893 0.27046075 0.10676186 -0.14039958
000170 7b 19 9e 3e 9e 43 a9 3e ec b3 c2 bc b1 f2 9d 3c
       0.30878815 0.330594 -0.023767434 0.019280763
000180 a7 1e 7a 3e 69 b9 d7 bd 29 cd 6f be f6 75 98 bc
       0.24425755 -0.10533411 -0.23418106 -0.018610936
000190 71 d0 6c be b9 c3 7b bd 8e ea 71 bd a6 38 07 3c
       -0.23126389 -0.061465953 -0.05906158 0.008253252
0001a0 3d 1e 9e 3e 54 12 82 bd bb f4 69 be 17 7b 60 bd
       0.30882445 -0.06351152 -0.22847264 -0.054804888
0001b0 3d 6b c1 3d 0e 7e d3 bd a2 9b 68 bd 4a 97 3b be
       0.09444282 -0.103267774 -0.056789048 -0.18319431
0001c0 bb 21 06 be 97 3d b0 be ff 75 ea bc 0d b3 a5 be
       -0.13098805 -0.3442199 -0.028620718 -0.32363167
0001d0 b6 38 af 3c 35 ee 0b be fd 9c 0d bd 4f 98 97 be
       0.021389347 -0.13665088 -0.034573544 -0.2960839
0001e0 c3 0e c0 be af 9f 0f 3e 95 b9 27 be 53 97 ba be
       -0.37511262 0.14025758 -0.16379388 -0.36443576
0001f0 29 a4 a2 bc 0f 48 90 bc f1 55 06 3e c8 ca b3 3d
       -0.019853668 -0.017612485 0.13118722 0.08778912
000200 d5 07 d3 3d 49 5d 54 3e 45 f8 fb bd fe 22 96 3e
       0.10304228 0.2073871 -0.12303213 0.29323572
000210 4a ca 05 bd 88 4e e9 bd ae 5c 8b 3d 74 88 60 3e
       -0.03266362 -0.11391932 0.068047866 0.21927053
000220 6c 94 23 3d 20 6d aa 3e 77 90 53 3e 53 97 b5 3e
       0.039936468 0.3328638 0.20660578 0.35467014
000230 ac 0d a5 3d 29 28 95 be 46 0a 51 be d6 2e bf be
       0.08059248 -0.29132202 -0.20414075 -0.3734042
000240 f9 5d 82 bd 5c ed a8 be 72 02 05 3d 46 74 6a be
       -0.0636558 -0.3299359 0.032473035 -0.22895917
000250 ff 46 78 3d fc 17 4a 3e db 33 3b bd 0c fd 98 3e
       0.060614582 0.19735712 -0.04570375 0.2988056
000260 6e 9a 7c be e6 b9 00 3c f9 9f 63 3e 82 3e f6 b9
       -0.24668285 0.007856822 0.22228993 -0.00046967348
000270 46 50 ff 3d 43 d5 8d 3e e1 eb c2 bd 04 ec 84 be
       0.12466483 0.27701768 -0.095176466 -0.25961316
000280 5b 46 7a be b4 de 9d 3e 02 cd 80 bd 4e 2b 52 be
       -0.24440901 0.30833972 -0.06289102 -0.20524332
000290 5a ba b5 be 4c ef 9e bd f0 71 0c 3e 47 26 96 3d
       -0.35493737 -0.07760486 0.13715339 0.073315196
0002a0 4e d1 03 be c0 10 63 3d a8 21 5b 3c 48 04 47 3c
       -0.12872812 0.055435896 0.0133747235 0.012147017
0002b0 21 8a 1d 3e c1 13 23 3d a7 7d d7 bd ba 19 a5 3d
       0.15384723 0.03981376 -0.10522013 0.080615476
0002c0 64 49 df bd 3f f2 f4 3d 64 68 59 be 5c fc 8e be
       -0.1090267 0.11960267 -0.21231228 -0.2792691
0002d0 de e1 65 3e ba a2 02 3e 83 f9 90 be b8 e0 99 bc
       0.22449443 0.12757388 -0.28315362 -0.018783912
0002e0 44 07 bc be 65 72 b7 bd 83 b3 af 3b 1b b5 92 be
       -0.36724293 -0.08957366 0.0053619756 -0.28653798
0002f0 b3 ba 20 be cf a3 98 3e f5 9a df bd bf 6d 0e be
       -0.1569622 0.29812476 -0.109182276 -0.13909052
000300 9e 18 11 3e 6b ba 89 be b5 c3 eb 3d 0c 1b 54 3e
       0.14169547 -0.26900038 0.115119375 0.20713443
000310 a6 5b 90 3d 77 c4 9c be 63 1e 6e 3e 91 b7 49 3e
       0.070487306 -0.3061864 0.23253779 0.19698931
000320 83 59 4a bd 79 1c 94 3e 3e 23 15 3d d7 63 ce bd
       -0.04940177 0.28927973 0.036410563 -0.10077637
000330 a0 8b 1a be 23 26 54 be fe 2d 82 3e f5 ef 5e be
       -0.15092325 -0.20717673 0.25425714 -0.21771224
000340 a7 00 48 3e 41 ca 9b bd 55 18 d1 bd 15 17 e7 bd
       0.19531499 -0.07606936 -0.10209719 -0.112836994
000350 76 6a 8d be f0 6e 3c 3e b4 db 05 3e 69 8f a6 be
       -0.27620286 0.18401694 0.13072091 -0.32531288
000360 b5 57 88 be 99 e3 44 3e 73 f3 90 3d 76 4f aa 3d
       -0.26629415 0.19227447 0.07077684 0.08315937
000370 3a a8 8d bd 39 fd e9 3d 82 8c 44 3e b3 29 a1 3e
       -0.06916852 0.114252515 0.19194224 0.31477126
000380 cc 91 23 be f0 de 70 be 11 74 1f 3d f4 d4 83 be
       -0.15973586 -0.23522544 0.03892905 -0.25748408
000390 84 6b 05 3e cc 76 88 3d bb e9 e2 bc 01 0d 83 be
       0.13029295 0.06663284 -0.027699342 -0.2559586
0003a0 e0 73 ac 3d 5a 22 bb be 9d 5c ec bd 1a 51 9d be
       0.08420539 -0.36549646 -0.11541102 -0.30725938
0003b0 a2 57 55 be 1c a6 84 3e c4 94 3f be 8c e5 6d be
       -0.2083421 0.2590798 -0.18709093 -0.23232096
0003c0 4d 21 42 3e 85 13 0d be 4c a8 28 3c ad 18 54 bd
       0.18958016 -0.13776977 0.010294031 -0.051781345
0003d0 b9 c2 8b be 05 0b 92 3e 9d 9e 59 3e 0b 17 fe bd
       -0.27297 0.28524032 0.21251912 -0.12406739
0003e0 08 5b 6a 3e f6 ca 38 be 3a b6 b5 bd e0 a8 b2 be
       0.22886288 -0.18046173 -0.088726476 -0.34894466
0003f0 64 e3 ac be fc 2e 99 be 43 8b 60 be 39 ab 5d 3d
       -0.33767235 -0.2991866 -0.21928124 0.05411837

depthwise.bias f4 [32]
000000 43 1a 0c 3d 5c ea af bd 5d 3b 91 3e 3a ac a2 3c
       0.034204733 -0.085896224 0.28365603 0.019857515
000010 2b db 18 be f7 5d 89 3e 03 03 a1 be 4d 9d 8c be
       -0.14927356 0.26829502 -0.3144761 -0.2746376
000020 2e 17 e6 3d 19 97 b7 3d 93 61 8b be 2a 1f 13 be
       0.1123489 0.089643665 -0.2722288 -0.14367357
000030 fb 64 d7 3d b4 aa 6e 3d 8f f5 85 bd 24 5c a6 bc
       0.10517307 0.058268264 -0.06540977 -0.020307608
000040 dc 07 a7 3e 0f 18 a0 3d f7 65 42 3e c4 03 64 3e
       0.32623184 0.07817089 0.18984209 0.22267061
000050 0a 95 93 3e 5c 9a 76 be 02 7e 3e be 12 86 9b 3e
       0.28824645 -0.24082321 -0.18602756 0.30375725
000060 f4 a0 1c 3e 13 76 62 3e 27 42 29 be fb 6b 8b be
       0.15295774 0.22115354 -0.16529141 -0.2723082
000070 3c e9 02 be a2 cd 38 3d d5 ed 87 be 55 cd 88 3e
       -0.12784284 0.04511798 -0.2654864 0.26719156

pointwise.weight f4 [64, 32, 1, 1]
000000 30 fd b5 3d bc 5e 11 be c5 88 0b be c0 ad 4d 3d
       0.08886182 -0.14196295 -0.13626392 0.05021453
000010 d9 b6 02 be 6e c5 ab 3d 82 c5 ad 3d bd aa 2a bd
       -0.12765063 0.08387266 0.08484937 -0.041666735
000020 9f 3d 6b 3e 5e fc 9e bd ce f7 43 be 09 5c a8 bd
       0.22972725 -0.07762979 -0.19137499 -0.08220679
000030 fc 69 06 be c9 22 08 3e f2 6e 41 3d fc af 72 be
       -0.13126367 0.1329452 0.047224946 -0.23699945
000040 7b e4 7c 3e b8 07 ef bd 6b 81 c7 bd 57 67 f4 bd
       0.24696533 -0.11671394 -0.097414814 -0.11933773
000050 49 db 80 bd 69 a0 20 be 61 f1 9f 3d 17 2d 5d be
       -0.06291825 -0.15686192 0.07809711 -0.21599232
000060 57 83 01 be e2 d4 5f bc 90 ce 89 bd 35 55 17 be
       -0.12647758 -0.013661595 -0.06728852 -0.14778598
000070 dd 07 22 3e b6 b0 1d 3e 8f 33 64 be df b4 76 bd
       0.15823312 0.15399441 -0.22285293 -0.060231086
000080 b7 79 c7 bd de 8f 9f 3d 84 14 14 be c2 e9 9d bc
       -0.09740012 0.07791112 -0.14460951 -0.019276503
000090 69 48 ba bb 4f 9c 3f 3e 7d 80 94 bd ee d3 48 3c
       -0.0056849015 0.18711971 -0.0725107 0.012257559
0000a0 53 fe dc 3c 14 26 85 bc f1 bf e8 3b ab de ca 3d
       0.02697674 -0.016253509 0.0071029593 0.09905752
0000b0 92 6f ed 3d 10 d6 be bd bc d4 91 bc 85 a4 b5 bd
       0.11593546 -0.09318173 -0.017801635 -0.0886927
0000c0 9c c0 37 bd af de 24 be 81 54 39 bc fc 25 07 bd
       -0.04486142 -0.16100572 -0.011311651 -0.03299521
0000d0 bd 09 19 3e f6 35 b0 bd d9 e7 df 3d a2 9e b5 bd
       0.14945121 -0.08604042 0.10932893 -0.088681474
0000e0 0f 43 e0 bd c9 f7 15 be f6 fe fb 3c 11 88 47 3d
       -0.109502904 -0.14645304 0.030761223 0.048713747
0000f0 c6 9b 3d 3d 35 e5 67 3c 9b 9e df bd 36 fb 02 3e
       0.046291135 0.014153768 -0.109189235 0.12791142
000100 f7 8e 4f bd 4a 02 53 bd 43 43 26 3e fc 10 16 b8
       -0.05067345 -0.051515855 0.16236596 -3.5778605e-05
000110 05 7d c5 3d 8f 88 03 3e 45 95 0f be 46 86 27 3e
       0.09642986 0.12845062 -0.14021786 0.16359815
000120 d1 60 e1 3d f2 1c 47 bc 7f 23 a2 3e 3b 22 19 be
       0.110047944 -0.012152897 0.31667706 -0.14954464
000130 77 27 15 be ee aa d5 3d 00 e1 1c 3e 26 c3 0c 3e
       -0.14565836 0.10432993 0.15320206 0.13746318
000140 67 c0 0b be 5e cc 28 3d ad 6a 19 3d 10 54 a8 bd
       -0.13647614 0.041210525 0.03745525 -0.08219159
000150 77 b8 0a 3d 28 88 46 3d b2 77 2c 3e 9c 35 51 3e
       0.033867326 0.048469692 0.16842535 0.20430607
000160 b5 71 14 be 80 73 e1 bd 7c 05 ef 3d ff a6 96 3d
       -0.14496501 -0.11008358 0.11670968 0.07356071
000170 c8 32 ad 3d 50 77 70 bc 82 cf ae 3d 4f 98 c1 3d
       0.084569514 -0.014676884 0.08535673 0.09452879
000180 cd 4f b8 3d 91 a9 d8 3d 70 1b 14 be 70 7a 22 be
       0.08999596 0.10579217 -0.14463592 -0.15867019
000190 77 36 18 be 92 85 59 3d 06 ef cd bd 7e e4 5e be
       -0.14864527 0.0531059 -0.10055356 -0.2176685
0001a0 1c 4f c0 bc 2f 8b 87 3d b7 ea c5 bd a8 3b 1d bb
       -0.023475222 0.06618344 -0.09663909 -0.0023991857
0001b0 2a 61 8b 3d 9b e7 79 3d 9d 7d 3b be 72 27 99 3d
       0.06805642 0.06101189 -0.18309636 0.07478227
0001c0 de a7 2a 3d 2c 4f b8 3d e5 96 88 3e c8 cf 2b 3e
       0.041663997 0.08999476 0.26677623 0.16778481
0001d0 67 64 ee bb 6c 5e 1a bc cc b9 75 3e e8 d3 43 3d
       -0.0072751525 -0.009421926 0.23996657 0.04780951
0001e0 b3 65 5d 3d 6b 5f 14 be f5 d9 c1 bd ae 16 b8 3d
       0.054052066 -0.14489524 -0.094654 0.08988701
0001f0 21 97 ee 3d 25 40 25 3e a1 ed 40 be 3c 71 5e be
       0.11649919 0.1613775 -0.18840648 -0.21722883
000200 13 39 1f be b1 26 34 3d 05 3b 99 3d f8 f4 99 3d
       -0.15549116 0.04398221 0.0748196 0.07517427
000210 16 31 f6 bd 7e 5f 6d 3d ab 80 86 3b 91 de 09 bc
       -0.12021081 0.057952397 0.004104694 -0.00841488
000220 6a 2d 6f bd 2b 23 3b 3d a6 d1 35 be 35 ac 8e bd
       -0.05839292 0.045687836 -0.17755756 -0.0696644
000230 b7 cc 28 3e 53 8b 6c bd a9 30 1a 3e a0 be 0e 3e
       0.16484343 -0.057750057 0.15057625 0.13939905
000240 f3 a9 1e be c7 8c 86 bd ed a0 39 3e 47 04 57 bb
       -0.15494518 -0.0656982 0.18127795 -0.0032808946
000250 7d f9 a2 bc 41 58 31 be 79 98 d4 3d c1 bd 01 bc
       -0.019894356 -0.17318822 0.10380644 -0.007918776
000260 a7 9a 7f bd 66 2e 46 be 99 72 04 be 5e fc 19 bd
       -0.062403347 -0.19353637 -0.1293434 -0.03759419
000270 2b ad d1 3d 49 c7 3e 3d 49 67 c4 bd 6a 04 24 be
       0.10238107 0.046576772 -0.095900126 -0.16017309
000280 35 b3 29 3e f5 39 0e be 40 bc d0 bc 8f ca 62 3e
       0.16572268 -0.13889296 -0.02548039 0.22147582
000290 2e 60 db bb 7d 3b a2 bd 62 1c 31 3e 29 2a f7 3d
       -0.006694815 -0.07921503 0.17295983 0.12068588
0002a0 30 f9 36 3e 03 a2 00 3d 7f ba 48 bb 5e e5 f0 bd
       0.17868495 0.031404506 -0.0030628738 -0.11762498
0002b0 94 51 1a be 0b 49 69 bc 4d d4 03 3e 9a f9 8c be
       -0.15070182 -0.014238606 0.12873955 -0.2753418
0002c0 b4 ea 61 bc 22 5c 14 be ac d4 21 be 6a 89 34 be
       -0.013788868 -0.14488271 -0.15803784 -0.17630544
0002d0 77 ce 50 bd 3e f4 80 3d e0 e0 c6 3d 45 b7 46 be
       -0.05097815 0.062965855 0.0971086 -0.1940585
0002e0 60 13 05 3e fe 55 15 3d 9c 85 51 3d 1d 92 38 be
       0.12995672 0.03645896 0.05115281 -0.18024488
0002f0 6f b8 db 3d 86 eb 70 3c eb c7 62 be 65 3b 1c be
       0.10728537 0.014704591 -0.22146575 -0.15257032
000300 45 30 df bd b8 1a 52 bd 1a 13 19 be e2 fc 6e bc
       -0.108978786 -0.051295012 -0.14948693 -0.014586659
000310 42 7f 69 be b8 69 d1 bc 09 56 9a 3d db 69 38 3e
       -0.22802451 -0.025563106 0.07535941 0.1800913
000320 2c 9c 01 3e 30 87 c2 bd 91 ca cd 3c 34 36 d0 bd
       0.12657231 -0.09498441 0.025121005 -0.101665884
000330 04 58 1c 3c 86 c0 a4 bd e8 b8 41 3e db cd 1d 3c
       0.009542469 -0.080445334 0.18918192 0.009631599
000340 18 c5 08 3e 5f 4e d5 3c 1a 55 b1 bd 87 19 2d 3d
       0.13356435 0.026038347 -0.0865881 0.042260673
000350 de 0d 39 3e de aa 39 be 3a e9 eb bd 2f 47 bd 3d
       0.18071696 -0.18131587 -0.11519094 0.09242093
000360 26 02 d8 3d 34 46 5c be 93 f9 a8 bd a0 08 2e 3d
       0.10547285 -0.21511155 -0.082507275 0.042488694
000370 33 fe 2e 3e 16 35 1e be 34 0b f7 bd a0 c6 1b 3e
       0.17089157 -0.15449938 -0.12062684 0.15212488
000380 48 2f b9 3d a4 98 41 3e ef bd fe 3d eb a3 84 3d
       0.09042221 0.18905884 0.12438571 0.06476577
000390 66 03 33 3e 45 3f 9e 3b e1 d2 f1 bd 1b 4a 76 bd
       0.17481765 0.0048293197 -0.118078 -0.060129266
0003a0 8d c6 d6 bc 85 ef 21 3e 26 c1 82 3d d0 cd b8 bd
       -0.026217723 0.15814026 0.063844964 -0.090236306
0003b0 ab 00 7f 3d aa 6b 0d bc cb 88 1a be 57 f4 dc bd
       0.062256496 -0.008631626 -0.15091245 -0.107887916
0003c0 15 62 a5 3d e7 d0 db 3d 8a 2b af 3c fa 54 7a bb
       0.08075348 0.10733204 0.021383066 -0.0038197623
0003d0 34 4d 28 be d4 a2 22 be 82 fa 81 3c 66 1e bb bd
       -0.164357 -0.15882427 0.015866522 -0.091366574
0003e0 ca 34 2c be 60 5d 14 bd 33 b2 e2 3d ec c1 97 3d
       -0.16817012 -0.03622186 0.11069145 0.074100345
0003f0 e6 58 e7 3d 1c 0f ee bc fb f5 21 3e b4 2c 5e 3d
       0.11296253 -0.02905994 0.1581649 0.05424185

pointwise.bias f4 [64]
000000 fb 34 11 be 6e df a5 3c 6d de 22 3a 2e c5 ca bd
       -0.14180367 0.020248141 0.00062129536 -0.0990089
000010 a9 c0 19 3e 8d a3 58 bc 2f 11 05 be 10 96 16 3e
       0.150149 -0.013222587 -0.12994836 0.14705682
000020 e9 2a e6 3d c8 7b 08 bd bc c1 0b bd a8 21 2b bd
       0.11238653 -0.033321172 -0.034120306 -0.041780144
000030 b2 1c 87 bd 12 89 ed bb f2 4c 27 b9 db b2 97 bd
       -0.0659727 -0.007249006 -0.00015955025 -0.07407161
000040 dc b8 f4 bd 9e e1 14 be 17 69 f2 3d 4e a8 81 3d
       -0.11949322 -0.14539191 0.118364505 0.0633093
000050 ec 80 17 3d fe d1 cd 3c 05 7a 2c 3e 98 6f cb 39
       0.036988184 0.025124546 0.16843422 0.0003880232
000060 e8 3a ce bc 47 8a 26 3e 7b cc ec bd ac ae 1f be
       -0.025174573 0.16263686 -0.11562439 -0.15593976
000070 8f a8 13 3e 4f d0 0e be ac b8 1b 3e 68 68 ad 3d
       0.14419769 -0.13946651 0.15207165 0.084671795
000080 e0 3e 00 3d d9 16 36 3d 5c 29 6b bd c8 d5 c8 3b
       0.031309962 0.044455383 -0.05741249 0.0061290003
000090 6f 95 da bd ad c4 de bc 07 a3 d2 3d 68 d2 23 bc
       -0.106730334 -0.027193392 0.10285001 -0.009998895
0000a0 2f 2f 8b 3c ba d3 55 3d 17 c5 7c 3d f5 69 25 3e
       0.016990272 0.05220387 0.061711397 0.161537
0000b0 b3 d3 1d 3d f3 3d 8d bd 9c 16 6a 3d c4 51 65 bd
       0.03853197 -0.068965815 0.05715047 -0.05598618
0000c0 ec 97 95 3b 6e cf 94 3d 31 6a 42 bb 65 e5 f5 3d
       0.0045652296 0.072661266 -0.0029665346 0.12006644
0000d0 b2 11 20 3e b6 8e 30 bd ca 6c 6c bc 01 ea 4b 3d
       0.1563175 -0.04310485 -0.014430234 0.04978371
0000e0 f5 2f 20 bc 7e 7a c1 bd ab 24 fa bb 2b f2 0c bd
       -0.009777059 -0.09447192 -0.0076337657 -0.034410637
0000f0 1d 34 90 3d 1f 08 46 3d 6f ce e7 bd 3a cb ab bd
       0.0704119 0.04834759 -0.11318671 -0.08388372

fc.weight f4 [2, 1024]
000000 07 28 09 3d 49 30 70 bb f0 3b 0d bd 31 64 55 bd
       0.03348544 -0.0036649874 -0.03448099 -0.052097503
000010 7c d1 c8 bd 4f b5 0a be a8 02 cb bd 63 78 19 bd
       -0.09805581 -0.13545726 -0.09912616 -0.037468325
000020 09 1e cf bd ba cd 03 be 7c 96 2a be 72 e4 a1 bd
       -0.101131506 -0.12871447 -0.16658968 -0.079049006
000030 90 c8 a7 bd 39 f4 8a bd fa 0a b4 bd 8c 42 ab bd
       -0.08192551 -0.06784863 -0.08791156 -0.08362302
000040 53 f2 03 3c 78 ce 91 bc 72 e7 63 3c ac af 5a 3d
       0.00805338 -0.017798647 0.013910161 0.05339019
000050 be f3 32 3b f9 8b 90 ba 21 0b 2a 3d 94 2b 32 3d
       0.0027305926 -0.0011028043 0.04151452 0.04349859
000060 9a b6 25 3c 75 d9 04 bd 24 71 69 bc c7 11 e2 ba
       0.010114336 -0.032433946 -0.014248166 -0.001724773
000070 52 af 91 3c 8c 28 98 bb 8e aa 48 3d 8f 0d e4 3a
       0.017783795 -0.0046435054 0.04899078 0.001739906
000080 1e 14 d2 bd e8 82 6c bd d4 8c c6 bc 98 1d f8 3c
       -0.10257743 -0.05774203 -0.024237074 0.030287549
000090 16 d6 53 bc 45 3b 64 bd 90 83 b0 3c 92 a2 82 bc
       -0.01292946 -0.055720586 0.021547109 -0.01594666
0000a0 0f 15 af bc a0 e2 1c bd 7b cd ff 3c db bb a9 bb
       -0.021372346 -0.038302064 0.03122591 -0.005179865
0000b0 f3 b7 1c bd 34 57 00 bd 28 f6 f1 3c 5d 4e 53 3a
       -0.038261365 -0.031333163 0.029536322 0.0008060688
0000c0 db 6b 81 3b 1f 47 69 3d 31 c7 a0 3d d7 15 25 3d
       0.003949625 0.056952592 0.07850493 0.04030403
0000d0 3a 94 81 3c fa 1b 6f 3d de 7a c6 3d 6b 95 85 3d
       0.01581775 0.05837629 0.09691404 0.0652264
0000e0 ef 11 16 3d c5 d6 81 3d ec 07 c5 3d 73 9c 8c 3d
       0.036638197 0.06339792 0.096206516 0.06865778
0000f0 f1 9d 59 3d c6 d2 74 3d 5b 2c 9e 3d 27 78 60 3d
       0.05312914 0.05977132 0.07723304 0.054802086
000100 5c ea 8c bc 4a d5 15 3d c2 6c dc 3c 2a 90 5f 3d
       -0.017201595 0.03658036 0.026907329 0.054580845
000110 e8 bd 8c 3c 2b 9d 31 3c 32 2c 56 3d 81 1c 5a 3d
       0.017180398 0.010840694 0.05228824 0.05324984
000120 fe b0 da 3c 49 91 47 3c 61 d5 35 3c 53 f3 32 3d
       0.026695725 0.012180635 0.011098237 0.043689083
000130 1f 3a 50 3c 4b c5 01 3d 6d e6 e8 3a 79 4f b1 3c
       0.01270917 0.031682294 0.0017768868 0.02164434
000140 b6 6a 55 3c f2 0e f8 3b 3b 8c 8d bd 53 dd f6 bb
       0.01302593 0.007570141 -0.069115125 -0.007533708
000150 ea 7c 00 bd 46 b9 12 be 0b 11 02 be 57 16 93 bd
       -0.031369127 -0.14328489 -0.12701814 -0.07181995
000160 c4 ba 95 bd f7 13 a0 bd 65 b0 d8 bd 54 d2 7e bd
       -0.07311013 -0.07816308 -0.105805196 -0.062212303
000170 bf 65 73 bd 66 95 eb bc d5 87 95 bd 58 99 52 bd
       -0.059423205 -0.028757762 -0.073012985 -0.05141577
000180 bd e9 3a 3c 15 67 98 3c ad 41 4e 3d cf ae 78 3d
       0.011408267 0.01860384 0.050355602 0.060713585
000190 7b 12 42 3d 01 fd 8d 3d 75 9d 20 3d 6d 97 1f 3b
       0.047380906 0.06933022 0.039212663 0.0024351731
0001a0 3f 66 95 3d 4e 4d 0c 3d a2 96 d4 bc ac c0 e9 bc
       0.072948925 0.03425341 -0.025950734 -0.028534256
0001b0 ea 45 e8 3c 79 b2 f9 39 55 08 11 bd c5 a9 b3 3d
       0.02835365 0.00047625953 -0.035408337 0.08772615
0001c0 b2 7f 5a 3d 0c 8a 61 3c db d0 11 3d bf c9 42 3c
       0.053344436 0.013765823 0.03559957 0.01188892
0001d0 4d 33 69 bd fc 12 63 3c 54 a6 f6 3b 41 8e 14 3d
       -0.05693369 0.013859507 0.007527152 0.036268476
0001e0 4b 6d 57 3d ef 92 eb bc 57 1e 32 3c 26 ef 94 bc
       0.052594464 -0.028756587 0.010871491 -0.018180441
0001f0 ad 33 30 3d 1e 49 2f 3d 99 3e 88 3c 97 2c 51 3c
       0.043018032 0.04279434 0.016631411 0.012766979
000200 d3 d2 af bc f3 a1 5e 3c f7 6a c6 3c e3 92 bd 3b
       -0.021462834 0.013588416 0.024220927 0.0057853325
000210 47 96 9d bc a8 9e 42 3d 65 8b 0b 3d 2f cf 35 3c
       -0.019236697 0.047514588 0.034068484 0.01109676
000220 13 60 df 3b 4a e7 3c 3c 29 8c 47 3c e7 04 7f bc
       0.006816873 0.011529753 0.012179413 -0.015565134
000230 b9 ca d8 bc 84 77 7b 3c 15 3c 24 3c c6 f9 91 3c
       -0.026463853 0.015348319 0.01002409 0.017819297
000240 1c 52 15 3d be c5 ff 3c 03 1e 94 3d f5 5b a9 3d
       0.03645526 0.03122222 0.07232287 0.082694925
000250 b5 d2 9d 3d 02 a3 96 3d 96 98 e3 3d d8 5c b5 3c
       0.07706205 0.0735531 0.11113088 0.022138998
000260 d1 50 d4 3d c9 14 ea 3d 1a 97 a2 3c 2b c6 e2 bc
       0.10366977 0.11429746 0.019847441 -0.027682384
000270 25 eb 8a 3d a4 0f 96 3d 06 96 30 bd 8c 36 ae 3d
       0.067831315 0.07327202 -0.043111823 0.08506498
000280 b9 23 d7 3c 98 56 d9 3c bf 73 48 bc e0 28 6c bd
       0.026262151 0.026530549 -0.012234627 -0.05765617
000290 5c 8e 45 bd 8b 32 80 bd 24 33 8d bd 2a 67 dd bd
       -0.048231468 -0.0625964 -0.0689452 -0.108106926
0002a0 59 50 60 bd 9a 54 d0 bd 31 b5 22 be 76 d1 97 bd
       -0.054764125 -0.101723865 -0.15889432 -0.074129984
0002b0 3e c1 c0 3b 79 35 51 bd f5 0d 83 bd 44 3a 54 3c
       0.0058824113 -0.051076386 -0.063991465 0.012953345
0002c0 80 83 07 be 29 76 36 be 2b 38 00 be 0e 77 d7 bd
       -0.13233757 -0.17818512 -0.12521426 -0.10520755
0002d0 30 ff 0c be b9 57 10 be 35 35 de bd 13 9e 83 bd
       -0.13769221 -0.14095964 -0.10849992 -0.06426635
0002e0 0f ca 13 be 5d 28 a3 bd de f6 19 be c3 19 37 be
       -0.14432548 -0.07966683 -0.15035579 -0.17880921
0002f0 5d 6e 02 be 6b dc 18 be 3d 39 15 be 05 e1 ee bd
       -0.12737413 -0.14927833 -0.14572616 -0.11664013
000300 a3 37 ba b9 cd bc ad bd df 97 5b bd 3d 13 e5 bc
       -0.00035518137 -0.084832765 -0.053611632 -0.027963275
000310 18 b3 da bc 83 fc 32 bd 62 c6 9c bc 8f 71 e4 39
       -0.026696727 -0.043697845 -0.019137565 0.00043572157
000320 f6 e1 3b bd 54 6f 70 bd 13 68 b4 bc bf 2b 36 bd
       -0.04586979 -0.05869992 -0.022022283 -0.044475313
000330 8c 5a 0e 3b 67 0c 11 bd a6 58 1a 3d 92 98 46 3c
       0.002172145 -0.03541222 0.037682198 0.012121337
000340 22 32 06 bd 4b 4b 30 bd 1c f3 e3 39 a6 88 9f bc
       -0.032762654 -0.043040555 0.00043477945 -0.019474339
000350 56 32 e5 bc 86 3c 4a bd 61 ae ef bc 48 53 48 bc
       -0.027978104 -0.049374126 -0.029257955 -0.012226887
000360 b1 74 91 bd 55 40 09 bd f1 38 3e bd 26 53 69 bc
       -0.07102335 -0.033508617 -0.046441022 -0.014241016
000370 9b 1f 36 bd 76 d7 fe bc a1 d9 43 bc be 66 f1 bc
       -0.044463735 -0.0311086 -0.011953742 -0.029467937
000380 a9 81 b5 bc ea ad 47 bd 23 c5 d5 bc 3b d4 65 3d
       -0.022156553 -0.04874984 -0.026094979 0.056110602
000390 97 96 2b 3c 62 77 1f bd f5 28 a4 bc 9a 22 77 bc
       0.010472915 -0.03893221 -0.020039061 -0.015083933
0003a0 80 65 47 3c b4 9f 73 3c ec 38 6f bd 6c 81 46 bc
       0.012170196 0.014869619 -0.058403894 -0.0121158175
0003b0 16 bc 34 bb eb 30 3e bd d9 8d 24 bd 9e 0c a0 3b
       -0.0027577928 -0.04643337 -0.04017434 0.0048843166
0003c0 d1 6b 01 3d 95 4b 9b 3d 1a 75 ae 3d 2a c7 3f 3d
       0.031596962 0.075827755 0.08518429 0.046820797
0003d0 c8 f5 1e 3b 79 da 9e 3d 83 3a cd 3d dd b0 d0 3d
       0.0024255384 0.07756514 0.10020926 0.10189984
0003e0 61 38 8e 3d 6a 40 53 3d 28 f4 44 3d 14 7e 9d 3d
       0.06944347 0.051575102 0.048084408 0.07690063
0003f0 3b e7 a3 3d 1f 23 c2 3d ae ef 8d 3d 44 01 0a ba
       0.08003088 0.09479355 0.06930481 -0.0005264471

fc.bias f4 [2]
000000 66 c6 07 3c 4c d2 1e 3c
       0.008287048 0.009693693
