weight/best_model_20241221_50_smallmodel4.pth (torch, 34660 bytes, 12 tensors)

conv1.weight f4 [32, 10, 3, 3]
0	0x3cbc506a	0.022987563
1	0xbd2e015e	-0.042481773
2	0x3d9883db	0.074470244
3	0xbd7ce4b1	-0.061741535
4	0x3cbfeb5a	0.023427654
5	0x3cc5430c	0.024079822
6	0x3d40eef6	0.04710289
7	0x3d674ffc	0.056472763
8	0xbd8f3cc1	-0.0699401
9	0xbd17b054	-0.037033394
10	0xbc4de417	-0.012566588
11	0xbdca8e53	-0.098904274
12	0xbc5c9092	-0.013462203
13	0xbdec5fee	-0.11541735
14	0xbdc4292e	-0.09578167
15	0x3cbc9ac3	0.023023015
16	0xbd9c2224	-0.07623699
17	0x3b94d30a	0.0045417594
18	0x3d0c49de	0.034250133
19	0x3b39cd38	0.002835108
20	0x3df42efd	0.11923025
21	0xbd6e6a76	-0.058206998
22	0xbd97b118	-0.07406825
23	0x3dadaf5b	0.08480712
24	0xbc9a08ed	-0.018803084
25	0x3de078bf	0.109605305
26	0x3dde6755	0.10859553
27	0x3c4ae963	0.012384745
28	0xbb9f7114	-0.004865775
29	0xbdb59649	-0.08866555
30	0x3d8212db	0.06351253
31	0x3d04ea82	0.032450207
32	0xbc42a268	-0.011879541
33	0x3df05a9e	0.11736034
34	0xbcc3d72b	-0.023906311
35	0xbb994637	-0.0046775597
36	0x3e02bbc7	0.12766944
37	0x3defd96d	0.117113926
38	0xbd198048	-0.037475854
39	0x3db68281	0.089116104
40	0xbcaf7282	-0.021416906
41	0x3d7a99ad	0.061181713
42	0x3d5b10a9	0.053482685
43	0xbd52d5bd	-0.051473368
44	0x3dd2e9c9	0.10298497
45	0x3d728884	0.059212223
46	0xbdc6b4b4	-0.09702435
47	0x3e04170f	0.12899421
48	0x3d01b220	0.031664014
49	0x3c1a9573	0.0094350455
50	0xbd15aa40	-0.036539316
51	0x3cc49984	0.023998983
52	0xbc9ebd8b	-0.01937749
53	0x3c887b3e	0.016660329
54	0xbd3e0d56	-0.046399437
55	0x3d49172e	0.04909437
56	0x3c27c12b	0.010238926
57	0x3d56cacb	0.052439492
58	0x3dc164cb	0.09443053
59	0x3e011017	0.12603794
60	0xbd7c209b	-0.061554532
61	0xba425dc1	-0.0007414483
62	0xbca9cc04	-0.020727165
63	0xbd531925	-0.05153765
64	0xbcd7bed1	-0.026336106
65	0xbd670c5c	-0.05640827
66	0xbda6ae60	-0.08138728
67	0xbd3f433d	-0.046694983
68	0x3da856f0	0.08219707
69	0xbd4163cb	-0.04721431
70	0x3d9aea00	0.07564163
71	0x3daa7683	0.083233856
72	0x3d297ad6	0.04137691
73	0xbd0805b9	-0.033208583
74	0x3d107db1	0.03527612
75	0x3e1d3549	0.15352358
76	0xbde6f9cc	-0.11278114
77	0xbd0cea5c	-0.03440319
78	0x3debd62c	0.115154594
79	0xbdd1b17f	-0.10238933
80	0x3d8a1697	0.0674259
81	0xbda4ae3a	-0.080410436
82	0x3d5a85e4	0.053350344
83	0x37cef95a	2.4673227e-05
84	0xbde22f57	-0.110441856
85	0x3c60910a	0.013706455
86	0xbc582faf	-0.013194962
87	0xbe294342	-0.16529563
88	0x3ccf762b	0.025324902
89	0x3dfc89a2	0.12330939
90	0x3d556705	0.0521002
91	0x3c46ab73	0.012125838
92	0xbd46e434	-0.048557475
93	0xbe0ad32e	-0.13557121
94	0xbdd7627c	-0.10516831
95	0xbe30d4da	-0.17268696
96	0xbe0ae46e	-0.13563702
97	0xbe408971	-0.1880243
98	0xbd1e9e06	-0.03872492
99	0x3c601a2a	0.013678113
100	0x3dc1be69	0.09460146
101	0x3e1481a4	0.14502579
102	0x3b2f190f	0.0026717817
103	0x3d0881f2	0.03332705
104	0xbbda9b7d	-0.0066713677
105	0x3e052e1a	0.13005868
106	0x3d141a73	0.036158036
107	0x3e18cbe8	0.14921534
108	0xbd9c4d9f	-0.076319925
109	0x3d4f9d2e	0.050687008
110	0x3cb39fba	0.02192675
111	0xbb869a5d	-0.004107757
112	0x3dc2c3ed	0.09510026
113	0x3d889592	0.06669153
114	0x3da14402	0.078742996
115	0x3df91940	0.12163019
116	0xbccc206d	-0.024917806
117	0x3c554711	0.013017432
118	0xbcdc2241	-0.026871802
119	0xbdb9d290	-0.09073365
120	0xbc9efe12	-0.01940826
121	0xbce7959e	-0.028269585
122	0x3d9ec928	0.07753211
123	0x3d0b1ff6	0.033966027
124	0x3d91e047	0.07122856
125	0x3d0bf17f	0.034165855
126	0xbcbfb1b7	-0.02340017
127	0xbd576d96	-0.052594744
128	0xbd294290	-0.041323245
129	0xbd47b244	-0.04875399
130	0x3cfd1b8a	0.03089692
131	0xbd0952aa	-0.0335261
132	0xbc4aafc2	-0.0123710055
133	0xbda9e80a	-0.08296211
134	0x3d2d9080	0.042374134
135	0xbd0cbb75	-0.03435846
136	0x3d8c0e7c	0.068387
137	0x3d3cd64b	0.046102803
138	0xbcaa75b9	-0.020808088
139	0xbd1f59fb	-0.03890417
140	0xbd47cdf0	-0.04878038
141	0x3cadf1f0	0.021233529
142	0x3cbbbce5	0.02291722
143	0xbdc12df3	-0.09432592
144	0xbd6e0c90	-0.05811745
145	0xbba18662	-0.0049293498
146	0x3da18487	0.07886606
147	0xbddfee50	-0.109341264
148	0x3ca267b2	0.019824836
149	0xbd29d04c	-0.041458413
150	0x3ccc9096	0.024971288
151	0xbe09e1ef	-0.13465093
152	0xbcf477fe	-0.029842373
153	0xbd44159b	-0.047872167
154	0x3ce8c4c7	0.028414143
155	0xbd979e9a	-0.07403298
156	0x3d6e13c2	0.05812431
157	0x3d96beab	0.07360586
158	0xbdaf0673	-0.08546152
159	0x3d68ad91	0.05680615
160	0xbd93d820	-0.07218957
161	0xbbf0587e	-0.007334768
162	0xbdc057ca	-0.093917444
163	0xbd59f8be	-0.053215735
164	0xbd27e0f3	-0.040986013
165	0xbdc157b8	-0.09440559
166	0x3d1969bf	0.037454363
167	0x3d54ae56	0.051924072
168	0xbdba82c2	-0.09106971
169	0x3c6c9513	0.014439839
170	0xbc6c88b5	-0.01443689
171	0x3ccd19a3	0.025036639
172	0xbce33def	-0.027739493
173	0x3c668301	0.01406932
174	0x3dee8b23	0.11647632
175	0x3d2cd152	0.04219181
176	0xbd04e58d	-0.03244548
177	0xbd575c81	-0.052578453
178	0xbc62a9b6	-0.013834408
179	0x3db3febe	0.087888226
180	0x3e3a84fd	0.18214794
181	0xbc98bf3d	-0.018645877
182	0x3dd2c613	0.10291686
183	0x3d340ee2	0.043959506
184	0x3da460c7	0.08026271
185	0x3d995ba5	0.07488183
186	0x3dc5fbd1	0.09667171
187	0x3b231c45	0.0024888676
188	0x3d5a2292	0.053255625
189	0x3c1e1e2b	0.009650747
190	0xbd5522e3	-0.052035224
191	0xbde085c8	-0.10963017
192	0xbc8a2eb8	-0.01686798
193	0xbd3ef4a1	-0.046620015
194	0x3ba7a013	0.005115518
195	0x3d9a9518	0.075479686
196	0x3d1296c9	0.03578833
197	0x3d6d4454	0.05792649
198	0x3daf0681	0.085461624
199	0x3e08d946	0.13364133
200	0x3d861417	0.065468006
201	0xbcbfd7c6	-0.023418318
202	0x3e26bebe	0.162837
203	0x3e15d9fe	0.14633939
204	0x3dbb9cfa	0.091608
205	0x3bf7db1b	0.007563961
206	0x3e0adfef	0.13561986
207	0x3d99e7f4	0.07514945
208	0x3a82e252	0.0009985662
209	0x3d1fe37d	0.03903531
210	0xbc2b63c0	-0.010460794
211	0xbd3ece6d	-0.04658358
212	0xba5ca584	-0.0008416998
213	0x3c077fc3	0.008270207
214	0xbdf78bef	-0.12087237
215	0x3d1ffb7c	0.039058194
216	0x3bd5c19d	0.0065233246
217	0x3d57b16c	0.052659437
218	0xbd94b06d	-0.07260213
219	0x3c5b41c2	0.013382377
220	0xbc0ce4f1	-0.008599506
221	0x3de68e0a	0.112575606
222	0xbd8653e7	-0.06558972
223	0x3d80e14c	0.06292972
224	0xbda4c337	-0.08045047
225	0x3db2bb73	0.08727159
226	0x3dbdebfa	0.092735246
227	0xbbaac034	-0.0052109007
228	0xbd1d1ef2	-0.03835959
229	0xbd1871f7	-0.03721806
230	0xbca1ab93	-0.019735133
231	0x3d2cc1c6	0.042176984
232	0xbc936b58	-0.017995521
233	0x3ca70e50	0.020392567
234	0x3d13c144	0.036072984
235	0x3d66264b	0.056188863
236	0xbd93f289	-0.07223994
237	0xbd5b6aff	-0.053568836
238	0x3d37a851	0.044838253
239	0x3dca2ff2	0.09872426
240	0xbbedadbe	-0.0072533777
241	0x3c368315	0.011139651
242	0x3c9b6705	0.018970022
243	0xbc8543f4	-0.016267754
244	0x3d5a2645	0.053259153
245	0x3dd025f1	0.10163487
246	0x3dcc1fef	0.09967028
247	0x3dec5e9b	0.11541482
248	0x3e0e0833	0.13870315
249	0xbd306b8c	-0.043071315
250	0x3df5844c	0.11988124
251	0xbbaa3541	-0.0051943366
252	0xbd53202a	-0.051544346
253	0xbd86dc04	-0.065849334
254	0xbccb7686	-0.02483679
255	0x3b968a24	0.0045941044

conv1.bias f4 [32]
0	0xbdd1b4f2	-0.10239591
1	0xbd4ba05d	-0.04971348
2	0xbd801ed1	-0.06255878
3	0x3ccf237b	0.025285473
4	0x3c9dcd17	0.019262834
5	0xbd57c8bc	-0.05268167
6	0xbba4874e	-0.0050210124
7	0x3d7d58df	0.061852332
8	0x3d3cc184	0.04608299
9	0xbd8781fd	-0.0661659
10	0x3dc648ee	0.09681879
11	0x3bd687af	0.0065469365
12	0xbd7f1305	-0.062273998
13	0xbcf2ae35	-0.029624084
14	0x3dce6042	0.100769535
15	0xbc1b42c7	-0.00947637
16	0xbc008dd7	-0.007846317
17	0x3db9b80d	0.09068308
18	0xbcc8f968	-0.024532989
19	0xba03f6cb	-0.00050340284
20	0x3dd072b0	0.10178125
21	0x3d140e20	0.036146283
22	0xbab6757e	-0.0013920513
23	0xbd5ff8b0	-0.054680526
24	0xbd323d63	-0.043515574
25	0x3d9ef514	0.07761589
26	0xbdaf7a75	-0.08568279
27	0x3d871076	0.065949365
28	0x3cd92cb3	0.026510572
29	0x3d305b9c	0.043056116
30	0xbd80543f	-0.06266069
31	0x3ca45495	0.020059863

bn1.weight f4 [32]
0	0x3f8020ae	1.0009973
1	0x3f84e8e5	1.0383574
2	0x3f83e269	1.030347
3	0x3f86fe69	1.054639
4	0x3f7ed45f	0.995428
5	0x3f7db623	0.99106044
6	0x3f7e7fda	0.99413836
7	0x3f7c6d00	0.9860382
8	0x3f867a92	1.0506155
9	0x3f820bc9	1.0159847
10	0x3f852ef4	1.0404954
11	0x3f7c24df	0.9849376
12	0x3f87b4d3	1.0602058
13	0x3f835d0f	1.0262774
14	0x3f8614bf	1.0475081
15	0x3f838857	1.0275983
16	0x3f8d7760	1.1052055
17	0x3f85b767	1.0446595
18	0x3f81d900	1.0144348
19	0x3f84244a	1.0323575
20	0x3f873ce5	1.0565459
21	0x3f862635	1.048041
22	0x3f852ab7	1.040366
23	0x3f82902b	1.0200247
24	0x3f8c2185	1.0947729
25	0x3f84cc32	1.0374815
26	0x3f83ff8d	1.0312363
27	0x3f86e25d	1.053783
28	0x3f8102e3	1.0079006
29	0x3f86e32b	1.0538076
30	0x3f856660	1.0421867
31	0x3f82bada	1.0213273

bn1.bias f4 [32]
0	0xbc19caed	-0.00938676
1	0xbcb17aaa	-0.021664936
2	0xb9d84b59	-0.0004125487
3	0x3d2ccfbd	0.042190302
4	0xbc4727da	-0.012155497
5	0xbd06118a	-0.03273157
6	0xbcf0a0e0	-0.029373586
7	0xbd16e82a	-0.036842503
8	0x3d3c1402	0.04591752
9	0xbc2283af	-0.009919091
10	0x3bc05ec8	0.005870674
11	0xbc478bc5	-0.01217932
12	0x3cb0466d	0.021517957
13	0xbc1a4b89	-0.009417423
14	0xbb0466fe	-0.002020299
15	0x3b7b930d	0.003838721
16	0xbcd9620c	-0.02653601
17	0xbd3563e5	-0.04428472
18	0xbc6cf82c	-0.014463466
19	0xbd04524b	-0.032305043
20	0x3cb14d2f	0.02164325
21	0x3c6956a3	0.014241847
22	0x3cbb1bc7	0.022840394
23	0xbbf65365	-0.0075172656
24	0x3d2daa2c	0.042398617
25	0x3ac6b247	0.0015159332
26	0xbc253343	-0.0100830225
27	0x3cb229e2	0.021748487
28	0xbbdd8dc7	-0.006761286
29	0x3bb09bd2	0.005389669
30	0x3b46212d	0.0030232177
31	0x3ca2d841	0.019878509

bn1.running_mean f4 [32]
0	0xbdcffe43	-0.101559184
1	0xbd4f5915	-0.050622065
2	0xbd8370af	-0.06417977
3	0x3cd4e76b	0.025989255
4	0x3ca30183	0.019898182
5	0xbd5ba96e	-0.053628378
6	0xbba3f295	-0.0050032833
7	0x3d81ce51	0.0633818
8	0x3d4649fe	0.04841041
9	0xbd836c4e	-0.06417142
10	0x3dc62d14	0.09676567
11	0x3bcd8aac	0.0062726345
12	0xbd7d6554	-0.061864212
13	0xbcf3037c	-0.029664747
14	0x3dcf5777	0.101241045
15	0xbc3c2614	-0.011483688
16	0xbbfd0380	-0.0077213645
17	0x3db8813c	0.090090245
18	0xbcc6af9d	-0.02425366
19	0x38eb3279	0.000112150745
20	0x3dcdedd5	0.100551285
21	0x3d11e84f	0.035621937
22	0xb97b2c09	-0.0002395363
23	0xbd5fd9a4	-0.054650918
24	0xbd2ed9f2	-0.042688318
25	0x3da0d51a	0.07853146
26	0xbdae946c	-0.08524403
27	0x3d87dfd2	0.06634487
28	0x3cd0ed43	0.02550376
29	0x3d2b5d96	0.041837297
30	0xbd7dfced	-0.062008787
31	0x3c9da5d6	0.019244116

bn1.running_var f4 [32]
0	0x3e819ef9	0.253166
1	0x3ead5c21	0.3385935
2	0x3eed1ded	0.46311894
3	0x3ea86447	0.32889006
4	0x3ec407cf	0.38287207
5	0x3efec37f	0.49758527
6	0x3e56c05d	0.20971818
7	0x3efd604c	0.4948753
8	0x3f5d7b18	0.8651595
9	0x3e979ee9	0.29613426
10	0x3e831eb5	0.25609365
11	0x3f61357f	0.87972254
12	0x3e05c595	0.13063653
13	0x3dd6c320	0.10486436
14	0x3dcad187	0.099032454
15	0x3f274e6d	0.65354043
16	0x3e8ed654	0.27897894
17	0x3e2075ae	0.15669891
18	0x3e88e340	0.26735878
19	0x3e204afb	0.15653603
20	0x3f228cc1	0.63496023
21	0x3e1c4964	0.15262371
22	0x3ec64143	0.38721666
23	0x3ead3b82	0.33834463
24	0x3e5b1e3c	0.21398252
25	0x3e7dc930	0.24783778
26	0x3e3b70f9	0.18304814
27	0x3e44b880	0.19211006
28	0x3f42ff62	0.76170933
29	0x3eb487bc	0.35259807
30	0x3e8a782b	0.27044806
31	0x3ed838c6	0.42230815

depthwise.weight f4 [32, 1, 3, 3]
0	0xbdffdac3	-0.12492897
1	0x3e7888aa	0.24270883
2	0xbe022a3a	-0.1271142
3	0xbe87e298	-0.26540065
4	0x3e74028c	0.23829097
5	0xbe1d857a	-0.15382949
6	0x3b88a0f2	0.004169577
7	0x3e8adea5	0.2712299
8	0xbe8d660f	-0.27616927
9	0xbe9c7af4	-0.30562556
10	0x3e650c30	0.2236793
11	0xbea49b13	-0.32149562
12	0xbe97e32c	-0.29665506
13	0xbe1c4629	-0.15261139
14	0x3e19f405	0.15034492
15	0x3e97a585	0.2961847
16	0xbd15f0a9	-0.036606465
17	0xbda4ab87	-0.08040529
18	0x3e03ee56	0.12883887
19	0x3e8e769e	0.27824873
20	0xbe6ef8e7	-0.23337136
21	0xbeb5d8e6	-0.35517043
22	0xbe60fa55	-0.21970494
23	0x3e87d6b8	0.26531005
24	0xbe634b84	-0.22196776
25	0xbeaba3b3	-0.3352333
26	0xbea513f3	-0.32241783
27	0x3bf261a2	0.0073968926
28	0x3e5bb92c	0.21457356
29	0x3e32881c	0.17434734
30	0x3e472663	0.19448237
31	0xbe1388ea	-0.14407697
32	0xbe53fcb0	-0.20701861
33	0x3e9926ed	0.2991251
34	0xbe9a4bb7	-0.3013589
35	0xbe6fed2d	-0.23430319
36	0x3e803f4c	0.25048292
37	0x3e63fd59	0.22264613
38	0xbe1a960f	-0.15096305
39	0xbe914b5c	-0.28377807
40	0xbe55090e	-0.20804235
41	0x3d8983a0	0.067145586
42	0x3d2ac1ea	0.041688837
43	0xbde68ef9	-0.112577386
44	0xbe9f5ee3	-0.3112708
45	0xbe4e2f29	-0.20135178
46	0xbdb93aac	-0.09044394
47	0x3e5d5a05	0.21616371
48	0xbe4c7bbc	-0.19969076
49	0x3e332184	0.17493254
50	0xbe8e5327	-0.27797815
51	0xbddb725a	-0.1071517
52	0x3d0acbcb	0.03388576
53	0x3e7a8dd0	0.2446816
54	0x3eab96d8	0.33513522
55	0x3df7c0c3	0.12097313
56	0x3e415ba0	0.18882608
57	0xbdb1c8ce	-0.086808786
58	0xbe4d99ab	-0.20078151
59	0x3dd755e1	0.10514427
60	0xbd5a3260	-0.053270698
61	0xbe476f25	-0.19475992
62	0x3df0bb35	0.11754457
63	0x3dca78a5	0.09886292
64	0x3e80f292	0.25185066
65	0x3da33b12	0.07970251
66	0xbc1071bb	-0.008816178
67	0x3c0eebe4	0.008723233
68	0x3e0e9235	0.13922961
69	0x3e73d6c5	0.23812397
70	0x3e9be8bb	0.30450997
71	0x3c3b1a99	0.011419916
72	0xbeb2e35c	-0.34939086
73	0xbe3fa318	-0.18714559
74	0xbe31eb6c	-0.17374963
75	0xbe8e74f4	-0.27823603
76	0x3e6a8d41	0.22905447
77	0x3e0c2442	0.13685706
78	0xbd05b5d5	-0.03264411
79	0x3d8ae156	0.06781261
80	0x3e8cd3eb	0.2750543
81	0x3e3fa783	0.18716244
82	0x3ea3e074	0.32007182
83	0x3e4e3583	0.201376
84	0xbc0c2b7c	-0.008555289
85	0xbe3a96f6	-0.1822165
86	0xbc4fcb9d	-0.0126828225
87	0x3e3b536f	0.18293546
88	0xbac825c5	-0.0015270045
89	0x3c836cda	0.016043115
90	0x3da5636e	0.08075605
91	0x3e1798b3	0.14804344
92	0x3e81cff6	0.25353974
93	0x3e74c0fd	0.23901744
94	0x3e8baf8f	0.27282378
95	0xbe3dd81d	-0.18539472
96	0xbe345aa5	-0.17612703
97	0x3ea8d1c7	0.32972547
98	0x3dd88c08	0.10573584
99	0xbbe964e7	-0.007122624
100	0xbcc9f50f	-0.024652986
101	0xbead4c85	-0.33847442
102	0xbe754d9b	-0.23955385
103	0xbe788118	-0.24267995
104	0x3e3db756	0.18526968
105	0xbe208650	-0.15676236
106	0x3e9782fe	0.29592127
107	0x3e2a81ee	0.16651127
108	0x3d8ed549	0.06974275
109	0xbc5b15c6	-0.01337189
110	0xbdc291a4	-0.09500435
111	0x3e625a80	0.22104836
112	0x3a40dfd2	0.00073575706
113	0xbea8d02a	-0.32971317
114	0xbe159801	-0.14608766
115	0xbe9a649a	-0.30154878
116	0x3e1d4ac6	0.15360555
117	0xbe970774	-0.29497874
118	0xbeaea83e	-0.34112734
119	0x3e746bcc	0.23869246
120	0xbea817c2	-0.32830626
121	0xbe8c0a4a	-0.273516
122	0xbeb05493	-0.34439525
123	0x3e5a17c5	0.2129813
124	0x3d91829f	0.07104992
125	0xbe97d07c	-0.29651248
126	0x3e09e749	0.13467135
127	0x3e15c39a	0.14625397
128	0xbdf86cbf	-0.12130117
129	0xbe3a69b8	-0.18204391
130	0xbec3bbea	-0.38229305
131	0x3d8aa71f	0.06770157
132	0xbe11915d	-0.14215608
133	0xbe80e671	-0.25175813
134	0xbd65947a	-0.0560498
135	0xbe4587c6	-0.19290075
136	0x3e19810a	0.14990631
137	0x3e8c0af2	0.273521
138	0x3e8270cd	0.25476685
139	0x3e66c61b	0.22536509
140	0xbdbc4e2d	-0.09194598
141	0x3e86d94f	0.26337668
142	0xbe1ae584	-0.15126616
143	0xbdf8fd58	-0.121576965
144	0x3ec4df90	0.38451815
145	0x3dd3676a	0.10322459
146	0x3e3bb5f7	0.18331133
147	0x3e87122d	0.26381055
148	0x3e75fa64	0.24021298
149	0x3e1b0d6b	0.15141837
150	0xbe8ead9d	-0.2786683
151	0x3d09b603	0.033620846
152	0x3eba8626	0.36430472
153	0x3d884156	0.06653087
154	0x3e6ffa41	0.23435308
155	0x3e9debc9	0.30843952
156	0x3ea470d5	0.32117334
157	0x3d764fad	0.06013458
158	0x3e4231cc	0.18964309
159	0xbe84fbfd	-0.25973502
160	0x3e1d92a6	0.15387973
161	0xbcfd7256	-0.030938309
162	0xbdffd30b	-0.12491425
163	0xbd1156d1	-0.035483185
164	0xbe57cc2a	-0.21073976
165	0x3c8611fe	0.016366001
166	0xbe2fe4c8	-0.17177117
167	0xbe49f374	-0.19721776
168	0x3d965737	0.07340854
169	0x3cd9f0e1	0.026604118
170	0x3de29a1f	0.110645525
171	0x3e9b76ab	0.30363974
172	0x3ea5959e	0.3234071
173	0xbc177f2e	-0.009246631
174	0x3ea3b02b	0.31970343
175	0x3d941b36	0.072317526
176	0x3e1dd644	0.15413767
177	0xbe1db8dc	-0.1540255
178	0x3e6925bb	0.227683
179	0x3eb87aa5	0.3603107
180	0xbda11553	-0.078653954
181	0xbd5d5a84	-0.0540414
182	0xbe079540	-0.13240528
183	0x3e2b0bbf	0.167037
184	0xbe3c9b06	-0.18418512
185	0xbe79941b	-0.24372904
186	0xbe2cddae	-0.16881439
187	0xbe130441	-0.14357091
188	0xbe92f8e5	-0.28705516
189	0x3e79ed6a	0.24406973
190	0xbe79c858	-0.24392831
191	0xbe7aebf9	-0.24504079
192	0xbeb3848b	-0.3506206
193	0xbd695d93	-0.056974005
194	0x3dc30812	0.09523024
195	0xbd13cb9b	-0.036082845
196	0xbeabfd6d	-0.33591786
197	0xbd480e0f	-0.048841532
198	0xbd11ff55	-0.035643894
199	0xbe09b6e1	-0.13448669
200	0xbe4e7fe7	-0.20165978
201	0x3df69d94	0.120417744
202	0xbe8c9d3c	-0.2746371
203	0x3e5859da	0.21128026
204	0xbe3f0ab5	-0.18656428
205	0xbe61ec27	-0.22062741
206	0xbe84a62d	-0.25908032
207	0xbda3fdf9	-0.08007426
208	0xbe8ef0ec	-0.27918184
209	0x3e9098bf	0.28241536
210	0x3ca9054f	0.020632414
211	0xbd1cd63f	-0.03829026
212	0xbe701f3e	-0.23449418
213	0xbd97246d	-0.073799945
214	0x3e39b948	0.18137085
215	0xbe3504d2	-0.1767762
216	0xbe4913d3	-0.19636469
217	0x3e492e0e	0.19646475
218	0xbd81a90d	-0.06331072
219	0xbab36c23	-0.0013688843
220	0xbcc22e19	-0.023703622
221	0xbebabdbb	-0.36472878
222	0xbe87f2c0	-0.2655239
223	0xbe10fa18	-0.14157903
224	0x3d09dbfd	0.033657063
225	0x3eab1676	0.33415574
226	0x3df1cfa2	0.11807181
227	0x3eb0b17b	0.34510407
228	0x3c5d31f6	0.013500681
229	0x3e8188cf	0.2529969
230	0x3e2bbdb6	0.16771588
231	0x3e1d9a13	0.15390806
232	0xbd7cac96	-0.06168803
233	0x3e991c33	0.29904327
234	0xbe9c72be	-0.3055629
235	0xbc75789c	-0.014982369
236	0x3da4b3e3	0.08042123
237	0xbe92c0a4	-0.28662598
238	0x3e202a9b	0.15641253
239	0xbea12f7c	-0.3148154
240	0x3e106515	0.1410106
241	0xbd006e90	-0.03135544
242	0xbe5ced78	-0.21574962
243	0xbe7d72a0	-0.24750757
244	0xbce58473	-0.028017258
245	0xbdeeb05d	-0.116547324
246	0x3ca4b997	0.020108027
247	0xbe502443	-0.20326333
248	0xbdc52954	-0.09627023
249	0x3e9034bf	0.28165242
250	0x3e62bb1b	0.22141688
251	0xbdd6bcb5	-0.10485212
252	0x3e55f52e	0.2089431
253	0xbe26bb3c	-0.16282362
254	0x3e687ae9	0.22703137
255	0xbe247841	-0.16061498

depthwise.bias f4 [32]
0	0x3e25aa55	0.16178258
1	0x3e1f16cc	0.1553604
2	0x3e0c564d	0.13704796
3	0xbd1d2892	-0.03836877
4	0xbdb2e325	-0.08734731
5	0x3e0c065b	0.136743
6	0x3e1c16ee	0.15243122
7	0xbe36f65d	-0.17867418
8	0x3e1b94bd	0.15193458
9	0xbe3717e8	-0.17880213
10	0xbe0d5764	-0.13802868
11	0xbe888276	-0.26662034
12	0x3ea24212	0.31691033
13	0x3d387376	0.045031987
14	0x3e283603	0.16426854
15	0x3ea3d9d7	0.32002136
16	0x3de99965	0.11406211
17	0x3e03441a	0.12818947
18	0x3dadcff9	0.08486933
19	0x3dfd6ddc	0.1237447
20	0xbe106e00	-0.14104462
21	0x3e822951	0.25422147
22	0x3dd08aa9	0.10182697
23	0x3d9fcca1	0.07802702
24	0xbe492c93	-0.1964591
25	0xbe4fc2a3	-0.20289092
26	0xbe771d78	-0.24132335
27	0x3e800615	0.2500464
28	0xbcfbd18c	-0.030739568
29	0x3e460f2d	0.19341727
30	0xbcd012a7	-0.02539952
31	0x3e897e5a	0.2685421

pointwise.weight f4 [64, 32, 1, 1]
0	0xbdca2bb1	-0.09871615
1	0x3dd7e3f5	0.10541526
2	0xbdebe56b	-0.115183674
3	0xbe34a97a	-0.17642775
4	0xbde8a97f	-0.11360454
5	0xbe6a5411	-0.22883631
6	0x3e1d0962	0.1533561
7	0xbdfcf61e	-0.12351631
8	0xbdfec73f	-0.12440347
9	0xbd8db455	-0.06919161
10	0x3d354bd4	0.04426177
11	0x3e0c0c2c	0.13676518
12	0xbdd5e3cd	-0.1044384
13	0xbe35139a	-0.17683259
14	0xbd999136	-0.074984
15	0xbd1131be	-0.03544783
16	0xbd6d5850	-0.05794555
17	0x3db55ca6	0.08855562
18	0x3d28d64e	0.041220002
19	0xbcacf1f2	-0.021111462
20	0x3e2227bf	0.15835474
21	0xbdb1c328	-0.08679801
22	0xbda5552b	-0.08072885
23	0xbd77100a	-0.06031803
24	0x3d8cdd29	0.068781205
25	0x3c02f10a	0.0079920385
26	0xbd95086a	-0.072769955
27	0x3d4b615b	0.049653392
28	0xbd481301	-0.04884625
29	0x3de10060	0.109864
30	0xbe14eeab	-0.1454417
31	0x3dccea50	0.10005629
32	0xbddf4126	-0.10901098
33	0xbd767b8e	-0.060176425
34	0x3b2d50ff	0.0026445983
35	0xbd99a9d9	-0.07503099
36	0xbd685c5d	-0.05672871
37	0xbe0c7324	-0.13715798
38	0x3db95627	0.090496354
39	0x3dbe915b	0.09305068
40	0xbe1af3db	-0.15132086
41	0x3d82ac5b	0.063805304
42	0xbdff208a	-0.12457378
43	0xbe17130f	-0.14753364
44	0xbebf5a4e	-0.37373585
45	0xbc937f23	-0.01800496
46	0xbe6a7caa	-0.22899118
47	0x3afcf5d7	0.001929934
48	0x3d0b71cc	0.034044072
49	0x3d2a0c33	0.04151554
50	0x3e3f73d9	0.18696536
51	0x3de4d40c	0.11173257
52	0x3db5bed8	0.08874291
53	0x3e9b0e97	0.3028457
54	0x3d01e200	0.03170967
55	0xbd09370d	-0.033499766
56	0x3d286241	0.041109327
57	0xbdb4b2ca	-0.08823164
58	0xbd890c53	-0.06691804
59	0x3debc79a	0.1151268
60	0xbd8cf30b	-0.06882294
61	0x3d0fd8f5	0.035119016
62	0x3daac396	0.08338086
63	0xbdc204b7	-0.094735555
64	0xbce52db4	-0.027975895
65	0xbcaaea9d	-0.020863825
66	0x3de41b91	0.111380704
67	0x3e0825f4	0.13295728
68	0x3d35d195	0.044389326
69	0x3e24751c	0.16060299
70	0xbce1e6db	-0.0275759
71	0x3e28fb34	0.16502076
72	0xbdcdb458	-0.100441635
73	0x3e533db5	0.20629008
74	0xbe40b022	-0.1881719
75	0x3d584851	0.05280334
76	0x3d56068d	0.05225234
77	0xbcdc3a9e	-0.02688342
78	0x3d53974a	0.051657952
79	0x3d7a1afb	0.061060887
80	0xbe209602	-0.15682223
81	0xbd2dd093	-0.04243524
82	0x3de6908b	0.11258038
83	0x3e7c69aa	0.24649683
84	0xbe9fc148	-0.3120215
85	0x3e1b115b	0.1514334
86	0xbdc63fe2	-0.096801534
87	0x3e6f7dc3	0.23387818
88	0xbe123d14	-0.14281112
89	0x3e26c72a	0.16286913
90	0xbe290c21	-0.16508533
91	0xbe35fd43	-0.17772393
92	0xbe471180	-0.1944027
93	0x3e3a5fcc	0.18200606
94	0x3d5e51c8	0.05427721
95	0x3b000e7f	0.001953989
96	0xbd6ec75d	-0.058295596
97	0xbd8c878e	-0.068617925
98	0xbd5786c6	-0.052618764
99	0x3e0a1a6d	0.13486643
100	0xbd96dc72	-0.07366265
101	0xbd205402	-0.039142616
102	0x3c80766d	0.01568147
103	0x3b9cf08d	0.004789418
104	0xbd9c8c06	-0.07643895
105	0x3d370464	0.04468192
106	0xbc4b28ed	-0.012399894
107	0x3e158e5a	0.14605084
108	0xbdae230d	-0.08502779
109	0xbd7d3fdb	-0.061828475
110	0x3d1e11bb	0.038591128
111	0xbdf60bd7	-0.12013977
112	0x3e130d77	0.14360605
113	0xbc49d3ff	-0.01231861
114	0xbda9373f	-0.082624905
115	0x3de8ea66	0.11372833
116	0xbde87bd0	-0.1135174
117	0xbded7abf	-0.115956776
118	0xbe0b763e	-0.13619325
119	0x3c2768cf	0.010217859
120	0x3e4c7964	0.19968182
121	0xbd05f25f	-0.032701846
122	0xbdb6100b	-0.08889779
123	0xba30d900	-0.00067462027
124	0x3db14309	0.08655364
125	0xbe17340d	-0.1476595
126	0x3e033150	0.1281178
127	0xbe0708d8	-0.13186967
128	0xbdb8ef82	-0.090300575
129	0xbdd53174	-0.10409823
130	0x3daa2d52	0.083094254
131	0x3de198f6	0.11015503
132	0x3da5f83b	0.08103987
133	0xbe2ccdb7	-0.16875349
134	0x3d839301	0.06424523
135	0xbc5b6701	-0.013391257
136	0x3d84fa03	0.064929985
137	0xbe20589b	-0.156588
138	0x3d9879a5	0.07445077
139	0x3cdc59bf	0.026898263
140	0x3c1652ff	0.009175061
141	0x3dd80a41	0.10548831
142	0xbbfcf6d3	-0.0077198534
143	0xbd1ed402	-0.038776405
144	0x3e16a190	0.14710069
145	0x3e60962d	0.21932288
146	0xbe2df1dc	-0.16986793
147	0xbd90fd74	-0.07079592
148	0x3e037bc0	0.12840176
149	0xbe42542d	-0.18977423
150	0xbe1ffa64	-0.1562286
151	0x3dbaef40	0.091276646
152	0x3dbc28db	0.0918748
153	0xbe35faec	-0.177715
154	0xbd618ac4	-0.055063978
155	0xbddcf23d	-0.10788391
156	0x3e425b00	0.18980026
157	0xbe0affeb	-0.13574187
158	0x3e421d0e	0.18956396
159	0xbe2511a5	-0.16120012
160	0xbd1c1ad8	-0.038111538
161	0xbe097ec2	-0.1342726
162	0xbe570bcd	-0.21000595
163	0x3e36eb9e	0.17863318
164	0x3bc3f5d5	0.005980233
165	0x3d49c24a	0.049257554
166	0xbd49efd5	-0.049300987
167	0xbd8a2a97	-0.067464046
168	0xbe82667a	-0.25468808
169	0xbcb50257	-0.022095842
170	0x3dc44e22	0.09585215
171	0xbe106e52	-0.14104584
172	0x3e3b6100	0.18298721
173	0x3e22ea90	0.15909791
174	0x3e4cc8b5	0.19998439
175	0x3dab69ed	0.08369813
176	0x3db427cd	0.08796654
177	0xbe1d2f00	-0.1534996
178	0x3d6732e4	0.056445017
179	0xbe17b90a	-0.1481668
180	0x3bb104d1	0.0054021855
181	0xbced8209	-0.02899267
182	0xbb83f16a	-0.0040265815
183	0xbe2b0f64	-0.1670509
184	0xbd04d0a4	-0.032425538
185	0x3e429831	0.19003369
186	0xbd2eb329	-0.04265133
187	0x3e1c8625	0.15285547
188	0x3dff0cbe	0.12453602
189	0xbb9c7e9b	-0.0047758347
190	0x3e08d0b9	0.13360871
191	0xbd91b66b	-0.071148716
192	0xbd837d02	-0.06420328
193	0xbd301f8e	-0.042998843
194	0x3e129026	0.14312801
195	0x3e05dcf4	0.13072568
196	0xbe2b51ee	-0.16730472
197	0x3e15f527	0.146443
198	0x3d742b77	0.059611764
199	0x3c550298	0.013001107
200	0xbe85c7f9	-0.2612913
201	0xbe2f9f9f	-0.17150734
202	0x3d4291b0	0.04750222
203	0x3d58abd1	0.052898232
204	0x3d8ce9b6	0.06880514
205	0x3e18c907	0.14920436
206	0x3c7b00d8	0.015320025
207	0x3de31bc2	0.11089279
208	0x3de37ec0	0.1110816
209	0xbd85950b	-0.06522568
210	0x3e7c64be	0.24647805
211	0xbd98af25	-0.07455281
212	0xbd9f6a67	-0.077839665
213	0x3d966225	0.07342938
214	0xbdc055e1	-0.0939138
215	0xbe2a8e36	-0.16655812
216	0x3da18531	0.07886732
217	0x3d8efbd0	0.06981623
218	0x3e04fa17	0.12986027
219	0xbc779f8d	-0.015113723
220	0xbd8820bf	-0.06646871
221	0xbe1fc719	-0.15603293
222	0x3d999862	0.07499768
223	0x3e11c3ab	0.14234798
224	0x3d0b64f6	0.03403183
225	0xbd96bb1a	-0.073599055
226	0x3d8c6a9d	0.06856272
227	0x3cf02b64	0.029317565
228	0xbe0ba5d4	-0.13637477
229	0x3c1ff2f7	0.009762517
230	0x3de400b7	0.11132949
231	0x3e1c20d0	0.15246892
232	0xbdea4c33	-0.11440315
233	0xbb9eb308	-0.0048431195
234	0x3dc65384	0.09683898
235	0x3e21fdfa	0.1581954
236	0xbde28c66	-0.11061935
237	0xbdbb8bd6	-0.09157531
238	0x3e5dc367	0.21656571
239	0xbe1b6d65	-0.1517845
240	0xbca6a47c	-0.020342104
241	0x3da57477	0.080788545
242	0xbd96027d	-0.07324693
243	0xbd17ec9b	-0.03709088
244	0xbe52bc33	-0.20579605
245	0xbd9697f1	-0.07353199
246	0xbe3cd246	-0.18439588
247	0xbc4a4720	-0.012346059
248	0xbdef4710	-0.11683476
249	0x3c16fab7	0.0092150485
250	0xbba4681b	-0.005017293
251	0xbe189ba5	-0.14903124
252	0x3ca620ac	0.020279251
253	0xbdbe2259	-0.09283895
254	0x3ddc0d3d	0.107447125
255	0x3d7ae457	0.061252918

pointwise.bias f4 [64]
0	0x3d7fe77b	0.062476616
1	0xbd9734e6	-0.073831365
2	0xbda09006	-0.0783997
3	0x3daa1941	0.08305598
4	0xbd98111f	-0.074251406
5	0x3e09141b	0.13386576
6	0x3e121bae	0.14268371
7	0x3de476fa	0.111555055
8	0xbd041e46	-0.032255433
9	0x3d1fc5c5	0.039006967
10	0xbe12c5d5	-0.1433328
11	0x3c1eecd0	0.009700015
12	0xbd355eae	-0.044279747
13	0xbd162d25	-0.036664147
14	0x3dfdb327	0.12387686
15	0x3dc0db25	0.094167985
16	0x3dc323fa	0.09528346
17	0x3e27a484	0.16371351
18	0xbd294f2c	-0.04133527
19	0xbdd8adfb	-0.10580059
20	0x3e23d37f	0.15998648
21	0x3c87ccab	0.016577085
22	0xbe08876c	-0.1333291
23	0xbdd6143a	-0.10453077
24	0x3df09839	0.11747784
25	0x3d96f915	0.073717274
26	0xbdf3823f	-0.11890077
27	0x3df050bd	0.117341496
28	0x3cea32ba	0.028588641
29	0x3ca2b456	0.019861382
30	0xbbf80eef	-0.0075701396
31	0xbd186d6a	-0.03721372
32	0xbc73e3f9	-0.014885896
33	0xbc4315d8	-0.011907063
34	0x3d64f480	0.055897236
35	0xbe2e0b57	-0.16996513
36	0xbd32c69c	-0.04364644
37	0x3d72ed1e	0.059308164
38	0xbd8ef815	-0.06980912
39	0xbc5ea7a0	-0.01358977
40	0x3e19c503	0.1501656
41	0xbddc41f5	-0.10754768
42	0x3c5a136a	0.013310293
43	0x3e2cfbfa	0.16892996
44	0x3e13fedf	0.14452694
45	0x3ba738e0	0.0051032156
46	0xbdccade9	-0.09994108
47	0x3da723cd	0.08161125
48	0x3db95a10	0.09050381
49	0xbd4cc917	-0.04999646
50	0xbe1593bb	-0.14607136
51	0xbdabb18f	-0.08383476
52	0x3e03a32f	0.12855218
53	0xbd2c75d2	-0.04210455
54	0x3e0f0b9d	0.13969274
55	0x3e415e0b	0.18883531
56	0xbd9ff87d	-0.07811067
57	0xbce8fb6e	-0.028440204
58	0xbda084aa	-0.07837804
59	0x3da5e52d	0.081003524
60	0xbc7389be	-0.014864383
61	0x3d85a9ce	0.06526528
62	0xbd12a78c	-0.035804316
63	0x3999b8d9	0.00029320156

fc.weight f4 [2, 1024]
0	0x3c4f521f	0.012653857
1	0xbd04fbd8	-0.03246674
2	0x3d120f4c	0.03565912
3	0x3c06ebd1	0.008234934
4	0x3bd8b1d5	0.006612996
5	0xbbb8e0ca	-0.0056420313
6	0x3c8a4fc2	0.016883735
7	0xbd2114b4	-0.039326385
8	0xbd1c66ac	-0.038183853
9	0x3a97c1f3	0.0011578187
10	0x3d304275	0.04303213
11	0x3d08b196	0.033372484
12	0xbbb121a5	-0.005405622
13	0x3c478cc4	0.012179557
14	0x3c54037d	0.012940285
15	0x3b3db470	0.002894666
16	0xbcc6cf4a	-0.024268765
17	0x3ad6576a	0.0016352956
18	0xbce3e2c7	-0.027818097
19	0x3aa6503c	0.0012688707
20	0xbc0c76e3	-0.008573267
21	0xbdc70479	-0.0971765
22	0xbd72eee6	-0.059309863
23	0xbcbf34db	-0.023340633
24	0xbd23675d	-0.039893497
25	0xbdd6877b	-0.104750596
26	0xbb5e127d	-0.0033885532
27	0xbc945567	-0.01810713
28	0xbd317609	-0.043325458
29	0x3b63c6f4	0.0034756036
30	0x3be19125	0.0068837577
31	0xbd6e0b51	-0.05811626
32	0x3daafddd	0.08349202
33	0x3d7c8c1a	0.06165705
34	0x3c1c367c	0.009534474
35	0xbd530384	-0.051517025
36	0x3d78338e	0.06059604
37	0x3c64ed83	0.013972643
38	0x3ad15cb9	0.0015973068
39	0x3c9fbb09	0.019498365
40	0x3d9a0647	0.075207286
41	0xbd9b3f9c	-0.07580492
42	0xbe03cf20	-0.1287198
43	0xbd035628	-0.032064587
44	0x3bf49f30	0.0074652657
45	0x3cce3ae6	0.02517457
46	0xbc129e6a	-0.008948902
47	0xbd3abed7	-0.045592155
48	0x3ca41e52	0.02003399
49	0xbccd60eb	-0.025070628
50	0x3c8e9e1d	0.017409379
51	0x3c9618cb	0.01832237
52	0xbbe452be	-0.0069678714
53	0x3cd7177f	0.026256321
54	0xbcd6c41d	-0.026216561
55	0x3d1db277	0.038500275
56	0x3cd054db	0.025431087
57	0xbc94b9e7	-0.018155051
58	0xbd099122	-0.033585675
59	0x3d23b5e6	0.039968394
60	0xbbac5e0c	-0.0052602347
61	0xbc1b469f	-0.009477287
62	0x3c5208bf	0.012819468
63	0xbcff958b	-0.031199237
64	0xbe28a925	-0.16470774
65	0xbe17262d	-0.14760657
66	0xbe17a1d7	-0.14807831
67	0xbe113826	-0.14181575
68	0xbe0a4e21	-0.13506366
69	0xbe3a5657	-0.18196999
70	0xbdf6f1c4	-0.12057832
71	0xbda78f67	-0.08181649
72	0xbe1fc415	-0.15602143
73	0xbdf86071	-0.1212777
74	0xbdd8d5db	-0.10587665
75	0xbded002a	-0.11572297
76	0xbe12558c	-0.14290446
77	0xbdeb2e0f	-0.11483394
78	0xbe104bed	-0.14091463
79	0xbe129caa	-0.14317575
80	0x39e2c86b	0.00043255402
81	0x3d028103	0.031861316
82	0x3d83d9ec	0.0643805
83	0x3cad0b23	0.021123474
84	0x3ca651e2	0.020302717
85	0x3d8dbc10	0.06920636
86	0x3ca0fa27	0.019650532
87	0x3d33d1b3	0.043901157
88	0x3c01ffcc	0.007934522
89	0x3db45e9f	0.0880711
90	0x3d7467dc	0.05966936
91	0x3cea30af	0.028587667
92	0x3d4b0cac	0.04957263
93	0x3d6a1afe	0.057154648
94	0x3d9bedba	0.07613702
95	0x3d0ab6e7	0.033865836
96	0x3cbb4201	0.022858622
97	0x3d678a3e	0.056528322
98	0x3d941b31	0.07231749
99	0xbb894276	-0.004188831
100	0x3d81d80d	0.063400365
101	0x3d4f2f73	0.05058236
102	0xbc8c90e5	-0.017158935
103	0x3cb8fb06	0.022580635
104	0x3c84ab63	0.016195005
105	0x3db451e9	0.088046856
106	0x3c7bdd7c	0.01537263
107	0x3ba02b18	0.0048879497
108	0xbc00b4c3	-0.007855597
109	0xbc513a74	-0.012770284
110	0xba448ca0	-0.00074977614
111	0x3c842c66	0.016134452
112	0xbc8a2f8c	-0.016868375
113	0x3bf1da8d	0.0073807896
114	0x3cfefed1	0.031127365
115	0x3c68554a	0.014180491
116	0x3d0bde20	0.03414738
117	0x3d3bdf77	0.04586741
118	0x3c74303e	0.01490408
119	0x3cc467c2	0.023975257
120	0xbbfa461e	-0.007637753
121	0x3cee2882	0.02907205
122	0xbd2e20ae	-0.042511635
123	0xbb4c022e	-0.003112923
124	0x3d0102b7	0.03149673
125	0x3cf5660a	0.029955883
126	0xbbe7c5e1	-0.0070731496
127	0x3b02b51e	0.001994438
128	0x3ce776d5	0.028254906
129	0xbb4778ba	-0.003043695
130	0x3d97f172	0.07419099
131	0x3d75e324	0.06003107
132	0xbc73e9f6	-0.014887324
133	0xbd7498ae	-0.05971592
134	0x3c828071	0.015930386
135	0xbda566b1	-0.080762275
136	0xbc1f6353	-0.009728271
137	0xbd87ceeb	-0.06631263
138	0x3cfcb4a3	0.030847853
139	0xbd98811f	-0.07446503
140	0x3d41f5e9	0.04735366
141	0x3c9b2aec	0.018941365
142	0x3d0f735b	0.03502212
143	0xbd388a22	-0.04505361
144	0xbb88e4af	-0.004177652
145	0x3b29e0ca	0.0025921338
146	0xbb2cf042	-0.0026388322
147	0xbc5a31f9	-0.0133175785
148	0xbb1fcca8	-0.002438346
149	0x3d54c643	0.05194689
150	0xbc4890c7	-0.012241549
151	0x3c81a914	0.015827693
152	0x3ace140c	0.0015722527
153	0x3c49520b	0.012287627
154	0x3dde0ddf	0.108424895
155	0x3d3381d5	0.04382499
156	0x3d3caf08	0.04606536
157	0x3cb5fd69	0.022215562
158	0x3daa58d1	0.08317722
159	0x3cfcf463	0.030878251
160	0xbdee2fab	-0.11630186
161	0xbd8ae7d7	-0.06782501
162	0xbda95d9e	-0.08269809
163	0xbd71f713	-0.05907352
164	0xbde02cad	-0.10946021
165	0xbe08abe0	-0.13346815
166	0xbda99557	-0.082804374
167	0x3c7b9211	0.015354649
168	0xbe13a98e	-0.14420149
169	0xbe0ff69c	-0.14058918
170	0xbd9ddfc6	-0.07708697
171	0xbd86fa5a	-0.065907195
172	0xbe194011	-0.14965846
173	0xbdf02409	-0.11725623
174	0xbdfad5b4	-0.12247792
175	0xbdffe03a	-0.1249394
176	0xbcb92598	-0.022600934
177	0xbcd18540	-0.025576234
178	0x3c0161d9	0.007896864
179	0x3ce4f7ea	0.027950246
180	0xbd1dba7a	-0.038507916
181	0xbd61e9b0	-0.055154502
182	0xbd5123fc	-0.051059708
183	0xbb798d7e	-0.003807872
184	0xbb9900a6	-0.0046692668
185	0xbc88641e	-0.016649302
186	0xbc934808	-0.017978683
187	0xbbad5bb4	-0.005290473
188	0xbad56b9c	-0.001628268
189	0x39e07a43	0.000428157
190	0x3c5ec642	0.013597073
191	0xbc2290e1	-0.009922237
192	0x3c82582f	0.01591119
193	0x3d2713b1	0.040790264
194	0x3cf482d6	0.029847544
195	0x3cc4ea0b	0.024037382
196	0xbc917ce1	-0.017759742
197	0xbc30e600	-0.010797024
198	0x3c8e8a1c	0.01739984
199	0x3c71e5e2	0.014764281
200	0xbbbcca7f	-0.005761444
201	0x3d45e984	0.0483184
202	0x3cc1ea04	0.023671158
203	0x3c9502bf	0.018189786
204	0x3ca58849	0.020206587
205	0x3d0e2e63	0.034712207
206	0x3b840aa3	0.0040295883
207	0x3ab53b25	0.001382683
208	0x3ccc67bb	0.024951806
209	0x3db12f8b	0.08651646
210	0x3d0b96d7	0.0340794
211	0x3c39392e	0.011305137
212	0x3d248391	0.040164534
213	0x3d6f70d2	0.058457203
214	0x3d6763ed	0.05649178
215	0x3dbbd84d	0.091721155
216	0x3d34cac2	0.044138677
217	0x3d78c814	0.060737684
218	0x3dcbfd3b	0.09960409
219	0x3d8e8081	0.06958104
220	0x3dacbd5a	0.084345534
221	0x3d64d805	0.055870075
222	0x3da20b73	0.0791234
223	0x3d4ee98f	0.050515708
224	0xbc8fdf96	-0.017562669
225	0x3c26cbb0	0.010180399
226	0x3b08147f	0.002076417
227	0x3b20ddd4	0.0024546282
228	0xbd0303ec	-0.031986162
229	0x3cd1e283	0.025620705
230	0xbcbc2d99	-0.022970961
231	0x3cf346a5	0.029696772
232	0xbc426d4e	-0.011866881
233	0x3bb934fd	0.0056520686
234	0x3d34bda3	0.044126164
235	0x3d1cd6a4	0.038290635
236	0x3c9204fa	0.017824639
237	0x3c22ba70	0.0099321455
238	0x3ca9ff60	0.020751655
239	0xbcc7f0c8	-0.024406806
240	0xbdc55949	-0.096361704
241	0xbdbf119d	-0.09329531
242	0xbd91aa75	-0.0711259
243	0xbdaadd10	-0.083429456
244	0xbd3b785c	-0.04576908
245	0xbde6e80d	-0.11274729
246	0xbdb89f5c	-0.090147704
247	0xbd491c97	-0.04909953
248	0xbd9cbb01	-0.07652856
249	0xbe1950cc	-0.14972228
250	0xbd4a91ae	-0.049455337
251	0xbd3b6cee	-0.04575818
252	0xbdcf91b6	-0.10135214
253	0xbdb4e48c	-0.08832654
254	0xbdc43ba4	-0.09581688
255	0xbdd4ba4d	-0.103870966

fc.bias f4 [2]
0	0x3c50b340	0.012738049
1	0xbcab769f	-0.020930586
