model/CNN/saved_models/split_pad9_patch50/smallcnn4_fold5_pad9_patch50.pth (torch, 35659 bytes, 12 tensors)

conv1.weight f4 [32, 10, 3, 3]
00000000: ee6d e83d 5716 7c3d be52 d63d 614d 523d
00000010: 770e 5c3c 3d27 4d3d 90c3 183e ec0d ab3d
00000020: a509 113e f155 cdbd 118a 9bbd 3f65 c5bd
00000030: c46a bf3c f52a d6bd dc5c 123c bd1a ef3c
00000040: a598 7c3c add5 413c a449 9d3c 5b2f 6c3c
00000050: 483f c03d 1ced 9d3d c13f c7bd 5813 7cbc
00000060: 98d9 803d 16a3 943d 115b 17bc ab7b 9ebd
00000070: b911 1c3d d70e 1e3d 942c 9c3c c9b6 a5bd
00000080: 8b0e 4dbc cb91 da3c 5966 343c 6b90 3bbd
00000090: 7b33 7a3d d799 4a3d 8f9a 3e3d 04ce e23c
000000a0: f841 abbd e111 653d 1833 8ebc 3933 693d
000000b0: 155f 00ba f95b 29bd 4c91 9d3d cf8f 09bd
000000c0: cadc 2cbd 78eb 7fbc 108b 5e3d c724 ee3b
000000d0: 76a4 073c 1b68 46bd a25c 873d f199 673d
000000e0: fb78 9d3d e8de bfbc dfc8 d43d 2c15 983d
000000f0: 013a 903d f79d 7d3d 635f 90bd 43b3 8b3c
00000100: ccdc 993c a209 963d b01f c03d 3d9c 8a38
00000110: 9379 993d d6e5 bd3d dec8 0c3e c186 2bbd
00000120: 89c3 acbc 3f5d 9fbd 78ee cfbc 621c 79bd
00000130: 4cf6 b9bd fd62 d5bc bbaf 973c 23a7 3b3d
00000140: 20e5 1b3c a7d7 4cbc c617 6bbd 7f4e d6bc
00000150: 894d b8bc 16a3 69bd 0a45 833b de38 55bd
00000160: 376a a33d 73c1 e5bc f17a f83c a98b 2bbe
00000170: 1826 06be 9482 9ebd e90c dabd 6c61 20be
00000180: 5d1d efbb 361a 8c3b 72c2 5cbd 81bc 49bd
00000190: 7271 e23d 2696 e53d e534 b13d 8dfb c23c
000001a0: a3ed 263d 9daf 6abd 419a 963d 5447 4f3d
000001b0: 754f 05bd 0eb4 0f3e 4ab5 3a3e be3a 893d
000001c0: f9cd 0d3d a46f bdbc 1b7a d23c d814 8d3c
000001d0: 12c1 54bc d52a cbbc 35a3 483c e675 233d
000001e0: 3d04 3f3b 2e1d 9e3c 4bf4 783d 9596 123d
000001f0: 34ea d4bb 12d4 723d d39e dd3b 99b0 323d
00000200: efd5 a6bd c91e 93bd dbd0 22bc 1cc8 0e3d
00000210: c28e a43b ec24 79bd 18ca e5bd 4fab 90bc
00000220: c646 4f39 e58a 5abd ecfe 7c3c 455d b0bd
00000230: a8c6 8bbd 8342 23bd a779 633d d9e1 443d
00000240: 8282 81bd 83ee 2b3d 8eef 13bd c0c9 613d
00000250: 14d9 47bc 09d7 68bd 029f 873d fdae 5b3d
00000260: b063 073d 2792 4c3d a888 e2ba 97e6 d9bd
00000270: 6d32 a53b 66e8 cbbd 1889 a2bd a9a1 32bd
00000280: 7f8d 1d3d a274 1f3b f045 00bc f85b 413b
00000290: bac2 3f3d 5602 4cbd 222f 42bd 02fc 013e
000002a0: c1eb 163d 313f b7bd 327d 553d 3bab 563d
000002b0: a1f9 ae3d 9b33 df3d e7af 19bc 339d 423c
000002c0: a7a6 f4bc 90ef 2f3d d556 d03d c26f 913c
000002d0: ba9c 6ebd 1e60 c4bd 72b1 3abd 541a 3fbd
000002e0: c262 76bd 1bc5 413d e5dd aabd e75f 92bc
000002f0: 4a9d 913d 429d d23c 3804 debc 310a 923c
00000300: 47cf 323d 88fa e53d d956 7fbd 583d f83d
00000310: 6f0e 243c f046 943d 132b c5bd 9e10 843d
00000320: 4852 b3bd 8fb2 8c3d 0b7c 3a3d a5d3 ad3c
00000330: af36 27bc b274 88bd d74d babd 8068 85bd
00000340: 62e0 edbd d5d5 823d deab d4bd a948 ca3c
00000350: c5e6 883d 4964 033d 8ffd e1bc 906c 2bbd
00000360: b952 33bd 4c34 8f3d ba50 fa3c d161 adbd
00000370: 5830 f6bc ca04 fbbc 7afd 59bd d593 503c
00000380: 8963 efba 39b7 dc3a 553f 6bbd b67e 883d
00000390: 90b0 07bd 8bc9 2f39 0c31 793d 614f 043d
000003a0: d0bc aa3d cd57 e9bc 7cd1 ee3c ee82 52bd
000003b0: 7e53 6ebd d126 dd3c 62e6 bb3d afa2 bd3d
000003c0: 4ed3 c13d 7b49 01bd b856 493d 4198 cfbd
000003d0: 2665 47bd 89ff bcbb 0a65 61bd ba0a d3bd
000003e0: 289c 5d3c c0a8 2fbd 8b9a b9bd 5b0d 39bd
000003f0: de37 803d ccc5 d63d 35d6 62bd e32c 623d
0.113490924 0.061544742 0.104650006 0.051343326 0.013431183 0.05008625 0.14918351 0.08352265
0.14163835 -0.10026158 -0.075946935 -0.09638452 0.02336634 -0.10457412 0.008933272 0.029187554
0.015417253 0.011830729 0.019200154 0.014415587 0.0938707 0.07711241 -0.09728957 -0.015385471
0.06291503 0.07257669 -0.0092380205 -0.077384315 0.03810284 0.03858837 0.019064225 -0.08091504
-0.012515674 0.026680848 0.01101073 -0.045792025 0.06108425 0.04946312 0.046534117 0.027686127
-0.08362192 0.055925254 -0.017358348 0.056933615 -0.0004896981 -0.041347478 0.07693729 -0.033584412
-0.04220275 -0.015620105 0.05433184 0.007267568 0.008278957 -0.048439126 0.06609465 0.056543294
0.07689091 -0.02342172 0.103898756 0.07425913 0.07042313 0.061918225 -0.070494436 0.017053252
0.018782042 0.07326056 0.09381044 6.6094544e-05 0.074938916 0.09272353 0.137485 -0.04187656
-0.021089332 -0.07781457 -0.025382265 -0.060818084 -0.090801805 -0.026048178 0.018516412 0.04581369
0.009515077 -0.012502587 -0.05739572 -0.026160477 -0.02249791 -0.057040296 0.004006033 -0.052056186
0.07979243 -0.028046345 0.03033206 -0.16752495 -0.13100469 -0.077397496 -0.10646994 -0.15662163
-0.0072972015 0.0042755855 -0.053896375 -0.049252037 0.11056794 0.11210279 0.08652667 0.02380159
0.04075397 -0.057296384 0.0735364 0.050605133 -0.03254648 0.14033529 0.18233219 0.06700657
0.03462026 -0.023124523 0.02569299 0.017221853 -0.012985485 -0.024800697 0.012245943 0.03990736
0.0029146813 0.019301023 0.06077985 0.035788137 -0.0064976458 0.059284277 0.006763318 0.043625448
-0.08146273 -0.07183606 -0.00993749 0.034858808 0.005021901 -0.060826227 -0.11220187 -0.017659811
0.00019767424 -0.053355116 0.0154416375 -0.0861154 -0.06825 -0.039858352 0.05553594 0.048066948
-0.063237205 0.04197551 -0.03611713 0.055124044 -0.012197752 -0.0568457 0.06622125 0.05363368
0.033054054 0.04994407 -0.0017283158 -0.10639685 0.0050414116 -0.09956436 -0.07936305 -0.043611202
0.03846502 0.0024330993 -0.007829174 0.002950428 0.046816565 -0.049806915 -0.04740823 0.1269379
0.036845926 -0.089476 0.05212135 0.05240939 0.08543707 0.10898515 -0.009380317 0.0118782995
-0.029864622 0.042953074 0.10172812 0.017753486 -0.058254935 -0.095886454 -0.04557938 -0.046655968
-0.060152777 0.047307115 -0.08343104 -0.017867995 0.07110079 0.025709752 -0.027101621 0.017827125
0.043654706 0.11229426 -0.062338684 0.121210754 0.010013207 0.07240093 -0.096273564 0.06448482
-0.08755928 0.06869995 0.045528453 0.021219084 -0.010205909 -0.06662883 -0.09096878 -0.065140724
-0.11615063 0.063884415 -0.103843436 0.02469285 0.06684641 0.03207806 -0.027586726 -0.04185158
-0.043780062 0.06992397 0.030556072 -0.084659226 -0.030052349 -0.030641932 -0.05322025 0.012730558
-0.0018263917 0.0016839273 -0.057433445 0.06664793 -0.033127367 0.00016764381 0.06083779 0.032302264
0.083367944 -0.02848425 0.029152624 -0.051394396 -0.058185093 0.026996048 0.091748014 0.09259545
0.09464131 -0.031564217 0.049154967 -0.10136462 -0.048680447 -0.005767767 -0.055028 -0.1030478
0.013526 -0.042885542 -0.0906268 -0.045178752 0.06260656 0.104869455 -0.055380065 0.05521859

conv1.bias f4 [32]
00000000: e8c4 c8ba de7b d0bd 3909 af3c 0a59 283d
00000010: 88c6 66bd d522 02bd 6288 19bd aabf 26bd
00000020: 9d65 a53d 4995 883d faed b83d 71fd e6bc
00000030: 2dd9 b13d ba4a 913d d603 883d d7ee 873d
00000040: 5d68 043d 3a6b c53d e887 b3bd 6ed6 16bc
00000050: 4cd0 28bd 71d7 703d 3bf9 cf3d 9529 d73d
00000060: 3382 94bd 10ef 09bd 0b86 88bc 6484 9b3d
00000070: 941b 9cbd 1a84 9ebd 8301 9dbd c3a0 b1bc
-0.0015317472 -0.10179876 0.021366702 0.04110054 -0.056341678 -0.0317715 -0.03748358 -0.04071013
0.08076022 0.06669099 0.090297654 -0.028197022 0.08684001 0.07094331 0.06641357 0.06637352
0.03232609 0.096395925 -0.087661564 -0.009206397 -0.041214272 0.05879921 0.10154959 0.10505978
-0.07251396 -0.033675253 -0.01666548 0.07593611 -0.076224476 -0.0774004 -0.07666304 -0.021683102

bn1.weight f4 [32]
00000000: c610 7e3f 2ff9 883f 4c93 823f 9aa3 743f
00000010: 124f 833f a484 843f 7c54 823f e12b 7e3f
00000020: 46ed 813f d174 893f af94 843f dc27 823f
00000030: bc02 813f 44bf 813f c396 823f 9b8f 833f
00000040: 0ea8 833f efff 873f 2e06 813f bb42 7e3f
00000050: 53e0 833f 568e 803f 479d 843f 31ab 793f
00000060: 2140 863f b500 823f a602 823f d6b8 873f
00000070: c498 863f f42a 823f 3448 843f 2a51 803f
0.99244344 1.0701045 1.0201201 0.95562136 1.0258505 1.0352979 1.0182033 0.99285704
1.0150535 1.0738775 1.0357875 1.0168414 1.007896 1.0136495 1.0202259 1.02782
1.0285661 1.062498 1.0080011 0.9932057 1.0302833 1.0043437 1.0360497 0.9752684
1.048832 1.0156466 1.0157058 1.0603282 1.051537 1.0169358 1.0334535 1.0024769

bn1.bias f4 [32]
00000000: 26ff 99bc 0509 5b3a 7195 87bc 18c7 41bd
00000010: b1b0 0cbc f5e7 313c 20ca f8bc 0034 f5bc
00000020: 05fd b1bc dc22 023c 8041 01bc 1bc9 27bc
00000030: fd25 e0bc 6d31 76bc e3d7 9c39 a140 4bba
00000040: 7c3c c0bc 750c 59bb 40ed a9bc fb05 e3bc
00000050: bf0e 15bc 6ed5 44bc c028 6bbc 755d 10bc
00000060: c4dd cabc 202d 323b 46e2 493b cdf3 363c
00000070: 5422 c73b f36c 98bc d98c ed39 06db dbbc
-0.018798422 0.0008355531 -0.016550751 -0.04730901 -0.008587048 0.0108585255 -0.030369818 -0.029932022
-0.021727094 0.007942881 -0.007889152 -0.010240818 -0.027361864 -0.015026432 0.00029915487 -0.0007753466
-0.023466341 -0.0033118997 -0.020743012 -0.027712813 -0.009097754 -0.012013776 -0.014352977 -0.008811344
-0.02476395 0.002718754 0.0030805035 0.011166525 0.0060770903 -0.018606639 0.00045309102 -0.026837837

bn1.running_mean f4 [32]
00000000: c8bc 86ba f6ba d1bd 68ec ad3c d56f 293d
00000010: 3e83 65bd 808a 01bd 19f0 19bd 5bce 26bd
00000020: b358 a53d cb2c 883d 78d4 b93d 997f edbc
00000030: 9707 b33d 3d25 913d 6599 873d ddeb 873d
00000040: e806 043d 70e1 c43d 487d b1bd 2859 1ebc
00000050: d474 28bd b6dc 713d a7a1 d03d f549 d73d
00000060: 1f86 95bd 347f 0bbd 8cae 88bc 1ccf 9a3d
00000070: ec86 9cbd 7ad0 9ebd 674a 9fbd f5a3 b0bc
-0.001027965 -0.10240738 0.021230891 0.041366417 -0.056033365 -0.031626225 -0.03758249 -0.04072414
0.08073559 0.066491686 0.09073728 -0.028991507 0.08741682 0.07087181 0.066210546 0.06636784
0.03223315 0.09613311 -0.086664736 -0.009664811 -0.04112704 0.059048377 0.10187083 0.10512153
-0.07300972 -0.034056857 -0.016684793 0.07559034 -0.07642922 -0.077546075 -0.07777863 -0.021562556

bn1.running_var f4 [32]
00000000: f7c0 aa3e 02fe 833e 750c d73d cffe a03e
00000010: fde5 603e 4987 963f c83c cb3d 7dbd 003f
00000020: 1cb8 673e fe91 ad3e bfca d93d 0bfd 513e
00000030: aa60 473e baad 353e 2430 103e bd95 6f3e
00000040: 0017 9a3e a5ce 983e 01e4 5b3f 06ba 823e
00000050: 51dd 913e f87e 0b3f e782 cf3d ab3d 853f
00000060: 4367 d63d f9b9 ee3e 7a04 973e 14b1 273e
00000070: afa8 103e d5cd 8b3e f0aa 0f3e d848 823e
0.33350345 0.2577973 0.10500423 0.31444404 0.21962734 1.1760036 0.099237025 0.50289136
0.22628826 0.33900446 0.10634374 0.20506684 0.19470468 0.17742053 0.14080864 0.23396964
0.30095673 0.29845157 0.8589478 0.2553255 0.28489164 0.54490614 0.101323895 1.0409445
0.10468914 0.4662626 0.29495603 0.16376144 0.14126848 0.27305475 0.14030051 0.254462

depthwise.weight f4 [32, 1, 3, 3]
00000000: 48df 0cbc 5f6a 56be 7472 a2be d0f9 023e
00000010: c2c4 49bd 473d 00bd 4fbc acbe 508f 973e
00000020: 3d5d 023e f995 72be 8cf5 1d3e 1408 883e
00000030: 94f5 b0be 8d96 6d3e 0369 5d3e 1bc4 73be
00000040: f841 8d3e bd22 67be 611a 623e de9a edbd
00000050: 389e e03d 9d39 1cbe 747a bf3d d18f 1f3e
00000060: 1952 89bc ee88 3abe 71ed 893e 1c3e 89be
00000070: 7d5d 04bd 34a9 203e dbe8 0d3d 3f16 5bbe
00000080: 0a1b 403e d84c 0ebd a24f 0a3e 07fd 663d
00000090: 8fb0 21bd c204 0b3e a940 ae3e bb29 8bbd
000000a0: 2c87 88be dd70 9d3e 8966 ac3d 4d5a 9f3e
000000b0: f633 78be ec5f 68bb 421b d8bd d9d7 a63e
000000c0: 1328 c63e 705e 853e 4180 8d3e 8919 a8bd
000000d0: 7e06 57be c64f 06bd c7d3 32bd 2f27 61bc
000000e0: 888e b0be 691c fa3d ef78 a33e c5ae dcbd
000000f0: ccb1 313e a15c b4bd 37c5 a6be 389f 72be
00000100: ea33 c33e dcb5 55be b834 c73d ce84 053e
00000110: c70a 4d3e baab 193e e4bc 753d 036c 06be
00000120: 7f7f fbbd f2bb 45be 1c1f 813e f8d8 20bd
00000130: 3b89 7fbe e352 07be 9061 96be b562 853e
00000140: 46d7 9e3e 642c a63e 9ad4 793b 2850 84be
00000150: 961e 9dbd fda6 f03c d9e1 84be c787 8c3e
00000160: 3908 903e 119d 3e3d 1e94 063e 280b 843e
00000170: 90aa 02be b985 883e 6999 07be 440f 1c3c
00000180: ed4c 123e 2cf1 5c3c f20c 613d 25eb d13d
00000190: fed1 a6be 8dca 15be 47bd 51be 23cf 89be
000001a0: 10fa 063e 6e25 b3be 3858 70bd 1bdd adbe
000001b0: bdd2 0d3e a9b1 a53e 57ea 50be 58e3 a33e
000001c0: 8014 b7bd cf20 81be 952b 3bbe 0829 a03d
000001d0: be89 85bd 5864 a53e 3b11 8b3e 16c3 a23d
000001e0: ef08 aabe 5d3a 9dbe 1ef0 3abd 84bd 26be
000001f0: 80e7 a0be 2608 863e 6ebf c8bd 6ee3 053e
00000200: c05d 0cbd 0776 0b3e 2b14 873e a632 a5bd
00000210: 7284 34be 7d66 653e 80ab 343e 6fa2 ea3d
00000220: a176 27be 528a bdbc 9b38 a3be 898e 3f3e
00000230: ffbf e1bd 111e 01bd 4c94 62be 79f3 2abe
00000240: 365f a8be 0618 61bd 8795 8b3e 15b8 47be
00000250: 87bb 933d 6728 2e3e 8ee9 56bd ce65 6f3e
00000260: 4ba5 8f3e d48b b2be 2939 343e b1d3 be3e
00000270: 1b38 c03b 64a1 87be 4da9 cabd f668 b0be
00000280: cf7e a4be 61dc 963e 13a6 133d 2937 febd
00000290: 7ea9 12be 1eda dbba 49eb 463e 18b8 7abe
000002a0: 7226 89be d7e5 bb3d e042 cc3d c5ea acbd
000002b0: ec61 da3c d47a 05bd 793b 433e a2c5 9c3c
000002c0: 6aff 97be caa3 973d 34c7 96be 6197 61be
000002d0: 312f 93be ed69 57be 476b b03d 1da3 65bd
000002e0: f224 803e 6172 683e 80e9 40be cf5b 433e
000002f0: 377a 013e 9f9f 913c 9ba2 41be ec37 533e
00000300: 33ff 88bd b257 fcbd eac1 dd3d bc2d 80be
00000310: 3748 19bd 9241 9ebe b9bf 853e 40c2 5fbe
00000320: 7174 a6be 882f 93be 9a0f 99be 52e0 acbd
00000330: 5fa7 443e 5d0f 50be cc7f f9bd 2d8f 31be
00000340: a1e7 463e 6b66 8c3c e70b 13bc 6f0b 8dbe
00000350: 584f 943e 3f86 e2bd 53ef 693e fa91 77bd
00000360: 178b d73d 85f4 f13d 2d90 5cbe 8f1c b13e
00000370: 471e 0b3e 200d 833e 9287 d93d d9a9 553e
00000380: 6fa2 30bd 8f98 803e 951d fcbd 63dc 273e
00000390: 08c3 103d e279 6d3d 9247 a53e f847 533e
000003a0: 5634 8ebe 86cf a13e 56ec 9abe df91 94be
000003b0: 6b2c 893e a5f9 a2be 6fb5 e33d 5024 89be
000003c0: 4803 573e 510e 683e a4c2 9abe 5073 0abe
000003d0: 28e8 41bc 2046 ebbd e9ae e9bc 7455 19be
000003e0: 73df f1bd 3422 a9be d174 4c3c d712 03be
000003f0: a217 8b3e f0fb 823e 22c1 bd3d 0b36 933d
-0.008598156 -0.20939015 -0.31727946 0.12790608 -0.04925991 -0.03130844 -0.33737418 0.29601526
0.1273088 -0.23690023 0.154257 0.26568663 -0.3456236 0.23201962 0.2162209 -0.23805277
0.27589393 -0.22571845 0.22080375 -0.11601804 0.10967678 -0.15256353 0.09349528 0.15582205
-0.01676278 -0.18216297 0.26938966 -0.26805198 -0.03231572 0.15689546 0.034645896 -0.21395205
0.18760315 -0.034741253 0.1350694 0.05639365 -0.03947502 0.13576034 0.34033707 -0.06795069
-0.26665628 0.3075017 0.084179945 0.31123582 -0.24238572 -0.0035457565 -0.10552074 0.32586554
0.3870245 0.26048613 0.27636912 -0.082079954 -0.2099857 -0.03279092 -0.043658998 -0.013742252
-0.34483743 0.1221245 0.31928203 -0.10775522 0.1735298 -0.0880673 -0.32572338 -0.2369355
0.38125545 -0.20870155 0.09726852 0.13038942 0.20023642 0.15006915 0.059994593 -0.1312714
-0.12280177 -0.19309977 0.25219047 -0.039269418 -0.24954693 -0.13215213 -0.2937131 0.2605187
0.31023616 0.32455742 0.0038121105 -0.25842404 -0.076718494 0.029376501 -0.25953558 0.2744734
0.28131273 0.04653651 0.1314244 0.25789762 -0.12760377 0.26664522 -0.13242115 0.009525124
0.14287157 0.013485234 0.054943986 0.102499284 -0.32582086 -0.14628048 -0.2048236 -0.26915845
0.13181329 -0.34989494 -0.058677882 -0.33957753 0.13849922 0.32362106 -0.20401894 0.32009387
-0.08939457 -0.25220343 -0.18278344 0.07820326 -0.06520413 0.3230312 0.27161583 0.07947366
-0.3320994 -0.3070859 -0.04563915 -0.16283232 -0.3142662 0.26178092 -0.09802137 0.13075039
-0.034269094 0.13619243 0.26382574 -0.08066301 -0.17628649 0.22402377 0.17643547 0.11456763
-0.16353847 -0.023137245 -0.31879124 0.18706717 -0.110229485 -0.031522814 -0.22126883 -0.1669444
-0.3288514 -0.05495455 0.27262518 -0.19503815 0.072135024 0.170076 -0.05246883 0.23378679
0.28055796 -0.34872305 0.1759993 0.37270883 0.0058660633 -0.2649032 -0.09895573 -0.3445508
-0.32127997 0.2946501 0.036047053 -0.12412865 -0.14322469 -0.0016773378 0.19425692 -0.24484289
-0.26787144 0.09174698 0.09973693 -0.08443216 0.02665802 -0.03258784 0.19065656 0.019137207
-0.29687053 0.07404287 -0.29448855 -0.22030403 -0.28746942 -0.21036501 0.086142115 -0.05606376
0.25028187 0.22699882 -0.18839073 0.19077991 0.12644278 0.017776309 -0.18909685 0.20626801
-0.066893004 -0.12321414 0.10828002 -0.25034893 -0.037422385 -0.309094 0.26122835 -0.21851444
-0.32510713 -0.287472 -0.29894716 -0.08441223 0.19204472 -0.2031836 -0.121825784 -0.17339773
0.19424297 0.01713868 -0.008975006 -0.27547786 0.28966784 -0.11060762 0.22845201 -0.06044195
0.10524576 0.118142165 -0.21539374 0.345921 0.13585769 0.2559595 0.10621561 0.20865573
-0.04312366 0.25116393 -0.1231033 0.16392665 0.035342246 0.057977565 0.32281166 0.20632923
-0.27774304 0.3160364 -0.30258435 -0.2901754 0.267917 -0.3183109 0.1111859 -0.26785517
0.20997345 0.22661711 -0.30226624 -0.1352055 -0.0118351355 -0.11487985 -0.028525786 -0.14974004
-0.11810198 -0.33033907 0.012479023 -0.12800156 0.27166468 0.25582838 0.09265353 0.07188042

depthwise.bias f4 [32]
00000000: dcf0 aa3e 041a 85be 43ee fabd 58d5 5ebd
00000010: 3693 bdbd f3b3 86be a48f 0f3e db8d 273e
00000020: 435c 403e 2394 9cbe e2b3 353d f030 82be
00000030: 6b99 a23e 0307 e83c 239c a23e e028 30bc
00000040: 7435 b7be 8945 5ebc 264e 963d f465 2c3d
00000050: c9fa 793e 0788 68be 5bf5 763b aa16 89bd
00000060: 5cad 95be b96e fa3d 790d 8cbe d1d9 793e
00000070: b7d6 823e 4920 62be 6404 f2bd e506 f8bc
0.33386886 -0.2599641 -0.12252476 -0.05440268 -0.09256594 -0.26309165 0.14019638 0.16362707
0.18785195 -0.3058177 0.044361003 -0.2542796 0.31757674 0.028323656 0.31759748 -0.010751933
-0.3578297 -0.013566383 0.073391244 0.042089418 0.24412073 -0.2270814 0.0037682864 -0.06693776
-0.29233825 0.1222815 -0.2735403 0.24399497 0.2555444 -0.22082628 -0.11817244 -0.030276725

pointwise.weight f4 [64, 32, 1, 1]
00000000: 5129 cd3b 55e1 093e f21c 19bd 5c86 403e
00000010: 8efc 41bc 26d7 b93d fd88 c33c cfb0 50bd
00000020: ddae 1ebd 99f4 07be 022c 6d3d 6395 31bc
00000030: 2f98 35be 81e3 cb3d 4a24 a53d 7930 38be
00000040: 43f8 32be a030 bf3d 708c 1d3e dbb7 b63d
00000050: bb5a c83d 279c 23be 50c4 e2bc dcf9 133e
00000060: a3a9 b83d a7de 38be 165f 9d3d 9f84 c9bd
00000070: 681f 4dbd d293 35bd d47b c0bd 0fe9 a23c
00000080: 6e1d 733d fb1c 7b3d bac3 693d 76e0 c8bd
00000090: 9a3b 5d3d f535 01be 7335 e4bd 1aaa 1f3e
000000a0: 46b4 e33c 2f30 c6bd 1425 4b3e c033 7b3d
000000b0: b542 e7bc ffca 2c3e 41c8 54bc c602 3cbe
000000c0: a0dd 703d 0086 363e 943f b43d 1c67 35be
000000d0: 5cc9 6fbc d25f e83d 8560 efbd aa54 04bd
000000e0: 59d0 533d 6d52 a1bd 5d2b c03d bf25 6ebe
000000f0: 2767 87bd 5340 353e dba9 013e 3c38 b73d
00000100: 5874 29bc 34dd a5bd bb09 103d 8889 cabd
00000110: bd0e 91bd fc8b 1abe 0e52 1fbe 0db7 d93d
00000120: 2b51 4abd 3680 6f3e 4e33 623d b22e 35bd
00000130: 569e bf3c de90 0c3e 4f45 0a3c 8246 ea3d
00000140: b70e 25bd 06d2 07be 44ff c73d 2459 603a
00000150: fa76 febd d762 2e3e b1bf d5bb a1dd 84bb
00000160: d784 6f3e 8657 96bd 71c1 bbbd e65e 62be
00000170: f211 333d c051 483e a1ed 6c3c 51f0 863d
00000180: 79df ed3d fa40 e73d 356d debd 54d1 75bd
00000190: 5b69 5f3d b79b 22be 28ad e03d 6bdb 23bd
000001a0: 0e8f bebd c2fe 243e 9871 1e3e d68f 0ebe
000001b0: 7b61 dcbd 6e11 e9bc f595 aabd 8ea0 9cbd
000001c0: b2e7 a03d 53a1 313e 5f6a 983b 4170 823d
000001d0: 8015 ac3c bdec 353d af6b 4bbc 8dc3 8fbd
000001e0: 251b d93d 5477 9c3d 8e63 38be 388e 6b3c
000001f0: 187a 693c 83b7 62bd d02a d9bd d2e2 103e
00000200: ea22 1d3e 8fce d5bd 18a5 973d 6d8f 81bc
00000210: 48a9 533e ea7e 1ebe c041 3c3c 936d babd
00000220: 8e37 503e 84d7 c23c 88eb f63d 2000 b53c
00000230: e4b3 30bc 1c00 f0bd 00ef 3a3d 9c5e 13be
00000240: e3a4 1a3e e637 1d3d 8f60 0fbd c69c 52bd
00000250: 1e29 48bd 9d3a 85bd a769 06be 6dbe 373e
00000260: 5b66 37be 698b 1a3e 8d93 183e 097a b33d
00000270: a98c d83d 02f4 da3d a205 1abe 096b 873d
00000280: 9f34 35bd edb8 703d ff6b ce3d 6644 9a3d
00000290: 4341 3e3e 5f8b 813d 03b1 883c 4cad 283e
000002a0: 7847 bf3d a700 84bd 351c 443e 87a4 18be
000002b0: 4210 8ebb e68e 05be ffdc c6bc 4941 b7bd
000002c0: 8d11 083d 9d83 893b 10f3 50be 3a53 e83a
000002d0: bbed c43d 3d1f 09bd 6aed ba3c 8f37 1cbe
000002e0: 2ab4 91be fd39 0ebe c17b 0cbe b06d 2dbd
000002f0: a08f 8a3c 692a edbc 4360 11be 716d d33c
00000300: d8b5 2ebe ef2b 52bd 0dbb 91bd 677b e6bd
00000310: 1144 0abd 0f94 2b3e 0b27 d33c dae0 313e
00000320: ef1f 7c3d cc34 20be ab44 0f3e 9680 d1bd
00000330: 9993 45bd 87ef 893c b9ae 1d3e e21c ef3d
00000340: 4859 62bb 0efc 2cbe c553 aebd 8ed7 0a3e
00000350: 0322 dc3d b746 9cbd a741 e53d a89b 2f3c
00000360: 047e 28be b0d9 fa3d 725f 3abe 1896 073e
00000370: 072f 133d 3b4e 4fbe a156 3bbe a238 953b
00000380: 6549 3f3c c1d3 303d 7ff2 d53b a458 5cbe
00000390: 422c db3d d6e9 d0bd 8dfd 083e c186 54bd
000003a0: 6daa 283d 181d fc3d cae0 be3c cd8c a7bd
000003b0: 75e6 703d 16b0 8cbd 6699 9f3d 7c36 f93d
000003c0: aab0 563c ffad a93d bcd1 0cbd 95c9 c93d
000003d0: 1064 3a3e 641f 17bd e03c 283e 2a30 7a3d
000003e0: e0f6 fe3c 8e93 a6bd 2f77 55be 1f7e a9bd
000003f0: 669a 2f3d e19a af3c 9d9d 51be 0c24 30bd
0.006261029 0.13464864 -0.03738112 0.18801254 -0.011839999 0.090742394 0.023869032 -0.050949868
-0.03874098 -0.132769 0.057903297 -0.010838839 -0.17733835 0.09955502 0.08063562 -0.17987241
-0.17477517 0.09335446 0.15385604 0.089217864 0.097829305 -0.15977536 -0.0276815 0.14450783
0.09016731 -0.18053685 0.07684152 -0.098397486 -0.05007878 -0.044330426 -0.09398618 0.019886522
0.05935424 0.061306935 0.057071425 -0.098084375 0.05401192 -0.12618239 -0.11143007 0.15592232
0.027795922 -0.09677159 0.19838363 0.06132865 -0.02823005 0.16874312 -0.012987197 -0.18360433
0.058805108 0.17824554 0.08801189 -0.17715114 -0.01463541 0.11346401 -0.116883315 -0.032307304
0.051712368 -0.078770496 0.09383271 -0.23256586 -0.066114716 0.17700319 0.12662451 0.08946273
-0.01034268 -0.08098832 0.03516553 -0.09889513 -0.07082889 -0.15092462 -0.15558645 0.10630617
-0.049393814 0.23388752 0.05522471 -0.044233985 0.02339093 0.13727137 0.008439376 0.114392295
-0.040297236 -0.13263711 0.09765485 0.0008558205 -0.12425037 0.17029892 -0.0065230955 -0.0040547405
0.23390518 -0.073409125 -0.091677554 -0.22106513 0.043718286 0.19562435 0.014460952 0.065888055
0.1161489 0.1129169 -0.10860673 -0.060014084 0.054543834 -0.15879713 0.10970527 -0.040004175
-0.09304629 0.16112807 0.1547302 -0.13922057 -0.107607804 -0.028450694 -0.08329383 -0.07647811
0.078566924 0.17346697 0.0046513523 0.06369067 0.021006346 0.044415224 -0.0124158105 -0.0701972
0.106008805 0.076399475 -0.18006727 0.014377169 0.014250301 -0.05535079 -0.10603869 0.14149025
0.1534535 -0.104397886 0.07404536 -0.015815461 0.20670044 -0.15478101 0.011490285 -0.09102931
0.20333692 0.023784406 0.12056643 0.022094786 -0.010785077 -0.11718771 0.045638084 -0.1439156
0.15101962 0.038383387 -0.035004195 -0.051419042 -0.048867337 -0.0650532 -0.1312624 0.17943735
-0.1791014 0.15092243 0.14900036 0.08763511 0.10573704 0.10691072 -0.15041211 0.06612212
-0.044239637 0.05877011 0.10079192 0.07532577 0.18579583 0.06325411 0.016685968 0.16472358
0.093398035 -0.06445437 0.19151385 -0.14906512 -0.004335434 -0.13042793 -0.024275301 -0.08947999
0.033219863 0.0041965977 -0.20405221 0.0017724999 0.09615656 -0.033477057 0.022818286 -0.15255569
-0.28457767 -0.13889308 -0.13719083 -0.042340934 0.016914189 -0.028950887 -0.14196877 0.025809022
-0.17061555 -0.05131143 -0.07115755 -0.11254006 -0.03375632 0.16755699 0.025775453 0.1737093
0.06155389 -0.1564514 0.13991039 -0.10229604 -0.048236463 0.016837848 0.15398683 0.11675431
-0.003453808 -0.16893026 -0.085120715 0.1355879 0.10748675 -0.07630675 0.11194163 0.010718264
-0.16454321 0.12248552 -0.18200472 0.1324085 0.03593352 -0.20244686 -0.18294765 0.0045538703
0.011675213 0.043170694 0.006529152 -0.21518189 0.10701801 -0.10200851 0.13377972 -0.051886324
0.041178156 0.12310237 0.023300547 -0.081811525 0.05881353 -0.06869523 0.0779293 0.12168595
0.013103643 0.0828514 -0.034379706 0.09852902 0.18202233 -0.03689517 0.16429472 0.06108109
0.031123579 -0.081336126 -0.20846246 -0.08276009 0.042871855 0.021436157 -0.20470281 -0.043003127

pointwise.bias f4 [64]
00000000: 4362 f93b d773 de3d d1a3 0f3e defa 0ebe
00000010: 1b2b 3ebd 6a22 10be fc1e 233e 3c59 73bd
00000020: 4474 b43d d491 26bd 8b48 e43a 1a17 793c
00000030: 81bf 20be 1696 e13c 9329 e03d 1f7a 2e3e
00000040: 634a b5bd 32be 273e 4b7f 2c3e e7a9 273d
00000050: ed43 45bc 23b1 e7bd 7a86 20be a8bc b23d
00000060: 206e 033e facb 43bc 50ab 4ebd 9edc 2d3e
00000070: b6d5 8a3d e2df 87bd 2f04 31bc c2ed 89bd
00000080: 55ca e8bc c0b1 e6bd f95c 1fbe e32c b13c
00000090: 7223 17be cbb7 ca3d 419a 15bc 8340 eebd
000000a0: 64da ecbc d5e1 26be 910a 14be fa4a edbd
000000b0: 26f4 e53d 18a4 54bd fbb9 b0bd fb0d de3d
000000c0: 90dd b3bd ffa4 c5bd 4262 e9bc c0f6 b63d
000000d0: 7a29 bf3c 5f84 523b 815e 83bc bbda 0ebe
000000e0: 4d7e 863c 6613 c93d 1039 a9bc 6ff8 c7bd
000000f0: d3c9 1c3e d5c6 c43c a7c3 f6bd f2cd 09be
0.0076105907 0.108619384 0.14027335 -0.13962886 -0.046427827 -0.14075628 0.15929788 -0.059411272
0.088112384 -0.040666416 0.0017416639 0.015203262 -0.15698053 0.027537387 0.1094543 0.17038773
-0.08852079 0.16381148 0.16845433 0.040933516 -0.012040121 -0.11313083 -0.15676299 0.087273896
0.12834978 -0.011950487 -0.050456345 0.1697869 0.067790434 -0.06634499 -0.01080422 -0.06734802
-0.028416792 -0.11264372 -0.1556281 0.021627849 -0.14759615 0.09898337 -0.009131015 -0.116333984
-0.02891273 -0.16297086 -0.14457156 -0.11586566 0.11228208 -0.051914304 -0.08629223 0.1084251
-0.08782494 -0.09650611 -0.028489236 0.089337826 0.023335207 0.0032122356 -0.016036274 -0.13950627
0.016417647 0.09818153 -0.020657092 -0.09764182 0.15311365 0.024020592 -0.120490365 -0.13457468

fc.weight f4 [2, 1024]
00000000: 04f5 0c3b 385c 63bc bd8c 2c3d 22d5 0f3d
00000010: 0038 70bc 7224 72bc 7fc1 c7bc 87e8 d8bc
00000020: 1fd0 623b 0d6a f0bc 88cf 2a3b 9d01 b4bc
00000030: 7eda 8dbc 1a78 65bc 6bb7 6bbc ec87 c5bc
00000040: 7263 85bd ac86 2bbd 15d9 73bb 1662 f9bc
00000050: 9dd3 97bd 6a1a c0bd daa7 a6bd 3d76 b1bd
00000060: e7b1 98bd 707e d9bd 9fae 0bbe ef64 debd
00000070: 98eb a6bd 3d3e d8bc ba97 91bd a784 91bd
00000080: 754f 11bd ab28 eaba 5f0f ca3c 83ef 31bd
00000090: 6682 bdbc 2532 083d 3173 483d d68f a9bc
000000a0: 0048 21bd 8d29 91bc f2ba 23bd a21c 833b
000000b0: 7817 41bd dd27 9a3b ad04 7cbb 16f3 babc
000000c0: 5d5d 353c e192 b2bb 47b4 0b3d e869 523c
000000d0: 51e7 02bc 24be 963b 2666 6c3d 8863 8b3c
000000e0: c048 db3b c71e 00bc 166f cbbc 20ae 6e3c
000000f0: 848c d1bc e160 b2bc ad6e 82bc 47b9 3a3d
00000100: 8840 13bc b8d9 f63c 2332 a53c 492b 893c
00000110: 164a 22bc 5227 fabc 3303 a3bc 2eaa f53c
00000120: 3297 a73a 37eb ffbb f472 30bd 2164 313d
00000130: 9d8a de3c e909 babb 911e 72bc 2884 e5bb
00000140: f873 513d 49bb 5d3d fbd5 2e3d 5800 383d
00000150: 64f5 81bc 62bd ac3c 3f9a e5bc 7ae8 8fbc
00000160: 3d4c 3c3d 6b05 13bc 9860 51bd a545 7abc
00000170: 05a3 ee3c 807e 813b 4eec 903a eafd 163d
00000180: 3890 1e3d 36ef 543d c7c6 423d 6e65 cdba
00000190: eb24 be3a d949 f73c 9b62 4c3d 9dbd 483c
000001a0: 8fa3 b93b cca4 2b3d 2231 293d cb95 833b
000001b0: a918 4938 342b 5b3d b5c3 883a 2653 0f3d
000001c0: 2ad8 8e3d 1e75 7e3d 23c4 ee3c 6461 693d
000001d0: 2b00 303d 88fe 9e3d 5a88 d73d bc18 8a3c
000001e0: fa25 603d bb71 a43d c25f 85ba 5a97 82bc
000001f0: 178a 5d3d 6ce3 00bc 5841 99bc 906a 5d3d
00000200: c440 933c db4b dd3b 9434 64bc c37a 8dbc
00000210: 245a 0e3d bb52 b03b f1de 133d f3d2 6e3c
00000220: 885e 023d e49c 1e3d cef1 24bc d282 cb3c
00000230: c388 243d 8ba0 323c ed7a c13c d7aa 243d
00000240: 8325 cfbc 88b7 dfbc 681d a5bb 6b9a 6a3c
00000250: 6fbe 3abd 548a c1bd 812f 82bd 8b3a 8c3b
00000260: 4cac a5bb 05a3 06bd 45d2 9dbd 9883 023d
00000270: e66f 4bbc 8f2a e1bc 8928 0abd b5d8 1cbd
00000280: 3aff 95bd f804 71bd 538f c8bc ad7b 6fbd
00000290: 7023 b9bd d079 51bd ae16 8cbc e040 4bbd
000002a0: a8b5 b5bd 5555 03bd 3462 89bd cb9c 92bd
000002b0: 1d65 b4bd 82ef 03bd 21e5 6cbd f5e9 9bbd
000002c0: 9d6d 78bc 5ba6 29bc ba2e 01bc 76ba 973b
000002d0: 3207 673c 3e88 16bd 3cfe 38bd e26e f33c
000002e0: 0162 f13c 6579 483d fa1e 42bc 6de9 1e3d
000002f0: e0a1 bc3c d1cc e139 ed40 a23c 86a4 9abc
00000300: 3a5b a2bd 3bc5 1dbd 880d a3bd 3ff4 61bd
00000310: 50a3 e7bd 1c10 8dbc c624 a6bd fa7d 78bd
00000320: 214f 7abd 1422 133c a539 acbc cfac a8bd
00000330: 67bb 4ebd 6219 babc 950a 02bd 1886 1bbd
00000340: 3431 103b 2aa2 ad3b cdc4 543c f61e 2e3d
00000350: c642 ee3c d8b8 85ba 53bc 283d 0a2a 5c3d
00000360: c7b0 293c 198a 99bc 9525 9b3c 4bc6 4f3d
00000370: 37fa 0c3d e2cd c8ba 004c 4c3b df15 713c
00000380: d90a e5bd 54c1 dbbd cda2 a7bd e7d9 59bd
00000390: ddc5 d9bd 90d5 d6bd b9e9 adbd 0287 6dbd
000003a0: 7846 9ebd 7200 d8bd 0dcf ddbd 4525 3cbd
000003b0: e943 aabd 1567 b2bd fa97 35bd 99f4 b0bd
000003c0: aca9 193d 892b 8bbb 357a 2e3d 8023 61bb
000003d0: d410 b23c aa7f b43b add8 dd3c c8fc 183c
000003e0: f814 233c 0904 023d 1af3 48bc 8fb1 08bc
000003f0: 393f 17bc 5240 833c 9d25 833b dc1a 093d
0.0021508345 -0.013876967 0.042126406 0.03511537 -0.014661789 -0.014779197 -0.024384258 -0.026478065
0.0034608913 -0.029347444 0.002606364 -0.021973426 -0.0173161 -0.014005685 -0.014386992 -0.024112664
-0.06513108 -0.04187648 -0.0037208248 -0.030442279 -0.07413409 -0.09380038 -0.08137484 -0.0866513
-0.07455807 -0.10619819 -0.13640831 -0.10859095 -0.08150405 -0.026396865 -0.07109018 -0.071053796
-0.035476167 -0.0017864903 0.024665533 -0.043441307 -0.023133468 0.033250947 0.04893798 -0.02069847
-0.039375305 -0.017720008 -0.039973207 0.004001216 -0.047141522 0.004704459 -0.0038454935 -0.02282099
0.011069623 -0.0054496382 0.034107473 0.012842633 -0.00798972 0.0046003032 0.057714604 0.017015234
0.006692022 -0.007819838 -0.024833243 0.014567882 -0.025579698 -0.021774711 -0.015921915 0.04558685
-0.008987553 0.030133113 0.020165509 0.016744273 -0.009905359 -0.030536328 -0.019898986 0.029988375
0.0012786149 -0.007810022 -0.043078378 0.04330838 0.027165705 -0.005677451 -0.014777795 -0.0070042796
0.051135987 0.054133687 0.042684536 0.044922203 -0.015864082 0.021086399 -0.028027652 -0.017566908
0.045971144 -0.00897346 -0.05111751 -0.015275394 0.029130468 0.0039518476 0.0011056752 0.036863245
0.038711756 0.05198594 0.04755285 -0.0015670487 0.0014506852 0.03018658 0.049898725 0.012252239
0.0056652497 0.04190521 0.041306622 0.0040156594 4.79451e-05 0.053508 0.0010434302 0.034991406
0.06974824 0.06212341 0.02914626 0.056977645 0.04296891 0.07763392 0.10524054 0.016857497
0.054723717 0.08029505 -0.0010175633 -0.01594131 0.05408677 -0.007866722 -0.018707916 0.054056704
0.017975219 0.0067534274 -0.013928551 -0.017270451 0.034753934 0.005380956 0.036101285 0.014576661
0.031828433 0.03872384 -0.010067416 0.024842653 0.04016949 0.010902534 0.023618186 0.040201988
-0.025286442 -0.027309194 -0.005038906 0.014319043 -0.045591768 -0.09450212 -0.06356717 0.00427944
-0.00505594 -0.03287031 -0.07706121 0.03186378 -0.012416815 -0.027486114 -0.033730064 -0.038292605
-0.07324071 -0.05884263 -0.024482405 -0.058467556 -0.09039962 -0.05114156 -0.017100658 -0.049622416
-0.08872539 -0.0320638 -0.06708184 -0.07158812 -0.08808348 -0.032210834 -0.0578357 -0.07612983
-0.015162853 -0.010354604 -0.007884676 0.004630382 0.014100837 -0.036751024 -0.04516433 0.029715959
0.029465677 0.048943896 -0.011848206 0.03879683 0.023026407 0.00043067944 0.01980635 -0.018877279
-0.07927556 -0.03851817 -0.07961565 -0.05516457 -0.11310446 -0.017219596 -0.08112483 -0.060667016
-0.06111062 0.008980293 -0.02102358 -0.082360856 -0.05047169 -0.022717182 -0.031748373 -0.03796968
0.0022001984 0.0052988725 0.012986374 0.042509995 0.029084574 -0.0010202182 0.041195225 0.05375103
0.010357088 -0.018742608 0.018938819 0.050726216 0.03441831 -0.0015320147 0.003117323 0.014714687
-0.1118371 -0.10730234 -0.08185349 -0.053186323 -0.106334426 -0.104899526 -0.08491845 -0.05799008
-0.077282846 -0.1054696 -0.108305074 -0.04593398 -0.08313734 -0.087110676 -0.04433439 -0.08640403
0.037515327 -0.004247133 0.042597014 -0.0034353435 0.02173654 0.005508383 0.027080858 0.0093376115
0.00995373 0.03174213 -0.012264991 -0.0083431145 -0.009231382 0.016021881 0.0040022866 0.03347288

fc.bias f4 [2]
00000000: 69e2 8c39 11ac d0bc
0.0002687157 -0.025472673
