model/CNN/saved_models/split_pad9_patch50/smallcnn4_fold1_pad9_patch50.pth (torch, 35659 bytes, 12 tensors)

conv1.weight f4 [32, 10, 3, 3]
000000 d4 2d 7d 3d 16 4a 86 3d 55 57 8f 3d 26 47 0d bd
       0.061811283 0.065570995 0.06999079 -0.03449168
000010 3d 2e 0f 3e f9 50 93 3d b1 01 7f 3c 32 10 a9 3d
       0.13982482 0.07193179 0.015564368 0.08255042
000020 cd d6 e5 3d fc da ec bd 45 43 c9 bd af 98 de bd
       0.112226106 -0.115652055 -0.09827284 -0.10868966
000030 24 cc d3 3b c6 d4 b5 bd d7 66 ba ba 73 57 35 bd
       0.0064635444 -0.08878474 -0.0014221322 -0.04427285
000040 a0 b2 0e bc 0b 02 dc 3b 6f 3d b1 3b 22 97 e8 bd
       -0.00870958 0.0067141107 0.005408935 -0.11356951
000050 9d 7c d0 bc dd 6e ca bc 71 5f 0f 3d a1 59 93 bd
       -0.025450045 -0.024711067 0.03500313 -0.0719483
000060 b6 66 b5 bd 44 ce 75 bd 05 45 8d 3d 2b b0 87 bd
       -0.08857481 -0.060011163 0.0689793 -0.06625398
000070 fb 63 ac bc 37 e3 33 bd 78 3e 97 bc 95 6a 8a bd
       -0.021043768 -0.04391786 -0.018462405 -0.0675861
000080 fe 8d 2e 3d 15 01 25 3d 1f 13 75 bd d8 ed c1 bd
       0.042615883 0.040284235 -0.05983269 -0.09469193
000090 f3 79 c1 bd 58 87 2d bd 7f 77 36 3d 54 b5 93 bd
       -0.09447088 -0.042365402 0.044547554 -0.0721232
0000a0 ed 8f fe bc c2 e0 3d 3d da d7 ad bd 7d 6b cc b9
       -0.031074489 0.046356924 -0.08488436 -0.00038989997
0000b0 c9 8e 22 bd 46 7c c7 bb 78 23 2d bd dd af 5c 3d
       -0.03968695 -0.0060878126 -0.042270154 0.053878654
0000c0 e0 85 5d 3d 4d b0 01 3d 9e ba c1 3d aa 7a c4 bc
       0.05408275 0.031662274 0.094594225 -0.023984272
0000d0 09 2f 3a 3d a0 90 a1 3c a7 03 ef 3c 88 d0 d4 bd
       0.045455012 0.019722283 0.029176546 -0.10391337
0000e0 b9 54 14 bd 1a 05 71 bd 63 49 59 3c 6b 3d d3 3d
       -0.03621361 -0.058842756 0.013262126 0.10314449
0000f0 15 b4 0a bd e9 ea 89 3c 14 5d 26 3d fa 20 4a 3d
       -0.033863146 0.016835647 0.04061611 0.049347855
000100 dc 09 fc bb 6f 5f d2 bb c0 a8 a2 bd 5f ba 8a bc
       -0.007691605 -0.006420068 -0.07942343 -0.016934572
000110 23 d3 c6 3b be 30 a6 bd 79 39 8a 3d 22 9b 99 bd
       0.00606765 -0.081147656 0.06749243 -0.07500292
000120 45 ba 05 3e 36 28 7c 3d 24 84 5d 3d 06 ea 25 3d
       0.13059337 0.061561786 0.054081097 0.040506385
000130 95 ac 81 3d 90 ae af b9 28 12 4a 3d d3 26 0a 3d
       0.063317455 -0.0003350866 0.04933372 0.033728432
000140 3e 05 4b bd 66 8a 43 3d e8 dc a4 bd 43 42 8c 3c
       -0.049565546 0.04773941 -0.08049947 0.01712144
000150 b4 51 81 bd b3 e6 cb bc 36 1e 62 3d eb 8d d4 bc
       -0.06314412 -0.02489028 0.055204593 -0.025946578
000160 21 2b 32 bc 0d 0c 8a 3d 90 26 34 bd b4 e2 cc bd
       -0.010874541 0.0674058 -0.04398209 -0.10004178
000170 83 a8 76 ba c2 fd 87 3d 68 c4 33 bd 74 50 b6 3c
       -0.00094092655 0.06640197 -0.04388848 0.02225516
000180 70 8f 17 bd 34 fa be bd b0 b2 c0 bd 7b 85 36 bd
       -0.037002027 -0.09325066 -0.09409082 -0.04456089
000190 fe d6 4b bc af ee 42 3d c6 d8 05 bd a4 3e e9 bc
       -0.012441395 0.047590908 -0.032677434 -0.028472252
0001a0 0f af ca 3c 36 c5 85 3d 8f f4 10 bd a7 cb e3 3d
       0.024741678 0.065317556 -0.03538948 0.11122828
0001b0 c9 d8 da 3d 1c 72 41 bd 8d c8 05 bc e1 31 b8 bd
       0.1068588 -0.047227964 -0.008165491 -0.08993889
0001c0 ee b7 86 3d 9c 55 6b 3c 76 25 f8 bc b9 86 d7 3c
       0.065780506 0.014363673 -0.0302913 0.026309358
0001d0 f1 91 6e 3d 88 c7 9a bd da 9d e5 bc 11 91 2d bd
       0.05824465 -0.07557589 -0.028029371 -0.042374674
0001e0 4f 6c 61 bc 39 3a fc bd 63 42 71 3d db fc 51 bd
       -0.013758733 -0.123157926 0.058901202 -0.051266532
0001f0 c0 df ac 3d b5 2d b3 bc c3 cb f8 bc 54 05 84 3d
       0.084411144 -0.02187238 -0.030370599 0.06446329
000200 f4 39 42 bd 74 7d ad 3c e0 5b 3d bc f3 6f fe bc
       -0.04741855 0.021177985 -0.011557549 -0.03105924
000210 8c fe 78 3d 76 a0 61 3b 9f 0c 14 bd ff 98 c5 bd
       0.06078963 0.0034427918 -0.03614485 -0.09648322
000220 9a 00 04 3d 69 58 22 bd 3d 65 c6 bd 90 99 ef bb
       0.032227136 -0.039635096 -0.096872784 -0.0073120072
000230 16 3a 44 3b 75 be e8 ba f9 af b5 bd 4c 51 54 3c
       0.0029941848 -0.0017756956 -0.08871455 0.012958836
000240 e8 df 08 be ae 9a 27 3d e0 b8 83 3d 39 25 d2 3c
       -0.13366663 0.040919 0.064317465 0.025652515
000250 49 1f 6b bd 5f 84 b9 3d ae ec 8b bd ff dc 47 bc
       -0.057402883 0.09058451 -0.068322524 -0.012198686
000260 31 f8 5c 3a 55 49 18 3d b5 70 a1 bd 73 c5 8e bc
       0.00084293174 0.03717931 -0.07882825 -0.017428135
000270 82 69 98 3c ab 20 8d bd 13 71 1d bd 2f 7e 27 bc
       0.018604998 -0.068909965 -0.038437914 -0.010222956
000280 03 cb 36 3d 97 7b 2d 3c 19 47 b0 3d 55 10 4f 3d
       0.0446272 0.010588548 0.08607311 0.050552685
000290 4b d9 b8 bc d6 98 5d 3d 33 9f 89 3d 11 9a 4f 3d
       -0.02256455 0.054100834 0.06719818 0.05068404
0002a0 f6 ee 0a bd e3 a5 b6 bc f3 51 00 3d 0b 43 e6 3d
       -0.033919297 -0.022295898 0.031328153 0.11243256
0002b0 60 4c 03 3c 66 d4 ac 3c ab f7 97 3d 11 3e 0b 3d
       0.008013815 0.021097373 0.07420286 0.033994738
0002c0 e0 3d bd 3a da d9 9a 3d 2c 54 b7 3c 18 81 48 3d
       0.0014437996 0.07561083 0.022379003 0.04895124
0002d0 e0 86 85 3c 81 41 05 3d db a1 90 3d 05 e4 cb 3d
       0.016299665 0.032533173 0.070621215 0.09955601
0002e0 f0 72 34 3d 38 55 6e 3d 38 e1 ad bc 49 c9 05 3e
       0.044054925 0.05818674 -0.021225557 0.13065065
0002f0 5f d7 b4 3d f4 28 2c bd c2 8d 99 bd 5e 81 af bd
       0.08830141 -0.042031243 -0.07497741 -0.08569597
000300 a2 e5 37 3d 7c 3e 05 3a 2b e0 ad bd 34 ad 2f bc
       0.04489673 0.0005082858 -0.08490022 -0.010722447
000310 c8 43 83 bd 01 72 0b 3d 79 ec d0 3c 6d 24 b6 bd
       -0.064094126 0.03404427 0.025503384 -0.088936664
000320 18 a7 d9 bb ca 0d 20 3d dc de 42 bd 99 a6 b6 bd
       -0.0066422336 0.03907565 -0.047575817 -0.08918495
000330 f3 95 10 3d 25 e9 3d bd b2 c7 2d ba f5 3a 10 be
       0.035299253 -0.046364922 -0.0006629183 -0.1408499
000340 10 6d c5 bd 65 9d 3e bd bb f9 f2 bd 37 5e 8f bc
       -0.09639943 -0.046536822 -0.118640386 -0.01750098
000350 4e 04 8b bd a6 ce ac bd 41 f1 9c bd 9e 14 ec bd
       -0.067879304 -0.084378526 -0.07663203 -0.1152737
000360 22 b5 c3 3c d5 b9 d3 3c 00 f5 18 bd d9 e9 b1 bd
       0.023890082 0.025845448 -0.037343025 -0.08687181
000370 33 f2 16 3e e7 ea 99 3d 43 00 7f bd 68 c2 44 3d
       0.14740829 0.07515507 -0.06225611 0.048036963
000380 44 8b 8b bc 36 40 d9 3d fa 47 b1 38 50 62 31 3d
       -0.01703418 0.106079504 8.4534244e-05 0.04330665
000390 99 58 b3 3c 6f 75 71 39 3b 7b b8 bd 83 4e 11 bd
       0.021892833 0.00023027298 -0.09007879 -0.035475265
0003a0 b8 f2 73 bd 2f 5f c6 3d 0c ec 8c bd fb fa b5 bd
       -0.059557647 0.096861236 -0.0688096 -0.08885761
0003b0 42 a1 4d bc 9f ee 60 3d 71 86 cf 3d b9 52 ce bc
       -0.012550654 0.054915067 0.101330645 -0.02518593
0003c0 55 6b 0a b8 fc 2c d7 3d 22 24 cd 3d bb 78 76 3c
       -3.3001725e-05 0.10506627 0.100166574 0.015043433
0003d0 4e c2 89 bd 15 11 7d bd 30 18 43 bc 4d 75 e1 3c
       -0.06726514 -0.06178387 -0.011907622 0.027521754
0003e0 99 18 a9 3b 5e 90 35 3d 76 bc 0a bc b1 f9 dc 3b
       0.005160403 0.044327132 -0.008467784 0.0067436327
0003f0 6f 98 3d 3d c9 3b a1 3d d3 d5 d0 3c 19 09 e9 3c
       0.04628795 0.07872731 0.025492584 0.02844672

conv1.bias f4 [32]
000000 fc 49 ae bd 3d e8 81 bc de 12 b3 3c e0 29 d0 3d
       -0.08510205 -0.01585781 0.021859583 0.10164237
000010 87 18 c9 3c 5e a9 68 3d c5 63 d1 bd f6 99 a0 3c
       0.024547828 0.056802146 -0.10224108 0.019604664
000020 b5 a7 8a bc 59 47 a1 3d 34 06 b4 bd d5 e6 b9 bc
       -0.016925672 0.078749366 -0.08790246 -0.022693077
000030 6b d8 61 bd 8c a9 ce bd 80 54 3c bd 4d 89 5e 3c
       -0.055138033 -0.10090932 -0.045979023 0.01358254
000040 11 62 6d bd e0 77 ef bc fb b1 92 3c 2b b4 7e bd
       -0.05795485 -0.029231966 0.017907133 -0.06218354
000050 c7 83 8e bd eb 6a 45 bd 76 dc 20 3c 08 ed e8 3c
       -0.06958728 -0.048197668 0.009818187 0.028433338
000060 75 da 08 bd 08 81 53 bd f1 ae 85 3d 6d 5c 8c bd
       -0.03341146 -0.051636726 0.06527508 -0.06853566
000070 48 c8 a5 bd 79 c5 08 bd 0f cf a0 bd e6 ad 4b bd
       -0.08094841 -0.03339145 -0.07851993 -0.04972639

bn1.weight f4 [32]
000000 da 56 81 3f 3b e2 82 3f 92 47 82 3f a8 e6 81 3f
       1.010463 1.022529 1.0178092 1.0148516
000010 0d 17 83 3f 35 29 8e 3f 70 3d 86 3f f6 06 85 3f
       1.024141 1.1106325 1.0487499 1.0392749
000020 b6 7e 81 3f 9a da 83 3f c2 64 83 3f 36 2e 80 3f
       1.0116794 1.0301087 1.0265124 1.0014102
000030 10 f7 86 3f 56 cd 85 3f 8e 93 84 3f b4 6a 86 3f
       1.0544147 1.0453289 1.035753 1.0501313
000040 46 11 8a 3f de ae 85 3f 9d 0e 84 3f 48 a9 84 3f
       1.0786521 1.044399 1.031696 1.036416
000050 4b 86 82 3f 89 00 81 3f f5 93 82 3f 01 2a 82 3f
       1.0197233 1.0078288 1.0201403 1.0169069
000060 7e 0c 81 3f 15 d0 81 3f 4d 6a 83 3f 30 57 87 3f
       1.0081937 1.0141627 1.0266815 1.0573483
000070 30 4b 85 3f 61 58 81 3f 89 cf 82 3f db 75 7e 3f
       1.041357 1.0105096 1.0219585 0.99398583

bn1.bias f4 [32]
000000 a4 87 45 bc 29 26 0c bd 08 27 8f bc 38 83 32 3b
       -0.012056265 -0.03421608 -0.017474666 0.0027238857
000010 61 53 c5 bc 0b 13 0c 3d 97 4a 9b 3c 51 62 f8 bc
       -0.02408761 0.03419785 0.018956466 -0.030320318
000020 b8 10 cb 3b 39 d9 b0 3b de 8a 81 bb 74 37 a5 bc
       0.0061970614 0.0053969887 -0.003953322 -0.020168044
000030 2d c6 d6 3c a0 48 c6 3b 74 bd 54 bc dc 5c 18 bd
       0.026217544 0.006051138 -0.012984622 -0.037197933
000040 dc 7d ae 3d 5b e1 c8 3c e6 c4 27 bb c1 39 c9 3c
       0.085200995 0.02452152 -0.0025599538 0.024563672
000050 03 09 1a 3c 6d 7b 93 bc cf 3a 5e bb 70 5d 3f bc
       0.009401563 -0.01800319 -0.0033909564 -0.011679992
000060 ac 1a 97 bd 2c 81 91 bc c5 83 83 3c 4a 47 09 3c
       -0.07378134 -0.01776179 0.016054044 0.008378813
000070 2c 3c 93 ba 65 7e a7 bc 76 6e ed ba 3d 81 b2 bc
       -0.0011233143 -0.020446012 -0.0018114585 -0.021790141

bn1.running_mean f4 [32]
000000 84 77 ae bd 9c 7d 7c bc 0f 37 ba 3c 4c 73 cf 3d
       -0.085188895 -0.015410807 0.022731332 0.10129413
000010 42 23 cd 3c ff 06 68 3d 99 f2 d1 bd a2 55 9c 3c
       0.025041226 0.056647297 -0.1025135 0.019083802
000020 1a c8 96 bc 77 1b a7 3d e4 b9 b3 bd 39 70 b3 bc
       -0.018405963 0.081595354 -0.0877569 -0.021904098
000030 f2 ed 64 bd 21 8b cd bd 32 d6 39 bd 4c d5 54 3c
       -0.055890985 -0.10036302 -0.04537029 0.012990307
000040 db be 6f bd 2b 1e f2 bc 15 87 91 3c a7 ce 81 bd
       -0.058531623 -0.0295554 0.017764607 -0.06338244
000050 aa 20 92 bd 46 82 41 bd 94 68 1a 3c 50 24 e6 3c
       -0.071351364 -0.04724338 0.009424347 0.028093487
000060 3e 9b 04 bd 36 76 50 bd 84 63 83 3d cc 0a 8e bd
       -0.032374613 -0.050893985 0.064154655 -0.06935653
000070 6f b1 a4 bd e0 03 0a bd 17 c0 a2 bd 0a 3e 49 bd
       -0.08041655 -0.0336951 -0.079467945 -0.04913143

bn1.running_var f4 [32]
000000 4e 74 56 3e 07 20 fb 3d 54 b3 b8 3e 9d 03 f4 3e
       0.20942804 0.12261968 0.36074317 0.47659007
000010 e7 50 e6 3e ec fb 7b 3e a6 87 09 3e 44 24 a9 3e
       0.449836 0.2460782 0.13430652 0.3303548
000020 97 64 6f 3f e0 db 30 40 d2 0f f6 3d 05 ad 95 3e
       0.9351286 2.76342 0.12014736 0.29233566
000030 11 86 6b 3e 0f 24 41 3e c6 07 45 3e c8 7b bf 3e
       0.23000361 0.18861412 0.19241247 0.37399125
000040 fe dd 5a 3e 3b 1c 60 3e d8 f8 27 3e a5 a2 99 3e
       0.21373746 0.21885769 0.1640352 0.300069
000050 e6 63 dc 3e a9 6f 84 3e 25 1e a1 3e af da b8 3e
       0.43044966 0.2586644 0.3146831 0.36104342
000060 22 8b 6a 3e c6 eb 02 3e eb 52 3f 3f d8 3f d2 3d
       0.22904637 0.12785253 0.747359 0.102660835
000070 5c 08 01 3e 48 79 1f 3f b5 33 2f 3e 42 c8 da 3e
       0.12600845 0.62294436 0.17109568 0.4273091

depthwise.weight f4 [32, 1, 3, 3]
000000 17 6b a9 3e 5c 4d 8a be 9c 85 5f bd 73 15 80 3e
       0.33089516 -0.27012146 -0.05457078 0.25016364
000010 08 23 ff 3d 94 30 8f 3e 26 19 4f 3e af 79 85 3e
       0.124578536 0.2796675 0.20224437 0.260694
000020 3f f5 f7 3d 37 65 42 3d fe 3f 54 be 3d 0d 8e 3e
       0.12107324 0.047459807 -0.20727536 0.27744475
000030 bf 97 22 3e 07 ec e3 3d 72 78 87 be 40 73 07 3e
       0.15878199 0.11129003 -0.2645908 0.13227558
000040 7f c7 85 3e 9c d0 ab 3e e0 cf fc bd ca e9 ab be
       0.26128766 0.33557594 -0.123443365 -0.33576804
000050 b9 96 ca 3d c7 03 8e 3d 50 34 58 3b 7d 06 9f be
       0.09892029 0.06934314 0.0032990165 -0.31059638
000060 03 76 7f be ac 88 3f be 4e 65 2e 3e 5f bf 6d be
       -0.24947362 -0.1870448 0.17030832 -0.23217534
000070 20 15 b4 be 2a b9 8b bd 60 69 84 be f1 8d 24 be
       -0.35172367 -0.068224266 -0.25861645 -0.16069771
000080 5b f2 a7 bc 0e ef 0e be 4f 8e 97 3e fa 21 69 be
       -0.020501306 -0.1395838 0.2960076 -0.22766867
000090 ba a2 76 bc df 49 57 3e e6 f3 9c be a6 80 a5 bd
       -0.0150534455 0.21024273 -0.3065483 -0.08081178
0000a0 89 11 a9 be 53 95 31 be 31 42 a5 bd 55 4a 86 3e
       -0.3302119 -0.17342119 -0.08069266 0.26228586
0000b0 6c e3 ea bc 8a 48 91 3d ac 16 81 be 98 17 8a be
       -0.028672896 0.07093914 -0.2521261 -0.26971126
0000c0 dd f6 50 3e 20 b3 95 be a9 f7 b1 be 55 55 cf 3d
       0.20406671 -0.29238224 -0.34759262 0.10123698
0000d0 4e e0 96 3e e6 95 3d 3e 3c 5f 7d bd 9a 8c 3d 3e
       0.29468006 0.18514213 -0.0618584 0.18510666
0000e0 19 5c 2f be 37 61 c2 3e df 3b 18 3e d6 9c 89 be
       -0.17124976 0.37964794 0.14866589 -0.2687747
0000f0 ec 28 06 3e 0d 01 59 3d 05 01 a1 3e ba a6 e3 bd
       0.13101548 0.052979518 0.3144609 -0.11115785
000100 9d 91 0c 3e c3 c6 5a be 24 da 88 be 9d e8 62 be
       0.13727422 -0.21364884 -0.26728928 -0.22159047
000110 09 26 8d be a5 d8 3c be 23 bd 8d be 19 9a 12 3e
       -0.2756808 -0.18442018 -0.27683362 0.14316596
000120 6a 8d b1 3e ee 4b f9 3d 6d 84 2e be 3a 43 3f bd
       0.34678203 0.121726856 -0.17042704 -0.04669497
000130 d7 ba 75 3e df 50 33 3e f8 47 15 be d6 4e de 3d
       0.23997055 0.17511319 -0.14578235 0.108548805
000140 26 18 2d 3e 79 04 f5 bc 57 f5 95 3e 8b 61 98 3d
       0.16903743 -0.02990936 0.29288742 0.0744048
000150 00 ce 14 bd 25 fb 4f 3e fc e2 79 3c 8e 8c 49 3e
       -0.03632927 0.20310648 0.015251871 0.19682524
000160 db fd 9e bd 02 3c 93 3e 6f 75 ce bd 0b f8 41 3e
       -0.07763263 0.2875672 -0.100809924 0.18942277
000170 34 63 0f be c4 62 bf bd 81 ae 87 3e dd dc 44 be
       -0.14002687 -0.0934501 0.26500323 -0.19224878
000180 0c 03 17 be f4 01 b9 be f4 98 af be 46 3a a5 3d
       -0.14747256 -0.36134303 -0.3429638 0.080677554
000190 10 91 66 3e 10 2a 86 3b 65 1a 9d 3e e2 b5 4e bd
       0.22516274 0.0040943697 0.306842 -0.050466426
0001a0 c8 2f 52 be bd d5 56 be 1b 6c dd bd 8e 53 0d be
       -0.2052604 -0.20979972 -0.10811635 -0.13801405
0001b0 66 94 33 3e 83 97 a2 3e ad b6 b7 3d 6a 73 bf 3e
       0.17537078 0.3175622 0.089703895 0.3739274
0001c0 62 3a 63 be 9a 14 b7 3e 4f a9 4e 3e 09 7e 3f be
       -0.2219024 0.35757905 0.20181774 -0.18700422
0001d0 06 35 3c be 4d 1c 03 be c7 8d 7b 3e 46 f0 a4 3d
       -0.18379602 -0.12803765 0.24565803 0.08053641
0001e0 9d 3c 73 3e b4 35 cb bd a5 34 9b 3d 57 4b 9d bd
       0.23753591 -0.099223524 0.075784005 -0.076803856
0001f0 d0 b3 ad 3e ae dd c4 bd 9b 3c 85 bd 9b a7 97 be
       0.3392625 -0.096125945 -0.065057 -0.2962006
000200 0e 21 97 3b ae f6 49 be 5e 56 1c be 0d 73 88 3e
       0.0046120947 -0.19723007 -0.15267321 0.26650277
000210 a9 fd ef 3d ba 7f 4b be ce ea e9 bd 8e d1 89 bd
       0.11718304 -0.19872943 -0.114217386 -0.067294225
000220 14 81 00 be 24 57 ec 3d ad f9 21 bd 3d 74 b7 bd
       -0.1254924 0.11540058 -0.03954475 -0.089577176
000230 7f b2 5c 3d ca a4 b7 bd bf bd 66 3d 30 d7 0f 3e
       0.053881165 -0.08966978 0.0563333 0.14046931
000240 01 cb c8 bd c3 24 a7 be 80 94 7f be 0f 32 82 be
       -0.09804345 -0.32645234 -0.24958992 -0.25428817
000250 18 42 db bd 37 b0 8e 3b 4a 55 68 3e 7c b3 ae 3d
       -0.10705966 0.0043545025 0.22688785 0.08530328
000260 62 d3 83 3d 7f 16 a7 3e 2a da 69 3d bb a5 06 3e
       0.064368024 0.3263435 0.057092823 0.13149159
000270 40 3d 3e be 17 3a 83 be 1c 0d aa 3e b9 15 85 3e
       -0.18578053 -0.25630257 0.33213127 0.25993136
000280 23 e4 6f be ec 93 2e bd 64 89 33 3c f0 db 8c be
       -0.23426871 -0.042621538 0.010958049 -0.2751155
000290 de b7 ca 3c 0d 06 51 be f7 db 8c bd 4e 21 99 bd
       0.024745878 -0.20412464 -0.068778925 -0.074770555
0002a0 bc 5b 9f be d7 ca 1e be 37 7c 81 3d 13 07 cc 3d
       -0.31124675 -0.15507065 0.0632252 0.09962287
0002b0 80 8d 8e bd 94 fa 2a 3e 03 87 6d 3e 27 09 21 be
       -0.06960583 0.1669715 0.23196034 -0.15726148
0002c0 5c b3 b5 3e 6d c2 0d 3c cc 94 89 3e 33 71 2e be
       0.35488403 0.008652312 0.26871336 -0.1703537
0002d0 9e 85 e2 bd 84 ad 94 3e 8d 47 85 3e 7d ef 5b be
       -0.11060642 0.29038632 0.2603115 -0.21478076
0002e0 d6 57 8d bd f3 df 39 3e 4a ba 55 be 96 ed a7 be
       -0.06901519 0.18151836 -0.20871845 -0.3279845
0002f0 54 fa b4 bd 53 63 88 3e b3 26 72 bd 70 bf e4 bd
       -0.08836809 0.26638278 -0.059118938 -0.11169326
000300 f3 2b f2 bd 29 20 82 3e 00 0a 29 be d9 5a 67 be
       -0.11824789 0.2541516 -0.16507721 -0.2259325
000310 c6 62 a2 be bb b9 a8 be d9 f7 26 be 1c 83 a9 bd
       -0.31715983 -0.329542 -0.16305484 -0.0827696
000320 64 76 cf bd c6 24 96 be 78 3d 74 bd a2 8d 5f bc
       -0.10130003 -0.2932493 -0.059628934 -0.013644608
000330 85 51 a9 be 32 a3 8e be 95 bb 4b 3d 15 d5 46 3d
       -0.33070007 -0.27858883 0.04973944 0.048543055
000340 fe c6 7f 3e 7c 64 9d 3e 31 a4 76 be 4a 92 b4 3e
       0.24978253 0.30740726 -0.24086072 0.3526786
000350 12 62 c2 bb 66 13 64 3e 24 7c 6b 3e 00 8c 80 3e
       -0.005932101 0.22273025 0.22996575 0.25106812
000360 67 1b b3 bd e3 38 aa 3a cc c9 21 be 0f dd 59 3e
       -0.08745461 0.0012986924 -0.15799636 0.21275733
000370 c2 fd c0 3d ac 96 8f be 59 8b 91 3e 8b 3b d3 3d
       0.094234005 -0.2804464 0.28426626 0.10314091
000380 26 6e 57 be 55 43 93 3e 6c 8b 8e be cd 3b 85 3e
       -0.21038112 0.28762308 -0.27840745 0.26022187
000390 df 58 92 3e 92 fe 16 3e cd 3b 96 3e f3 33 6f be
       0.28583428 0.14745548 0.293425 -0.23359661
0003a0 c9 cb b2 3e 96 6f 36 be 10 d9 a1 3e 79 61 29 be
       0.349211 -0.17816004 0.31610918 -0.16541089
0003b0 f2 e6 a3 3c e1 2e b5 3e 58 f8 06 be 48 1d 86 3e
       0.020007584 0.35387328 -0.13180673 0.26194215
0003c0 30 14 4c be 00 12 55 3e 0e e2 8b 3e aa 15 06 be
       -0.19929576 0.20807648 0.27320904 -0.13094202
0003d0 0a 36 b0 be ee be a7 3e 8f 39 84 be 2e 0c 14 be
       -0.3441623 0.32762855 -0.25825164 -0.14457771
0003e0 10 4d b4 3d be f3 e6 3d 09 22 93 3e 67 3d f8 3d
       0.08803761 0.11276959 0.28736904 0.121210866
0003f0 62 e1 9d 3e fc 72 ea bd d8 d1 93 3c ca cb 81 be
       0.30836016 -0.11447713 0.018044397 -0.2535079

depthwise.bias f4 [32]
000000 b9 0d a9 3d 61 86 00 3e 67 78 e1 bd 0d 4c 58 be
       0.082545705 0.12551261 -0.11009293 -0.21122761
000010 d4 9a 82 3e 06 e7 0c bc 32 8a 8f 3e 9f e9 af bc
       0.2550875 -0.008600002 0.28035122 -0.021473704
000020 63 75 8c be 91 73 5c 3d 25 d3 e1 bb b6 f3 82 3d
       -0.2743331 0.05382115 -0.0068916255 0.063941404
000030 f2 2a 41 be 67 11 8d 3e 3c 09 6a be 4a eb 90 3e
       -0.18864039 0.2755234 -0.22855085 0.2830451
000040 14 51 70 be d3 5f 60 3e 53 f6 fa 3d 2d 26 bb bd
       -0.23468429 0.21911554 0.12254014 -0.09138141
000050 7b 15 1f be 1b 38 a2 3e 9f b8 45 be 14 d9 67 3d
       -0.15535538 0.3168343 -0.19308709 0.056603506
000060 44 7d 94 be 7f e9 73 be 35 1a 83 3e 2c e9 9b bd
       -0.2900182 -0.2381954 0.25605932 -0.076128334
000070 e2 95 5d be 97 d3 6c 3c b7 5d 96 bd c8 e7 96 be
       -0.21639207 0.014454744 -0.073420934 -0.2947371

pointwise.weight f4 [64, 32, 1, 1]
000000 82 b3 0b bd 94 99 50 3e e4 2c 28 3e f3 06 40 3d
       -0.03410674 0.20371085 0.16423374 0.046881627
000010 f9 6b 7f be 14 1c 0d be ec a7 99 bd 2c 02 49 be
       -0.24943532 -0.13780242 -0.07502732 -0.19629735
000020 c2 f5 dc 3c 8a c4 90 3d fb 99 93 bc 0a 6a b2 3d
       0.026972655 0.07068737 -0.01801776 0.087116316
000030 91 31 92 bd ff 84 fc 3d 7f 24 d9 bd 84 88 0a 3c
       -0.0713836 0.123300545 -0.10602664 0.008455399
000040 35 aa 14 3e 09 58 32 bd 9d 14 f5 3d 92 ee a6 3d
       0.14518054 -0.043540988 0.11966822 0.081509724
000050 09 58 ca 3d f5 96 73 3d 18 ff 18 3e 59 57 0a be
       0.098800726 0.059470136 0.1494106 -0.13509883
000060 3f 79 d3 bd 60 0f 15 3e 16 10 4c bd fd 1d 0b be
       -0.1032586 0.14556646 -0.04982003 -0.13585658
000070 37 af 03 3e 8f fa 0f be 01 14 c4 bd e0 66 80 3e
       0.12859808 -0.14060424 -0.09574128 0.25078487
000080 8e 81 46 be 69 96 4e be df cf 8b bd 69 90 e6 bc
       -0.19385359 -0.20174564 -0.06826758 -0.028145032
000090 b4 e0 f0 bd 26 28 02 3e e3 c7 88 bd cf b2 04 be
       -0.11761609 0.12710628 -0.0667875 -0.12958835
0000a0 07 1e db 3d df c3 81 bd 83 03 0e 3d bf 6a cb 3d
       0.10699087 -0.063361876 0.034671318 0.099324696
0000b0 82 e4 12 bd b0 cb f4 bd 67 b3 41 bc 92 f1 c6 3d
       -0.035862453 -0.11952913 -0.011822558 0.09714045
0000c0 a1 01 99 bd a9 c1 c6 3d 2e af c4 bd 81 18 4f 3e
       -0.07471014 0.097049065 -0.096037254 0.20224191
0000d0 32 a0 2b 3e bc 4b 96 bd 5c c7 ca bd 06 f1 b9 3d
       0.16760328 -0.07338664 -0.09901306 0.09079175
0000e0 a9 57 25 3e de 45 01 3e e1 03 5c 3d 71 df 3d bc
       0.16146721 0.12624308 0.053714637 -0.011588917
0000f0 fe c5 03 3d 4d 32 9a bd db 6a 10 3e f4 14 72 bd
       0.032171242 -0.07529125 0.14103262 -0.059102014
000100 6b 21 b1 3d 8e de 6d bd 63 8e 2a 3e 07 dd f5 3d
       0.08648952 -0.058073573 0.16655879 0.12005048
000110 0a 9d 9d be 8e cc 22 be 43 e3 fc 3d 24 34 f7 bd
       -0.30783874 -0.15898344 0.12348034 -0.12070492
000120 a9 ea 19 3e cc be 3e bd 7b 73 f8 bd 83 63 2a 3e
       0.15030922 -0.046568677 -0.12131401 0.16639523
000130 f1 79 07 be 73 4c 38 3e 20 ae 9e 3d 75 4d e2 3c
       -0.1323011 0.17997913 0.077480555 0.027624825
000140 e4 d0 27 3e 84 3b 9b bd 35 bb 44 3c 8a de 0a 3e
       0.16388279 -0.07579711 0.012007524 0.13561454
000150 b8 21 0f 3e 69 53 f8 bd e4 ac 90 bc 85 8c 42 be
       0.13977706 -0.12125284 -0.017660566 -0.18998916
000160 dd ed b2 3d c1 eb fa 3c cb e1 5c bc 2c d8 43 bd
       0.08736775 0.030629994 -0.013481568 -0.04781358
000170 b6 49 35 bd 1b 15 9d 3c c0 49 85 3d 7c dc 73 3e
       -0.04425975 0.019175103 0.06508207 0.23814577
000180 0f 42 cd 3d ab b8 17 be 56 3f d9 3d 53 6d fc bd
       0.10022365 -0.14816539 0.106077835 -0.123255394
000190 86 f4 6b 3e 99 74 05 be a3 7e af 3d 3f d4 96 bb
       0.23042497 -0.1303276 0.08569076 -0.0046029384
0001a0 07 2f 1e 3e b7 ad 45 3e 38 44 22 3a 76 3e 28 3e
       0.15447627 0.19304548 0.0006189975 0.16430077
0001b0 28 93 8d 3b 07 41 0f bd 0d 76 71 3d f0 e9 7f 3d
       0.004320521 -0.034974124 0.058950473 0.06247896
0001c0 26 bf 59 bd ad 38 17 3e 8d f9 87 3d 0c 6e 4d 3e
       -0.05316081 0.14767714 0.06639395 0.20061511
0001d0 15 ba 80 3d 2f ed 01 3e a5 a6 4e be 5c 03 40 bd
       0.06285492 0.12688135 -0.20180757 -0.046878204
0001e0 a2 eb 91 3d 1b e7 34 be 68 eb f3 3d f5 8c d0 3d
       0.071250215 -0.17666285 0.119101346 0.101831354
0001f0 f0 bb 12 3d ae 20 6a 3d 8c ea 06 bd ad 69 1f be
       0.035823762 0.057160072 -0.032938525 -0.15567656
000200 85 b2 1f bd d6 81 75 bd bf d2 87 3c 0d 89 2d bd
       -0.03898861 -0.059938274 0.016579984 -0.04236703
000210 9c 2e 9e 3d 85 00 61 3e d2 7b b7 bd 84 65 00 3d
       0.07723734 0.21972854 -0.08959164 0.031346813
000220 08 2c 3a be c4 0c c0 bd 76 ae 48 be 29 67 6b bd
       -0.18180859 -0.09377435 -0.19597802 -0.057471428
000230 eb ab bb 3d 2e 8c 36 3b c3 0f 4d be 32 94 3b bd
       0.0916365 0.002785455 -0.20025544 -0.045795627
000240 77 17 9f bd fa d9 8e bd e6 e7 ca bd ca 9f 0a be
       -0.077681474 -0.069751695 -0.09907512 -0.13537517
000250 30 8c 01 3c 36 cb a9 bd 54 5c 32 bb f7 ba 84 3d
       0.007906958 -0.082907125 -0.0027215676 0.06480973
000260 24 9e 05 be f3 9c 22 bc 57 ff cf 3d 51 77 04 3e
       -0.13048607 -0.009925115 0.10156124 0.1293614
000270 a9 f9 29 be 34 00 4b bd 2e dc c8 3c f3 71 40 be
       -0.16599144 -0.04956074 0.024519052 -0.18793468
000280 1d dd f4 bd 8f a2 4e 3d 06 2b e5 3d eb e4 b8 bd
       -0.119562365 0.050447997 0.11189847 -0.09028038
000290 e3 3d 6a be fb 41 a9 bd fa 5a 08 be 8c 69 47 be
       -0.2287517 -0.08264538 -0.13315955 -0.19473857
0002a0 54 14 4e be 27 3d 07 3c 1b 78 15 be e8 86 96 3d
       -0.20124942 0.008254326 -0.14596598 0.0734995
0002b0 04 5f b1 bc 22 64 b7 3d 83 f5 45 be d9 69 1a bd
       -0.021651752 0.08954646 -0.19331937 -0.0376986
0002c0 5e 37 2e 3e cc fe d1 3d 2c 00 58 be d9 55 a3 3d
       0.17013308 0.10253677 -0.21093816 0.079753585
0002d0 6a d2 05 3e cc fc 03 3d b4 74 a2 3d c5 2b 8a 3c
       0.13068548 0.032223508 0.079324156 0.016866574
0002e0 1f ce 89 bd 94 58 fa 3d 60 f5 19 be 26 7f 63 be
       -0.067287676 0.12223926 -0.1503501 -0.22216472
0002f0 34 b7 ab 3c b9 b6 44 bd 24 09 e2 3d ad d1 26 3e
       0.020961381 -0.04802582 0.110369 0.16290922
000300 81 d9 0b be a6 b7 d6 ba 34 10 8b bd 32 e2 46 be
       -0.1365719 -0.0016381636 -0.067902 -0.19422224
000310 92 b4 44 bd a9 f9 b7 bd 8c ca 87 3b ea 0e 29 3d
       -0.048023768 -0.08983166 0.0041440185 0.04127399
000320 b8 b3 08 bd 00 9b a0 bd b7 dd 8a bd f2 ad 80 3c
       -0.03337452 -0.07842064 -0.0678057 0.015707944
000330 72 33 27 3e cb 04 97 bd 7f 07 26 3e ad 09 26 be
       0.16328219 -0.07373961 0.16213797 -0.16214629
000340 fb 95 ac 3d 58 17 83 bd 58 cc 1e 3e 7c 16 95 3d
       0.08427044 -0.06400937 0.15507638 0.07279679
000350 45 00 b5 3d f0 17 f2 bd 66 fc 3a be 76 50 11 be
       0.08837942 -0.11820972 -0.18260345 -0.1419085
000360 15 31 bf bd dc 0b 9f 3c c1 cc 88 3d 76 63 5c 3e
       -0.093355335 0.019414835 0.06679679 0.21522316
000370 af 47 91 bd 4e c6 03 3d 83 fd 73 bd 45 25 a1 bd
       -0.07093751 0.03217154 -0.05956794 -0.07868437
000380 c1 b0 3f 3e b5 3a f1 bd 96 d0 88 bc ec e8 75 bd
       0.1871977 -0.117787756 -0.016701024 -0.060036585
000390 a7 cc 39 3e 35 7c b4 bc 17 8a 11 3e ba c4 3f 3d
       0.18144475 -0.022031883 0.14212833 0.046818472
0003a0 dd ee 11 3e 04 64 11 be 05 19 d6 3d 03 03 0d 3e
       0.14251275 -0.14198309 0.10453991 0.1377068
0003b0 ab c0 b1 3d 4a 7e 40 3e 9f d4 06 3e 94 bc a9 bd
       0.086793266 0.18798175 0.13167046 -0.082879215
0003c0 b3 4e 84 3d 76 84 3f 3e 41 3c 0c 3e 83 71 b0 3d
       0.06460323 0.18702874 0.1369486 0.08615401
0003d0 52 98 9c bd 2f 59 55 3d 0f 25 02 be 1c cc 35 bd
       -0.0764624 0.052087005 -0.12709449 -0.044384107
0003e0 66 1a 07 be 13 97 c5 3d 04 42 cb 3d de b2 9e bc
       -0.13193664 0.09647956 0.09924701 -0.0193724
0003f0 e6 ff 1e 3e e1 c7 3f bd 07 8a 86 3c 3e f4 58 3d
       0.15527305 -0.04682148 0.016423238 0.052967303

pointwise.bias f4 [64]
000000 58 e1 a3 bd 46 b7 71 bc 1f d7 9a bd 48 56 5f bd
       -0.08001965 -0.014753168 -0.07560562 -0.054525644
000010 a0 fb 0c be 8c a1 2b bd 6e a7 02 3e 86 38 c8 3d
       -0.13767862 -0.04190211 0.12759182 0.09776406
000020 fa b8 11 3e 2e 21 97 3d 0d 3f a8 3d e0 cc 6e bd
       0.14230719 0.073793754 0.08215151 -0.058300853
000030 f3 95 3b bd d7 91 9f bd c0 dc fe bd 38 32 0a be
       -0.0457973 -0.077914886 -0.124444485 -0.1349572
000040 ba 99 d1 3d 8e 13 21 3d 3e 4b 7e 3d 0b c3 41 bd
       0.10234399 0.03932529 0.062083475 -0.047305148
000050 be f8 e9 3c d5 8e 5b 3d b3 85 f1 3d a9 81 3f 3d
       0.028560992 0.053603012 0.11793079 0.046754513
000060 e5 d2 ba 3d a0 ab 4a 3e a2 48 b3 3c 1d ae cd 3d
       0.09122256 0.19792032 0.02188522 0.10042975
000070 58 04 4b bd 02 fb 1e 3e ee 02 ac 3d 36 68 d5 3d
       -0.04956469 0.1552544 0.08398996 0.10420267
000080 d7 00 d8 bd 49 c5 8e 3c d3 9e 0e bd 69 24 94 bd
       -0.10547035 0.017428057 -0.034819435 -0.07233507
000090 75 ab b6 bd e7 ca 54 bc 88 fe 02 3e 5b a0 b0 3d
       -0.089194216 -0.012987829 0.12792408 0.086243354
0000a0 fe 7d 1e 3e f7 f6 1c 3e 7c be ee bd 27 41 c7 3c
       0.1547775 0.15328585 -0.11657426 0.02432306
0000b0 86 e3 a9 bc 4f 21 09 be 6d ec c9 3d 2d 88 98 bd
       -0.020738374 -0.13391612 0.09859548 -0.074478485
0000c0 55 3d 85 bd d2 f5 1f bd de 0b db bb 5d e9 0e 3e
       -0.06505839 -0.039052792 -0.0066847643 0.13956209
0000d0 15 f1 36 bd 1d 4d 22 be f4 4b b1 3c 3e 3f f9 3a
       -0.044663507 -0.15849729 0.021642663 0.001901604
0000e0 7c 58 20 3e 75 b7 5b bb 86 63 44 3e 0e 43 cf bd
       0.15658754 -0.0033526097 0.1917859 -0.101202115
0000f0 91 4c 3c 3e 96 ff 05 be 02 a4 30 3e b2 cc 2d be
       0.18388583 -0.1308578 0.17250064 -0.16972616

fc.weight f4 [2, 1024]
000000 02 91 d9 bd de d1 0e be 46 24 13 be 3c eb 3e bd
       -0.10623361 -0.13947245 -0.14369306 -0.046611056
000010 27 b9 8c bd 16 99 04 be e1 79 da bd 3d ce c8 bd
       -0.068712525 -0.12949023 -0.10667778 -0.09804962
000020 fc dd 83 bd 67 e9 6c bd d1 08 ee bd a0 6b aa bd
       -0.064388245 -0.057839777 -0.11622775 -0.08321309
000030 b7 e3 90 bd 57 45 94 bd 07 f1 e2 bd 85 5a 15 be
       -0.07074683 -0.07239788 -0.110811286 -0.14585312
000040 c7 f2 d9 3c c4 f6 a9 3a f1 d0 d3 3c 04 34 4c 3d
       0.026605023 0.0012967219 0.025856467 0.049854293
000050 cf 36 27 bd 90 c9 b4 39 86 68 a4 bc ce 5f d7 3c
       -0.040823754 0.0003448245 -0.020069372 0.0262908
000060 7e db 0f 3c a1 70 c6 bc 9b 33 1b bd 36 6e 68 3a
       0.008780358 -0.024223628 -0.03789101 0.00088665204
000070 89 8f 87 3c af f4 e9 3b 69 db 0b bd 4e 14 3a bd
       0.016547935 0.0071397643 -0.034144793 -0.04542952
000080 83 b5 0a be a0 43 23 be bc 26 e8 bd d3 50 3b bc
       -0.13545804 -0.15943766 -0.11335513 -0.011432844
000090 84 16 fe bd 0a 16 07 be 30 e1 18 be e6 e7 e6 bd
       -0.12406638 -0.13192001 -0.14929652 -0.112747
0000a0 e3 ee 13 be 93 3d dd bd ab ee c9 bd fb e7 a2 bd
       -0.14446597 -0.1080276 -0.098599754 -0.07954403
0000b0 19 c0 28 be bc 84 25 be d4 a9 06 be 42 5e 2d be
       -0.1647953 -0.16163915 -0.13150722 -0.16930488
0000c0 65 65 57 3d 77 7a a7 3d a4 a4 a4 3d cb 50 58 3d
       0.05258693 0.08177655 0.08039215 0.052811425
0000d0 88 fe 1b bb c0 f5 9f 3d 41 18 4c 3d 34 8c 17 3d
       -0.0023802835 0.07810545 0.049827818 0.036998942
0000e0 31 80 f9 3c 5f 6f 17 3d d8 e4 91 3d 4b 94 b9 3b
       0.030456634 0.036971446 0.071237266 0.00566343
0000f0 03 e0 72 3c 93 b5 45 3d 23 24 38 3d 3d 45 bb 3c
       0.014823916 0.048268866 0.044956338 0.022860164
000100 0f b5 12 bc 60 e6 13 bd 6b e5 94 bd eb 4f e5 bc
       -0.008954301 -0.036108375 -0.072703205 -0.02799221
000110 22 f3 3a bd 81 ad b6 bd 9d a6 d2 bd d8 ad 54 bd
       -0.045642026 -0.08919812 -0.10285685 -0.051923603
000120 72 18 d3 bd f7 51 13 be e4 85 10 be 94 59 5f bd
       -0.10307397 -0.14386736 -0.14113575 -0.054528788
000130 45 2c be bd f7 3f da bd 89 74 b2 bd 1a 6b 2d bd
       -0.092857875 -0.106567316 -0.087136336 -0.042338468
000140 28 94 6b bd 3c 00 25 bd ff fa a7 bd c6 8a 7e bd
       -0.05751434 -0.040283427 -0.082021706 -0.062144063
000150 c0 b4 76 bd e0 6e 96 bd 78 f5 d0 bd e4 eb 0d bd
       -0.06023097 -0.073453665 -0.102030694 -0.03464879
000160 d6 56 9f bd af 37 f5 bc b3 7f 18 bd d6 44 61 bd
       -0.077802345 -0.029933779 -0.03723116 -0.054997288
000170 96 a5 9d bd 5f f2 22 bd 6c 0c bc bd fb 21 d4 bc
       -0.07697599 -0.039781924 -0.09182057 -0.02589511
000180 c6 1a 9d bc 71 d5 7a 3c a1 9a fa 3c 02 4e 93 bc
       -0.019177806 0.015309677 0.030591311 -0.017981533
000190 3a e1 23 bc 49 8d 3f ba 04 be 1f 3c 12 bf e0 3c
       -0.010002429 -0.0007307125 0.009749893 0.02743486
0001a0 c8 85 13 3d f2 ec 79 3c e6 88 97 bb 09 3b 1d 3c
       0.036016256 0.015254246 -0.004624474 0.009596595
0001b0 94 47 9c bb a9 9a 34 bc 40 c7 23 3d 74 83 1b 3d
       -0.004769275 -0.011023202 0.03998494 0.03796716
0001c0 bd 8f d8 3c 9d 89 25 3d ca 9a 97 3d 2a ba 69 3d
       0.026435727 0.04041444 0.074025705 0.057062306
0001d0 6a 6d 09 3d a5 2e 3f 3d 7f c0 b6 3c 20 23 9e 3c
       0.03355161 0.046675343 0.022308586 0.019303858
0001e0 19 df 21 3d 70 f1 2d 3d c1 1f ef 3c 2a de 9d 3c
       0.039519403 0.04246658 0.029189946 0.019270975
0001f0 54 1a 08 3c 4e 7d c4 3c 93 ea 53 3d ef ad 61 bb
       0.008307058 0.023985531 0.05173738 -0.0034435948
000200 6f fb af bc af 47 44 bd 6e ea 99 bd 6b bd df bd
       -0.021482198 -0.047919925 -0.07515417 -0.109248005
000210 45 03 9e bd 02 1c cf bd 16 6c d7 bd ed 32 ee bd
       -0.07715467 -0.10112764 -0.10518663 -0.11630807
000220 da 9c ee bd 8b 04 c6 bd 72 b8 10 be 2c ae 7e bd
       -0.11651011 -0.09668835 -0.1413286 -0.062177822
000230 54 b3 4d bd a8 cc a0 bd ab 45 a6 bd 21 cc 66 bd
       -0.05021985 -0.07851535 -0.08118757 -0.056347016
000240 99 62 ee 3a d5 39 85 3d 64 a6 05 bb 23 e3 97 bc
       0.0018187343 0.06505171 -0.0020393366 -0.018540924
000250 69 94 a5 bd ba 2a f4 3c 6c 0d bc 3c fd 4c 47 bd
       -0.080849476 0.02980553 0.022955619 -0.048657406
000260 9f 2d cf bc 7e d7 00 bd 66 c1 c3 bc 93 8d 04 bd
       -0.025290309 -0.03145551 -0.02389593 -0.03236158
000270 a2 fb f6 3b cb 3d 54 bc ac 50 3b bd 12 4c f8 3c
       0.007537321 -0.012954186 -0.04573123 0.03030971
000280 8a 14 e1 bc ed 81 0c bd cd 9b a4 3c d9 26 09 3d
       -0.027475614 -0.034303594 0.020093823 0.033484314
000290 c1 5f 52 3c bf 84 58 3b f2 3b 77 3d d3 76 80 ba
       0.012840212 0.0033038107 0.060359903 -0.0009801037
0002a0 58 cb 4e 3d 6e ee 53 3d 5e 38 e1 3c 82 5a 12 3d
       0.050486892 0.051741056 0.027492698 0.035730846
0002b0 ba 4f 39 3c 3b 6d 40 3d e2 55 82 3d cd 65 93 3d
       0.011310512 0.04697917 0.06364037 0.07197151
0002c0 c4 12 3c bd c9 67 80 bd 2f 92 76 bd 16 2e c8 3b
       -0.045916334 -0.062697954 -0.060198005 0.0061090095
0002d0 eb ea 98 bd ab f0 63 bd de 9e b9 bd 7a f4 38 bd
       -0.07466682 -0.05564944 -0.09063505 -0.045155026
0002e0 f6 b8 82 bd bf cf 20 bd ec c1 8c bd a3 3b 6f bd
       -0.06382935 -0.039260622 -0.06872925 -0.058406483
0002f0 75 a5 2f bd ff 4d ca bc dc 16 1c bd b2 5f 41 3c
       -0.0428824 -0.024695395 -0.038107738 0.011802601
000300 b0 4b 01 3c 91 11 7a 3b 50 94 8f 3c fb fb a3 ba
       0.00789158 0.0038157443 0.017526776 -0.0012511009
000310 92 2f a2 3c a7 2a 7a 3d 18 f0 2e 3d 73 1d 3e 3d
       0.019798074 0.061075833 0.04270944 0.046414804
000320 02 54 61 3d f2 d3 d0 3c 78 b4 52 3d b3 71 3e 3c
       0.055011757 0.025491688 0.05144164 0.011623788
000330 5e e5 07 3d d7 f3 af 3c 9d 7d 70 3d b5 cd 23 3d
       0.033177726 0.021478577 0.058713544 0.0399911
000340 25 8a 05 bd f0 bc 3a bc 02 33 27 3d 1b a6 63 3d
       -0.032602448 -0.011397585 0.04082013 0.055578332
000350 5d 51 38 3c 55 1c 58 3c 3b 87 d5 3b 9e eb 15 bd
       0.011249867 0.013190349 0.006516365 -0.036601655
000360 ea 4d 06 3d 13 1b 49 3c 3f ab c1 bc 69 83 59 3b
       0.03278915 0.012274521 -0.023641227 0.0033189899
000370 4b 87 98 3c 77 a6 88 3d bc 0a a3 3c 97 ae a3 3d
       0.0186192 0.06672376 0.01990258 0.07992285
000380 1d d5 80 bb 6d eb 48 3d 4c 8a 83 3d ff 37 5e 3c
       -0.003931655 0.049052645 0.064228624 0.013563155
000390 73 7f 67 3c 07 9e d8 3c 74 87 bc 3c ce 06 05 bd
       0.014129507 0.02644254 0.023013808 -0.032477193
0003a0 27 69 82 3c 37 3e 43 3d bb 6d 69 3d 93 7d 43 bc
       0.015919281 0.047666755 0.056989413 -0.011931795
0003b0 65 1f 50 3c f6 3f 79 3d 1e 8a 78 3d 6c 2c 44 3c
       0.012702798 0.060852014 0.060678594 0.011973482
0003c0 0f a9 81 bc 7c a9 aa bc 02 93 3a bd 33 90 1f bc
       -0.015827684 -0.02083277 -0.045550354 -0.00973897
0003d0 06 f8 df bd 7d a0 d9 bd 50 5a 93 bd d4 1a f0 bc
       -0.109359786 -0.10626314 -0.0719496 -0.029309668
0003e0 15 de fc bd 37 18 59 bd 2e cf a2 bd 51 a8 87 bd
       -0.12347046 -0.05300161 -0.07949673 -0.06623901
0003f0 2d 30 e2 bc 9f eb 96 bd f7 a8 78 bd 0b aa 3c bd
       -0.027610863 -0.0736916 -0.060708012 -0.046060603

fc.bias f4 [2]
000000 80 3d 28 3d 08 35 50 3c
       0.041074276 0.012707956
