model/CNN/saved_models/split_pad9_patch50/smallcnn4_fold3_pad9_patch50.pth (torch, 35659 bytes, 12 tensors)

conv1.weight f4 [32, 10, 3, 3]
00000000: 52a7 e23c c8f9 0bbd dbe0 10bc 1077 6cbd
00000010: 4fb0 edbd 2d41 0fbe 28ad a5bc beee aa3b
00000020: 36a9 0cbd 0387 c33d 6888 3e3d e52a bc3d
00000030: 56f1 42bd 7e73 47bd 9af4 603d 36bf 8e3d
00000040: 68b3 aebc f5c1 7c3d aed1 d73d ec02 c13d
00000050: 6b2f c5bc f07d d5bc 1527 35bd 918d 7e3d
00000060: f65f ea3d 9c07 eb3c fe0b 0c3e 3070 d2bd
00000070: fe61 4dbd 1250 5cbd 1a90 cb3c 2a7e 6cbd
00000080: e61f b2bb 9aef 67bd bc4f 4ebd 85d2 35bd
00000090: 924d 683c 076f e43d fa0d dabd ab6d 143d
000000a0: 602b 5bbc e3ac 1f3d 63b9 ba3c 63f4 e6bc
000000b0: 5a6d 79bc 7c34 aabc bd07 1f3c 9e77 0b3d
000000c0: b3d3 a53c c551 243d d227 873a 229e afba
000000d0: a15d 1bbd 316d f4bd 8547 503d 22ed c9bd
000000e0: a49a a1bd 90fc 1abd 4b2d 80bd b988 ccbc
000000f0: 9044 bbbd a601 c0bd 9af4 4f3d 2b1e 053d
00000100: fd1e b6bc 16fe 853c 0742 e33d 9342 a13d
00000110: 9620 2ebb 2747 32bb 0b91 a53d dc5f 30bc
00000120: c278 a5bc c701 55bd 0723 863d c0ad 183e
00000130: b9ff 093e 7462 65bd 509a c0bc a420 663c
00000140: dd39 073e 00fa 873d 1104 bd3d c403 57bd
00000150: 963b 0cbc fe7c 173d c686 1dbb 3fe7 b7bc
00000160: f65d de3c d8d1 4d3d 88ef bdba 5692 073d
00000170: bf1c c7bd cac7 d6bd 6117 02bc 3b8b 0bbe
00000180: 8383 e73c e43e 15be 3765 abbd 7935 ab3c
00000190: 10bd 0fbd 0591 623d bc52 6dbd eb25 21bd
000001a0: 3794 12bd c1d2 3bbc 5a7e e03c 64eb 0ebc
000001b0: 130c 73bd 5978 98bd b4c7 85bb cfa4 663c
000001c0: 4a20 3d3d 0e76 363d e31e 2b3c bd33 6aba
000001d0: 9125 1abd 61f3 1abd 29b8 0bbd 8ec7 5fbd
000001e0: 4837 40bd 6ee0 e13c aa77 013d 288d 75bc
000001f0: c952 963d a296 4c3d ea9d 36bd d94c afb8
00000200: 20ff 70bc 7937 84bd 2004 763c f161 be3c
00000210: 09dd b83d 5839 033c 7583 f7bb 41d2 af3d
00000220: 7cf4 5fbd 4d16 723a 0d97 31bd ea34 7aba
00000230: 3035 1dbd 3394 40bd c880 5fbd c194 9dbd
00000240: d50d e8bc 0aeb f6bc dc20 3ebd 75a9 193d
00000250: 04ca a6bd c454 7b3d 4304 0f3e 39b9 ac3d
00000260: f443 80bd 3c20 91bd 9dc9 d4bc f023 f1bc
00000270: 4836 0bbc 2ee5 9fbd 7751 07bd 6e8f 8c3d
00000280: 674c 7b3c a648 6abc fdc1 7e3d 981c 143d
00000290: fca8 de3c 3d24 c03d 4d4a 5e3d 1071 dc3d
000002a0: 777d 623d fa72 1cbd 53ef be3d 8e62 8d3d
000002b0: 1ed8 cdbd 1af8 dabd e404 82bc deac 73bd
000002c0: 7a86 533b 6b2b d73d 4f65 833d 5c27 063d
000002d0: 5674 a8bc a5e3 55bd c795 47bd 57fa 62bd
000002e0: b614 0c3e 9bea 3b3d 4d9c c53d 44ca 5bbd
000002f0: b370 963d a0fb d13d 21ee 023c 0f2e f33d
00000300: 8d85 a0bd 0268 99bd cb0d 81bd a32f bf3a
00000310: db7f 3abc dd7c 553d 8df8 17bd 7e71 c0bd
00000320: 6c8e a3bd 8149 eabd 9387 d5bc c985 6fbd
00000330: d882 0dbe 78e3 fcbd 7d6c 97bc 6b9e 6d3c
00000340: 917d 883d 1b0e 58bd 4177 d73d 1809 863d
00000350: 5ef0 1abd 984b e93d 84a2 a9bd afdf 9bbd
00000360: ac56 c33c 266f b3bd 1b3a 283d e6f0 f7bd
00000370: 2abf babc 6e21 acbb 3565 a3bd c67b 283d
00000380: d151 b23d 2163 493d 6588 4d3d 4428 bf3c
00000390: 2394 c9bb 35cc 69bd e31d 103d f32d b5bc
000003a0: 52d7 12bd 0c93 ec3d 0ae5 a23c 0839 07be
000003b0: e970 32bd da7e 0c3c 6f61 023d 751d c43a
000003c0: bf70 debc a9fb b23c 3280 383d 488c 0f3d
000003d0: 5443 97bd 0fde c83c 994d 09be 49b5 bbbd
000003e0: ec77 cabd fd3c 30bd cc24 bbbd 7592 8b3d
000003f0: 1ba0 963d 5256 6fbd d514 103e 5e17 87bc
0.027667675 -0.034173757 -0.008842672 -0.057730734 -0.11605894 -0.13989706 -0.020224169 0.0052164486
-0.03434106 0.09547236 0.046516806 0.09187869 -0.047593437 -0.048694126 0.05492077 0.06970064
-0.021325782 0.06170841 0.1053804 0.094243854 -0.024070462 -0.026061028 -0.044226725 0.062146727
0.11444084 0.028690152 0.1367645 -0.10275304 -0.05014228 -0.0537873 0.024848986 -0.057737507
-0.0054359315 -0.056624986 -0.05036901 -0.04439022 0.01417865 0.11153989 -0.10647197 0.0362374
-0.013377041 0.038983237 0.022793477 -0.028192705 -0.015223825 -0.02077698 0.009706435 0.034049623
0.020242548 0.040117044 0.001031155 -0.0013398568 -0.03793109 -0.11934889 0.050849456 -0.098596826
-0.078908235 -0.03783852 -0.06258639 -0.024967538 -0.09143937 -0.093753144 0.05077038 0.032499474
-0.022231573 0.01635651 0.11096578 0.07874026 -0.0026569716 -0.0027203055 0.080843054 -0.010765042
-0.020199183 -0.052003648 0.0654965 0.1491003 0.13476457 -0.056002095 -0.023511082 0.014045868
0.13205667 0.066394806 0.09229291 -0.052493826 -0.008559128 0.036984436 -0.002403663 -0.022449134
0.027144413 0.05024895 -0.0014490942 0.03309854 -0.0972228 -0.104873255 -0.007940144 -0.13627331
0.028260952 -0.14574772 -0.083689146 0.020899521 -0.035092413 0.055314083 -0.05794023 -0.039342802
-0.03578588 -0.011463822 0.027404 -0.008723114 -0.059337687 -0.074448295 -0.0040826444 0.014077379
0.04617337 0.04454618 0.010444376 -0.0008934101 -0.037633482 -0.03782976 -0.034111176 -0.05463367
-0.04692772 0.027572837 0.03160826 -0.014987268 0.07340009 0.049948342 -0.044584192 -8.358964e-05
-0.014709264 -0.06455893 0.015015632 0.023240061 0.09026534 0.008009277 -0.0075535127 0.085850246
-0.054676518 0.00092348905 -0.043356944 -0.0009544628 -0.0383808 -0.047016334 -0.054566175 -0.07694388
-0.028326908 -0.030141372 -0.046418056 0.037515122 -0.08144 0.061360136 0.1396647 0.08433766
-0.06262961 -0.07086226 -0.025975043 -0.029436082 -0.008496828 -0.078073844 -0.033036675 0.068632945
0.01533804 -0.014299547 0.06219672 0.03616008 0.027180187 0.09381912 0.054270077 0.107637525
0.055295434 -0.038195588 0.09322991 0.069035634 -0.10050987 -0.10691853 -0.015871473 -0.05949103
0.00322762 0.10506328 0.064158075 0.03275238 -0.020563286 -0.052219052 -0.048726823 -0.055414524
0.13679776 0.045878034 0.09648953 -0.053659692 0.073457144 0.10253072 0.007991345 0.11874019
-0.07837973 -0.07490541 -0.06301459 0.001458634 -0.011383022 0.052121032 -0.03710227 -0.09396647
-0.07986149 -0.11439801 -0.026065623 -0.058477197 -0.13819444 -0.12348074 -0.018484348 0.014503102
0.06664575 -0.052747827 0.10520793 0.06544703 -0.03782689 0.113913715 -0.082829505 -0.07611024
0.02384504 -0.08761434 0.04107104 -0.121064946 -0.022796232 -0.0052530086 -0.07978288 0.041133665
0.087070115 0.049166802 0.050178904 0.02333463 -0.0061516925 -0.057079513 0.035184752 -0.022116637
-0.035849877 0.115514845 0.019884605 -0.1320535 -0.04356471 0.008575166 0.0318312 0.0014962392
-0.02715337 0.021848517 0.04504413 0.035045892 -0.07385889 0.024519948 -0.13408507 -0.09165437
-0.098861545 -0.043026913 -0.09137878 0.06815044 0.073547564 -0.05843193 0.14070447 -0.016490635

conv1.bias f4 [32]
00000000: a852 e1bc b98e c53d 7ec4 b53d 7adc 8e3d
00000010: 347c af3d 2ef3 bcbb 1383 93bc 4745 ce3d
00000020: 4b3f 923d 75c9 90bd 42c9 2bbd 3abb 25bd
00000030: 44de c2bd ae17 20bd 4dce 873d 03df dc3c
00000040: 9565 87bd 8e94 51bd cd1e a7bd a3a4 c5bb
00000050: f6b2 02bd 911e a9bc 8dc3 ccbd 25b2 a73d
00000060: a855 a13c a392 083d 1801 f13a 7b35 b9bd
00000070: 98aa e43d 3e86 66bd 956e 993d e00d cdbd
-0.027505234 0.09646363 0.088753685 0.06975646 0.08568612 -0.005766294 -0.018006837 0.10071807
0.071409784 -0.07069675 -0.04193998 -0.040461756 -0.0951505 -0.039085083 0.066311456 0.026961809
-0.06611172 -0.051167063 -0.08160172 -0.006031589 -0.03190895 -0.020644458 -0.09998236 0.08188275
0.019694164 0.03334297 0.0018387167 -0.09043404 0.11165351 -0.056280367 0.07491795 -0.10012412

bn1.weight f4 [32]
00000000: 3231 8b3f 5854 823f e7c6 803f 3ff8 853f
00000010: 76b8 853f 25fc 863f c0df 823f 1a20 813f
00000020: c2fd 803f 766d 883f 2305 863f 6b41 7d3f
00000030: 2ec8 843f 11b2 883f 2160 853f 8a71 843f
00000040: d714 853f cf55 843f 9692 833f 8c2d 843f
00000050: 71bf 843f 1fc3 7f3f 6dce 843f 72ee 7f3f
00000060: 6b8b 843f ff3b 813f a584 7f3f 9a9b 843f
00000070: f7ab 883f f3b2 8b3f d768 853f 1e05 823f
1.0874388 1.018199 1.00607 1.0466384 1.0446918 1.0545698 1.0224533 1.0087922
1.0077441 1.0658405 1.0470318 0.98927945 1.037359 1.0679342 1.0419961 1.0347149
1.0396985 1.0338687 1.027911 1.03264 1.0370923 0.99907106 1.0375496 0.99973214
1.0355047 1.0096434 0.99811774 1.0359986 1.067748 1.0913986 1.042262 1.0157812

bn1.bias f4 [32]
00000000: 4027 113d fb79 66bc 56ad e6bc 9967 aa3c
00000010: 7035 b13c eecc 043c 90d5 8d3c ba6f 8a3c
00000020: 31b6 cabc db72 aa3b 043c a63c b2bd 6e3c
00000030: d797 b8bb d85f 5d3d 20dd 873c 6632 333c
00000040: 2078 4a3c 9222 5f3c 36d3 e23b 12fb 0aba
00000050: e34f 843c 3dbd 12bd 5509 26bd 6cd6 6fbb
00000060: 19e5 e13c a5dd 4fbc e1a4 26bc b7c2 803a
00000070: 6042 083b 0255 713d 93b3 5ebc 3014 88bb
0.035437822 -0.014067168 -0.028158825 0.020801352 0.021631926 0.0081055 0.017313749 0.016898979
-0.024745079 0.00520168 0.02029229 0.014571594 -0.005633335 0.05404648 0.016584933 0.010937309
0.012357742 0.013619082 0.006922151 -0.00053016946 0.016151374 -0.035825003 -0.040536243 -0.0036596311
0.027575063 -0.0126871215 -0.010171146 0.0009823655 0.0020791516 0.05891896 -0.0135926185 -0.004152797

bn1.running_mean f4 [32]
00000000: 6cb4 e5bc 8e8e c53d 9bee b63d 4fc0 8d3d
00000010: 5e8b af3d 5a1a afbb fb0f 93bc f1cc cd3d
00000020: 2aca 923d 10ae 90bd ddb6 2abd 6c31 24bd
00000030: 363a c2bd f0a9 21bd 482a 883d 8ba5 e03c
00000040: 6e40 87bd bde6 4fbd b405 a7bd 80f6 b6bb
00000050: 23f9 04bd 2da1 a4bc 0470 cdbd e41f a83d
00000060: 7df6 a33c 69a9 063d 8ecc f03a fb08 babd
00000070: fee1 e43d 7e40 64bd f4e5 993d 375c ccbd
-0.028040133 0.09646331 0.08932229 0.069214456 0.08571504 -0.0053437175 -0.017951956 0.10048855
0.07167466 -0.0706445 -0.0416783 -0.040086195 -0.09483759 -0.039468706 0.066486895 0.027422687
-0.06604086 -0.05075716 -0.08155385 -0.0055835843 -0.032464158 -0.020096386 -0.10031131 0.08209208
0.020014996 0.032876406 0.0018371509 -0.09083744 0.11175917 -0.055725567 0.07514563 -0.09978526

bn1.running_var f4 [32]
00000000: fc8b 113e ada2 5e3e a2ba 023e 3674 983e
00000010: 7699 2e3e d6cc 293e 739f 003e ced0 7c3e
00000020: 13af 6c3e bb57 ee3d 8e3b 393e f074 293f
00000030: 9e90 5d3e 2c56 733e a58f a03e f5db 9b3e
00000040: 589e 1a3e 2413 c33d 0056 a53e abbf 923e
00000050: 5707 903e 537e 633f eeb7 cf3d 0dec 0f3f
00000060: 9104 403e 19d7 a83e 9a93 0a3e e046 3a3e
00000070: 8364 193e bff6 923f 8684 d83d 7981 8d3e
0.14213556 0.21741743 0.12766507 0.29776162 0.17050728 0.16582045 0.12560825 0.24689028
0.2311366 0.11637827 0.18089125 0.6619406 0.21637198 0.2376334 0.31359592 0.3044125
0.15099466 0.09525135 0.32292175 0.28661856 0.281306 0.8886463 0.10142504 0.5621956
0.18751742 0.32976606 0.13532868 0.18191099 0.14979748 1.1481551 0.10572152 0.27637842

depthwise.weight f4 [32, 1, 3, 3]
00000000: a422 3c3e b4ad c03d 151f 9b3c dcde 8e3d
00000010: 4653 7d3e 1e50 fbbd f96f 7c3e 79ca 863e
00000020: ae9a 0d3d 5aa0 b7bc d7b8 6c3e cff5 89be
00000030: 92cd dc3c 3820 b03e 8316 55be d21b a73d
00000040: dbc5 383e ab2b 9bbe e343 9d3e c2ba 4abe
00000050: 1d94 babd 3ed4 e33d 8972 9d3e 4f5d d7bd
00000060: e307 523d d403 4dbe 3bfc 9a3e 6eb2 adbe
00000070: 184f 85be 0ab9 1cbd 2db6 c1bd 292c c13d
00000080: 9d5a 9bbe e5c6 77be 2bac d8bd 2549 613e
00000090: 9e95 3abe ab03 003e 0c0f 22bd dbda 9c3d
000000a0: 9e02 adbd 6dba b0be 3e3b c03c 0d91 b6bd
000000b0: d00c 84be 11b8 733d f361 9e3b 415f 17be
000000c0: da01 f5bd 9e95 bfbe 9bd7 73be 2716 fa3d
000000d0: 964c 8a3e 63c4 68be 9f39 82be ebdc 08be
000000e0: 8b97 833e 1cc2 02be e6d2 33be 80f0 fdbd
000000f0: c457 3ebe fed3 9cbd 246e 7bbe 5fce a23e
00000100: 87ce c3bd e0db 22bb d143 973e dfa8 66bd
00000110: 6de2 4b3d 2312 20be d04b 10be f864 a3be
00000120: f78a a6be 4712 6e3e 6a8e 093e 7359 a9be
00000130: 642f 95be 5ca6 4e3d 67df a6bd b531 3dbd
00000140: 0043 9fbe 5e13 8f3e 0a93 3f3e daba eebd
00000150: 399f 5fbe efbb 213e d348 7c3e 3b9c cb3e
00000160: 986e 02be 8739 42be 69f3 1b3e 1f49 2c3e
00000170: 1e68 83be 3ba7 13be 49d1 503e 2a43 45be
00000180: 70b9 8ebe c783 fa3c 0703 43be 9319 c63d
00000190: bdf5 823b 6085 823d ad3e 993d b9a2 a0bd
000001a0: ed94 943e 8e51 67be c5d9 87be 578b 9cbc
000001b0: ab44 87bd 9d3e a2be a6f0 e3bd 5099 30bd
000001c0: b1f4 84be 30a1 92be 801f b93d 8e0f e9bd
000001d0: 63ab 95be 37a6 ecbd dd23 6f3e 94d6 9c3e
000001e0: 39f4 563b 3363 173d cb4f a2bd 9bb7 953e
000001f0: 8588 823e 8225 5d3d f4c9 173e 2b7a fd3b
00000200: 5133 503d 58c5 ae3e 5fd9 983e 0ea8 e5bd
00000210: e616 2f3e 910b c0bd 1e90 aa3e 7c62 6a3e
00000220: 00ec f93d 1463 6bbe 6840 803e 6cab 863c
00000230: 5ba7 5bbe b7eb 30bd adcb 2dbd bb3e b8be
00000240: bf88 78be ce1a 793b 35b0 87be c4e0 82be
00000250: ce5e 81be 27c1 183e 34d2 753e 89ab 8dbe
00000260: 4d02 97be a629 453e 260e b6bc 27c2 1a3e
00000270: 03e3 5d3b 0085 9a3d 24b9 7e3e 9e8d 213e
00000280: 9f3d 813e abd5 e5bb 410e 42be ff75 bcbd
00000290: aeae 553e 4d52 64be eeb1 0b3d badf 2fbe
000002a0: 111d 8f3e b7bf aebe cae5 6cbe 64b8 83bc
000002b0: aa88 8abe 5fa0 8fbe 7cbf a23d 5796 7fbe
000002c0: a896 b0bd 0b06 e13d c31c 393d f602 4c3e
000002d0: 842e 18be a47b 87be ed53 673e 592b 99bd
000002e0: 35d4 73bd 2547 0d3e bb61 64be 5337 fbbd
000002f0: 9178 53be 47af a7be c41b 3e3e b3a7 4abd
00000300: 1621 edbd 0d57 aabe 3b8f 87be 2258 973e
00000310: fd3d 973e 3faa 3dbe e13b 243e a2bb f1bd
00000320: 501a 663e 0a92 46be 577c 903e 4285 103d
00000330: 0a2f 953e 649c 83be 7d15 a83e 645a 35be
00000340: 5c4f 953e f2ab a43e 1f47 9e3e b875 b63d
00000350: 741d 79bd 4873 85bd 38d4 5bbe 1996 2c3e
00000360: 53a0 a0bd 991d 37be 334c a93e 12db f5bd
00000370: af1e cbbd 74ea a0be e1cd 3fbc d413 aa3e
00000380: 227b 623e 4de9 a3be 7515 a7be c1e7 9bbe
00000390: b6db 35be d163 babc fc43 18be 5ccf 293d
000003a0: d24d 81bd 9f93 0c3e 036c a53d b736 043c
000003b0: 8545 713e 1088 e33b e33a 93be a32a 5b3c
000003c0: 068b 0abd 53ea 9a3d f86e 743e 5957 8d3e
000003d0: faaf 8e3d 9234 6ebe 1c60 f6bd 8113 63be
000003e0: ea3a 40be 66a2 26be abe9 bdbe 8bbb 863e
000003f0: e5cf 4f3c 26ad 153d 0247 d03d 96e9 af3e
0.1837259 0.09408131 0.01893572 0.06976101 0.24738798 -0.122711405 0.24652089 0.2632635
0.034571342 -0.022415329 0.23117386 -0.2694535 0.026953492 0.3439958 -0.20809369 0.08159603
0.18044226 -0.30306754 0.30715856 -0.19797805 -0.091102816 0.11124466 0.30751446 -0.10515844
0.051277053 -0.20020992 0.30270562 -0.33925194 -0.26036906 -0.038262405 -0.094585754 0.09432251
-0.3034257 -0.24196966 -0.105797134 0.22000559 -0.18221137 0.12501399 -0.03956513 0.07658931
-0.08447765 -0.34517232 0.023465749 -0.08914385 -0.25791025 0.05950171 0.004833454 -0.1478243
-0.11963244 -0.37418836 -0.23812716 0.122112565 0.27011555 -0.22731166 -0.25434586 -0.13365524
0.25701556 -0.1276936 -0.1756092 -0.12399387 -0.18588167 -0.07657622 -0.24553734 0.31798074
-0.09560876 -0.0024850294 0.29543927 -0.05631339 0.049776483 -0.15631919 -0.1409142 -0.3191297
-0.32527897 0.2324916 0.13433233 -0.33076057 -0.2913772 0.05045162 -0.08148079 -0.046189982
-0.31105804 0.27944463 0.18708435 -0.11656733 -0.21838082 0.15794347 0.24637155 0.39767632
-0.127375 -0.18967257 0.15229572 0.16824768 -0.25665373 -0.14419262 0.20392336 -0.19263902
-0.27875853 0.030580414 -0.19044124 0.09672847 0.0039965794 0.063730955 0.074826576 -0.07843537
0.2901987 -0.22589704 -0.26533332 -0.019109411 -0.06604894 -0.31688395 -0.111298844 -0.04311496
-0.25967935 -0.286386 0.09039211 -0.1137992 -0.2923232 -0.115551405 0.23353525 0.3063246
0.0032799377 0.036959838 -0.079253756 0.29241642 0.2549478 0.05399085 0.14823133 0.007735511
0.05083019 0.34134936 0.2985334 -0.112136945 0.17098579 -0.09377206 0.33313078 0.22889131
0.122032166 -0.22987014 0.25049138 0.016439162 -0.2145056 -0.043193545 -0.04243057 -0.3598536
-0.24270914 0.0038010362 -0.26501623 -0.25562108 -0.25267643 0.14917432 0.24005967 -0.27669933
-0.29493943 0.19254169 -0.022223543 0.15113126 0.0033857233 0.07544899 0.24875313 0.15776679
0.25242326 -0.0070139966 -0.1895075 -0.092021935 0.20867416 -0.2229702 0.034105234 -0.17175189
0.27951863 -0.34130642 -0.23134533 -0.016079135 -0.2705739 -0.2805204 0.07946679 -0.24959694
-0.086224854 0.10987481 0.045193445 0.19923005 -0.14861494 -0.26461518 0.22590609 -0.07478971
-0.05952855 0.1379667 -0.22302906 -0.12266412 -0.20651461 -0.32750914 0.18565279 -0.049476337
-0.11578576 -0.3326954 -0.26476464 0.29559427 0.2953948 -0.18521975 0.16038467 -0.11803366
0.22470975 -0.19391647 0.28219864 0.035283335 0.2913745 -0.25705254 0.32828894 -0.17710263
0.2916211 0.32162434 0.30913636 0.08909172 -0.060819104 -0.06516129 -0.21467674 0.16854133
-0.078430794 -0.17882384 0.33065948 -0.12004675 -0.09917962 -0.31428874 -0.0117068 0.33218253
0.22117284 -0.32013932 -0.32633558 -0.30450252 -0.17759594 -0.022752674 -0.14869684 0.04145752
-0.06313671 0.13728188 0.08077242 0.008069686 0.23561676 0.00694371 -0.28755865 0.013376865
-0.03382399 0.07564225 0.23870456 0.27605703 0.069671586 -0.23262241 -0.1203005 -0.22175409
-0.18772474 -0.16272888 -0.37092337 0.2631496 0.012683843 0.03654208 0.10169794 0.343579

depthwise.bias f4 [32]
00000000: 26bc 233e 2732 833e 28b7 b03d 1c24 13bc
00000010: b755 833e b743 263d 9816 ccbc 3232 45be
00000020: 5ac3 7abe b4d9 54be 9df5 643e 43bf 2f3e
00000030: 4858 723e e158 64bd f054 7fbe 488c 23be
00000040: 0b9a 033d 5dcb 6dbe 4c5e 853e 8679 5bbe
00000050: f85b a6be 9378 91bd 9340 063d a16e c23c
00000060: 4779 8bbe 5d4c 26be f510 d1bc 15bb 94be
00000070: f4f0 7b3d 391c 87be c122 80be aedf 92be
0.15989742 0.256242 0.08628684 -0.008980777 0.25651333 0.04059192 -0.024913117 -0.19257429
-0.24488583 -0.20786172 0.22359319 0.17162804 0.23666489 -0.055748824 -0.24934745 -0.15971482
0.03212933 -0.23222108 0.26048505 -0.21433076 -0.32492042 -0.07103076 0.032776427 0.023734393
-0.27240965 -0.16240068 -0.025520781 -0.29048982 0.061509088 -0.2638872 -0.25026515 -0.2868628

pointwise.weight f4 [64, 32, 1, 1]
00000000: efea 273e f9ce 1d3e 87e4 0e3e 7e8b 363e
00000010: 97fe 3bbe 54f8 77bd b51b 083e 63b7 303d
00000020: 8a49 523d e019 783d 6187 283d 7c75 a2bd
00000030: 465c b83c 0f94 ba3d 14e9 083e 3418 f03d
00000040: c6cf 3e3e 3cae a2bc 40db ebba d15f df3c
00000050: a68b 14bd 125f ff3d 3362 763e 2a0d 043e
00000060: 035f 0a3d 93f3 b0bb d134 a33d 661a 0fbd
00000070: 0466 8bbd 8777 903d c06f 483e 898e 95bd
00000080: 6a4d 083e a08f 993d 8ad4 babc 75bf 39be
00000090: f81b 85bd a365 2b3e b986 2bbc b0bd e93b
000000a0: 9f59 26bd 796f 3bbe 8c98 d2bd aa5b da3d
000000b0: f120 833c 440b 323e d75b b9bd 1ba4 0dbe
000000c0: 1dc9 cebd 35d5 a93d dc0e d03d aa1d 8b3d
000000d0: 0cc1 0f3d c69b b2bc 5b5e a83d cb30 ae3c
000000e0: 853a 783d 7dd0 babd 99cb e8bc 3c8b c2bd
000000f0: 96c6 f53d c52f 0dbe a14b 003d edac 99bd
00000100: e522 95bc d37b b1bd 99ce e1bd 36b5 553d
00000110: aed5 1c3e f70d abbd 09d9 ba3d bf59 32bd
00000120: ace8 dd3d 606c 65be 14eb e9bd 0c51 99bd
00000130: 6d3e eb3d 57ab 413d ad6a 0c3d 04c8 823d
00000140: 2717 3e3c d187 473e 952f 48be fda9 98bd
00000150: 26d0 d83d fab2 0bbd 4fa2 4e3e c066 09be
00000160: d27f afbd 03a0 5cbe ece7 debd 54bd fd3d
00000170: 1272 443e acf1 4ebd c33b 94bc 6da9 873d
00000180: 61fd 7e3d f203 a63d 2ae8 8cbc d56f ebbd
00000190: 57b9 9dbd 795b 2b3e f106 7b3d 123d 53bd
000001a0: c72e b03d 9a5b 873e 5465 c6bd 858f ebbd
000001b0: 2e4b 30be 689f b93d 3b5e 473e c2cc f43d
000001c0: c8c6 bf3d 868c 89bd 8075 17bd e9dc ec3d
000001d0: 76e7 db3d 61e7 cebd 2545 1c3e ffe3 bd3d
000001e0: 4f78 b8bd e93a cc3b 11ea 4a3e 682e 473c
000001f0: ee00 1ebe 5e5d b93d 3be7 5a3e 7b39 c53d
00000200: 7e5d e3bc b7f7 d03d a98b ad3d 0fd0 233d
00000210: 232f 23be 055e ee3d 558f dcbd 149e 8abc
00000220: 30e8 12bd 2530 163e c60b 27be 2c37 d1bb
00000230: 8f43 3a3d 88b3 ad3d 6db0 c1bd 3a8b dabc
00000240: 21f3 cb3d 9710 f93c 350c 2f3e 85e4 c3bd
00000250: 5fe8 34bb 14dd 1abd b0f9 ea3d b1f6 393e
00000260: 94a6 debd 36d2 163d e372 883d e2a6 8abd
00000270: ff75 d2bd 873e f3bd 30f5 ce3d c38f 10bd
00000280: a0a1 183e 3cf8 2c3e 674c d63d ab24 9c3c
00000290: efcf 22be 3311 5e3e 6f09 29be 09a4 26be
000002a0: a5e0 3bbd acc0 a7bc b490 3dbe 76ef a7bc
000002b0: ef4d 043d 55bd de3c b27b 06be 4f3a fdbc
000002c0: ae2b dd3d 7999 683d f21c ba3d f0fa 803d
000002d0: e1d9 bebc cf6c 84bc 1d89 c73d e97c b83d
000002e0: 4d7f 98bd 6442 253e 6327 563e 05fc b43c
000002f0: 49f6 e73d 2596 afbd 3f17 983d 1e15 d33d
00000300: cdd7 aabd bdba cb3d 9c96 8a3d a37b eabd
00000310: 56cc 45be 67b4 f2bc aedc 0cbe e3ed 0c3e
00000320: 8006 a7bd cfd4 f43c a0d1 73be d0c2 ad3c
00000330: 552a 12be 3286 033e ba99 eabc ab9b 3dbe
00000340: f058 9839 2518 1dbe 3df7 79bd a69d e2bd
00000350: 37a6 143e 23f8 d039 8767 2ebe 3c04 79bd
00000360: d729 123d c9b9 f43d 2626 cfbd c908 383d
00000370: f803 0a3d 7323 393d 7fae acbd 371f 34be
00000380: 75fb 503e 2a76 49bd 8a80 8bbb 5bfc fabd
00000390: 3394 733e f72d 913d 1e98 9b3c 14f8 70bd
000003a0: 1752 843d be2e 63bd 2f9a 523e cdb0 bc3d
000003b0: 0131 d33a 0f4f 373e 3b40 313e ef31 20bc
000003c0: 019d 133d 7b33 bbbc 7d00 803e a567 3e3d
000003d0: e8e1 56be 08bb 533c 16cf f9bd 5cb4 903d
000003e0: ebf2 04bd b9a6 f03d 5489 57bb 39ea 813d
000003f0: 98fb 3a3d 301a 4c3d 4b7f 85bd 0126 d53d
0.16398214 0.15410985 0.13954364 0.1782665 -0.18358837 -0.06053956 0.1329182 0.04314364
0.051339664 0.06057155 0.041144732 -0.079325646 0.022504937 0.09110271 0.13370162 0.117233664
0.18633947 -0.019858472 -0.0017994419 0.027267369 -0.03626599 0.12469305 0.24060898 0.12895647
0.033782016 -0.00540013 0.07969058 -0.034937285 -0.06806567 0.07054048 0.19573879 -0.07302577
0.13310781 0.074980974 -0.022806425 -0.18139441 -0.06499475 0.1673799 -0.010469132 0.007133208
-0.040612813 -0.18304242 -0.10283002 0.10662015 0.016006919 0.1738711 -0.0905072 -0.13832133
-0.10096953 0.08292619 0.10159084 0.06792767 0.035096213 -0.021802794 0.08221122 0.0212635
0.060602684 -0.09121797 -0.028417395 -0.09499213 0.12000768 -0.13787754 0.031322125 -0.07503686
-0.018205116 -0.08666196 -0.110257335 0.05217477 0.15315887 -0.08352273 0.091234274 -0.04354262
0.10835394 -0.22404623 -0.11421791 -0.074861616 0.11486516 0.047282543 0.03428142 0.06385806
0.0116022 0.19485404 -0.19549401 -0.07454298 0.10586576 -0.034106232 0.20179103 -0.13418102
-0.08569302 -0.21545415 -0.10884079 0.12389627 0.1918414 -0.050523445 -0.018094903 0.06624112
0.06225336 0.08106221 -0.017200548 -0.1149594 -0.077013664 0.16734113 0.061285917 -0.051571913
0.08602672 0.26437074 -0.096872956 -0.115019836 -0.17216179 0.090636075 0.1946954 0.11953117
0.093640864 -0.06716256 -0.03697729 0.11565573 0.10737507 -0.10102726 0.15260752 0.092720024
-0.09007322 0.0062326086 0.19815852 0.01215706 -0.15430042 0.090510115 0.2137727 0.09630104
-0.027754541 0.10203498 0.08473904 0.039993342 -0.1593595 0.116390266 -0.10769526 -0.01692108
-0.035865963 0.14666803 -0.16313085 -0.006384751 0.045474585 0.084815085 -0.09457479 -0.026677717
0.099584825 0.030403418 0.170945 -0.09565071 -0.0027604324 -0.037808493 0.11473405 0.18160512
-0.10871616 0.036821567 0.06662538 -0.067701116 -0.10276412 -0.118771605 0.101053596 -0.03529335
0.14905405 0.16891569 0.10463791 0.019060453 -0.15899633 0.21686248 -0.16507505 -0.16273512
-0.045868535 -0.020477615 -0.18512231 -0.020499926 0.032300886 0.02718989 -0.13133124 -0.030911593
0.10799347 0.056786988 0.09087552 0.062978625 -0.023297252 -0.016165165 0.09742949 0.090082
-0.07446156 0.16138607 0.20913462 0.022092829 0.11326272 -0.0857356 0.07426309 0.10306762
-0.08341942 0.09947727 0.06767008 -0.11449363 -0.19316229 -0.029627038 -0.13756058 0.13762622
-0.08155537 0.029886631 -0.23810434 0.021211058 -0.14273961 0.1284416 -0.028637756 -0.18516414
0.00029057963 -0.15341242 -0.0610268 -0.11065225 0.14516531 0.00039857728 -0.1703168 -0.060795054
0.035684433 0.11949498 -0.10114698 0.044930253 0.03369519 0.045199823 -0.0843172 -0.17590033
0.20408423 -0.049184956 -0.0042572664 -0.12255164 0.23787002 0.07088845 0.018993434 -0.058830336
0.0646097 -0.0554645 0.20566629 0.092134096 0.0016112627 0.17901252 0.17309658 -0.00977753
0.036038402 -0.022851696 0.25000373 0.046485562 -0.20984614 0.01292301 -0.12197702 0.07065651
-0.032458227 0.1175055 -0.003288825 0.063435026 0.045650095 0.04982966 -0.0651842 0.10407639

pointwise.bias f4 [64]
00000000: 351e 37be f396 9f3d e557 2e3e b51c 04be
00000010: 5b12 9d3d 580b c2bd 3931 a3bd 3e8f babd
00000020: 9f21 8ebc 427e 193e a307 113e 6040 ae3d
00000030: cd37 e3bd 87d6 033e 4f78 9dba 9312 b7bd
00000040: 6624 0b3e 2fb2 973d 8d16 08be 12c6 0cbd
00000050: 5e2e 163d 054d 943d 7ad7 92bd d7ff 93bc
00000060: 9035 02be 71e3 d1bd 41c0 dfbd 80c3 7b3d
00000070: 97e0 44bc 5296 1c3e eec8 c3bd aa1a ef3d
00000080: e12f 9a3d 44ec b1bd 3581 06be df05 81bd
00000090: cb5c 88bd 932a 2f3b 64f0 1a3e 5592 eebd
000000a0: d79d 0c3e 2ae9 d6bd 52ee 00be 75e5 c43d
000000b0: ee0f 2fbd ca6e 89bd a2e3 d23c 4939 f0bd
000000c0: 5581 c23c ed70 fe3d 6313 233e 58c7 13bb
000000d0: 3fea 8dbd 3bea 12be 2957 bebb 14cd 723c
000000e0: 2ee7 023e 45da 4e3d bed9 ff3c 99c4 2b3e
000000f0: 4355 12be d7cb fdbd 419e 7ebc 4646 1a3d
-0.17882617 0.07792463 0.17025717 -0.12901576 0.07669517 -0.0947482 -0.07968373 -0.091093525
-0.017350016 0.1498957 0.1416307 0.08508372 -0.110946275 0.12874804 -0.0012014004 -0.089390896
0.13588104 0.07407033 -0.13289852 -0.034368582 0.036665313 0.07241253 -0.07170005 -0.01806633
-0.12715745 -0.10248459 -0.109253414 0.06146574 -0.012016437 0.15291718 -0.09559809 0.11675008
0.075286634 -0.08687642 -0.13135226 -0.06299948 -0.06658324 0.0026728257 0.15130764 -0.11649004
0.13732086 -0.10493691 -0.12590912 0.09614078 -0.0427398 -0.067105845 0.02574331 -0.11729676
0.023743311 0.12423883 0.15925364 -0.0022549238 -0.069294445 -0.14347164 -0.00580873 0.014819402
0.127835 0.050501127 0.031231757 0.16774215 -0.14290337 -0.12392395 -0.01554066 0.037664674

fc.weight f4 [2, 1024]
00000000: c402 08bd 9c8b adba ef9c 82bd c684 45bc
00000010: be2d 36bd fbdf 10bd 5d8e 37bd f888 263d
00000020: 59c4 5ebd c901 69bc cd6b 86bd bc3f 173c
00000030: 1ace dfbd a8fd 42bd 9d5d e3bc 7085 68bd
00000040: 0d2c c83c 13bc b0bc 7b2d 39bb 1fdc 493c
00000050: 5fda 9e3c ce68 83bc 2210 edbc 47c7 be3c
00000060: 1976 493b 139a 78bc 8816 d13c e60e 043d
00000070: d331 1a3b 3f62 183d 821a 4cbb 8133 683c
00000080: ee0d 3dbc f6b8 5038 d03c 0bbc d4c7 40bd
00000090: 7f36 4dbd c439 dbbd 3696 37be 182d 29bd
000000a0: 8f2c b9bd 4650 eebd 39f7 cfbd a1a9 abbd
000000b0: c722 3abd a6ed 96bd 8e48 63bd a6b6 eebc
000000c0: a3d5 d6bd 268c f7bd d9ef 1dbe d8b6 f43a
000000d0: 60d2 aebd 22e8 d8bd 510a 96bd 20aa 05bd
000000e0: eb9f cbbd 91a0 b1bd 1d21 80bd 5956 bebd
000000f0: a01c d6bd 06c1 1abe 8765 c2bd f71d 90bd
00000100: a61c 553a 3948 30bb 6835 31bc 08e6 6e3c
00000110: 8c20 9ebc 197e 9b3c e432 e03c b153 d83c
00000120: c496 71bc 1ef9 ca3c d644 163d dc26 e73b
00000130: 2718 37bd 3174 cdbc 8b9a 9d3b 66a3 5ebd
00000140: f378 16bd 952e 1abc 7ef5 2cbd b474 273c
00000150: 108f e83c 608a 1b3d e880 6b3c feee ff3c
00000160: f7ad 713c 14d6 413d 77de 383a a782 e93c
00000170: e14f 3bbd 9116 6ebc a481 163d 2835 a6bd
00000180: c0c9 aa3b 4d7a c83c 5a01 9a3d 54da a13d
00000190: f2ea 613d 9e71 b03d d6c1 483d d6ba 74bc
000001a0: c67a 973d 779d 803d 06ed fabb 24b4 02bd
000001b0: 525b 203d 9220 a53b 585a 12bd c447 fc3c
000001c0: 9565 b33d bfb3 583d 33a2 dd3c ea98 653d
000001d0: b0b0 8c3c 174e 353d 14a3 153d bb28 d53d
000001e0: 0a03 fa3d 6cdb dd3d 567d 053d bd05 463d
000001f0: 9b0c 5d3d 7c63 943d fdce 033e d938 2e3d
00000200: 2b08 473d 6ec9 5f3d 64a8 d73c 2fc5 923c
00000210: 881c f93c 3133 923c de9d 893a ce87 ff3c
00000220: 8827 753c b383 5c3c caef 933b 8851 2f3d
00000230: 357f c93c 0b27 863d a924 a63d 6c9a 283d
00000240: 7be2 0c3d 5727 81bc dcf0 adbb 44fc ce3c
00000250: 5835 c2bc 0f59 843c 954c 7cbd 7b0e c33b
00000260: db8d 02bd 22a3 19ba 6f9f ffbc b460 80ba
00000270: 2979 223d c83d 0339 c4e6 003c 2145 bf3c
00000280: e40c 0e3c 79de e03b ce52 2dbd 2d14 80bd
00000290: 1305 6a3c 6d28 333c 43e2 cd3c a782 073d
000002a0: 7b2d aa3c 2816 483c a40b 5c3c 6aef 9c3c
000002b0: 7396 cfbc f0c9 653c 4547 583d 77b4 24bd
000002c0: b25f 0a3d 9aec f33c bd6f 6c3c 8d53 f13c
000002d0: 07f4 1d3d 298c 0a3c cd08 f93c e403 b93c
000002e0: 515d 403c 8cb6 303d 699f 9a3b b3c7 27bd
000002f0: b93a f23b a157 5bbc 8a25 a6bc ff0e 573d
00000300: 4cee 82ba b520 a7bd 9489 b4bd 5f67 cbbd
00000310: 6077 72bd 5b0e e3bd 8bbb e3bd 197d 5ebd
00000320: 57da ddbd 6a07 e9bd c37b a0bd eb5d 8cbd
00000330: 4e70 36bd b494 4fbd af99 30bd a48a 75b9
00000340: f0cf 8d3d 5ee8 c83c 4f0f 373d eca2 dd3c
00000350: dc4c d03c 2c5f 583d 5ad2 51bc 96b5 ddba
00000360: 8de7 ae3c 6082 113d 0926 1e3c 80e0 b13c
00000370: 68b0 323d 633b 0ebc b5f7 ed3c bd0e 3d3d
00000380: 7a5a de3c da14 6ebc 8c13 6c3c 6137 603b
00000390: 0740 b9bc b802 7fbc 69b1 86bd 21de 4ebd
000003a0: a816 a6bc f26a a7bd 4340 8dbd 1865 01bd
000003b0: d5a5 7a3c d47f 12bd 20bc 89bb f5f1 73bb
000003c0: 1a8d a8bd c3c8 f5bd fcb9 54bd ed2d 133d
000003d0: a946 efbc a287 a0bd 280e 8fbb 8bc9 2b3d
000003e0: fad5 84bd 41a7 0fbd 1ee7 27bd bd7b 1ebd
000003f0: db07 64bd 89de 84bd 2f03 dbbc a1e1 22bd
-0.033205763 -0.0013240459 -0.06377589 -0.012055581 -0.044477217 -0.035369854 -0.044813503 0.040657967
-0.05438647 -0.014221617 -0.0656353 0.009231504 -0.10927983 -0.047605187 -0.0277546 -0.05676788
0.024435068 -0.021574056 -0.0028255868 0.012320547 0.019391237 -0.016041186 -0.028938357 0.023288382
0.0030740558 -0.015173453 0.025523439 0.03224077 0.0023528233 0.03720307 -0.003114373 0.014172436
-0.011538966 4.9763323e-05 -0.008498386 -0.04706557 -0.0501008 -0.10704377 -0.17928395 -0.04130277
-0.09041702 -0.11636405 -0.10154576 -0.083819635 -0.045443323 -0.073695466 -0.055489115 -0.029139828
-0.10489967 -0.12087278 -0.15423526 0.0018670214 -0.085362196 -0.10591151 -0.073261864 -0.032632947
-0.09942611 -0.08673204 -0.06256316 -0.09293813 -0.104546785 -0.15112695 -0.09492021 -0.07036965
0.0008129574 -0.0026898517 -0.010815956 0.014581211 -0.019302629 0.018981026 0.027368017 0.026407095
-0.014745418 0.024776991 0.03668674 0.007054193 -0.044700768 -0.025079818 0.0048096827 -0.054355048
-0.03673644 -0.00941052 -0.042226307 0.010220695 0.02838853 0.03797376 0.014373995 0.03124189
0.014750949 0.0473233 0.0007052193 0.028504683 -0.045730475 -0.014531747 0.03674473 -0.081156075
0.0052120388 0.02447238 0.07519789 0.07902971 0.055155702 0.08615421 0.04901298 -0.014937123
0.07396464 0.06280034 -0.00765765 -0.031910077 0.03914959 0.005039283 -0.03573069 0.03079594
0.087596096 0.052905794 0.027054882 0.056054033 0.017174095 0.044263925 0.036532477 0.10408159
0.12207611 0.10832867 0.032590233 0.048345316 0.0539671 0.07245538 0.12871929 0.042534683
0.048591774 0.054635458 0.026325412 0.01791629 0.030409113 0.017846676 0.0010499319 0.031192686
0.014963038 0.013459134 0.004514669 0.042802364 0.02459679 0.065504156 0.08112461 0.041162893
0.034395676 -0.015765829 -0.0053082537 0.025266774 -0.023707077 0.016155748 -0.06159647 0.005952654
-0.031873565 -0.00058607955 -0.031203954 -0.0009794445 0.03966633 0.00012516149 0.007867519 0.023348393
0.008670066 0.0068624583 -0.042315297 -0.06253848 0.014283436 0.010934931 0.025132304 0.033083584
0.02077364 0.012212314 0.01343051 0.01915713 -0.025340294 0.014025196 0.052802343 -0.040211167
0.03378267 0.029775906 0.014430937 0.029458785 0.0385628 0.008456268 0.030399704 0.022584863
0.011740998 0.04314284 0.00471871 -0.040961932 0.007392254 -0.013387592 -0.020281572 0.052504536
-0.0009989231 -0.08160535 -0.088153034 -0.09931826 -0.059195876 -0.110867225 -0.11119755 -0.05431852
-0.10832661 -0.11378367 -0.07836106 -0.06853851 -0.044540696 -0.050678924 -0.043115314 -0.00023416668
0.069244266 0.024524864 0.044692334 0.027055226 0.025427274 0.052825138 -0.012806499 -0.0016915079
0.021350646 0.035524726 0.009652623 0.021713495 0.043625265 -0.008681151 0.02904878 0.046156634
0.027142752 -0.014531339 0.014408957 0.0034212696 -0.022613538 -0.015564613 -0.06576807 -0.050504807
-0.020274475 -0.08174695 -0.068970226 -0.03159055 0.0152983265 -0.035766438 -0.0042033345 -0.0037223075
-0.08230038 -0.12001183 -0.05193518 0.03593247 -0.029208498 -0.0783837 -0.004365701 0.041940253
-0.06486125 -0.035071615 -0.040991895 -0.038692225 -0.055671554 -0.06487758 -0.026734916 -0.039765958

fc.bias f4 [2]
00000000: 6bb0 073d 8a04 eebc
0.03312723 -0.029054899
