model/CNN/saved_models/split_pad9_patch50/smallcnn4_fold4_pad9_patch50.pth (torch, 35659 bytes, 12 tensors)

conv1.weight f4 [32, 10, 3, 3]
000000 54 1e c0 bd fd 81 cc bc a1 32 17 be f9 f2 b1 bc
       -0.09380785 -0.024964327 -0.14765407 -0.021722304
000010 fd 8d 86 3c a5 77 01 be 1a b0 cb bd 75 64 f5 bd
       0.016425127 -0.12643297 -0.09945698 -0.11982051
000020 f4 3c 33 bc 64 b6 3d bd 5d 20 c1 bd 73 76 27 3b
       -0.010939825 -0.04631652 -0.09430001 0.002555278
000030 88 64 0d 3d 85 7d a2 3d 69 d3 17 bd 8c 9e ce 3d
       0.034519702 0.07934097 -0.03706685 0.10088834
000040 72 10 0d bc 0f 10 06 bb 90 d3 8c 3d 62 0b 80 bd
       -0.008609878 -0.002045635 0.0687629 -0.06252171
000050 51 b5 91 3c 01 8d b6 3d 71 d6 9e bb fe 84 be bd
       0.017786654 0.08913613 -0.0048473408 -0.0930271
000060 f2 94 f5 3c 34 17 b3 3d 0e 59 a2 bb 43 d5 00 be
       0.02997825 0.0874466 -0.004954464 -0.12581353
000070 e6 83 4c bc 16 5c 8b bd f1 e0 56 3d ff 32 4c bd
       -0.012482619 -0.068046734 0.052460615 -0.04985332
000080 67 fa c9 3d 2c d0 db bd 27 8b 53 bd 04 2f cc bc
       0.098622136 -0.10733065 -0.051646378 -0.024924763
000090 37 46 8e bd e6 20 66 3d d9 53 5b 3c 0d ed 90 3d
       -0.06946986 0.05618372 0.01338669 0.07076464
0000a0 f1 e7 f7 bc f4 30 8f 3d a0 d5 82 3d 43 ed 4d 3d
       -0.030261965 0.06991759 0.06388402 0.0502751
0000b0 96 91 84 3d 20 77 5a 3c c8 94 91 3d f4 ca 83 3d
       0.06473081 0.013334066 0.07108456 0.064351946
0000c0 ac 05 10 bd cc 38 9b 3c a0 fa 09 3d 7f 6d 03 bd
       -0.03516166 0.018947981 0.03368628 -0.032086845
0000d0 45 8e 1c 3b 0c 61 42 3c 4c 9a 67 bd 3d 6d b0 3d
       0.002388851 0.011863958 -0.056543633 0.086145855
0000e0 da ae 93 3d ac 43 a1 3d 40 ee a2 bb 97 e9 5e 3c
       0.07211085 0.078742355 -0.0049722493 0.013605497
0000f0 18 5e d8 bd 63 0b 8d bd 78 d9 83 3d f6 83 41 3c
       -0.10564822 -0.068869375 0.06437963 0.011811247
000100 69 47 73 bd 8c 04 de 3c 0c 30 27 3d b9 ba 01 bd
       -0.059394274 0.027101777 0.040817305 -0.031672213
000110 6e 9a 83 bd 56 62 19 3d 43 7e a9 bd 97 bf df bd
       -0.064259395 0.037447296 -0.08276036 -0.10925215
000120 3f 22 d7 3c 91 92 ae 3c df 90 c7 bd 4f ee 6b 3d
       0.026261447 0.021310123 -0.09744429 0.057600316
000130 ab 60 17 3d 65 d1 a3 3d 16 24 b8 3c 57 17 34 3d
       0.036957424 0.07998923 0.022478145 0.04396757
000140 3b a9 5e 3d da 3e 5a bd 2c b3 31 bd c8 99 22 3d
       0.05436061 -0.053282596 -0.043383762 0.03969744
000150 5a e7 0e bd b4 dc 0b bd 45 30 d4 bd ca b4 b6 3d
       -0.034888603 -0.034146026 -0.10360769 0.089212015
000160 32 f5 7e bd 0e ee 9a bd 23 24 1d 3d a2 12 46 bd
       -0.062245555 -0.075649366 0.03836454 -0.048357613
000170 e1 af 2f 3d f4 f1 1c bd 1c 6c ad 3c a4 26 b1 bd
       0.04289234 -0.038316682 0.021169715 -0.08649948
000180 3f 19 96 3d 71 a7 28 bc f3 e2 58 bd 49 3b 92 bb
       0.07329034 -0.010293827 -0.05295081 -0.0044626337
000190 42 fd c7 3d ad f9 96 bd c3 5d 04 bd d1 59 89 bd
       0.09765102 -0.073718406 -0.03231598 -0.06706584
0001a0 da c0 2f 3c 82 01 de 3d 94 e8 af 3d 10 de 7e bd
       0.010727132 0.10840131 0.08589283 -0.062223494
0001b0 d4 39 c7 bd 90 47 26 bd 74 01 0a 3b eb e2 0d bd
       -0.09727827 -0.04059559 0.0021057995 -0.034640234
0001c0 f9 a5 f7 3d af 5b a3 3d 37 5e db bc 5a c4 04 3e
       0.12092204 0.07976472 -0.026778324 0.12965527
0001d0 79 9f 0a 3e 2f 75 00 be 1b b6 a0 bc ed 79 8d bd
       0.13537396 -0.12544702 -0.019618085 -0.06908021
0001e0 a1 f1 9b 3d 95 4c 05 3d 5b 63 57 3c d1 af 92 bd
       0.076144464 0.032543737 0.013146247 -0.071624406
0001f0 81 96 a2 bc cc 9a 8a 3d e9 2c 27 bc 12 9c 9a 3d
       -0.019847156 0.067678064 -0.0102035785 0.07549299
000200 f4 b9 38 bd 55 50 93 3d 13 98 ca bd 72 63 5c 3d
       -0.045099214 0.071930565 -0.09892287 0.053805776
000210 0c e2 71 bd fe 58 cd bd 21 d1 1c 3c ac dd e8 bb
       -0.059053466 -0.100267395 0.009571345 -0.0071065035
000220 9f 73 14 3d cc 54 b4 3d d7 b1 78 3d 65 7c 8b bd
       0.036243077 0.08805236 0.060716476 -0.06810836
000230 d3 56 f9 bc 8b f7 d6 3d 12 b2 fe bd 25 a2 a3 bd
       -0.030436909 0.10496434 -0.12436308 -0.07989911
000240 10 83 b5 3d a4 29 ce 3d c9 09 bc 3d 4e 84 02 bc
       0.08862889 0.10066536 0.09181554 -0.007966114
000250 16 59 ce bd 7c a3 f7 bb cc c1 23 bd 2c 66 88 3d
       -0.100755855 -0.0075573307 -0.03997974 0.06660113
000260 29 92 62 bc af e9 09 bd 62 dc 8a bc 2e f0 00 bc
       -0.013828793 -0.033670124 -0.01695079 -0.007869763
000270 dd c6 14 3d 68 bb 1d 3d 7a cf ff bd fb 2b e1 bd
       0.036322463 0.038508803 -0.12490745 -0.10994717
000280 5c 2e 38 bd a9 f9 cd bc 64 f2 81 3c 07 1f 4c bc
       -0.044966087 -0.025143461 0.015862651 -0.012458569
000290 a7 9d e7 3d 97 6d 82 3d 22 2f 1d 3d 40 da 12 3d
       0.11309367 0.06368559 0.038375027 0.03585267
0002a0 37 26 6f bd ef 73 80 3d 2e b9 97 3c 55 ba ce 3d
       -0.058386054 0.062721126 0.018520918 0.10094134
0002b0 b7 c6 1e bc f9 98 14 bb 63 17 43 3d e2 7e e3 bc
       -0.009690932 -0.0022674187 0.047629725 -0.027770463
0002c0 4f 80 b5 3d d6 72 81 bd fc 68 ca bc 79 b0 f4 3c
       0.088623635 -0.06320731 -0.024708264 0.029869305
0002d0 b6 41 02 3e 50 28 9a 3d be 37 80 bd 20 eb dc bc
       0.12720379 0.0752722 -0.06260632 -0.026967585
0002e0 d1 c1 b9 bd 8e 0b 86 bd 56 4c 88 3d f0 ad 32 bb
       -0.09070171 -0.06545173 0.06655185 -0.002726432
0002f0 76 0e a0 3d e6 0c b4 bc 8c 24 66 bd 2f 56 5a 3d
       0.07815258 -0.021978807 -0.056187198 0.053304847
000300 75 d6 e2 3d e9 f7 6d 3c 96 ee ba 3d a5 68 48 bd
       0.11076061 0.014524438 0.09127538 -0.04892792
000310 ef ca c5 3d fa 4a 0b 3e 3e cc 9b 3d 9f af 1b 3d
       0.09657847 0.1360282 0.076073155 0.038009282
000320 83 ba ad 3d 5f b6 cb 3d 6d 2e 66 3d 9b d1 a6 3c
       0.0848284 0.09946894 0.05619662 0.02036362
000330 72 2d ef 3d 92 4c 4c bd 2c 3d 06 3c 0a 0f 0c be
       0.1167859 -0.04987771 0.008193295 -0.13677612
000340 dc 56 e4 bd 2d b7 e8 3c 69 a4 44 3c 4d 8c 9e 3c
       -0.111493796 0.028407658 0.012002089 0.01935401
000350 10 84 c8 3c 8d ec 4a bd 30 71 db bd ea e8 75 bd
       0.024477035 -0.049542 -0.10714948 -0.060036577
000360 6d ef 06 3d 94 1c 3b 3c 68 62 51 bd 68 7c f6 bd
       0.032943178 0.011420388 -0.05111924 -0.12035447
000370 71 80 88 bd 48 0e 57 bd 9b ff 45 bd 8d 78 36 bd
       -0.06665123 -0.052503854 -0.048339467 -0.04454856
000380 86 55 cc bb 83 d9 2a 3d 54 c4 75 bd 43 f8 0b bd
       -0.006235781 0.04171134 -0.060001686 -0.034172308
000390 7a 1f 7b bd 6e 20 c6 bd 35 44 e9 3c 60 ad 85 bd
       -0.061309315 -0.09674154 0.028474906 -0.06527209
0003a0 a3 95 62 bc ef 2b a4 bd 51 f2 fb bb 84 47 ed 3c
       -0.0138296215 -0.08016192 -0.0076887985 0.028964765
0003b0 36 83 2e 3c b7 08 de 3d fe 12 ad 3d ac c9 a2 bc
       0.0106514 0.10841506 0.08450888 -0.019871555
0003c0 93 a6 5d 3d fc bc 28 bd 13 46 4b 3d 4d 58 66 3c
       0.054113936 -0.041195855 0.049627375 0.0140591385
0003d0 e2 35 c5 3d 02 79 cf bc 79 d5 d6 3c 40 ff 0a 3b
       0.09629418 -0.025326256 0.026224839 0.002120927
0003e0 e6 bf 9b 3d 83 34 b9 bc 7b 90 11 3d e9 4d b7 bd
       0.07604961 -0.022608047 0.035538178 -0.08950407
0003f0 1c be 21 bd 50 d9 d2 ba 0b ac 6a 3d a0 2d c5 3a
       -0.039487943 -0.0016086493 0.05729298 0.0015043505

conv1.bias f4 [32]
000000 e1 63 83 bd 21 39 ad bd fe 81 01 bd 91 f4 c0 3d
       -0.06415535 -0.08458162 -0.03161811 0.09421647
000010 06 7f 1b 3d b8 4c 96 bd 19 06 2a 3d 29 77 90 3d
       0.037962936 -0.07338852 0.04150972 0.07053978
000020 16 40 ad 3c 3c 94 1e bd ee e5 f5 3c 47 b7 62 bc
       0.021148723 -0.038715586 0.030016866 -0.013837642
000030 44 9a ae 3d 24 e2 9d bd 23 7d 73 bd e3 04 97 3d
       0.085255176 -0.077091485 -0.05944551 0.07373979
000040 30 8f 19 bc e1 c4 0b bd 71 e9 d9 bd cc 5d a2 3b
       -0.0093725175 -0.034123305 -0.106402285 0.004955029
000050 16 61 a2 3d a4 31 a8 3d b3 bf c5 bc 6c 92 1e bd
       0.07928674 0.08212593 -0.02413926 -0.038713858
000060 16 57 96 3c af cf 86 bd e8 b0 a1 bc a8 bb 8e 3d
       0.018352073 -0.06582581 -0.019737676 0.06969386
000070 6b b4 9d 3d 4c 2d 56 bd 25 c0 a7 bc e6 a1 ff 3b
       0.077004276 -0.052289292 -0.020477364 0.007801282

bn1.weight f4 [32]
000000 42 95 82 3f f0 d5 7d 3f 2e c6 85 3f d7 e9 80 3f
       1.02018 0.9915457 1.0451105 1.0071362
000010 2c e6 84 3f 4b 7b 82 3f e3 cc 86 3f 53 34 7b 3f
       1.0382743 1.0193876 1.0531276 0.98126715
000020 9c 1c 85 3f e8 be 83 3f 6c 41 83 3f 28 36 83 3f
       1.0399356 1.0292635 1.025434 1.0250902
000030 d8 11 84 3f 67 0b 85 3f 81 27 81 3f 5f cc 79 3f
       1.0317945 1.0394105 1.0090181 0.9757747
000040 df 75 88 3f 46 eb 81 3f b5 66 80 3f 6f 04 84 3f
       1.0660971 1.0149925 1.0031344 1.0313853
000050 c0 df 84 3f 09 33 80 3f 61 e4 84 3f 9d 88 86 3f
       1.0380783 1.0015575 1.0382196 1.0510441
000060 50 10 85 3f d7 cd 7f 3f 8e 14 86 3f 5a cd 83 3f
       1.0395603 0.9992346 1.0475023 1.0297043
000070 f4 fb 82 3f dd 13 85 3f 87 5e 81 3f d3 8a 93 3f
       1.023314 1.0396687 1.0106972 1.1526741

bn1.bias f4 [32]
000000 8c dd d4 bc 4a f8 4a bc 67 5a 8f 3b ec 37 a2 bc
       -0.025984548 -0.012388298 0.0043747905 -0.019802056
000010 1c 32 5a bc 5c e6 c0 39 e0 47 13 3d 1c dd fa bc
       -0.013317611 0.00036792725 0.035957217 -0.030623011
000020 2f f5 b4 3c 67 c8 6f bb 62 10 f1 bb 79 3b d1 3b
       0.022089569 -0.0036587955 -0.0073566893 0.0063852635
000030 95 92 dc 3b ce 59 19 bd 37 c6 1a bc 36 77 0e bd
       0.006731341 -0.03743916 -0.009446672 -0.034781657
000040 eb 80 80 3c 7f d0 33 bc 20 7f d6 bc 6e e0 94 3b
       0.015686473 -0.010975002 -0.026183665 0.0045433557
000050 46 1c b0 3c 9c d7 27 bb de 32 ab 3c d4 9f 32 bd
       0.021497857 -0.002561069 0.020898279 -0.043609455
000060 df 61 ec bc 78 e9 59 3b 32 76 48 3c 75 c3 e1 3c
       -0.028855262 0.003325073 0.012235211 0.027559021
000070 f5 68 a3 3b 66 1b c6 bc 96 eb ae bc 91 48 65 3c
       0.004986877 -0.024182986 -0.02135257 0.013994352

bn1.running_mean f4 [32]
000000 8c d4 81 bd af 9b ab bd fb 10 03 bd 04 d3 c0 3d
       -0.06339368 -0.08379304 -0.031998616 0.09415248
000010 4f 40 1a 3d cb 8b 97 bd 6e c1 2a 3d d5 e1 91 3d
       0.037658986 -0.0739971 0.041688375 0.07123152
000020 3c 4b b3 3c 20 d5 1e bd 90 c2 f4 3c 81 75 65 bc
       0.02188646 -0.03877747 0.02987793 -0.014005066
000030 ff 32 b0 3d fc f2 9e bd 77 1c 74 bd 83 89 96 3d
       0.08603477 -0.07761189 -0.05959746 0.07350447
000040 5b 95 0e bc 2a eb 0b bd c9 90 da bd a0 cd ad 3b
       -0.008702601 -0.034159817 -0.10672147 0.0053040534
000050 80 d4 a2 3d bb 4c a6 3d 56 03 c2 bc 9f c6 1f bd
       0.079506874 0.08120104 -0.023683231 -0.03900778
000060 53 86 94 3c 02 bb 86 bd 0f fb a0 bc 93 47 90 3d
       0.018130457 -0.06578638 -0.019650964 0.07044902
000070 b4 dc 9c 3d 76 2a 54 bd a0 81 a9 bc 0f 08 fa 3b
       0.07659283 -0.051798306 -0.020691693 0.007630355

bn1.running_var f4 [32]
000000 37 ad a4 3e da b0 b4 3e c5 58 fe 3d 6c b1 96 3e
       0.32163402 0.35291177 0.12419275 0.29432237
000010 91 06 01 3e a2 4a 60 3e 36 3b f3 3d f1 fd 45 3f
       0.12600161 0.2190347 0.11876528 0.7734061
000020 11 94 0a 3e 9d cf 0f 3e cc 5b b4 3d 62 23 e5 3e
       0.13533045 0.14044042 0.08806571 0.44753557
000030 5d 7c 8c 3e 78 35 f1 3d 72 67 d8 3d 0b 80 44 3e
       0.27438632 0.117777765 0.10566606 0.1918947
000040 71 2e 88 3f 0f d4 33 3e 18 5e 04 3e 56 86 47 3e
       1.0639173 0.17561363 0.12926519 0.19484839
000050 70 93 56 3e e5 2e e2 3f 19 e5 a4 3e 83 75 80 3e
       0.2095468 1.7670561 0.32206038 0.25089654
000060 b8 7e cb 3d f4 94 fe 3e 68 8e d9 3d 36 89 ac 3e
       0.09936279 0.49723017 0.10622865 0.33698434
000070 04 f5 4a 3e 66 9a 33 3e 06 32 d0 3e cd b0 37 3e
       0.19820029 0.17539367 0.40663165 0.17938538

depthwise.weight f4 [32, 1, 3, 3]
000000 6d 5b 59 3d 0f c1 a6 be 54 53 90 bc 94 5d 46 be
       0.053065706 -0.32569167 -0.017617859 -0.19371635
000010 e5 b3 33 3d 25 83 20 bc 16 22 27 3e 80 83 57 3e
       0.043872733 -0.009796892 0.16321597 0.21046257
000020 3d ee 99 3e e0 aa 8a 3d e2 9a 2b 3d 72 e5 4d 3d
       0.30064574 0.06770873 0.041895755 0.050267644
000030 81 b5 5c 3e ee 95 82 be d1 de 83 3e d6 1b 36 3e
       0.21553613 -0.25505012 0.25755933 0.17784056
000040 7c 18 9a be 4c 83 04 3e 64 fc 35 be 6d be ac be
       -0.30096805 0.12940711 -0.1777206 -0.33739033
000050 17 7a aa be 53 cd 67 be cc 78 b0 be f5 38 8b be
       -0.33296272 -0.22636919 -0.3446716 -0.27191892
000060 6b fe a2 3c cd 37 b8 be 3e db 56 3e e3 27 1d be
       0.019896707 -0.35980073 0.20982072 -0.15347247
000070 ea 4b fd 3c 26 25 b4 3d 34 f2 69 be 66 2a a4 be
       0.030919988 0.08796148 -0.228463 -0.32063597
000080 3f 15 97 3c eb df a7 be 75 ee fd bd 43 1a 08 be
       0.018442748 -0.32788023 -0.12398998 -0.13291268
000090 1b 39 aa bb 5b 5f be 3e 3b 57 1f be 4b 14 4c be
       -0.005194796 0.37182125 -0.1556062 -0.19929616
0000a0 15 40 ae 3e 14 2f a8 3d e0 e9 a6 3e 41 e9 27 bc
       0.34033266 0.082121044 0.32600307 -0.010248483
0000b0 cd 1d 16 be 56 a0 3f be c5 3a 69 3e 38 31 17 bd
       -0.14659806 -0.18713507 0.22776325 -0.036912173
0000c0 04 2f 8c 3d 8a b7 91 be 83 29 5f be ba 99 9f be
       0.06844905 -0.28460342 -0.21793179 -0.31171972
0000d0 f4 62 8a bd 41 06 df bd 7c c2 15 bd f5 58 8e be
       -0.06757155 -0.10889865 -0.036562428 -0.27802244
0000e0 38 36 ae be cc b6 9e be 8d ae 89 be 34 e2 7b 3e
       -0.3402574 -0.30998838 -0.26890984 0.24598008
0000f0 f1 37 00 3d 7b 54 f5 bc 91 25 27 be e3 03 a3 3d
       0.03130335 -0.02994751 -0.16322924 0.07959726
000100 93 e9 86 3e 99 d3 8a 3e 2b a4 de bc dc b1 78 bd
       0.26350078 0.2711456 -0.02717789 -0.060716495
000110 e4 3c 02 3e 7d 86 6e bd a3 b2 e4 3d 34 11 8a be
       0.1271854 -0.058233727 0.11166885 -0.2696625
000120 66 1f 03 be 7a 9e be be a4 be 55 3d 4d f8 a2 bd
       -0.12804946 -0.37230283 0.052183762 -0.07957516
000130 e0 3b 98 be a8 c8 9c 3d 6c be bb be fe a9 06 be
       -0.2973318 0.0765546 -0.36668718 -0.13150784
000140 7d 93 1a be a0 fd 83 3e 31 0b 2d be 23 0f 18 bd
       -0.15095325 0.25779438 -0.168988 -0.03712381
000150 1f 50 f3 bd 32 b6 71 3e 09 cf 8f 3d e9 ed a4 be
       -0.11880516 0.23604658 0.07021911 -0.3221276
000160 18 a7 aa be c3 36 b5 be 26 c1 3f 3d 94 87 32 3e
       -0.33330607 -0.35393342 0.04681506 0.17434531
000170 98 e0 9f be ca 32 a1 be d3 5d 90 be 1b 3c 43 3e
       -0.3122604 -0.3148406 -0.28196582 0.19065897
000180 f1 32 92 be 78 67 68 be 29 13 0e be 1e 75 65 be
       -0.2855449 -0.2269572 -0.13874497 -0.22407958
000190 87 d8 89 3d 38 4c 03 3e 0e 60 3c be c7 f3 25 be
       0.067307524 0.12822044 -0.18396017 -0.16206275
0001a0 82 d3 0a 3d 58 36 4f be 22 d0 9a 3d 14 d5 f5 bc
       0.033893116 -0.20235574 0.075592294 -0.03000883
0001b0 33 39 98 3e 0b d9 2f 3d c0 dc 7e 3e dc 76 9e 3e
       0.2973114 0.042931598 0.24888897 0.30950058
0001c0 fe 4e 83 3e 09 22 0f be cf 37 a7 3e 6b 57 17 3e
       0.25646204 -0.13977827 0.32659766 0.14779441
0001d0 01 b2 f3 bd e2 91 3d be 0a 0e 98 be 57 74 5d 3e
       -0.11899186 -0.18512681 -0.2969821 0.21626411
0001e0 f7 89 8a 3e 68 62 85 bd 78 f4 91 3e 42 68 1a 3e
       0.27058384 -0.0651291 0.28506827 0.15078834
0001f0 b8 cf 8b be 2c 28 d9 bb 96 6b f5 3c b9 7f 96 be
       -0.27306914 -0.0066271033 0.029958528 -0.2939432
000200 19 a9 37 3e 7b ba 38 3e c6 22 31 be 5c 1e 80 3e
       0.179356 0.18039887 -0.17298421 0.25023162
000210 09 9e 9e 3e ea 78 d2 bd 88 16 a1 3e a3 8d 4c 3d
       0.30979946 -0.10276969 0.31462502 0.049939763
000220 df 06 9b bd 51 5b 2c be b8 e5 a8 be 35 99 83 3e
       -0.0756967 -0.1683171 -0.32987761 0.25702825
000230 22 62 4b 3e 15 c3 0a be 5f af c3 bd f6 0d 68 3d
       0.19861653 -0.1355098 -0.09554934 0.05665394
000240 23 da 65 be 05 20 0c 3e fd e7 f1 bd fc b5 17 be
       -0.22446494 0.1368409 -0.118118264 -0.14815515
000250 0c 81 ce bd 5c a6 d1 3d 2a 77 3a 3e ee 67 81 be
       -0.100832075 0.10236809 0.1820952 -0.25274605
000260 7a fc 8c be d5 82 94 be 64 87 60 3e 04 7a ef 3d
       -0.27536374 -0.29006067 0.21926647 0.116931945
000270 46 21 d8 3d c3 9e 5f 3e 39 01 c6 bd 9f e1 b0 3e
       0.105532214 0.21837907 -0.09668202 0.34547135
000280 38 cb 92 be 3c c9 d1 bd 26 17 60 3e 4a 38 59 3d
       -0.2867067 -0.102434605 0.2188383 0.053032197
000290 09 8a ab bd ae 45 18 3e 59 a4 cf bd b3 f5 c6 3b
       -0.083759375 0.1487033 -0.10138769 0.00607177
0002a0 f6 33 59 be b4 64 a1 be e1 d3 92 bd 13 63 74 be
       -0.21211228 -0.31522143 -0.07169319 -0.23865919
0002b0 75 61 1b 3d 29 02 9a be 98 60 81 be 29 bc e0 bd
       0.03793474 -0.30079773 -0.25269008 -0.10973389
0002c0 d4 3a 9c be b8 f2 17 3d 6e fa 9b 3e e4 56 27 be
       -0.30513632 0.03709671 0.304645 -0.1634174
0002d0 33 3b cb 3c 5a 42 46 be 34 5c 89 3e 08 c6 b5 be
       0.024808502 -0.19361249 0.26828158 -0.35502648
0002e0 ca 92 2a be 0c fd 2e 3e f0 97 ac be 46 fa 01 3d
       -0.16657558 0.17088717 -0.3370967 0.03173282
0002f0 b8 3a 60 be 1b d7 ac be 08 b9 ca bd d6 6d 3a 3e
       -0.218974 -0.33757862 -0.09898573 0.18205962
000300 0d f6 83 be 54 d9 3e be 54 b0 70 3e b5 07 95 3e
       -0.2577366 -0.18637592 0.23504764 0.29107442
000310 12 f5 8b be 8e 18 84 3e 0b 99 c7 3d 0e ce 7b 3d
       -0.2733541 0.25799984 0.097459875 0.061475806
000320 29 e5 7c 3e cc 7d cf 3d 59 c3 58 3e 14 a8 85 bd
       0.24696793 0.10131416 0.21168269 -0.06526199
000330 2d 9c 06 3e f3 01 84 3e 7b 0a 81 3e 02 3c 2f 3b
       0.13145514 0.25782737 0.25203308 0.0026738648
000340 58 32 6e 3b 51 ce 97 bd 34 0a 1d 3e 44 18 ab bd
       0.0036345925 -0.074123986 0.15335923 -0.08354238
000350 98 0e 92 3e 07 ff d4 bc ef f7 a2 3e 32 19 ac 3e
       0.2852676 -0.026000513 0.31829783 0.33612972
000360 18 33 99 be bc 53 b6 be 3a cf 71 be c5 48 42 be
       -0.29921794 -0.3561076 -0.23614207 -0.18973072
000370 a9 6b 76 be a4 80 bb 3d d0 ef 68 bd ce 1c de bd
       -0.24064507 0.091553956 -0.056869328 -0.10845338
000380 83 f7 91 3e 92 20 3c 3d c6 79 5a 3e ad 7d eb 3d
       0.2850915 0.0459295 0.21335515 0.1149858
000390 0d 7b 29 3e 93 26 9b 3e a0 7d d2 bd 23 dc 30 3e
       0.16550846 0.30302867 -0.10277867 0.17271475
0003a0 7d 5b 4c 3e 8f fa 69 3d 9f 6a 87 be db 85 88 be
       0.19956775 0.057123717 -0.26448533 -0.26664624
0003b0 c0 fe ca bc 3d d6 9e be 34 1c a2 3d 99 92 cf 3d
       -0.024779677 -0.31022826 0.079155356 0.10135383
0003c0 05 8d 2a be bb f8 ea bb 07 dc 88 be dc 53 ac be
       -0.16655357 -0.0071707643 -0.26730368 -0.3365773
0003d0 d0 e8 1c be 0b c9 36 bd a5 3e 08 3e 79 8c 95 be
       -0.15323186 -0.044625323 0.13305147 -0.29208735
0003e0 d9 3f cb 3d 85 b6 84 3e 7b 07 5a be 5e d2 70 3e
       0.09924287 0.259205 -0.21291916 0.23517749
0003f0 88 50 34 3e 5f ae af be 85 e2 45 be 9f 52 59 be
       0.17608845 -0.34312722 -0.19324692 -0.21222924

depthwise.bias f4 [32]
000000 32 64 53 bd 1d 97 a0 3e 2c e9 26 3e c9 0a 92 be
       -0.051609226 0.3136529 0.16299886 -0.28523853
000010 21 ab b7 bd 94 a9 11 be 79 ed 9d 3e 36 2e 86 3d
       -0.08968187 -0.14224845 0.3084524 0.06551783
000020 15 b6 04 3e a3 36 12 bd f6 80 9c 3d 21 7d 3e be
       0.12960084 -0.035696637 0.07641785 -0.1860242
000030 4d 39 31 3e 03 d5 82 bd 2b e3 96 3e 5f cb 18 be
       0.17307015 -0.06388285 0.2947019 -0.1492133
000040 48 ce 90 3e d2 56 f8 3d 56 22 a3 be c4 05 a3 3e
       0.2828238 0.12125935 -0.31862134 0.31840336
000050 b8 20 af be b6 46 1b bd a2 72 65 be b7 53 45 be
       -0.3420465 -0.037909232 -0.2240701 -0.19270216
000060 11 82 f8 bd ac 40 4c be 4c 20 a3 be c9 95 09 be
       -0.12134183 -0.19946545 -0.31860578 -0.13436045
000070 bd 29 fe bd 07 52 08 3e 0b cf 7c 3e d0 93 5c 3e
       -0.12410305 0.13312541 0.24688356 0.21540761

pointwise.weight f4 [64, 32, 1, 1]
000000 28 bb 62 bd 33 0a 4c bd e4 4c 81 bd f5 d1 a9 bd
       -0.055354267 -0.049814414 -0.06313494 -0.08291999
000010 d1 14 02 be 6a f8 1b 3e de fa fb b9 68 21 56 3d
       -0.12703253 0.15231481 -0.0004806136 0.052277952
000020 92 fd 3e be c2 de 90 bc bc 2a b7 3c c7 b0 08 3e
       -0.18651417 -0.017684344 0.022359245 0.13348685
000030 50 9c 0b bc 8d e4 8b 3c e6 5b ae 3d 35 f0 35 bc
       -0.0085211545 0.017076755 0.08513622 -0.011104633
000040 ed d2 77 be 13 0c 7a bd 2e d3 a1 3d fc 27 c3 3c
       -0.24201556 -0.06104667 0.079016075 0.023822777
000050 3d 6f 3a be 30 59 1b be cf 54 8e bd 9e bd 3a be
       -0.18206497 -0.15170741 -0.0694977 -0.18236396
000060 4e 6e bd 3d 15 58 c4 bd d9 6f 13 3e 01 86 21 be
       0.092495546 -0.09587113 0.14398135 -0.15773775
000070 7d 1e c7 bd 46 09 72 bc 2d ff 10 be 44 cc fd bd
       -0.09722612 -0.014772719 -0.14159842 -0.12392476
000080 36 34 03 bd 46 36 39 3e e4 2b 35 3e 70 43 02 3e
       -0.032032214 0.1808711 0.17692524 0.12721038
000090 17 3e 97 bd 0b 7b cd bd 0c c1 38 be 2e 54 f4 bd
       -0.073848896 -0.10033234 -0.18042392 -0.119301185
0000a0 2d af 1c be a4 0a 01 3e a8 f6 3c be 47 46 42 be
       -0.153012 0.12601715 -0.18453467 -0.18972121
0000b0 a9 a9 ef 3d 2d 0b 04 bc e9 72 0a bd 45 f9 bf ba
       0.11702282 -0.008059305 -0.033800993 -0.0014646432
0000c0 a6 7f 2c 3d 3b 4e 41 bc 2e 54 44 be dd d6 5e 3e
       0.042113923 -0.011798437 -0.19172737 0.21761651
0000d0 46 04 1d be 82 a9 4c be e8 5c b1 bd bf 3a e7 bd
       -0.15333661 -0.19986537 -0.086602986 -0.11290502
0000e0 65 a7 ce bb b5 28 2b be d4 66 be bd b7 d2 c5 bd
       -0.006306576 -0.16714747 -0.09296957 -0.09659331
0000f0 ff 20 da bc ab fe a6 3d e9 ef 36 3d 13 91 e5 bb
       -0.026627062 0.08154043 0.04466239 -0.0070058196
000100 44 ea 0e bd bf b6 7c 3d 74 96 45 be 1f 69 4d 3d
       -0.03489138 0.061697718 -0.19295675 0.05014908
000110 4e d9 a8 3d e2 7d f8 3c f7 55 64 3d 2d 8a 1f 3e
       0.082445726 0.030333463 0.055746045 0.15580054
000120 6a 32 c0 bc 18 59 34 bd 6e 5c 44 3c 02 d7 bc bd
       -0.02346154 -0.04403028 0.011984928 -0.09220697
000130 c1 94 8e bd 4d 3c 55 3c b6 68 ac 3d 83 21 16 be
       -0.06961966 0.013014865 0.084184095 -0.14661221
000140 04 9c 0b be 56 1a 58 bd 2d f5 6d 3d 0b 00 6a 3c
       -0.13633734 -0.05275949 0.058095146 0.014282237
000150 4a 5a d3 3d 4b 2c 03 3e 11 a8 9f 3d f3 14 50 3e
       0.10319956 0.12809865 0.07795728 0.20320491
000160 6a 09 19 be 3c 70 e8 3d 1b 3b 19 be 76 b0 f4 bc
       -0.14944997 0.11349532 -0.14963953 -0.0298693
000170 d5 65 09 3e a4 4d 10 be 1c 57 8c 3d 3e 89 a6 3d
       0.13417752 -0.14092118 0.06852552 0.081316456
000180 11 e0 0a 3e 0e da 1d 3e d5 b4 9c bc e6 8e 50 3c
       0.13562037 0.15415213 -0.019129196 0.012729382
000190 c9 8b 58 3e 41 19 4e bd 1d 7a e3 3c 2d 9e ce bd
       0.21147074 -0.050317053 0.02776819 -0.100887634
0001a0 44 4a 2c bd de 55 f1 bc bd 68 a7 bd d1 07 3b 3d
       -0.042063013 -0.02945989 -0.08174274 0.04566175
0001b0 a2 82 44 3d d9 10 5f 3e 6e bf a9 3c b1 9c 13 3d
       0.047976144 0.2178377 0.020721164 0.036038104
0001c0 58 86 36 3e ff 8e 2a 3e 40 00 14 3e e5 2a 8b bd
       0.17824686 0.16656111 0.1445322 -0.06795291
0001d0 38 de f9 3d bc 73 d0 3d 82 a5 10 be 34 87 84 3e
       0.12200588 0.101783246 -0.14125636 0.25884402
0001e0 21 27 be bd 12 67 11 3d de 14 e6 3d 47 94 22 3e
       -0.09284807 0.035498686 0.11234449 0.15876876
0001f0 2e 1a a1 3d 58 08 3d be 5e 66 25 be 7b c6 f6 bd
       0.078663215 -0.18460214 -0.16152331 -0.12049576
000200 2c a0 30 be cc 6b 94 3d 70 02 ad 3d c4 96 a7 3d
       -0.172486 0.07247123 0.084477305 0.08183053
000210 ab 65 52 bd 29 e9 8e 3d 6e a3 ef bd 2f 8a 49 3d
       -0.05136649 0.069780655 -0.117010936 0.049204048
000220 5f 96 ff bd 08 ca 70 bd e7 80 bf bd 85 b0 4b bd
       -0.12479853 -0.058786422 -0.09350758 -0.04972889
000230 10 b3 06 be 59 16 0b be 2a a5 20 be 70 21 c9 3c
       -0.13154244 -0.13582744 -0.15688005 0.024552077
000240 88 78 e5 bd bf 7f 05 be c1 fc c4 bc 56 04 b0 3d
       -0.1120463 -0.13037013 -0.024046304 0.08594577
000250 2a 98 24 bd de ba ed bc 82 94 64 3e 17 28 70 be
       -0.040184177 -0.02901977 0.22322276 -0.23452793
000260 20 56 17 be 48 66 f5 3d 29 4f a4 bc 27 07 a8 3d
       -0.14778948 0.11982399 -0.020057278 0.08204489
000270 75 c6 82 3d 15 b5 e4 bc 9c f1 4a 3b 2d 7c 90 3e
       0.06385509 -0.027918378 0.0030966764 0.2821974
000280 6f 3e 00 bd b6 fc da bd 3b cc 7c bd 0b 0d 37 be
       -0.03130954 -0.10692732 -0.061718207 -0.17876069
000290 f5 22 54 bd dd 42 fa bd 4d 9f f6 bb 23 30 2d be
       -0.05179115 -0.122197844 -0.0075263144 -0.16912894
0002a0 3f b5 20 3d 3f 7b 06 be 10 4c 0f bd d2 65 39 3d
       0.03923535 -0.13132952 -0.03498465 0.04526312
0002b0 ce ce be 3a 14 ee 05 3c c0 08 03 3e c6 99 9b 3d
       0.0014557482 0.008174438 0.12796307 0.07597689
0002c0 90 bb c0 3d 79 7a d4 3c b6 b1 ab 3c d6 3c b3 bd
       0.09410775 0.025937306 0.020958763 -0.08751838
0002d0 31 a4 06 be 03 d0 b2 3d 2b 70 2d 3e b1 9c 4e be
       -0.13148572 0.08731081 0.1693732 -0.2017696
0002e0 c1 0d 67 3d f0 14 0d 3d 4a 7e c7 3d 12 5f 00 be
       0.0564096 0.034443796 0.097408846 -0.12536266
0002f0 34 a9 33 be f5 b7 0a 3d 63 77 da bd 97 bd 3b be
       -0.17545015 0.03386684 -0.106673025 -0.18334042
000300 da d9 f6 3d f7 2c b6 bd 6b ad 09 3e 68 8b 18 bd
       0.12053271 -0.08895295 0.1344506 -0.037242323
000310 0e ea b9 be 62 4f 6a 3d 85 09 2e be 18 a7 a8 bd
       -0.36311382 0.05720461 -0.16995819 -0.082349956
000320 c5 bf 25 be 27 f4 18 be 8f 9a 7b b9 61 30 41 3c
       -0.16186436 -0.14936887 -0.00023994803 0.01179132
000330 6e 4e b7 bd d2 1f 65 3e 1a a1 aa bd 58 00 c8 3d
       -0.08950506 0.2237542 -0.08331509 0.097656906
000340 2c ca 1b ba a4 3b 28 3e e6 c3 e9 3d 8a c5 f3 bd
       -0.0005942907 0.16429001 0.11414318 -0.11902912
000350 97 19 00 3e 6d c5 86 3c 5e dd 85 3d 9d 97 df bd
       0.12509762 0.016451562 0.06536363 -0.1091759
000360 ed 1b 90 3d 69 f1 c7 3d 31 e0 4b be f0 ae 43 be
       0.070365764 0.09762842 -0.19909741 -0.19109702
000370 fc cb 18 3d ac d6 62 be be 2c 6a 3d 89 19 76 3e
       0.03730391 -0.22152203 0.057171576 0.24033178
000380 51 f9 18 bd 4d 19 2b bd 7c 1e 2b bd ca 34 fa bc
       -0.03734714 -0.041772176 -0.04177712 -0.03054275
000390 3c e0 20 3d 01 4f 1b bd 09 69 67 bd 83 22 33 3e
       0.039276347 -0.03791714 -0.056496654 0.17493634
0003a0 2c 75 0d be 15 ee 8d 3c 0c fa 65 3d 9f 89 75 3d
       -0.13814229 0.01732544 0.056146666 0.0599457
0003b0 a7 f7 20 3e 36 28 92 3d 6a b2 07 3c 19 f9 af 3d
       0.15719472 0.07136576 0.008282283 0.085924335
0003c0 1a b1 aa bd 34 6e 02 ba 03 f4 4b 3d 16 c1 5f bd
       -0.08334561 -0.0004975528 0.049793255 -0.0546275
0003d0 56 ff d5 bd ca 2a 2b 3e 27 13 20 bd 22 4b 0c 3d
       -0.10449092 0.16715541 -0.039080765 0.03425134
0003e0 5c 61 bf 3d 14 72 eb bc cc 5e 98 3d a8 ec d9 3d
       0.09344742 -0.02874092 0.07439956 0.10640842
0003f0 f7 a7 32 3e 04 27 21 3d 75 36 3a 3d b4 fd 21 3e
       0.17446886 0.03934385 0.04546209 0.15819436

pointwise.bias f4 [64]
000000 36 9a 18 3e d5 4c a3 3d 35 48 77 bd b4 cd 05 3e
       0.14902577 0.07973639 -0.060371596 0.13066751
000010 8d 01 02 3e 6a 84 1f 3e 21 87 24 bd c0 90 02 bd
       0.12695904 0.15577856 -0.04016793 -0.031876326
000020 52 14 8e bd 2f 0a a9 bd 05 ea 11 3e 15 b7 c4 bd
       -0.069374695 -0.082538955 0.14249428 -0.096052326
000030 0a 96 0f be d0 86 17 bb 26 ff 95 bd c1 e4 b3 3c
       -0.14022079 -0.0023121126 -0.07324056 0.021959664
000040 71 8c 0b bd eb e8 09 3d 4d 05 08 bd 70 7f 1a be
       -0.034069482 0.033669394 -0.03320818 -0.15087676
000050 e6 46 38 3d c8 9a 94 3d ce 3f 7d bc 83 85 db bd
       0.04498949 0.07256085 -0.015457107 -0.10718825
000060 01 1f 8f 3c 07 b1 df 3d 16 76 fd 3d ec ef 06 bd
       0.017470839 0.10922437 0.12376039 -0.03294365
000070 5e 31 25 3e 8e ae 01 be 35 5f 16 be c9 8a 0a 3e
       0.16132113 -0.12664244 -0.14684756 0.13529505
000080 98 46 e1 3d 7a ae 01 3e d6 b5 8a 3d 2b e1 24 3d
       0.10999793 0.12664214 0.06772964 0.0402538
000090 ea 8b d0 3d 43 c2 f4 3d 21 93 12 3e 4b 1e f2 bd
       0.101829365 0.11951115 0.14313938 -0.11822184
0000a0 8c fe d9 bd 83 03 0a 3e b6 54 f1 3d a7 87 42 bb
       -0.10644254 0.13477902 0.117837355 -0.0029682906
0000b0 91 9b 07 3e 76 06 3e be c0 d4 02 3d c9 b3 71 bd
       0.13242938 -0.18557152 0.031941175 -0.059009347
0000c0 7e 4b 1f bd a9 1a f0 3d 0e 43 05 be 1d 9c 00 be
       -0.038890354 0.11723835 -0.1301386 -0.12559552
0000d0 fc 72 83 bd c9 df 79 3d 80 7d 17 bd 3e 62 8e 3d
       -0.06418416 0.061004434 -0.03698492 0.06952332
0000e0 81 62 2c bc 0e 6e 02 be d3 95 1f 3e 48 3e 24 be
       -0.010521532 -0.12737295 0.15584497 -0.16039383
0000f0 c0 87 93 bd 77 5f cf bd 3d bd e0 3d 35 0d 62 bd
       -0.07203627 -0.1012563 0.10973594 -0.055188376

fc.weight f4 [2, 1024]
000000 fd 72 57 3d 99 a1 1f 3d cb 24 91 3d d1 d5 4a 3d
       0.052599896 0.03897247 0.07087096 0.049520317
000010 1a c6 32 3c 64 7e 01 3d c8 be e9 3c 90 af 91 3b
       0.010911489 0.031614676 0.028533354 0.0044459775
000020 3f c7 6f 3c 00 f4 f7 3c 1b 16 2d 3d e4 ca 16 3d
       0.014634906 0.030267715 0.04225741 0.036814585
000030 e2 3e cf 3c 78 27 b4 3d bb d1 c7 3d 4b 27 4a 3d
       0.02529854 0.087965906 0.097568 0.04935388
000040 48 82 11 3d cd c0 e6 3b 70 25 a5 3a 68 b7 5e 3d
       0.035524637 0.0070420266 0.0012599658 0.05437413
000050 ae f4 1a 3d 42 e1 21 bb c0 95 ba 3c f4 6a 4b 3d
       0.037831 -0.0024700915 0.022776484 0.049662545
000060 7a 4b 48 3d 18 f2 a2 3c 58 69 24 3d 9f 50 12 3d
       0.048900105 0.01989083 0.040139526 0.035721418
000070 57 48 43 bc 7a 4b ed 3c 01 71 2c 3d 6d 20 31 3d
       -0.011919103 0.028966654 0.042099956 0.043243814
000080 ac 9b fc bc fd fe bc 3c 7e 23 f1 bc c2 bd 00 bd
       -0.030835949 0.023070807 -0.02943587 -0.031430967
000090 46 3c 8d bd 58 fe 4c bc 7a 9d 45 bc 10 5b ed bc
       -0.06896262 -0.012511812 -0.012061471 -0.028974086
0000a0 45 b0 81 bc 04 31 2b bd ea 6c 8a bc 7e 0a 55 bd
       -0.015831122 -0.04179479 -0.016897637 -0.05201196
0000b0 4f 24 b2 bc 43 ad d3 3c 1a fd ef bb 0f e6 c3 bc
       -0.021745829 0.025839454 -0.007323873 -0.023913411
0000c0 31 da 21 bd 01 80 ab bd f1 31 37 bd a9 88 3f 3c
       -0.039514724 -0.08374024 -0.044725362 0.011690297
0000d0 a3 8c c3 bb df 37 9e bd f1 d2 c1 bc 96 0b fb 3b
       -0.005967693 -0.077255 -0.023660155 0.0076612933
0000e0 4b f7 69 bd be 39 ae bc f5 9d 1c bd e4 c0 a5 3b
       -0.057120603 -0.021267768 -0.038236577 0.0050583947
0000f0 8d 12 75 bd 73 b8 87 bd 8a c1 0e bd 62 b8 12 bd
       -0.059832145 -0.06626978 -0.034852542 -0.035820372
000100 29 80 61 bd cc 70 ed 3c c1 59 27 bb 91 67 00 3d
       -0.055053864 0.02898445 -0.0025535675 0.03134877
000110 df 1d aa bd c9 0b 08 bd ba 7a 6c bd 2c fb 73 bd
       -0.08306479 -0.033214364 -0.05773423 -0.059565708
000120 a5 3d cb bc 94 9f f8 bc 1f de 06 be dc 15 99 bd
       -0.024809668 -0.03034953 -0.1317067 -0.074748725
000130 02 a6 03 3c 00 44 34 bd d9 3d 60 bd d5 04 79 3c
       0.008035185 -0.044010162 -0.054746483 0.015198906
000140 94 80 c7 3c 71 42 30 3d bf 15 36 3d 6a 59 7b 3c
       0.024353303 0.043032113 0.044454332 0.015341142
000150 e1 86 86 3b bd 30 3c 3d 78 0d ea 3c f7 42 0d bb
       0.0041054343 0.045944918 0.028570876 -0.0021554807
000160 79 68 20 3c 2a 0b 2f 3c f0 08 c0 bc ce f4 ee 3c
       0.009790533 0.010683814 -0.023441762 0.029169466
000170 34 66 ca 3b c3 2f 1b 3d 8d a3 c4 3c 79 00 32 3d
       0.0061767343 0.037887346 0.024003768 0.043457482
000180 72 e9 2a 3c fb 5e e5 bc d2 39 9c bc dd 6d 87 bb
       0.010431634 -0.027999392 -0.01907054 -0.00413297
000190 c2 55 9d bd 63 5f 0d be f9 a8 c1 bd 18 18 ad bd
       -0.07682373 -0.13805918 -0.09456057 -0.08451861
0001a0 5c 93 b1 bd df 2d 5a be c1 ff 5e be 05 1d 9a bc
       -0.08670685 -0.21306561 -0.2177725 -0.018812666
0001b0 e8 5e f3 bd 59 85 11 be 45 f4 bb bd cf 29 82 bd
       -0.11883336 -0.14211024 -0.0917745 -0.063556306
0001c0 78 2d 3d 3d d7 51 4b 3d 8d 7b fc 3b d8 e0 88 3c
       0.04618594 0.049638595 0.007705158 0.016708776
0001d0 8a 3b bc bc b1 08 08 3d 5c 4c 6a 3d c4 06 e3 3c
       -0.02297761 0.033211414 0.05720173 0.027713187
0001e0 61 c4 b5 bc 30 6d 69 3d 15 97 20 3c 99 a2 00 3d
       -0.022188367 0.056988895 0.009801646 0.031405065
0001f0 32 3b 09 3d bc b6 88 3d e7 b9 6b 3d ee eb 9e 3c
       0.03350372 0.06675479 0.057550337 0.01939961
000200 ab 35 86 bc cf 09 03 3a 30 14 4b bc df 93 dd bb
       -0.016383013 0.0004998715 -0.01239495 -0.0067620124
000210 4d ce 0c bd 22 e1 69 3c 46 da 66 bc 4b 32 01 3d
       -0.03437643 0.014274867 -0.014090126 0.031542104
000220 f2 9c 80 3c b9 23 2e 3d 40 fa e8 3c d3 24 c1 3c
       0.015699837 0.042514537 0.028439641 0.02357713
000230 64 34 ae 3c 15 ac 32 3d 45 11 58 3d 39 5f ee bc
       0.021265216 0.04362114 0.052750845 -0.02909814
000240 d0 cc 3b 3d 7f e3 45 3d 73 73 54 3d e7 9e bd 3c
       0.04584962 0.04831266 0.051867913 0.02314706
000250 cb 54 cd 3b fb f2 7c 3d b5 53 c9 3c f3 09 eb 3c
       0.0062662116 0.06175516 0.024576047 0.028691268
000260 a5 a0 82 3d 49 e3 02 3b f7 89 99 bd fc 18 02 3d
       0.06378297 0.0019971898 -0.07497018 0.03176211
000270 ca fe 6f bb ba 62 3a 3c 40 dd ba bc fd 03 86 3d
       -0.0036620372 0.011376077 -0.022810578 0.065437295
000280 3d 5d 0e bc 2f 2e 21 ba 5f 39 29 3c 45 6e 68 bb
       -0.008689222 -0.00061485445 0.01032862 -0.0035466116
000290 cf 43 35 bc c5 65 1f bd 61 01 d5 bc 77 a1 2e bd
       -0.01106353 -0.038915414 -0.026001634 -0.042634454
0002a0 d0 c5 ed bc ff 22 a6 bc 19 1d d6 bc b2 d0 99 bb
       -0.029024988 -0.02028036 -0.026136922 -0.004694068
0002b0 d7 ae f7 3c c5 43 0b 3d 03 64 04 3c a4 24 36 bc
       0.030234737 0.034000177 0.008080485 -0.011117134
0002c0 a5 85 92 3c a6 bc 52 3b 1d 4a b3 3b c5 4f 63 3d
       0.017885992 0.00321559 0.0054714815 0.055495996
0002d0 d4 3d 3d bd ce 83 aa 3c 8b 00 85 3c b6 a8 ef 3b
       -0.046201542 0.020814802 0.01623561 0.007313813
0002e0 6d d0 a7 bb 84 ff 53 bc 59 4f b8 3c fa 81 f0 3b
       -0.005121282 -0.012939338 0.022498773 0.007339713
0002f0 a1 a9 13 3d 24 5c 73 3d da b4 8a 3d 8e 53 f5 3c
       0.036050443 0.059414044 0.06772776 0.029947069
000300 1e 42 32 3c 10 ea 09 bb 8e c0 2c bd 4a 93 0d bb
       0.010880021 -0.0021044053 -0.042175822 -0.0021602684
000310 d9 8d e6 bc ff 11 cf bc a4 f7 ab bc 61 70 cc bc
       -0.02814381 -0.025277136 -0.020992108 -0.02495593
000320 42 48 19 bd f5 5e 8c bd 35 b6 74 bd a7 df c5 3c
       -0.037422426 -0.06854049 -0.05974408 0.024154497
000330 d5 53 20 bd da d3 98 bc 33 eb 43 bd 56 60 29 bd
       -0.03914245 -0.018655706 -0.047831725 -0.04135164
000340 77 c8 49 bd 42 29 ff bc c0 6f 29 bd 17 78 b2 bd
       -0.049263444 -0.031147603 -0.04136634 -0.087143116
000350 3d 56 03 be be e4 e4 bd 4c 72 f8 bd 8c 3e 71 bd
       -0.12825866 -0.111764416 -0.121311754 -0.05889754
000360 d2 37 db bd f6 e4 06 bd 9b f2 b5 bd 2a 87 8e bd
       -0.10704006 -0.032933198 -0.08884164 -0.06959374
000370 58 3f 91 bd de fc bf bd c9 26 cf bc 41 2b a1 bd
       -0.0709216 -0.093744025 -0.025287049 -0.07869578
000380 e8 03 31 bb bb ee 54 3c 6a 78 b1 3c 26 c2 43 3d
       -0.0027010385 0.012996371 0.021663863 0.047792576
000390 87 cb 0c bd b1 3e 0f bc d0 0a 39 3d a7 ab 99 bc
       -0.034373786 -0.008742974 0.045176327 -0.018758608
0003a0 3b 69 55 3c 7d 77 08 3d ac 2f 84 39 62 28 0c 3d
       0.013025577 0.033317078 0.0002521252 0.0342182
0003b0 c6 8e 23 3d c3 d7 d4 3b d1 c8 81 3d 07 df 97 3c
       0.03993108 0.0064954474 0.06337131 0.018538965
0003c0 fa 3e a6 3d cd f5 6e 3d e5 58 7d 3d e2 8a 83 3c
       0.081174806 0.058339883 0.061852355 0.016057435
0003d0 4d 58 8f 3b 5d 3b a6 3a ca 0d 99 3c 8e a0 f3 3c
       0.00437454 0.0012682487 0.018683333 0.029739644
0003e0 76 aa 5f 3c 51 f8 b2 3c 29 47 9b 3d f5 75 d6 3c
       0.013651481 0.021846922 0.07581932 0.026179293
0003f0 29 90 31 3d 62 53 20 3d f2 fa 5c 3d 60 6b c5 3c
       0.043350372 0.03914202 0.053950258 0.024099052

fc.bias f4 [2]
000000 a0 16 8b bc 17 f1 c7 bc
       -0.016978562 -0.024406953
