model/CNN/saved_models/split_pad9_patch50/smallcnn4_fold2_pad9_patch50.pth (torch, 35659 bytes, 12 tensors)

conv1.weight f4 [32, 10, 3, 3]
0	0xbda9cfd2	-0.08291592
1	0xbda1a004	-0.07891849
2	0xbd5e68ad	-0.054299045
3	0xbdcdcd2e	-0.100489005
4	0xbd6545d9	-0.055974815
5	0x3d3f2bb8	0.046672553
6	0x3ca512f6	0.020150643
7	0xbe0352b7	-0.12824522
8	0xbc85e0a5	-0.01634247
9	0x3ca9a9b9	0.020710813
10	0xbd42f083	-0.04759265
11	0x3cbfbff8	0.023406968
12	0x3ddf560b	0.10905083
13	0x3de9a5ea	0.11408599
14	0x3d4f1514	0.05055721
15	0xbbb4692a	-0.0055057006
16	0x3cf0287a	0.029316176
17	0x3dcdcbe8	0.10048658
18	0x3d9f3d09	0.077753134
19	0xbcbc047d	-0.022951359
20	0x3c99cbee	0.018773999
21	0xbc82941f	-0.01593977
22	0x3d939397	0.07205885
23	0xbdb6b6eb	-0.089216076
24	0x3d22d3df	0.039752837
25	0xbd940b6a	-0.072287396
26	0xbdac7b37	-0.08421939
27	0xbd4f1aa3	-0.050562512
28	0xbd2896d0	-0.04115945
29	0xbd8ee9d9	-0.06978197
30	0xbde160ca	-0.11004789
31	0x3d7c9154	0.061662033
32	0xbdd8be83	-0.10583212
33	0xbd66864b	-0.056280416
34	0x3d57503f	0.052566763
35	0xbda9b988	-0.082873404
36	0xbd8da5fa	-0.06916423
37	0x3d440b16	0.047862135
38	0x3d65785b	0.056022983
39	0x3d5d1ed6	0.053984486
40	0xbd871185	-0.065951385
41	0xbd6fb234	-0.058519557
42	0xbd0b2887	-0.033974197
43	0xbd1fc450	-0.039005578
44	0x3d375e73	0.04476781
45	0x3da9e40e	0.08295451
46	0xbc9fae60	-0.019492328
47	0x3d93a550	0.07209265
48	0xbcd9b2b5	-0.026574472
49	0xbd1c9ed1	-0.038237397
50	0x3db9af9c	0.09066698
51	0x3b18fda4	0.002334454
52	0xbd3c8eff	-0.04603481
53	0xbcab5178	-0.02091287
54	0xbdd30c62	-0.10305096
55	0xbe019182	-0.12653163
56	0xbd95c461	-0.07312847
57	0xbc903378	-0.017602667
58	0xbcfa861a	-0.030581523
59	0xbd611655	-0.054952938
60	0xbdb3adf3	-0.087734126
61	0x3d7c2f3c	0.061568484
62	0xbd266dcd	-0.040632058
63	0xbcdff1dc	-0.027337007
64	0xbd316d75	-0.043317277
65	0x3d34cbf1	0.044139806
66	0xbd4942b5	-0.049135882
67	0x3d42172e	0.047385387
68	0xbddf09a0	-0.10890508
69	0x3d0fd785	0.035117645
70	0xbdcd3592	-0.10019983
71	0xbcc0a7ab	-0.02351745
72	0x3de4b7fd	0.111679055
73	0x3d92a2bd	0.07159946
74	0x3b840dfe	0.0040299883
75	0x3c47b2dc	0.0121886395
76	0x3d0b961d	0.034078706
77	0x3c93f4dc	0.018061094
78	0x3cdd34a2	0.027002636
79	0x3db7d031	0.08975256
80	0xbd0b8d08	-0.034070045
81	0x3d4a9709	0.049460445
82	0x3cb76aa8	0.022389725
83	0xbd5055f0	-0.050863206
84	0x3d1e79a0	0.03869021
85	0x3d6caf91	0.05778462
86	0x3d7507f8	0.059822053
87	0x3d3618b2	0.044457145
88	0x3d20c14c	0.039246842
89	0xbc6114e3	-0.01373789
90	0x3d239796	0.039939485
91	0xbdbd3a4d	-0.092396356
92	0xbd9340fc	-0.07190129
93	0xbd14b3b0	-0.036304176
94	0xbd62cb1a	-0.055369474
95	0xbe0e3745	-0.13888271
96	0xbd58b94f	-0.0529111
97	0xbde029d6	-0.109454796
98	0xbd0ad061	-0.03389013
99	0x3d4af86e	0.049553327
100	0x3dd13d50	0.102167726
101	0xbca1862a	-0.019717295
102	0x3d610f48	0.054946214
103	0xbd42dd50	-0.04757434
104	0x3ddc41f4	0.10754767
105	0x3c9c1c11	0.019056352
106	0xbda451ce	-0.080234155
107	0xbd256f33	-0.04038925
108	0x3d839273	0.06424417
109	0x3dc81f18	0.09771556
110	0x3de0a4ce	0.10968934
111	0x3cdda940	0.027058244
112	0x3dc66e37	0.096889906
113	0x3dc86518	0.09784907
114	0x3e358801	0.17727663
115	0x3e05a84d	0.13052483
116	0x3d530d62	0.051526435
117	0xbd8443ed	-0.06458268
118	0x3d05ab16	0.032633863
119	0x3d6d4391	0.057925764
120	0xbd08873f	-0.033332106
121	0x3c718f8c	0.014743697
122	0x3cdd70b8	0.027031288
123	0x3d832fd0	0.06405604
124	0xbd9b6737	-0.07588046
125	0x3d513751	0.051078144
126	0xbca4d86b	-0.020122727
127	0x3d9d6201	0.076847084
128	0xbd8e033e	-0.06934212
129	0x3d5586c3	0.052130472
130	0xbc8d81da	-0.017273832
131	0x38f0e640	0.00011486979
132	0x3d14b1a1	0.036302213
133	0x3d4f2651	0.05057365
134	0xbd927df7	-0.07152932
135	0x3d69758f	0.05699688
136	0xbc3c9ea0	-0.0115124285
137	0x3d081c18	0.033229917
138	0x3c3fac4f	0.011698796
139	0x3c0f4723	0.008744988
140	0xbca87763	-0.02056474
141	0xbd46048c	-0.04834418
142	0xbd4bf0ca	-0.04979018
143	0x3d3436ad	0.043997455
144	0xbd743d06	-0.05962851
145	0x3acb5156	0.0015511911
146	0xbd8ff547	-0.07029205
147	0x3d7b7507	0.061390903
148	0x3db24845	0.087051906
149	0xbd9c78c3	-0.07640221
150	0x3bb893ac	0.0056328382
151	0x3c27385c	0.010206308
152	0xbd722378	-0.059115857
153	0xbcf73167	-0.030174924
154	0x3e1237c8	0.14279091
155	0x3dbcc7c6	0.09217791
156	0xbd38d8db	-0.045128684
157	0x3c5d5c84	0.013510827
158	0x3d8dbb72	0.06920518
159	0xbd142a96	-0.036173426
160	0x3d9f16e6	0.077680394
161	0xbd7ff436	-0.062488757
162	0xbd04d893	-0.032433104
163	0xbcdba509	-0.026812093
164	0xbd84e7e3	-0.064895414
165	0xbd41bef5	-0.04730125
166	0x3d8a62c9	0.06757123
167	0xbd46ce4d	-0.048536588
168	0x3cec395c	0.028835945
169	0x3da906c0	0.082532406
170	0x3d4e68d7	0.05039295
171	0xbd0f486a	-0.03498117
172	0x3d8b0228	0.06787521
173	0xbd5bad09	-0.053631816
174	0x3dbf937c	0.09354302
175	0x3bb9039c	0.005646182
176	0x3cd920cf	0.026504902
177	0xbd3d17a3	-0.04616512
178	0xbe00da1d	-0.12583204
179	0xbb0a7bb1	-0.0021130855
180	0x3e27060a	0.16310897
181	0x3e3221e9	0.17395748
182	0xbd1d8e1f	-0.038465615
183	0x3d31b44a	0.043384828
184	0x3e1cb74b	0.15304296
185	0x3e0e642f	0.13905405
186	0x3cedbbed	0.029020274
187	0x3d8dfc8b	0.069329344
188	0xbd51aa60	-0.051187873
189	0x3d5d06d6	0.053961597
190	0x3da43aee	0.080190524
191	0xbd4a5a7d	-0.049402703
192	0x3c49d19d	0.012318042
193	0x3d0f677b	0.035010796
194	0xbd3a0533	-0.045415115
195	0x3d419533	0.047261428
196	0xbc396e9a	-0.011317873
197	0x3db4b283	0.08823111
198	0x3c98c04e	0.018646386
199	0xbd0ca9df	-0.03434169
200	0x3db3c32e	0.08777462
201	0x3c3e1c60	0.011603445
202	0x3bb36e3a	0.0054757865
203	0x3c4c5a57	0.012472711
204	0xbd4d1e67	-0.050077822
205	0xbd938995	-0.07203976
206	0x3d0c6bf0	0.034282625
207	0xbdc2badf	-0.09508299
208	0xbdde97b2	-0.10868777
209	0xbd21949c	-0.039448366
210	0x3d59d1dc	0.053178653
211	0xbdd26616	-0.102733776
212	0xbd18bf24	-0.03729166
213	0xbd7de746	-0.061988138
214	0x3d0dda4b	0.03463201
215	0xbe0ceccd	-0.13762207
216	0x3d34ab15	0.04410847
217	0xbda7e1c3	-0.081973575
218	0xbd31a5c5	-0.04337098
219	0xbd1809ef	-0.03711885
220	0x3cb5af05	0.022178182
221	0xb88266db	-6.2180414e-05
222	0x3c3be06c	0.011467081
223	0x3d8f0a75	0.069844164
224	0xbce466df	-0.027881084
225	0x3d1a946f	0.037739214
226	0x3db74e0c	0.08950433
227	0x3ac72588	0.001519368
228	0x3d3f9d8f	0.04678112
229	0xbdd6e1b9	-0.10492272
230	0x3d8dd742	0.06925823
231	0x3b3c8a3f	0.0028768925
232	0x3d8c9cad	0.06865821
233	0xbd161266	-0.03663864
234	0xbd3c85aa	-0.04602591
235	0xbd8cbbdf	-0.06871771
236	0xbcd363c8	-0.025804415
237	0xbcbb5518	-0.022867724
238	0x3d8a289e	0.06746028
239	0x3ccc6358	0.024949715
240	0x3c188f18	0.00931146
241	0x3c0df64b	0.008664678
242	0x3cae33d2	0.021264944
243	0x3cca677a	0.024707545
244	0xbda6f0b4	-0.08151379
245	0x3d5f9aa8	0.05459085
246	0xbca2c1c2	-0.019867782
247	0x3c949853	0.01813904
248	0xbb207674	-0.0024484666
249	0xbd421967	-0.047387507
250	0xbd4b8c34	-0.049694255
251	0xbd8ca091	-0.06866563
252	0xbd381947	-0.04494598
253	0xbc8e2256	-0.017350357
254	0x3c68d356	0.014210543
255	0xbc4d4e83	-0.012530926

conv1.bias f4 [32]
0	0xbc4894ff	-0.012242555
1	0x3cf745c8	0.030184641
2	0xbc30e390	-0.010796443
3	0xbd94c00f	-0.07263195
4	0x3d2fbe6d	0.042906214
5	0xbd470119	-0.04858503
6	0x3d654a6e	0.055979185
7	0xbd311f99	-0.043243024
8	0x3d8d8133	0.069094084
9	0xbdb278b8	-0.087144315
10	0x3d1d3561	0.038380984
11	0x3d6affcf	0.057372864
12	0x3dd4c2fc	0.10388753
13	0x3cec3246	0.028832566
14	0xbde3d369	-0.11124308
15	0xbd0471d8	-0.032335132
16	0x3dbd6eaa	0.09249623
17	0x3ce4ca62	0.027928535
18	0x3cb9c1b2	0.022675369
19	0xbd019384	-0.031634822
20	0x3cc089c8	0.0235032
21	0xbb59c9f4	-0.0033231946
22	0xbd846fad	-0.06466613
23	0xbd0c6e44	-0.034284845
24	0x3dbb1939	0.0913567
25	0x3da2e85f	0.079544775
26	0x3cd0412c	0.025421701
27	0xbdcd62ef	-0.10028636
28	0x3dc950b7	0.09829848
29	0xbd17086b	-0.036873262
30	0x3bea9195	0.007158468
31	0xbdb276bd	-0.08714054

bn1.weight f4 [32]
0	0x3f90b366	1.1304748
1	0x3f869f2c	1.0517325
2	0x3f735e60	0.9506588
3	0x3f84ae31	1.0365659
4	0x3f812601	1.0089723
5	0x3f8113e6	1.0084198
6	0x3f83a8e0	1.0285912
7	0x3f808525	1.0040632
8	0x3f82138e	1.0162218
9	0x3f862da3	1.0482677
10	0x3f824456	1.0177104
11	0x3f86524d	1.0493866
12	0x3f75ff43	0.96092623
13	0x3f80950b	1.0045484
14	0x3f827c69	1.0194217
15	0x3f802880	1.001236
16	0x3f828ea0	1.0199776
17	0x3f849e6b	1.0360845
18	0x3f830a66	1.0237548
19	0x3f78f266	0.9724487
20	0x3f89df9d	1.0771366
21	0x3f841080	1.0317535
22	0x3f803b22	1.0018046
23	0x3f7fcc27	0.99920887
24	0x3f8b2500	1.0870667
25	0x3f827b3d	1.0193859
26	0x3f8708d9	1.0549575
27	0x3f81d7e3	1.0144008
28	0x3f83eb59	1.0306197
29	0x3f8472de	1.0347555
30	0x3f84ce33	1.0375427
31	0x3f821d7a	1.0165246

bn1.bias f4 [32]
0	0x3d2bb263	0.04191817
1	0x3c466123	0.01210812
2	0xbd8255e9	-0.06364042
3	0x3c3a1c65	0.011359309
4	0x3c3fedc2	0.011714401
5	0xbc399306	-0.011326557
6	0xbc9f7410	-0.019464523
7	0xbcbfc90b	-0.023411294
8	0xbc3cdc03	-0.011527064
9	0x3bba8438	0.0056920312
10	0xbc12a2e6	-0.008949971
11	0xbc5002f6	-0.012696018
12	0xbd0ff7a5	-0.03514828
13	0xbc821663	-0.015879815
14	0xbd02970c	-0.03188233
15	0xbcc74ac5	-0.024327645
16	0xbca892b5	-0.020577768
17	0xbc10ea4b	-0.008844922
18	0x3aee9ee9	0.0018205318
19	0xbcbf7055	-0.023368994
20	0x3cbf53f4	0.023355462
21	0xbc86e2f7	-0.016465647
22	0xbd1a162d	-0.037618805
23	0xbc8ed9e4	-0.017437883
24	0x3c617930	0.0137618035
25	0xbc3436a2	-0.010999354
26	0xbc3c262a	-0.011483708
27	0xbbc837a0	-0.0061101466
28	0x3bb381c0	0.005478114
29	0xbcf7a346	-0.030229222
30	0xbc475152	-0.012165384
31	0xbc35abab	-0.011088292

bn1.running_mean f4 [32]
0	0xbc4c4872	-0.012468444
1	0x3cf7d5b9	0.030253278
2	0xbc334680	-0.0109421015
3	0xbd9620f8	-0.07330507
4	0x3d2f7cd4	0.042843655
5	0xbd48f2d4	-0.049059704
6	0x3d651d14	0.055935934
7	0xbd31835a	-0.043338157
8	0x3d8e0632	0.069347754
9	0xbdb2b4b8	-0.087258756
10	0x3d1d2d84	0.038373485
11	0x3d6931ec	0.056932375
12	0x3dd4994e	0.10380803
13	0x3ce912e1	0.028451385
14	0xbde3f535	-0.11130754
15	0xbd042e96	-0.03227099
16	0x3dbd54be	0.09244679
17	0x3ce26ab6	0.027638774
18	0x3cbebe7b	0.023284188
19	0xbd012c82	-0.031536587
20	0x3cc35e30	0.023848623
21	0xbb597f04	-0.003318728
22	0xbd83bdd0	-0.06432688
23	0xbd0c00d4	-0.034180477
24	0x3dbae9c2	0.09126617
25	0x3da28870	0.0793618
26	0x3cd25635	0.025675872
27	0xbdce445b	-0.100716315
28	0x3dcafc1b	0.099113666
29	0xbd16ae14	-0.036787108
30	0x3bee4e67	0.00727253
31	0xbdb3fb69	-0.08788187

bn1.running_var f4 [32]
0	0x3e0f1181	0.13971521
1	0x3e819b6e	0.25313896
2	0x3e909aeb	0.28243193
3	0x3e80bd92	0.2514463
4	0x3f0edd62	0.55806553
5	0x3f0878b8	0.533092
6	0x3e6682a1	0.22510768
7	0x3e244419	0.16041602
8	0x3e92e148	0.286875
9	0x3e3def07	0.18548213
10	0x3ea1a65e	0.3157224
11	0x3e0e6411	0.1390536
12	0x3ff08e9a	1.8793519
13	0x3ea682e2	0.3252173
14	0x3e4ef1b8	0.20209396
15	0x3e9b9134	0.3038422
16	0x3e1c1847	0.15243636
17	0x3eadbc26	0.33932608
18	0x3ee2df28	0.4431088
19	0x3f135811	0.57556254
20	0x3eb32418	0.34988475
21	0x3e10be4e	0.14135095
22	0x3eeb97ca	0.46014243
23	0x3e83bc36	0.2572953
24	0x3dd38b6b	0.10329326
25	0x3e6670ea	0.22504011
26	0x3e21781c	0.15768474
27	0x3ff206e2	1.890835
28	0x3ecae771	0.396297
29	0x3e597e5d	0.2123961
30	0x3dd3112f	0.10306012
31	0x3e5f8a59	0.21830119

depthwise.weight f4 [32, 1, 3, 3]
0	0x3ef68bb8	0.48153472
1	0xbe85f37d	-0.2616233
2	0x3db1c388	0.08679873
3	0x3eac68a5	0.33673587
4	0xbe24f526	-0.16109142
5	0xbd5a1340	-0.053241014
6	0x3e410f8d	0.18853588
7	0xbec0f391	-0.37685826
8	0xbdf13891	-0.11778367
9	0x3e91331a	0.283593
10	0xbea3be30	-0.3198104
11	0x3e18fdfa	0.14940634
12	0xbe124ca4	-0.14287049
13	0x3d305974	0.04305406
14	0xbe54e716	-0.20791277
15	0xbe8b02e2	-0.27150637
16	0xbd2998bf	-0.041405436
17	0xbe8964aa	-0.26834613
18	0xbe0a8b0a	-0.13529602
19	0xbe22a6e1	-0.15883972
20	0x3e20aff3	0.1569212
21	0x3df55308	0.119787276
22	0x3daa7a4d	0.08324108
23	0x3e538ada	0.20658436
24	0xbe914762	-0.28374773
25	0xbe52c099	-0.20581283
26	0xbd793b9b	-0.06084786
27	0x3d229fc8	0.03970316
28	0xbd6e49f8	-0.05817601
29	0xb99a8b24	-0.00029476837
30	0xbe333868	-0.17501986
31	0xbdeb5af9	-0.11491961
32	0x3d9a74ed	0.07541833
33	0xbda1c0f9	-0.07898135
34	0xbe24346c	-0.16035622
35	0xbe9fcac4	-0.31209385
36	0xbe1ace45	-0.15117748
37	0xbd59e82f	-0.053199943
38	0xbea228fb	-0.3167189
39	0x3d4b3c9a	0.04961834
40	0x3db0dd2d	0.08635936
41	0xbdb862cd	-0.0900322
42	0x3c5d7c99	0.013518476
43	0x3d5ca34f	0.05386668
44	0x3e9d6e46	0.30748194
45	0x3c2a1eac	0.010383289
46	0x3e562466	0.20912322
47	0x3e6a6b7d	0.22892566
48	0xbe5814cf	-0.21101688
49	0xbe8e0562	-0.27738482
50	0x3d76fc2b	0.06029908
51	0x3e9bfea4	0.30467713
52	0x3e42d9d9	0.19028415
53	0x3e5022e0	0.20325804
54	0xbeab8dc1	-0.33506587
55	0xbe9b9b4d	-0.30391923
56	0xbe52579e	-0.20541236
57	0x3e878841	0.2647114
58	0xbe5cabe3	-0.21549945
59	0xbea4951c	-0.3214501
60	0x3dc097dd	0.094039656
61	0x3e69db8e	0.2283766
62	0x3dc244d4	0.09485784
63	0xbe6d868a	-0.23195854
64	0xbe485f6b	-0.19567649
65	0xbe84cf84	-0.25939572
66	0xbde791de	-0.11307119
67	0x3e19d88c	0.15024012
68	0x3dff3638	0.12461513
69	0xbc2dec26	-0.010615384
70	0x3e2fb648	0.17159379
71	0xbddc0ea5	-0.10744981
72	0x3e870116	0.26368016
73	0x3e6b2609	0.22963728
74	0xbbae3af3	-0.005317086
75	0xbe143f47	-0.14477263
76	0xbe7161a3	-0.23572402
77	0x3e2ef144	0.17084223
78	0x3e69d8f8	0.22836673
79	0x3e063214	0.13105041
80	0xbe5f2261	-0.21790458
81	0xbe3705c6	-0.17873296
82	0xbe970029	-0.2949231
83	0x3e00469b	0.12526934
84	0x3e190357	0.1494268
85	0xbeab8928	-0.3350308
86	0xbd8e6a7d	-0.06953905
87	0xbd73d677	-0.0595307
88	0xbe37b7b4	-0.17941171
89	0xbea456a7	-0.3209736
90	0x3e401ded	0.18761416
91	0x3e190004	0.14941412
92	0x3e513e5b	0.20433943
93	0x3d17e85b	0.037086826
94	0x3e10f4bc	0.14155859
95	0x3e6b185f	0.22958516
96	0x3e8f54ac	0.27994287
97	0x3d52b042	0.051437624
98	0x3e16306e	0.14666912
99	0x3e604da7	0.21904622
100	0xbeb3f2e5	-0.3514625
101	0x3db7dba3	0.08977439
102	0x3d78d677	0.060751405
103	0xbebfdf4a	-0.37475044
104	0x3dae290b	0.08503922
105	0x3dd99915	0.10624901
106	0xbe98defe	-0.2985763
107	0x3ea7a862	0.32745653
108	0xbe6fc268	-0.23414004
109	0xbe571337	-0.21003424
110	0x3e73113e	0.23737046
111	0x3e51b49a	0.2047905
112	0xbc3d2c8d	-0.011546266
113	0xbd05fafe	-0.032710068
114	0xbdbc5c5d	-0.091973044
115	0xbe4bcbdf	-0.1990199
116	0xbd4e2a67	-0.050333407
117	0xbe2531ed	-0.16132326
118	0xbdf9586b	-0.121750675
119	0x3de1246f	0.10993277
120	0xbd19790e	-0.037468962
121	0xbe25f196	-0.16205439
122	0x3daaed50	0.08346045
123	0x3dae4648	0.08509499
124	0xbea4794e	-0.32123798
125	0x3e9c73dd	0.30557147
126	0x3da9fb4a	0.08299883
127	0x3e809b98	0.2511871
128	0x3e8ffd01	0.28122714
129	0xbd81c1db	-0.06335803
130	0xbe0357ad	-0.12826414
131	0x3e30588c	0.17221278
132	0xbdaf1f44	-0.08550885
133	0x3e628830	0.22122264
134	0x3e25a34f	0.16175579
135	0xbd8ceb43	-0.0688081
136	0x3d88b208	0.06674582
137	0x3e8d37a8	0.27581525
138	0xbdb67257	-0.08908527
139	0x3e907dff	0.28221127
140	0x3d036af5	0.032084424
141	0x3e82b1be	0.25526232
142	0xbe21d8fc	-0.15805429
143	0x3e3a9778	0.18221843
144	0xbe077559	-0.13228358
145	0xbea44187	-0.32081243
146	0xbe5eee25	-0.21770532
147	0x3e4596c2	0.19295791
148	0xbe89ba49	-0.26899937
149	0xbc27774e	-0.010221316
150	0x3e847ee9	0.25878075
151	0x3e9d3965	0.3070785
152	0x3d2354a3	0.039875638
153	0xbeafeddb	-0.34361157
154	0x3e2025a7	0.15639363
155	0x3e9e5196	0.3092162
156	0xbe1faa7b	-0.15592377
157	0xbc52c037	-0.01286321
158	0xbdfd16fa	-0.12357898
159	0xbea33730	-0.31878042
160	0x3ea3eaff	0.32015225
161	0x3ea49a87	0.32149145
162	0xbe1e2d29	-0.15446915
163	0xbd9a2c48	-0.07527977
164	0xbd630598	-0.055425256
165	0xbe70705c	-0.23480362
166	0xbd1d426c	-0.038393423
167	0xbd9c9618	-0.076458156
168	0xbdbf6c16	-0.09346788
169	0x3d59f62c	0.053213283
170	0xbe755629	-0.23958649
171	0xbd95862d	-0.073009826
172	0xbe049bda	-0.12950078
173	0x3da1a8c3	0.07893517
174	0xbe2632e9	-0.16230358
175	0x3e9bdc50	0.30441523
176	0xbe918280	-0.28419876
177	0x3d632553	0.055455517
178	0xbd30efba	-0.04319737
179	0x3e0b9321	0.13630344
180	0x3eee413f	0.46534154
181	0x3e876432	0.2644363
182	0xbd3c9036	-0.046035968
183	0xbc5735b4	-0.013135362
184	0xbe8bfb58	-0.27340198
185	0xbe689a03	-0.22715001
186	0xbea96b01	-0.3308945
187	0xbdc88a85	-0.097920455
188	0x3e11bf1b	0.14233057
189	0x3e251cc0	0.16124249
190	0x3e2629de	0.16226909
191	0xbe819f91	-0.25317052
192	0x3e9d414c	0.3071388
193	0x3d621d83	0.055203926
194	0x3e86b7d5	0.26312128
195	0x3e468b59	0.19389094
196	0xbd389cca	-0.0450714
197	0xbcafec6f	-0.021475045
198	0xbe29064f	-0.16506313
199	0xbe9ce9ee	-0.30647224
200	0x3e49c2a1	0.19703151
201	0xbe3c4764	-0.18386608
202	0x3cc708cf	0.024296192
203	0x3c8b3114	0.016991176
204	0x3e07ac7b	0.1324939
205	0xbdb51bf5	-0.08843223
206	0xbcd29310	-0.02570489
207	0x3e4eb804	0.20187384
208	0xbe781290	-0.24225831
209	0x3e17e793	0.14834432
210	0xbe8e3e70	-0.2778201
211	0x3e422ffd	0.18963619
212	0x3e2666c9	0.16250147
213	0x3db4e38d	0.08832464
214	0x3ea5d5cb	0.32389674
215	0xbe2a0e09	-0.16606916
216	0xbe9c0a20	-0.30476475
217	0xbdc69eb2	-0.096982375
218	0x3ecb25f7	0.39677402
219	0xbed42cda	-0.4144047
220	0xbdd80b86	-0.10549073
221	0x3e47c0c7	0.19507132
222	0xbea67d78	-0.325176
223	0x3ea2c3f8	0.31790137
224	0x3e2efc16	0.1708835
225	0x3e909597	0.28239128
226	0x3e847c0b	0.25875887
227	0xbe313d14	-0.17308456
228	0x3be372b3	0.0069411634
229	0x3e227669	0.15865482
230	0x3e8fccb7	0.28085873
231	0x3e1e9196	0.15485224
232	0x3e571be2	0.2100673
233	0xbd264680	-0.040594578
234	0xbe4ddea2	-0.20104459
235	0xbdb4c4e4	-0.088266164
236	0xbd080737	-0.033210006
237	0x3e84d271	0.25941804
238	0x3e1fcff3	0.1560667
239	0x3e969a07	0.2941439
240	0x3e98180e	0.29705852
241	0x3e0ae993	0.13565664
242	0x3e994d6c	0.2994188
243	0xbe7a55d1	-0.24446799
244	0xbdd9275a	-0.10603209
245	0x3e184c51	0.14872862
246	0xbe76ac90	-0.24089265
247	0xbe33bc57	-0.17552315
248	0xbe3c15cd	-0.18367691
249	0xbeb07297	-0.34462425
250	0x3cd5944d	0.026071692
251	0x3e05f0c7	0.1308013
252	0xbe7b995e	-0.24570224
253	0x3dcc1156	0.09964244
254	0xbdd9619c	-0.10614321
255	0xbe73a4cf	-0.23793338

depthwise.bias f4 [32]
0	0x3e8de95e	0.27717108
1	0xbe7a675e	-0.24453494
2	0xbe5cf4b2	-0.21577719
3	0x3e98e84a	0.29864722
4	0xbded220b	-0.11578759
5	0x3da77087	0.0817576
6	0xbdfd55f2	-0.123699084
7	0xbda6f1ee	-0.08151613
8	0xbe96ec9e	-0.294774
9	0xbe9bd3f1	-0.30435136
10	0x3e28ebdf	0.16496228
11	0x3e5100cb	0.20410459
12	0xbc44bec6	-0.012008375
13	0x3e099b09	0.13438047
14	0xbe0bb513	-0.13643293
15	0x3e187f6d	0.14892359
16	0xbc8d5398	-0.017251775
17	0xbdc14c7d	-0.09438417
18	0xbe04d326	-0.12971172
19	0xbe6d4d80	-0.23174095
20	0x3e4331f0	0.19062018
21	0xbe57974a	-0.21053806
22	0x3d2112e3	0.039324652
23	0x3deae20c	0.11468896
24	0xbe41a2f7	-0.18909822
25	0x3e780f79	0.24224652
26	0xbea631f4	-0.32459986
27	0xbe8511c6	-0.25990123
28	0xbdb721a3	-0.089419626
29	0x3da7cac9	0.08192975
30	0x3e654a0c	0.22391528
31	0xbdae8ae7	-0.08522587

pointwise.weight f4 [64, 32, 1, 1]
0	0x3e8f8bee	0.28036445
1	0x3d141a7c	0.03615807
2	0x3da9136b	0.08255657
3	0xbcd60c5f	-0.026128946
4	0xbdff6ea6	-0.124722764
5	0x3c68d307	0.014210469
6	0x3be5d6ba	0.007014123
7	0x3d38e8ef	0.045144018
8	0x3e52e533	0.20595245
9	0x3c0cc411	0.008591668
10	0xbd278052	-0.04089386
11	0xbe11fd62	-0.14256814
12	0x3d1d6710	0.038428366
13	0xbd90f86d	-0.070786335
14	0xbdd71c99	-0.105035014
15	0x3cbe1a82	0.023206
16	0xbdc88783	-0.09791472
17	0xbd905931	-0.07048262
18	0x3e2e0121	0.16992618
19	0xbdbf8f03	-0.09353449
20	0x3e39c7b2	0.18142584
21	0x3c8aef00	0.016959667
22	0x3b2d79d6	0.0026470325
23	0x3e07bbfb	0.13255303
24	0xbe5c809e	-0.21533439
25	0xbdef35c5	-0.116801776
26	0xbc6c1c74	-0.014411081
27	0xbe3f5aeb	-0.18687026
28	0x3e1cd9bb	0.15317433
29	0x3ec616ad	0.38689175
30	0xbccbe4d0	-0.02488938
31	0xbcbf4111	-0.023346456
32	0x3dd49e91	0.10381807
33	0xbdf1cbf9	-0.11806483
34	0xbd1c9535	-0.038228232
35	0xbd13b8e2	-0.03606499
36	0xbe0fd326	-0.1404539
37	0x3e255fcc	0.16149825
38	0x3d9cf151	0.07663215
39	0xbd8e8885	-0.06959633
40	0xbbb5eaab	-0.0055516562
41	0x3c0252f2	0.007954346
42	0x3e17994c	0.14804572
43	0x3cbad028	0.022804335
44	0xbdd954ff	-0.10611915
45	0x3de8063d	0.11329315
46	0x3da42799	0.08015365
47	0x3d9e460c	0.07728204
48	0x3d9da499	0.0769741
49	0x3d318695	0.043341238
50	0xbe3413ed	-0.17585726
51	0x3d5820e7	0.052765753
52	0x3da7d6ee	0.081952915
53	0xbd493fe3	-0.049133193
54	0x3cd33e5e	0.025786575
55	0x3e406da2	0.18791822
56	0x3e24fc4c	0.16111869
57	0x3dc96fb6	0.0983576
58	0xbdfc01eb	-0.12305053
59	0x3bd96e92	0.0066354955
60	0xbe2534ad	-0.16133375
61	0x3e1b66ec	0.1517598
62	0xbe2c7963	-0.1684318
63	0x3d9998a1	0.07499815
64	0x3db275bb	0.087138616
65	0xbe5cbbf8	-0.2155608
66	0xbe171dde	-0.14757487
67	0xbd5566c1	-0.052099947
68	0x3d1ed835	0.03878041
69	0xbd75a121	-0.059968118
70	0x3c07a2a1	0.00827852
71	0x3e0236f8	0.12716281
72	0xbe43df77	-0.19128214
73	0xbe3fcc7b	-0.18730347
74	0xbd237dc9	-0.03991488
75	0xbda27704	-0.07932857
76	0x3d3ef5ad	0.046621013
77	0x3d4a0490	0.049320757
78	0xbcff67db	-0.031177452
79	0x3e4f7bab	0.2026202
80	0xbdb4bd7f	-0.08825206
81	0xbe0b069a	-0.13576737
82	0x3d7d1f63	0.06179751
83	0xbc3f0260	-0.011658281
84	0xbe87d548	-0.26529908
85	0xbcc44aab	-0.023961386
86	0x3d50119f	0.050798055
87	0xbe107248	-0.14106095
88	0x3c963d7d	0.018339867
89	0x3e20c8c0	0.1570158
90	0xbe0d4dd3	-0.13799219
91	0x3dfc9c4f	0.12334501
92	0xbd1e9b80	-0.038722515
93	0x3e2ece5c	0.17070907
94	0x3bdf2861	0.0068102335
95	0xbd13cf86	-0.03608658
96	0x3df09511	0.11747182
97	0xbe23aa51	-0.1598294
98	0x3e1fa4b2	0.1559017
99	0xbdfe1dd1	-0.12408031
100	0xbdb576f4	-0.08860579
101	0xbcc76126	-0.024338316
102	0x3e17d0e8	0.14825785
103	0x3e088800	0.1333313
104	0x3d0e1b7a	0.034694172
105	0xbe32ec43	-0.17472939
106	0x3de13a75	0.10997478
107	0xbe0b7020	-0.13616991
108	0xbe2c9d11	-0.16856791
109	0x3cbb984b	0.022899767
110	0xbdbd86e6	-0.092542455
111	0x3c02ed13	0.007991093
112	0xbdf99fb9	-0.12188668
113	0x3cd4b715	0.025966207
114	0xbde83636	-0.11338465
115	0x3e1f581c	0.15560955
116	0xbdc1d4c2	-0.094644085
117	0xbd6c4adb	-0.057688575
118	0x3e087b4a	0.13328281
119	0x3c809efa	0.015700806
120	0xbd187cf0	-0.037228525
121	0x3e3998e3	0.18124728
122	0xbe1d0ace	-0.15336153
123	0xbd51fd32	-0.051266856
124	0x3d90c0a4	0.07067993
125	0x3e05cd4e	0.13066599
126	0x3de0f60b	0.10984429
127	0xbdf66c04	-0.12032321
128	0x3e05acee	0.13054249
129	0xbc9c314c	-0.019066475
130	0x3e0869c7	0.13321601
131	0xbd3b9da4	-0.045804635
132	0xbbcd7ec5	-0.0062712156
133	0x3d712a35	0.058878142
134	0xbdcc0c46	-0.099632785
135	0xbe04c8b4	-0.12967187
136	0x3bce266f	0.0062912027
137	0x3e0a70e9	0.13519634
138	0xbe08e9e8	-0.13370478
139	0x3cee1cfe	0.029066559
140	0xbdc319a3	-0.09526374
141	0xbd9ecdd6	-0.07754104
142	0x3dcb5e5d	0.09930108
143	0xbd881286	-0.06644158
144	0x3dd5379c	0.10410997
145	0x3ca6e269	0.020371633
146	0x3dd63c32	0.104607
147	0xbe351b9b	-0.17686312
148	0x3de065dd	0.10956929
149	0xbb8ff374	-0.0043930355
150	0x3e356da7	0.1771761
151	0xbe0a290d	-0.13492222
152	0xbdb3694f	-0.087603204
153	0x3def2dbc	0.11678645
154	0xbe4f9dfc	-0.2027511
155	0xbd9c96c5	-0.076459445
156	0x3d7baab1	0.06144208
157	0xbbe4359c	-0.0069643985
158	0xbe01583d	-0.12631316
159	0x3da4a110	0.08038533
160	0xbde3d22f	-0.11124074
161	0xbdbaff65	-0.09130744
162	0xbdf93006	-0.12167363
163	0xbc46bc89	-0.012129911
164	0x3d4130a2	0.04716552
165	0xbe060450	-0.13087583
166	0xbe163b90	-0.14671159
167	0x3d8ff040	0.07028246
168	0x3d586ac1	0.052836183
169	0xbd45b227	-0.048265602
170	0x3b9c9de9	0.0047795665
171	0x3e306999	0.17227782
172	0x3e364014	0.17797881
173	0xbd1e277c	-0.038611874
174	0x3e34c6df	0.17653988
175	0x3e0fe293	0.14051275
176	0x3d99a93c	0.07502982
177	0x3e44b4a9	0.19209541
178	0x3c425d06	0.011862999
179	0x3d820bd6	0.06349914
180	0xbadaccff	-0.0016693174
181	0xbd1b0a12	-0.0378514
182	0x3d0d1162	0.034440406
183	0xbe21f69c	-0.1581673
184	0x3e1a44ee	0.15065357
185	0x3c8020f5	0.015640715
186	0xbbff3b22	-0.0077890316
187	0x3e31bba5	0.17356737
188	0x3daa01c8	0.08301121
189	0xbe056a51	-0.13028838
190	0x3e13fcb6	0.1445187
191	0x3e365ec5	0.17809589
192	0x3e12ee57	0.14348732
193	0xbce1e559	-0.027575182
194	0x3cc0ba17	0.023526235
195	0x3e6149eb	0.22000854
196	0xbd5e3b6c	-0.054255888
197	0x3e2e93d3	0.17048578
198	0x3e754e53	0.2395566
199	0x3b096ffc	0.002097129
200	0xbca0004a	-0.019531388
201	0x3d3104fa	0.043217637
202	0xbcc26505	-0.02372981
203	0x3d5ec3fc	0.054386124
204	0xbd38043b	-0.04492591
205	0xbe1e8957	-0.15482078
206	0x3cd8815c	0.02642887
207	0xbd4faee3	-0.050703894
208	0x3da9cb18	0.0829069
209	0xbe538bdf	-0.20658825
210	0xbdc4f1da	-0.09616442
211	0x3c20ad55	0.009806951
212	0xbc0a57ed	-0.008443815
213	0xbbcfe81d	-0.0063448087
214	0xbe15b13a	-0.14618388
215	0xbdfe3060	-0.124115705
216	0xbddfce2c	-0.10927996
217	0xbcd86dca	-0.026419539
218	0x3e7150a7	0.23565923
219	0x3d98ebb7	0.07466834
220	0x3ddaf749	0.10691697
221	0xbd70c4fe	-0.058781616
222	0x3ddd49c0	0.10805082
223	0xbd8af643	-0.06785252
224	0xbdeec624	-0.11658886
225	0xbdcef265	-0.10104827
226	0x3e04722f	0.12934183
227	0xbe694ce0	-0.22783232
228	0x3da242b5	0.079228796
229	0x3e3af572	0.18257692
230	0xbdb6b3e1	-0.08921028
231	0x3e02a8ca	0.127597
232	0xbe034c16	-0.12821993
233	0xbdbe0eb9	-0.09280152
234	0xbd6448c2	-0.05573345
235	0x3d0c9052	0.034317322
236	0x3e11b493	0.1422904
237	0x3d7c1d8c	0.061551616
238	0xbd23d185	-0.039994735
239	0x3cd98a2c	0.026555143
240	0x3d77b7d8	0.06047806
241	0x3d0ee219	0.034883592
242	0xbd06d4a0	-0.03291762
243	0xbd554f11	-0.052077357
244	0x3d7fd89a	0.062462427
245	0xbe371d7b	-0.1788234
246	0xbe2877a7	-0.16451894
247	0x3e3a6d9c	0.18205875
248	0xbd24e86f	-0.04026073
249	0x3e1899ae	0.14902374
250	0xbda3526c	-0.07974705
251	0xbda2ed8a	-0.07955463
252	0xbe0c145d	-0.13679643
253	0xbd4fa8a4	-0.050697938
254	0xbd3aed38	-0.045636386
255	0xbbe5882d	-0.007004759

pointwise.bias f4 [64]
0	0xbe1ed3aa	-0.15510431
1	0x3e38fa02	0.1806412
2	0xbdc64b76	-0.09682362
3	0x3e27a907	0.16373073
4	0x3e025b50	0.12730145
5	0xbe1917d8	-0.14950502
6	0xbdfe7cf6	-0.12426178
7	0x3e13d309	0.14435972
8	0x3d8abc5f	0.0677421
9	0x3e2e08c3	0.1699553
10	0x3d10472a	0.035224117
11	0xbd57d55b	-0.052693706
12	0x3ddcf3f5	0.107887186
13	0xbe03b5ab	-0.1286227
14	0xbd1c1be5	-0.03811254
15	0x3e141694	0.14461738
16	0xbdbebe08	-0.09313589
17	0x3df6674c	0.12031421
18	0xbe271abd	-0.16318794
19	0xbd77daee	-0.060511522
20	0xbdf8a2a5	-0.12140397
21	0x3d92c947	0.07167297
22	0xbd106781	-0.03525496
23	0x3cf68753	0.030093824
24	0xbcbe9069	-0.02326222
25	0xbdf51821	-0.11967493
26	0xbdc8e5a8	-0.098094285
27	0x3e1a6e69	0.1508118
28	0xbe0a9542	-0.135335
29	0x3df98488	0.121834815
30	0xbe2d8d3e	-0.16948411
31	0xbe05fdde	-0.13085124
32	0xbd9b0a30	-0.075703025
33	0xbdfa6f3b	-0.12228247
34	0x3d8c4b16	0.06850259
35	0xbdfd249f	-0.123605005
36	0x3df29708	0.11845213
37	0xbc0b4f10	-0.008502737
38	0xbc25d3d2	-0.010121303
39	0x3e2dec97	0.16984783
40	0x3df88011	0.12133802
41	0xbd9c54fd	-0.07633398
42	0x3e225eec	0.15856522
43	0x3ce291b9	0.027657377
44	0x3d595a37	0.05306455
45	0xbdfa974c	-0.12235889
46	0x3b917e3e	0.004440098
47	0x3e1b7f2d	0.15185232
48	0xbd0e607e	-0.03475999
49	0x3da3b576	0.07993595
50	0xbd5169e8	-0.05112639
51	0x3dcbd6c9	0.099530764
52	0xbbda69ba	-0.0066654356
53	0x3da1eb89	0.07906253
54	0xbda008ed	-0.078142025
55	0x3d43e221	0.047823075
56	0xbd208e07	-0.039197948
57	0x3ca87e50	0.020568043
58	0x3e2be495	0.16786416
59	0x3db8c67b	0.09022232
60	0xbdce98aa	-0.10087712
61	0x3e22a618	0.15883672
62	0xbda6cb47	-0.08144241
63	0xbe0c23df	-0.13685559

fc.weight f4 [2, 1024]
0	0xbde52af3	-0.111898325
1	0xbe288e86	-0.16460618
2	0xbd8c2b6f	-0.06844222
3	0xbde0d056	-0.10977237
4	0xbe2746c6	-0.16335592
5	0xbe154d2f	-0.14580224
6	0xbe3a6d45	-0.18205746
7	0xbdf1a795	-0.11799542
8	0xbe5b96c9	-0.21444239
9	0xbe2ed740	-0.17074299
10	0xbdeab498	-0.11460227
11	0xbda55eb4	-0.08074704
12	0xbdb4bf6d	-0.08825574
13	0xbda5e80d	-0.08100901
14	0xbd8b2013	-0.06793227
15	0xbddc69d2	-0.10762371
16	0x3d43ab01	0.047770504
17	0x3d367de9	0.04455367
18	0xbb0c5e0b	-0.0021418359
19	0xbaee6c15	-0.001819017
20	0x3c221791	0.009893314
21	0x3d285372	0.041095205
22	0x3d67df9c	0.056609735
23	0x3b21acd1	0.0024669657
24	0x3d3489e6	0.044076823
25	0x3d4f8903	0.050667774
26	0x3ce670aa	0.028129894
27	0x3c6d6e1e	0.014491586
28	0x3c931bff	0.017957686
29	0x3ac480c6	0.0014991991
30	0xbc4c0db2	-0.012454437
31	0x3cb21008	0.02173616
32	0x3d0db67e	0.034597866
33	0x3d37d5e1	0.044881705
34	0x3d1f9ee3	0.038969886
35	0x3b1e96a0	0.0024198666
36	0x3c45cb46	0.01207239
37	0x3d32ae80	0.043623447
38	0x3ce25ab5	0.027631143
39	0x3d97e888	0.07417399
40	0x3d4f8e35	0.05067273
41	0x3d1527d5	0.03641494
42	0x3d555aca	0.052088536
43	0x3a2ac655	0.0006514539
44	0x3dc0c545	0.09412626
45	0x3d9058ed	0.07048211
46	0x3d69429c	0.05694829
47	0x3da75c9c	0.08171961
48	0x3c50c669	0.012742617
49	0x3d8ac5f6	0.06776039
50	0x3d15f08d	0.03660636
51	0x3d483a80	0.048883915
52	0xbbcab5b8	-0.0061862133
53	0x3d3b7e13	0.04577453
54	0x3d0a6925	0.03379168
55	0x3c06c97a	0.008226747
56	0x3d2fdd6f	0.042935785
57	0xb9f62b14	-0.00046952872
58	0x3d67a15e	0.056550376
59	0x3c0f2009	0.008735665
60	0x3d9b22fd	0.07575033
61	0x3d8a3163	0.06747701
62	0x3d38baab	0.045099895
63	0x3d4b7302	0.049670227
64	0xbcdc8791	-0.026920112
65	0xbdbedb2c	-0.093191475
66	0xbca5e885	-0.020252476
67	0xbd63c3df	-0.05560672
68	0xbd33eb70	-0.043925703
69	0xbd1c7752	-0.03819973
70	0xbb7c5988	-0.0038505513
71	0xbd974986	-0.0738707
72	0xbd8a2bd7	-0.06746643
73	0xbbd6a919	-0.0065509197
74	0x3c87ed9c	0.016592793
75	0xbd3b7a54	-0.045770958
76	0xbd60dda7	-0.054898884
77	0xbd98299b	-0.074298106
78	0xbd425f24	-0.047454014
79	0xbd3c3e20	-0.045957685
80	0xbd5b2cd7	-0.05350956
81	0xbdc46f25	-0.09591512
82	0xbcadcbb1	-0.021215292
83	0xbd0a0f7e	-0.03370618
84	0xbdba7fec	-0.091064304
85	0xbd1a0ad3	-0.03760798
86	0xbd6a8b50	-0.057261765
87	0xbd1c33ec	-0.038135454
88	0xbd5ec812	-0.05439002
89	0xbd7b0d93	-0.061292242
90	0xbda2f756	-0.07957332
91	0xbdad7f36	-0.08471529
92	0xbd2c84c6	-0.04211881
93	0xbd0d9437	-0.034565177
94	0xbd591289	-0.052996192
95	0xbd9dad43	-0.07699063
96	0xbd617fc3	-0.055053484
97	0xbe0a96f1	-0.13534142
98	0xbdd1be5f	-0.102413885
99	0xbdbd76df	-0.092511885
100	0xbdbe3ceb	-0.09288963
101	0xbe6213b0	-0.22077823
102	0xbe25359e	-0.16133735
103	0xbdcde00f	-0.100525014
104	0xbddc904f	-0.10769712
105	0xbde7c1a7	-0.11316233
106	0xbdfb1ab5	-0.12260953
107	0xbdfcd4d4	-0.12345281
108	0xbe216224	-0.15760094
109	0xbe0d0ab6	-0.13773617
110	0xbdcdf8b5	-0.10057203
111	0xbe1b6af6	-0.15177521
112	0x3b927f3d	0.0044707344
113	0x3cc16808	0.023609176
114	0x3d0d98ec	0.034569666
115	0x3d0e8827	0.034797814
116	0xbcc7363f	-0.024317859
117	0x3ca6648e	0.02031162
118	0x3d52998a	0.051415958
119	0x3af31c01	0.0018547775
120	0x3d3c43e4	0.045963183
121	0x3cbab17d	0.022789711
122	0x3d6948f8	0.056954354
123	0x3ca3fc36	0.020017724
124	0x3bc7cfb6	0.006097759
125	0x3d76cf2e	0.060256176
126	0x3d6bdd77	0.057584252
127	0x3d65aed4	0.056074932
128	0x3cd29f2b	0.025710663
129	0x3d3bbd11	0.045834605
130	0xbc7f31bb	-0.0155758215
131	0x3bc73189	0.006078903
132	0xbbd37ac9	-0.006453846
133	0xba21fb41	-0.00061791023
134	0x3cee8bf8	0.029119477
135	0x3d5508bf	0.052010294
136	0x3ca3d5ee	0.01999947
137	0x3cb238b0	0.021755546
138	0x3cc29601	0.023753168
139	0xbbd7e9af	-0.0065891366
140	0x3dab336e	0.08359419
141	0x3d974f1e	0.07388137
142	0x3c63efc4	0.013912145
143	0xbc9db1cd	-0.019249821
144	0xbd011140	-0.03151059
145	0xbdfd806d	-0.12378011
146	0xbd8cd490	-0.068764806
147	0xbd09644d	-0.03354292
148	0xbda13d9a	-0.07873078
149	0xbe131b90	-0.14365983
150	0xbe013451	-0.12617613
151	0xbd2db6df	-0.042410728
152	0xbd9fc9ee	-0.07802187
153	0xbdfb1045	-0.122589625
154	0xbdbaf8df	-0.091295
155	0xbd872c6b	-0.06600269
156	0xbdef63c3	-0.1168895
157	0xbdb6e612	-0.08930601
158	0xbdc47e94	-0.09594455
159	0xbd978dc2	-0.07400085
160	0xbcd965b3	-0.026537752
161	0xbe0ee435	-0.13954242
162	0xbdf353db	-0.118812285
163	0xbd096a20	-0.033548474
164	0xbdfd0c16	-0.12355821
165	0xbe4a9b60	-0.19785833
166	0xbe249eea	-0.16076246
167	0xbd9546d8	-0.07288903
168	0xbde1c308	-0.110235274
169	0xbe48053a	-0.19533244
170	0xbe2f585d	-0.17123552
171	0xbe05ceb3	-0.1306713
172	0xbe2b8a3c	-0.16751951
173	0xbe0fcdbf	-0.1404333
174	0xbde67332	-0.112524405
175	0xbdf511ec	-0.11966309
176	0xbd616369	-0.055026446
177	0xbdc7814f	-0.097414605
178	0xbd87ef80	-0.06637478
179	0xbd002b67	-0.03129139
180	0xbd342fb5	-0.04399081
181	0xbe0e7612	-0.13912228
182	0xbdcd884b	-0.100357614
183	0xbd92a49f	-0.07160305
184	0xbdac6be9	-0.0841902
185	0xbde3d0ea	-0.111238316
186	0xbdd15ae8	-0.10222417
187	0xbd997ff7	-0.074951105
188	0xbdedf156	-0.11618297
189	0xbd8a327a	-0.06747909
190	0xbdd3e129	-0.1034568
191	0xbdf20991	-0.11818231
192	0xbb042301	-0.0020162466
193	0xbc784893	-0.015154022
194	0x3c823934	0.015896417
195	0xbc2b86aa	-0.010469118
196	0xbc2187d6	-0.009859046
197	0xbc0e2e4f	-0.008678033
198	0x3ccd8f38	0.025092706
199	0x3cf7646b	0.03019925
200	0xbd6526f3	-0.055945348
201	0xbce0d96d	-0.027447427
202	0xbc0753dd	-0.008259741
203	0xbb069928	-0.0020538066
204	0x3d86b631	0.06577719
205	0x3d6d5fe5	0.05795278
206	0xbb80e611	-0.003933676
207	0xbcdb41aa	-0.02676471
208	0xbc4713a5	-0.01215068
209	0x3c9d800a	0.019226093
210	0xbcbc72c5	-0.023003945
211	0xbcc30f7f	-0.0238111
212	0xbbdc8ec5	-0.0067308866
213	0xbd00f556	-0.03148397
214	0xbcc70e81	-0.024298908
215	0x3c5b854f	0.013398482
216	0xbc88294a	-0.01662125
217	0xbc9d251f	-0.01918274
218	0x3d2c60ba	0.042084433
219	0xbcb8cc73	-0.022558426
220	0x3ca9a320	0.020707667
221	0x3d446154	0.04794438
222	0x3b71aa97	0.003687536
223	0xbc870c53	-0.016485369
224	0x3c1a9b4f	0.0094364425
225	0xbbf70a59	-0.0075390753
226	0xbbd04c75	-0.0063567706
227	0xbc2dd634	-0.010610152
228	0xbca3ddb5	-0.02000318
229	0xbd3a85b5	-0.04553767
230	0xbd0b1903	-0.0339594
231	0xbb16341e	-0.0022919248
232	0xbd845934	-0.06462327
233	0xbd0912eb	-0.033465307
234	0xbd1afddf	-0.037839767
235	0xbc5a221e	-0.013313798
236	0xbc59a3ee	-0.013283713
237	0xbc696775	-0.0142458575
238	0x389d5624	7.502388e-05
239	0x3c01dee8	0.00792668
240	0xbcdb3644	-0.026759274
241	0xbc557301	-0.013027907
242	0x3cf6395b	0.030056646
243	0x3d5d1e8d	0.053984214
244	0x3d1f2bba	0.03886006
245	0x3cca3b59	0.024686502
246	0x3d7c6b9c	0.06162606
247	0x3be11025	0.0068683797
248	0x3d2cbce2	0.04217232
249	0x3cedfe7b	0.02905201
250	0xbb3e7977	-0.0029064098
251	0x3caccb0d	0.021092916
252	0x3c99557f	0.018717526
253	0xbcb23b1b	-0.0217567
254	0x3d056725	0.03256907
255	0x3d79d01b	0.06098948

fc.bias f4 [2]
0	0xbb536197	-0.0032254213
1	0xbd0ae651	-0.033911053
