model/CNN/saved_models/split_pad5_patch50/smallcnn4_fold5_pad9_patch50.pth (torch, 35659 bytes, 12 tensors)

conv1.weight f4 [32, 10, 3, 3]
0.08740782 -0.010846368 -0.119136885 0.03846583 -0.0050810035 -0.06906959 0.027724465 0.013191511
0.011537859 -0.008203802 0.007205767 0.06670638 0.059250854 0.10941872 0.005352559 0.023370946
0.027832828 0.014528302 -0.06325355 -0.077392444 0.09627981 -0.020356232 -0.06853805 0.016365035
-0.035056967 -0.047648937 0.07638525 -0.0971906 0.0052879187 -0.05817407 -0.09830277 -0.07726652
0.0126632005 -0.0793169 -0.12267605 -0.12158049 0.014505139 -0.044279452 0.06660809 0.013047364
-0.015056115 -0.07285795 -0.088548355 -0.016762208 0.04258193 -0.046105664 -0.038896874 -0.039933074
-0.028173447 0.09482922 -0.035146866 0.030718315 -0.082979456 0.009917055 -0.028387569 -0.01715796
0.043269463 0.08632009 -0.05553129 0.10492972 -0.031244317 -0.04526108 0.055690274 0.048715405
0.08180961 0.0087995855 -0.031686943 -0.0045832186 0.049768757 0.020623684 -0.032889582 0.033529583
-0.06919482 -0.050320003 0.08463096 -0.11196753 0.03057161 0.005105733 -0.06372229 0.084394746
0.041441385 0.01652848 -0.09660597 -0.049559858 -0.08902277 -0.1322692 -0.08318148 0.055326577
-0.08905684 -0.10564727 0.04884413 0.01408227 0.026535256 -0.092467785 -0.052770708 0.0137807
-0.009281409 0.033382043 0.03260445 0.03209999 -0.062487956 0.018696371 0.045547277 -0.050902136
0.06619455 -0.03900613 -0.01100228 -0.0033655341 0.059043117 -0.03378172 -0.0036900365 -0.017412124
0.054417588 0.02360624 0.12063854 0.047286045 -0.0151731605 -0.084003925 -0.07947964 -0.043874916
-0.12216832 -0.13534658 -0.058601215 -0.010115367 -0.040101808 -0.0766591 0.07364623 0.058129206
0.01994516 0.067876644 0.10520886 0.12922749 0.07798365 0.084623836 0.023717146 0.005609771
-0.003676993 -0.007668299 -0.01706371 0.10399736 -0.025662094 -0.07259672 0.052870747 -0.007340067
0.067500055 -0.04469914 -0.090422556 0.022170352 -0.06957086 -0.0089917295 -0.018870149 0.02677618
0.003137979 -0.085061446 0.0741503 -0.054107446 0.013279653 -0.037739675 0.09153079 -0.0935863
0.03930634 -0.09434088 0.0032232346 0.039166797 -0.07291395 0.04678267 0.053812675 0.05401487
-0.08301997 0.062102858 -0.05341291 0.05142608 -0.03004395 0.08758479 0.06335183 -0.03556053
0.05047718 0.039965797 0.01960981 0.03319883 0.114290446 -0.0016897633 0.058030196 0.04438065
-0.007712468 -0.034791216 0.08309573 -0.054043453 0.00042463167 -0.11189151 0.0073584802 0.02170343
-0.021048596 0.009389165 -0.1167122 0.06751103 0.08416452 0.00026077047 0.03137019 0.009198705
0.15597218 0.017940938 0.029424682 0.10253043 0.11058111 0.13415913 0.0029616526 0.04054764
-0.116053715 0.10212366 -0.060451977 0.0062320777 -0.06031763 0.002418418 0.0015833996 -0.03636774
-0.056173414 0.016798917 0.03519217 -0.074715 0.029974941 -0.07708487 0.09197869 0.0011974656
-0.032744467 -0.043626677 0.050008386 0.13281934 0.047495738 0.02987361 -0.04023252 0.113980986
0.03750292 0.011046251 -0.010645766 -0.014323384 0.031030897 0.034847256 0.08442435 -0.068199866
-0.037780873 0.08648168 -0.116764866 0.012359812 0.039494622 0.06327199 0.005750911 0.16942032
0.1533318 -0.019650206 0.07631545 0.03637401 -0.0022696753 0.008678876 0.0022054731 0.003899149
00000000: df02 b33d f7b4 31bc 0afe f3bd 598e 1d3d
00000010: 8c7e a6bb 5b74 8dbd 6b1e e33c 3521 583c
00000020: 4a09 3d3c 3d69 06bc 5b1e ec3b 5b9d 883d
00000030: 06b1 723d ec16 e03d 8564 af3b 6d74 bf3c
00000040: ac01 e43c 1d08 6e3c 148b 81bd ee7f 9ebd
00000050: 592e c53d 1dc2 a6bc ad5d 8cbd f70f 863c
00000060: e597 0fbd 882b 43bd df6f 9c3d de0b c7bd
00000070: 4746 ad3b ef47 6ebd f652 c9bd e93d 9ebd
00000080: 5079 4f3c e670 a2bd 953d fbbd 31ff f8bd
00000090: f6a6 6d3c 5f5e 35bd d369 883d 9cc4 553c
000000a0: ecad 76bc 8d36 95bd d758 b5bd e650 89bc
000000b0: 646a 2e3d 4bd9 3cbd 5452 1fbd dd90 23bd
000000c0: 00cc e6bc d235 c23d 29f6 0fbd faa4 fb3c
000000d0: 22f1 a9bd 257b 223c 0c8d e8bc da8e 8cbc
000000e0: 523b 313d 96c8 b03d c774 63bd 65e5 d63d
000000f0: 15f4 ffbc af63 39bd 7c1b 643d ce89 473d
00000100: cc8b a73d 232c 103c 2bca 01bd d32e 96bb
00000110: 53da 4b3d 00f3 a83c 3ab7 06bd 5156 093d
00000120: 04b6 8dbd 591c 4ebd ff52 ad3d 3b4f e5bd
00000130: 5071 fa3c fe4d a73b d580 82bd 27d7 ac3d
00000140: 71be 293d bc66 873c 5ad9 c5bd 47ff 4abd
00000150: 9251 b6bd 9471 07be 0d5b aabd 1f9e 623d
00000160: 6f63 b6bd 995d d8bd c810 483d 52b9 663c
00000170: 7760 d93c c05f bdbd 1926 58bd 72c8 613c
00000180: 0d11 18bc 9cbb 083d 3e8c 053d 477b 033d
00000190: 5ff3 7fbd 2229 993c c88f 3a3d c27e 50bd
000001a0: 0291 873d e4c4 1fbd e842 34bc 4b90 5cbb
000001b0: 32d7 713d b35e 0abd 8ad4 71bb dfa3 8ebc
000001c0: fae4 5e3d e061 c13c 5711 f73d 03af 413d
000001d0: d998 78bc 400a acbd 39c6 a2bd 2fb6 33bd
000001e0: 6233 fabd 4b98 0abe d407 70bd edba 25bc
000001f0: cb41 24bd 72ff 9cbd d6d3 963d e418 6e3d
00000200: 0864 a33c e902 8b3d be77 d73d 3654 043e
00000210: e4b5 9f3d 434f ad3d 764a c23c 2bd2 b73b
00000220: b5f9 70bb 5b46 fbbb 32c9 8bbc 91fc d43d
00000230: 5039 d2bc 97ad 94bd ff8e 583d f284 f0bb
00000240: 783d 8a3d 7216 37bd 762f b9bd 999e b53c
00000250: 2b7b 8ebd 0c52 13bc 9295 9abc b859 db3c
00000260: 8da6 4d3b b234 aebd 1ddc 973d c59f 5dbd
00000270: e792 593c eb94 1abd 7f74 bb3d 2daa bfbd
00000280: afff 203d cb35 c1bd e73c 533b 5d6d 203d
00000290: e953 95bd 2f9f 3f3d ae6a 5c3d b23e 5d3d
000002a0: 6006 aabd 915f 7e3d 7fc7 5abd 27a4 523d
000002b0: bb1e f6bc a85f b33d 9bbe 813d eba7 11bd
000002c0: 29c1 4e3d 2db3 233d c1a4 a03c 7ffb 073d
000002d0: 1c11 ea3d 0c7b ddba 12b1 6d3d 7cc8 353d
000002e0: dfb8 fcbb 3c81 0ebd 182e aa3d ab5c 5dbd
000002f0: 19a1 de39 6027 e5bd 681f f13b 64cb b13c
00000300: 1b6e acbc 03d5 193c ce06 efbd 3943 8a3d
00000310: 735e ac3d 05b8 8839 077e 003d 2ab6 163c
00000320: 2cb7 1f3e e0f8 923c 080c f13c 79fb d13d
00000330: 5978 e23d 0361 093e 4918 423b 4815 263d
00000340: 92ad edbd 3626 d13d 7e9c 77bd 7536 cc3b
00000350: 9f0f 77bd 527e 1e3b 138a cf3a 57f6 14bd
00000360: 1816 66bd e29d 893c aa25 103d 2e04 99bd
00000370: 028e f53c acde 9dbd 535f bc3d 47f4 9c3a
00000380: 101f 06bd e3b1 32bd 98d5 4c3d cb01 083e
00000390: e48a 423d 80b9 f43c dbca 24bd dd6e e93d
000003a0: a99c 193d 56fb 343c 946b 2ebc a0ac 6abc
000003b0: 8234 fe3c ffbb 0e3d ace6 ac3d 5fac 8bbd
000003c0: 1ec0 1abd 4f1d b13d 6b22 efbd cf80 4a3c
000003d0: 1dc5 213d bf94 813d 2372 bc3b 857c 2d3e
000003e0: 0303 1d3e 78f9 a0bc 464b 9c3d eafc 143d
000003f0: d5be 14bb d831 0e3c b389 103b dd88 7f3b

conv1.bias f4 [32]
-0.07240767 0.09607864 -0.06969728 -0.078135714 0.022251183 0.103546076 -0.0791844 0.08197892
-0.038661066 0.04614364 0.093305066 -0.06688543 -0.08668771 0.085997686 0.07150464 0.057144605
-0.020919355 0.026348608 0.038082335 -0.042767614 0.037348833 -0.05662045 -0.063432604 -0.10113172
-0.004683095 -0.00066043524 -0.006827189 -0.049349982 0.019449411 -0.1049179 0.05548148 0.052426517
00000000: 794a 94bd e1c4 c43d 73bd 8ebd 9e05 a0bd
00000010: 1d48 b63c f70f d43d 6e2b a2bd 90e4 a73d
00000020: 115b 1ebd 1d01 3d3d ba16 bf3d 3afb 88bd
00000030: 5389 b1bd 8e1f b03d 0671 923d 7610 6a3d
00000040: 115f abbc 09d9 d73c 39fc 1b3d 182d 2fbd
00000050: 17fb 183d d8ea 67bd f4e8 81bd 261e cfbd
00000060: a674 99bb 0f21 2dba 9db6 dfbb 3523 4abd
00000070: 5f54 9f3c 32df d6bd 8c40 633d 30bd 563d

bn1.weight f4 [32]
1.0111989 1.0347363 1.0215826 1.1042047 1.0314175 1.0122674 1.0411485 1.0681192
1.027947 1.0384724 1.1527452 1.0102487 1.0309952 1.0264064 1.025125 1.0179398
1.0389609 1.0791494 0.9992136 1.067167 1.0093684 0.9129278 1.0173202 1.0681075
1.046205 1.0419444 1.009917 1.033488 1.0273367 1.0418205 1.0220107 0.9670034
00000000: f76e 813f 3d72 843f 38c3 823f 9456 8d3f
00000010: 7d05 843f fa91 813f 5b44 853f 21b8 883f
00000020: c493 833f aaec 843f 288d 933f d44f 813f
00000030: a7f7 833f 4961 833f 4c37 833f da4b 823f
00000040: acfc 843f 9121 8a3f 76cc 7f3f ee98 883f
00000050: fc32 813f a3b5 693f 8c37 823f bfb7 883f
00000060: 0cea 853f 6f5e 853f f644 813f 5649 843f
00000070: c57f 833f 605a 853f 3fd1 823f 898d 773f

bn1.bias f4 [32]
-0.0007346917 0.027456876 0.0011081089 0.048624624 -0.022672726 -0.0043958668 0.01361984 -0.0012888337
0.012920922 0.022296552 0.00079867133 0.0037407705 -0.032037567 -0.0067030443 -0.014429026 -0.008024746
0.003638808 -0.014745128 -0.024117047 0.0053136833 -0.003948827 -0.08711278 0.034082886 0.023462506
0.011771329 -0.028556952 -0.004495875 0.009283841 -0.015008186 0.015624366 -0.0068887835 -0.015675442
00000000: 5398 40ba 3eed e03c f73d 913a 9d2a 473d
00000010: 27bc b9bc 340b 90bb c025 5f3c 15ee a8ba
00000020: 46b2 533c 42a7 b63c ed5d 513a b727 753b
00000030: d339 03bd 36a5 dbbb b967 6cbc 397a 03bc
00000040: 1179 6e3b 8d95 71bc 1d91 c5bc 681e ae3b
00000050: 2965 81bb 2f68 b2bd 7f9a 0b3d 7134 c03c
00000060: 88dc 403c 45f0 e9bc 2252 93bb 401b 183c
00000070: e5e4 75bc 57fd 7f3c 4ebb e1bb c969 80bc

bn1.running_mean f4 [32]
-0.07289927 0.0966617 -0.0705942 -0.07728413 0.02174875 0.10340284 -0.07906719 0.08129802
-0.038608678 0.044991843 0.09445991 -0.06750918 -0.087460555 0.08661463 0.07106007 0.057362773
-0.02037098 0.026385447 0.038619675 -0.042685147 0.03716983 -0.05499176 -0.062081613 -0.100953974
-0.0051826527 -0.00034905897 -0.0070566107 -0.050375268 0.020086922 -0.10635367 0.055669356 0.05254397
00000000: 364c 95bd 92f6 c53d b193 90bd 2447 9ebd
00000010: 6f2a b23c dec4 d33d fbed a1bd 947f a63d
00000020: 2224 1ebd 5e49 383d 3374 c13d 4142 8abd
00000030: 851e b3bd 0363 b13d f187 913d 3af5 6a3d
00000040: 0be1 a6bc 4b26 d83c aa2f 1e3d 9fd6 2ebd
00000050: 643f 183d 0a3f 61bd 4a49 7ebd f5c0 cebd
00000060: 3ed3 a9bb e701 b7b9 243b e7bb 4c56 4ebd
00000070: 548d a43c f4cf d9bd 8d05 643d 5938 573d

bn1.running_var f4 [32]
0.30787584 0.19238204 0.15693064 0.20652616 0.116069205 0.3797573 0.3145761 0.2373678
1.0579928 0.20474695 0.30871177 0.7628407 0.22258355 0.40692917 0.35417706 0.23141773
0.17534801 0.19248858 0.21721011 0.1961126 0.51708525 0.75754607 0.7866959 0.38270918
0.13557771 0.21971503 0.332886 0.6522003 0.23221722 1.585556 0.20228766 0.4237805
00000000: e7a1 9d3e ccff 443e 6db2 203e 987b 533e
00000010: b1b5 ed3d 8c6f c23e 1e10 a13e 8b10 733e
00000020: 4f6c 873f 2fa9 513e 780f 9e3e 8749 433f
00000030: f1ec 633e 0559 d03e b256 b53e c5f8 6c3e
00000040: 6e8e 333e ba1b 453e 546c 5e3e bed1 483e
00000050: b35f 043f 8aee 413f e764 493f 75f2 c33e
00000060: e2d4 0a3e fafc 603e 0970 aa3e 99f6 263f
00000070: 5aca 6d3e 80f3 ca3f 7f24 4f3e c2f9 d83e

depthwise.weight f4 [32, 1, 3, 3]
0.3154333 -0.034419287 -0.14123647 -0.2301808 0.052669894 0.017254777 0.3234023 -0.039664805
0.108909525 -0.052598804 0.19614902 0.19581084 -0.2726057 0.05829112 0.03259731 -0.38726196
0.048223745 -0.2216234 0.10949989 0.10883001 0.15267085 -0.13340048 -0.29959548 -0.3632555
-0.15461113 -0.16936621 -0.1822813 0.23767146 0.17781785 0.1505138 -0.28813764 0.2097809
-0.32329944 -0.23621924 -0.32478395 -0.0840761 -0.28302395 -0.1698284 -0.18569762 -0.14762855
0.13585904 -0.2745594 0.18277435 -0.2826169 -0.2749319 0.06951623 -0.2137773 0.04524133
0.05138274 -0.11198236 0.34038964 -0.18581574 0.12190386 0.34848803 0.17160101 0.18891987
-0.11042763 0.21698897 0.29077712 -0.0724009 0.05250011 -0.25434104 -0.16109091 0.31806284
0.2904551 -0.23683386 0.19318551 0.18810825 -0.36439243 -0.22747903 -0.32912856 -0.15844917
0.23178828 0.32031286 -0.15386935 -0.024251567 -0.07222903 0.24356055 -0.30121174 0.015747482
0.14984836 -0.11664472 0.15736085 0.35422325 0.37955755 0.07455901 0.2828692 0.11542403
0.114098705 -0.08694263 0.22980522 0.025659638 -0.041428704 0.05114957 -0.24006975 -0.3686621
-0.23133166 -0.4553707 -0.30641904 -0.29623294 0.26688826 0.17886901 0.00928344 0.10643507
0.039274063 0.14945568 0.056665573 0.050131526 0.04686655 -0.0075257225 0.12087639 -0.27991444
0.09966955 0.04591406 -0.20387869 -0.12550806 -0.33499655 -0.2252997 0.34575185 0.050776515
0.1002877 0.24983728 -0.008480628 -0.14130832 0.25803453 0.15240984 -0.09062992 -0.09988099
0.23478985 -0.26815644 0.23911004 0.034123242 0.21084842 0.24520676 -0.12979463 -0.2536316
-0.21441698 0.17282285 0.004859529 -0.3032862 -0.16290568 0.24605209 -0.019872818 0.27531087
0.20927006 -0.21819064 0.060113143 -0.25204474 0.049986035 -0.24836065 0.1520758 -0.07652696
-0.13690583 -0.089754984 -0.052010667 -0.07073127 -0.020680282 -0.26070526 -0.35534108 -0.20865865
-0.024682768 0.10687926 -0.00977489 0.011676545 -0.20322746 -0.2717797 0.0019359331 0.16431907
-0.3234344 -0.16702873 -0.32314426 -0.026289763 -0.20821245 0.2506004 -0.3146572 -0.35467842
-0.2753631 0.03326707 -0.20331608 0.058788862 -0.10355668 0.20988344 0.25908384 0.13153145
-0.15238018 0.054207414 0.10221742 0.32909954 0.13504876 -0.06507868 0.19408216 0.28168762
-0.06053685 -0.07008598 -0.26473558 0.18184856 0.11833535 -0.2934008 0.10169164 0.20907317
0.18136263 0.009618227 -0.2055074 -0.23635016 0.30831096 0.32450637 -0.13718767 0.22724682
0.283861 0.27868223 0.38173357 -0.19900353 0.023984296 0.25698632 -0.13349344 -0.18808685
0.07361678 0.03469472 0.16438319 0.34297833 0.110454865 -0.07951473 0.051194634 -0.2311506
-0.15088253 0.13676026 0.22059083 0.21819808 0.0037158334 0.090526335 -0.047961537 0.37264538
-0.068729825 0.30931348 0.19546752 -0.0015963129 -0.2681771 0.21180911 0.31934094 0.22736873
0.2975979 0.26934308 -0.24134715 -0.26790622 -0.33118847 -0.29085267 -0.073673405 0.19035198
-0.13301969 -0.09965659 -0.3152588 -0.33391145 0.20267305 -0.28563824 -0.35290617 -0.06102421
00000000: 7980 a13e 3dfb 0cbd 4ba0 10be 84b4 6bbe
00000010: 63bc 573d e459 8d3c fc94 a53e 9077 22bd
00000020: f50b df3d d871 57bd 4adb 483e a382 483e
00000030: f992 8bbe abc2 6e3d c284 053d 3347 c6be
00000040: 4386 453d 3ff1 62be 7a41 e03d 45e2 de3d
00000050: bf55 1c3e 239a 08be 9464 99be a0fc b9be
00000060: 6152 1ebe 566e 2dbe f3a7 3abe 2660 733e
00000070: e215 363e 4a20 1a3e c786 93be ced0 563e
00000080: 8187 a5be 75e3 71be 154a a6be 1730 acbd
00000090: 84e8 90be 7fe7 2dbe 8427 3ebe f02b 17be
000000a0: a21e 0b3e 0d93 8cbe 3329 3b3e 2ab3 90be
000000b0: e0c3 8cbe 865e 8e3d 70e8 5abe f94e 393d
000000c0: b576 523d 0257 e5bd 8d47 ae3e 7b46 3ebe
000000d0: bba8 f93d 066d b23e 2db8 2f3e 3674 413e
000000e0: e227 e2bd 5b32 5e3e bde0 943e ec46 94bd
000000f0: 5b0a 573d fd38 82be 04f5 24be 22d9 a23e
00000100: 88b6 943e 9384 72be 6cd2 453e 739f 403e
00000110: a591 babe 43f0 68be 8a83 a8be 8040 22be
00000120: e859 6d3e 0c00 a43e ed8f 1dbe 39ab c6bc
00000130: d0ec 93bd f067 793e 6d38 9abe dd00 813c
00000140: d971 193e 6de3 eebd 3423 213e c05c b53e
00000150: 5e55 c23e 65b2 983d 3bd4 903e 6f63 ec3d
00000160: 95ac e93d fa0e b2bd 0f52 6b3e 2934 d23c
00000170: 25b1 29bd 3682 513d d8d4 75be 47c1 bcbe
00000180: 35e2 6cbe 5926 e9be f5e2 9cbe d8ab 97be
00000190: 94a5 883e 7029 373e 9219 183c a1fa d93d
000001a0: d7dd 203d e90a 193e 291a 683d b756 4d3d
000001b0: 24f7 3f3d 569a f6bb 0a8e f73d f250 8fbe
000001c0: 8d1f cc3d 6210 3c3d 93c5 50be 2f85 00be
000001d0: ab84 abbe f7b4 66be 6306 b13e 09fb 4f3d
000001e0: a363 cd3d 58d5 7f3e 55f2 0abc 21b3 10be
000001f0: 1a1d 843e 5311 1c3e 2e9c b9bd 688e ccbd
00000200: c06c 703e cd4b 89be 43d9 743e d0c4 0b3d
00000210: a6e8 573e 7b17 7b3e e2e8 04be 00dc 81be
00000220: 2090 5bbe 79f8 303e af3c 9f3b 5448 9bbe
00000230: bfd0 26be 14f5 7b3e 52cc a2bc 8cf5 8c3e
00000240: e44a 563e 5e6d 5fbe 3339 763d 020c 81be
00000250: 28be 4c3d 4152 7ebe c2b9 1b3e 2bba 9cbd
00000260: 0b31 0cbe 76d1 b7bd 2309 55bd 8edb 90bd
00000270: b269 a9bc 297b 85be 44ef b5be 9daa 55be
00000280: 8433 cabc 83e3 da3d dc26 20bc fb4e 3f3c
00000290: dc1a 50be b526 8bbe 23bf fd3a 4243 283e
000002a0: 3299 a5be 9409 2bbe 2a73 a5be a15d d7bc
000002b0: a535 55be b24e 803e c01a a1be 6998 b5be
000002c0: 64fc 8cbe 0d43 083d 1732 50be 97cc 703d
000002d0: 8615 d4bd afeb 563e a3a6 843e 2eb0 063e
000002e0: 8d09 1cbe 9808 5e3d 5e57 d13d bc7f a83e
000002f0: 394a 0a3e f947 85bd 79bd 463e 5c39 903e
00000300: 7df5 77bd 3d89 8fbd 6c8b 87be 8236 3a3e
00000310: ce59 f23d a138 96be b543 d03d 4717 563e
00000320: 20b7 393e c595 1d3c 8870 52be c705 72be
00000330: efda 9d3e b325 a63e ed7a 0cbe 64b3 683e
00000340: 3b56 913e 70af 8e3e 9572 c33e 95c7 4bbe
00000350: b77a c43c b693 833e 81b2 08be d799 40be
00000360: 65c4 963d 0d1c 0e3d 1154 283e db9a af3e
00000370: 2936 e23d 9ed8 a2bd 77b1 513d beb2 6cbe
00000380: f380 1abe e20a 0c3e 90e2 613e 516f 5f3e
00000390: 5785 733b df65 b93d 5173 44bd 60cb be3e
000003a0: 39c2 8cbd 565e 9e3e a328 483e 5f3b d1ba
000003b0: 824e 89be 7de4 583e a880 a33e 59d3 683e
000003c0: c05e 983e 56e7 893e b523 77be 012b 89be
000003d0: 8991 a9be a4ea 94be 15e2 96bd a1eb 423e
000003e0: 5036 08be c118 ccbd 9a69 a1be 71f6 aabe
000003f0: 8689 4f3e 2d3f 92be 1eb0 b4be 86f4 79bd

depthwise.bias f4 [32]
-0.32826194 0.123718895 -0.27423918 0.24059275 -0.06864453 0.2412889 -0.16022313 0.06982177
-0.06876203 -0.10775843 -0.0478745 0.03915395 0.20897356 0.15557806 -0.16155654 -0.035184704
0.2445099 -0.047386616 -0.03336653 0.18924645 -0.03023896 -0.21638212 0.086199686 -0.25230825
-0.26185873 0.21897165 -0.0034053258 0.03407882 0.22691108 0.055559814 0.12303694 0.19791229
00000000: f311 a8be 5560 fd3d 1469 8cbe f25d 763e
00000010: 8195 8cbd 7014 773e 8811 24be b7fe 8e3d
00000020: 1bd3 8cbd 74b0 dcbd 0d18 44bd e45f 203d
00000030: 2afd 553e db4f 1f3e 146f 25be d61d 10bd
00000040: ce60 7a3e 7818 42bd 58ab 08bd d2c9 413e
00000050: b2b7 f7bc 4693 5dbe 7689 b03d 8c2e 81be
00000060: 5912 86be 1b3a 603e e32b 5fbb 3c96 0b3d
00000070: 615b 683e b092 633d cbfa fb3d 85a9 4a3e

pointwise.weight f4 [64, 32, 1, 1]
0.08798809 0.016801054 -0.08037528 -0.17048085 -0.12348171 0.076164626 0.028951343 0.13122171
0.14114502 -0.13716295 0.051400807 -0.07821634 0.06564531 0.18523811 -0.07498183 -0.057979256
-0.033698928 -0.081581146 0.02949177 0.08891539 -0.111278296 -0.13645859 -0.03315152 0.22337507
-0.03428027 -0.16881156 -0.15132995 0.059615877 -0.18683778 -0.21322542 -0.10152048 -0.12247396
-0.053860433 0.02065616 0.07258366 -0.020414973 -0.19359942 0.024191897 0.027038006 -0.118545555
-0.086449936 -0.09603519 0.0038880762 0.048954457 -0.11643315 -0.10584203 -0.027571343 -0.16815983
0.06827701 -0.21545629 -0.12881637 -0.09332145 -0.13754278 0.056021433 -0.0018715619 0.051219184
-0.02396884 0.019902827 0.14788379 -0.04796794 0.08338351 0.0053483723 0.07736131 -0.094380826
0.013609535 -0.014873279 0.1529003 0.19756097 -0.004555724 -0.019548478 -0.054730937 -0.080251396
-0.017460534 -0.13204533 -0.019872986 -0.17452295 0.08247722 -0.15906206 0.18010071 -0.15208688
-0.23352416 -0.19165945 -0.06701224 -0.1628189 0.023939379 -0.13196631 0.11230886 0.014097223
-0.025278881 0.15663712 0.041206334 -0.006522613 0.18042082 -0.09915927 0.050499734 -0.16372177
-0.19929281 0.07438522 0.132735 -0.038129997 0.14233834 0.15402842 0.24279772 0.0865499
-0.15434739 0.16339622 -0.016812121 0.1243201 0.0588678 -0.072806776 0.0736844 -0.17182906
0.13324335 -0.05859249 0.13331835 0.024921423 0.1074211 0.040411383 -0.014057752 -0.13825585
0.06686041 -0.14939158 0.084056884 -0.18521196 0.028313482 0.0814051 0.00806583 -0.08070561
0.0075067305 0.13709168 0.09353993 0.013546696 0.14703225 -0.107581444 0.024150427 -0.119807
0.1747138 -0.17557012 -0.015239081 0.04908552 -0.014478258 0.015041295 0.22613278 -0.03988134
-0.23393065 -0.206947 -0.15407634 -0.21541226 0.13888426 -0.013396062 -0.16182575 -0.08893419
-0.04433712 0.1498225 0.07112314 0.0151689155 0.1369713 0.06441993 0.070158266 0.05737037
-0.07118101 0.15793051 -0.12958954 0.16922536 0.12989937 0.13409056 -0.11126136 0.11220507
-0.05473497 0.12283292 0.11471111 0.13202856 0.012390337 0.010297365 -0.034177322 0.0241448
-0.121640116 0.039750386 -0.09528731 -0.11740529 -0.05075693 0.17898956 0.110734835 0.12410198
-0.05825661 0.05791021 0.14081281 -0.13387625 0.02295941 0.17900895 -0.13722566 0.061510563
-0.11178791 -0.19379213 -0.017735526 -0.11945678 -0.09332635 -0.10320956 -0.21056722 -0.058306616
0.1490943 0.030519802 -0.03999805 -0.12761492 -0.07855074 0.08641732 -0.1746648 -0.17533784
0.23318925 0.19285272 -0.067327425 0.26098898 0.15583204 -0.08056731 0.008182531 0.0719702
0.079683706 0.10098715 0.18474641 -0.05715522 -0.09634283 -0.02653722 -0.10024786 0.004759592
0.05017856 0.12837271 -0.07553803 0.12370787 -0.09288425 0.13531697 -0.032195747 0.005834056
0.046995223 0.035088435 0.16722503 0.05557217 0.15011044 -0.109804474 0.12415728 0.04297018
0.037849236 0.11048195 0.028378382 0.09487436 0.11786882 -0.051727295 -0.03440884 0.17909464
-0.08510656 0.1075122 0.008574211 -0.004434008 -0.24061954 0.14076479 -0.0040217675 0.12910031
00000000: 1a33 b43d 5da2 893c cb9b a4bd 8892 2ebe
00000010: fbe3 fcbd 33fc 9b3d 5e2b ed3c fc5e 063e
00000020: 5288 103e 7274 0cbe a789 523d e32f a0bd
00000030: 0c71 863d 0faf 3d3e 1390 99bd a87b 6dbd
00000040: e307 0abd 0414 a7bd b998 f13c 4619 b63d
00000050: e0e5 e3bd cdbb 0bbe e3c9 07bd 6fbc 643e
00000060: 7869 0cbd f0dc 2cbe 3df6 1abe c72f 743d
00000070: 6752 3fbe c457 5abe f8e9 cfbd a1d3 fabd
00000080: c29c 5cbd 1b37 a93c bea6 943d 4d3d a7bc
00000090: ed3e 46be 162e c63c cf7e dd3c 03c8 f2bd
000000a0: aa0c b1bd 19ae c4bd 18cf 7e3b 7884 483d
000000b0: 8174 eebd b5c3 d8bd 4cdd e1bc 1732 2cbe
000000c0: d1d4 8b3d 93a0 5cbe 70e8 03be 511f bfbd
000000d0: 04d8 0cbe bb76 653d 324f f5ba 35cb 513d
000000e0: 4d5a c4bc 410b a33c d96e 173e 087a 44bd
000000f0: f9c4 aa3d 6641 af3b 9b6f 9e3d bc4a c1bd
00000100: 87fa 5e3c 0eaf 73bc e591 1c3e 6c4d 4a3e
00000110: 2f48 95bb 2124 a0bc 8c2d 60bd d85a a4bd
00000120: 6509 8fbc e436 07be accc a2bc 25b6 32be
00000130: d1e9 a83d 2ae1 22be 526c 383e aabc 1bbe
00000140: f520 6fbe 6042 44be b73d 89bd ffb9 26be
00000150: 841c c43c 2d22 07be 3002 e63d 0af8 663c
00000160: a815 cfbc 7b65 203e f9c7 283d a5bb d5bb
00000170: 3cc0 383e 0414 cbbd cfd8 4e3d aea6 27be
00000180: 6a13 4cbe 4757 983d afeb 073e 332e 1cbd
00000190: 24c1 113e a0b9 1d3e f79f 783e 1341 b13d
000001a0: 3e0d 1ebe 5751 273e 93b9 89bc 899b fe3d
000001b0: 5d1f 713d b81b 95bd d9e7 963d f5f3 2fbe
000001c0: f270 083e aefe 6fbd 9b84 083e 0328 cc3c
000001d0: 98ff db3d 6886 253d 7c52 66bc f192 0dbe
000001e0: 1cee 883d 1bfa 18be 0426 ac3d 34a8 3dbe
000001f0: adf1 e73c b8b7 a63d 8b26 043c fc48 a5bd
00000200: 05fb f53b c361 0c3e dd91 bf3d f6f2 5d3c
00000210: 9f8f 163e a953 dcbd 1ed7 c53c 5f5d f5bd
00000220: 2de8 323e a7c8 33be 57ad 79bc e60d 493d
00000230: 3736 6dbc c46f 763c 5a8f 673e 9e5a 23bd
00000240: 848b 6fbe eae9 53be 30c6 1dbe 0895 5cbe
00000250: ad37 0e3e 287b 5bbc a6b5 25be 2123 b6bd
00000260: d79a 35bd 126b 193e 02a9 913d 0b87 783c
00000270: 3442 0c3e 99ee 833d 23af 8f3d 31fd 6a3d
00000280: 59c7 91bd 89b8 213e 1fb3 04be 6a49 2d3e
00000290: 5704 053e 094f 093e ffdc e3bd c6cb e53d
000002a0: c731 60bd d38f fb3d a9ed ea3d 7f32 073e
000002b0: d700 4b3c 47b6 283c 85fd 0bbd 51cb c53c
000002c0: 741e f9bd 4dd1 223d fe25 c3bd 2f72 f0bd
000002d0: 80e6 4fbd 0a49 373e f2c8 e23d 2e29 fe3d
000002e0: 7c9e 6ebd 4233 6d3d 3c31 103e db16 09be
000002f0: 5f15 bc3c 1f4e 373e e284 0cbe 80f2 7b3d
00000300: 0ff1 e4bd 7271 46be 184a 91bc c2a5 f4bd
00000310: e321 bfbd 895f d3bd ef9e 57be ebd2 6ebd
00000320: 2dac 183e aa04 fa3c ffd4 23bd 7cad 02be
00000330: 36df a0bd 90fb b03d 54db 32be c38b 33be
00000340: 2ac9 6e3e 2f7b 453e f6e2 89bd 59a0 853e
00000350: 6f92 1f3e 7900 a5bd 0610 063c 1d65 933d
00000360: 3631 a33d 5ad2 ce3d 2a2e 3d3e 981b 6abd
00000370: 644f c5bd 9664 d9bc c04e cdbd 5af6 9b3b
00000380: 0988 4d3d 2374 033e afb3 9abd 8d5a fd3d
00000390: 193a bebd 8890 0a3e b0df 03bd 9c2b bf3b
000003a0: 107e 403d e4b8 0f3d 0a3d 2b3e a59f 633d
000003b0: 8db6 193e 2be1 e0bd 2c46 fe3d 8001 303d
000003c0: cd07 1b3d 5c44 e23d c879 e83c 7d4d c23d
000003d0: 3565 f13d 00e0 53bd 49f0 0cbd 9664 373e
000003e0: 594c aebd 5b2f dc3d d97a 0c3c 284b 91bb
000003f0: f864 76be a524 103e 08c9 83bb df32 043e

pointwise.bias f4 [64]
-0.097089626 -0.09416509 0.09298668 0.08217175 0.08263989 -0.16839737 -0.055863205 0.052702814
-0.09172024 -0.024567453 0.0025096678 0.029624943 0.15601808 0.020463366 0.17016633 0.04088216
0.11408418 -0.15969296 -0.038600426 0.037109878 0.107646905 -0.14125049 -0.13357626 0.024024334
0.12011281 -0.13573821 0.08060666 -0.036347885 0.0013189261 -0.01424288 0.09121124 -0.018249862
0.03522602 -0.17537248 0.067659035 -0.047133464 -0.1286832 0.18494329 0.046837203 -0.03261966
0.093602635 0.12794782 -0.02302094 0.032914765 0.1703632 0.059245203 0.15989213 0.07143591
-0.05599806 0.05323792 -0.0677472 -0.0554143 0.0982901 0.029572148 -0.13203438 0.008440983
0.045860406 0.14791688 0.024970759 0.095887035 0.14578237 -0.1426325 -0.025486294 -0.053188376
00000000: edd6 c6bd a0d9 c0bd cd6f be3d aa49 a83d
00000010: 1a3f a93d 5c70 2cbe d1d0 64bd e8de 573d
00000020: d2d7 bbbd af41 c9bc 3d79 243b 02b0 f23c
00000030: 34c3 1f3e caa2 a73c 1540 2e3e 0d74 273d
00000040: f7a4 e93d 8d86 23be 7b1b 1ebd 8700 183d
00000050: fb75 dc3d f8a3 10be 37c8 08be aece c43c
00000060: b4fd f53d f5fe 0abe 1b15 a53d 85e1 14bd
00000070: d1df ac3a f85a 69bc f5cc ba3d bc80 95bc
00000080: 2949 103d d894 33be d290 8a3d 050f 41bd
00000090: 87c5 03be c661 3d3e 5ed8 3f3d 319c 05bd
000000a0: bdb2 bf3d c104 033e 6996 bcbc a2d1 063d
000000b0: b173 2e3e 19ab 723d c3ba 233e fe4c 923d
000000c0: 395e 65bd 0110 5a3d 0bbf 8abd 1bfa 62bd
000000d0: 524c c93d 4a41 f23c 0534 07be 0c4c 0a3c
000000e0: 1fd8 3b3d 8677 173e 7a8f cc3c 6c60 c43d
000000f0: f947 153e 410e 12be a2c8 d0bc 0edc 59bd

fc.weight f4 [2, 1024]
0.051335175 0.009387462 0.031149337 0.054206178 0.019090679 0.053334925 0.059800196 -0.005962915
0.045954857 0.033218145 0.021616062 -0.051973976 -0.006810439 0.014935089 -0.038584206 0.050641097
-0.017641434 -0.05310694 -0.0084012635 -0.015779728 -0.062324975 -0.0765022 -0.044195134 -0.03159187
-0.070179574 -0.08464646 -0.0689122 -0.012888606 -0.027986828 -0.031485416 -0.04972928 -0.057894155
-0.073748626 -0.037151426 -0.038805254 0.014104424 -0.04041003 -0.07302764 -0.08152249 0.004412929
-0.056737136 -0.11722623 -0.08404685 -0.023281755 -0.09189522 -0.06098805 -0.069878995 -0.06412012
0.032669295 0.013338208 0.082361236 0.07606322 0.028408054 0.020899728 0.016457202 0.00234074
0.02484257 0.06559745 0.041833345 0.073907554 0.09290717 0.05336032 0.045200564 0.06806327
0.0024966784 0.042973317 0.010385392 0.018697498 -0.017247066 -0.03848421 -0.041586023 0.01608686
-0.0381568 -0.03184394 -0.030178897 -0.017761309 -0.031932104 -0.007046763 -0.060453914 -0.055212915
0.038453344 0.032653686 0.028424708 0.034377962 -0.037106447 0.008994003 -0.011655128 0.036659904
0.02848936 -0.008753835 0.028262686 -0.01669702 -0.011540562 0.019499702 -0.004737178 0.01191379
0.013595745 -0.09807548 -0.065067485 -0.0068453825 -0.0054199575 0.058125824 0.07623155 -0.007885814
0.030099323 -0.0069829323 0.04860154 0.03980961 0.009734109 -0.068185806 -0.03269459 -0.0018367714
-0.015458796 0.010766902 0.023254763 0.025096497 -0.012723693 0.02918101 0.02267567 -0.016500022
0.024190305 0.028901426 0.00381116 -0.030998204 -0.016913073 0.016630154 -0.014735214 0.00241439
-0.0631696 -0.09309335 -0.05980605 -0.066605724 -0.15437758 -0.11813398 -0.11676613 -0.045304332
-0.14292201 -0.073937625 -0.09421698 -0.12882695 -0.10793194 -0.08418459 -0.09670199 -0.13470457
0.061113253 0.024084704 0.048399568 -0.010974127 0.028240304 0.008594792 -0.001075967 0.010871626
0.0437736 0.046082873 0.061469205 0.042468823 0.021595677 0.0422514 0.07433718 0.08901963
-0.004768044 0.06812473 0.072262675 0.09677596 0.010370191 0.05384172 0.07754359 0.052210208
0.07568788 0.012012709 0.031929076 0.017808348 0.028530834 0.018382661 0.021676986 0.10919561
-0.06110689 -0.107264936 -0.06654104 -0.042234156 -0.09466204 -0.10907096 -0.07142902 -0.046584982
-0.08044981 -0.10201212 -0.10692413 -0.086094975 -0.074525535 -0.058013547 -0.06778553 -0.0536265
0.06819432 0.012045686 0.03532121 0.010505911 0.01934065 0.017668983 0.039809536 0.015523458
0.03977544 0.06461849 0.05974682 0.07506586 0.076068856 0.06573306 0.054282963 0.080598466
0.044973467 -0.035589203 -0.0013606119 -0.016986327 -0.07495961 -0.018361289 0.022892134 -0.04479865
0.03003662 -0.0070572747 0.004123832 0.046820935 0.058092542 -0.018132092 0.06357845 0.051960375
0.034117922 0.039788675 0.018955635 0.041273843 0.020835072 0.07251529 0.08082084 0.051048916
0.03719637 0.060161293 0.049220376 0.03337517 0.023647524 0.05084816 0.0727928 0.05646111
0.015577484 0.031719532 0.0014437322 -0.0077170553 -0.034784723 -0.04725907 -0.048515093 -0.0015065701
0.005008167 -0.01708309 -0.05994689 -0.028017003 -0.005283324 0.013324845 -0.018566512 -0.023192775
00000000: d544 523d dfcd 193c e52c ff3c 4c07 5e3d
00000010: 0e64 9c3c b975 5a3d 0df1 743d 8e64 c3bb
00000020: 293b 3c3d c00f 083d 2b14 b13c aae2 54bd
00000030: 1a2a dfbb 4eb2 743c 790a 1ebd 0a6d 4f3d
00000040: c584 90bc aa86 59bd 74a5 09bc 7d44 81bc
00000050: 7948 7fbd 2fad 9cbd f505 35bd 7a66 01bd
00000060: 4fba 8fbd 205b adbd d721 8dbd bb2a 53bc
00000070: a244 e5bc daf6 00bd eeb0 4bbd 6c22 6dbd
00000080: 8509 97bd 182c 18bd 42f2 1ebd 3e16 673c
00000090: fd84 25bd 848f 95bd 43f5 a6bd 559a 903b
000000a0: 3365 68bd 4e14 f0bd c120 acbd 61b9 bebc
000000b0: 9033 bcbd 9bce 79bd b81c 8fbd 6951 83bd
000000c0: 3dd0 053d 8088 5a3c 02ad a83d 09c7 9b3d
000000d0: 02b8 e83c e835 ab3c 41d1 863c 1a67 193b
000000e0: a582 cb3c f557 863d 7159 2b3d d85c 973d
000000f0: 1d46 be3d 5a90 5a3d 3a24 393d c164 8b3d
00000100: 509f 233b ca04 303d 7e27 2a3c 7f2b 993c
00000110: b849 8dbc 9ea1 1dbd 1b56 2abd 97c8 833c
00000120: 4e4a 1cbd cb6e 02bd bc39 f7bc 2a80 91bc
00000130: 3dcb 02bd 88e8 e6bb 869e 77bd f026 62bd
00000140: 4181 1d3d dfbf 053d efda e83c e8cf 0c3d
00000150: eefc 17bd 955b 133c 26f5 3ebc b228 163d
00000160: 8562 e93c 3f6c 0fbc 2687 e73c 30c8 88bc
00000170: a014 3dbc d7bd 9f3c 543a 9bbb 0f32 433c
00000180: b0c0 5e3c ccdb c8bd 1a42 85bd 3b4f e0bb
00000190: e699 b1bb 5815 6e3d 491f 9c3d 8033 01bc
000001a0: db92 f63c 15d1 e4bb 6912 473d 670f 233d
000001b0: d07b 1f3c 00a5 8bbd c3ea 05bd d2bf f0ba
000001c0: e446 7dbc a967 303c c680 be3c 2b97 cd3c
000001d0: 0977 50bc 030d ef3c 54c2 b93c 0e2b 87bc
000001e0: bf2a c63c afc2 ec3c a8c4 793b f2ef fdbc
000001f0: 498d 8abc f63b 883c f86b 71bc be3a 1e3b
00000200: 105f 81bd baa7 bebd 30f7 74bd 9568 88bd
00000210: 2815 1ebe 3af0 f1bd 1523 efbd 0991 39bd
00000220: 265a 12be 9c6c 97bd d5f4 c0bd 36eb 03be
00000230: 6c0b ddbd f868 acbd b10b c6bd ffef 09be
00000240: e451 7a3d 494d c53c a03e 463d d3cc 33bc
00000250: 3658 e73c 2cd1 0c3c 7607 8dba e81e 323c
00000260: f24b 333d 65c1 3c3d 22c7 7b3d caf3 2d3d
00000270: 6be9 b03c ce0f 2d3d 173e 983d ec4f b63d
00000280: 413d 9cbb fa84 8b3d 74fe 933d 7932 c63d
00000290: bce7 293c 2389 5c3d 2ccf 9e3d 5fda 553d
000002a0: 3f02 9b3d f4d0 443c 10c8 023d d0e2 913c
000002b0: 7fb9 e93c 3c97 963c ef93 b13c f3a1 df3d
000002c0: 384b 7abd b8ad dbbd ab46 88bd b9fd 2cbd
000002d0: 2cde c1bd 9860 dfbd 6149 92bd e5cf 3ebd
000002e0: dfc2 a4bd bbeb d0bd 0afb dabd 9052 b0bd
000002f0: d8a0 98bd 9d9f 6dbd 24d3 8abd 76a7 5bbd
00000300: 77a9 8b3d 455b 453c f9ac 103d fc20 2c3c
00000310: 4870 9e3c 8bbe 903c 530f 233d 1a56 7e3c
00000320: 92eb 223d b356 843d 15b9 743d 21bc 993d
00000330: fdc9 9b3d 0e9f 863d d057 5e3d cf10 a53d
00000340: 1936 383d fcc5 11bd 8f56 b2ba e926 8bbc
00000350: 6d84 99bd 6a6a 96bc 4988 bb3c ca7e 37bd
00000360: 5c0f f63c b640 e7bb 3621 873b 4fc7 3f3d
00000370: 72f2 6d3d c189 94bc 6b35 823d 67d4 543d
00000380: 3cbf 0b3d 73f9 223d d948 9b3c c30e 293d
00000390: 50ae aa3c e582 943d 6685 a53d ab18 513d
000003a0: 395b 183d b06b 763d 4e9b 493d 67b4 083d
000003b0: 74b8 c13c 2946 503d 6414 953d c443 673d
000003c0: b438 7f3c 57ec 013d 9d3b bd3a 5adf fcbb
000003d0: 6d7a 0ebd ba92 41bd c3b7 46bd 1b78 c5ba
000003e0: 8d1b a43b d6f1 8bbc df8a 75bd ea83 e5bc
000003f0: bc1f adbb 7350 5a3c cc18 98bc c6fe bdbc

fc.bias f4 [2]
-0.011737404 -0.0020268692
00000000: 3e4e 40bc 39d5 04bb
