model/CNN/saved_models/split_pad5_patch50/smallcnn4_fold4_pad9_patch50.pth (torch, 35659 bytes, 12 tensors)

conv1.weight f4 [32, 10, 3, 3]
00000000: 1370 263d d283 183d c533 3a3d 4503 3cbd
00000010: c168 8abd ed4e a13d 9c5c efbd 4863 dcbc
00000020: c90b 383d ba53 a43b ad74 a0bd 5ca9 a6bd
00000030: de3d fabc 4405 21bd 86ef ab3b 1456 39bb
00000040: 716b 39bd a840 873c 3149 c6bd 5ff2 04be
00000050: 2e9a 9bbc 526c af3d 9d0c dfbd b20a 04be
00000060: 04d7 2cbd b0e2 0a3c 9ad6 9cbd bf4b 143d
00000070: aa0c c33d 4378 a7bb 4f08 753c 881f edbc
00000080: 8a88 d43d e4ff 4d3d b9c4 17bd d682 e13d
00000090: 8ef3 06bd 90f1 6f3d 7d5b f4bb 43b6 633d
000000a0: 05dc c2b7 94ea bb3d d7ee 04be 5501 16be
000000b0: f75f 193d 0a0f 9fbc 81c9 cc3b 3048 97bc
000000c0: bc4d 4a3d b5a8 b43d fd59 b13d ca8b 0dbc
000000d0: a8a0 463d dd59 f43d 66c1 90bc 179b 72bb
000000e0: 21d7 a33d b78d b33d 1e06 6abd c86d ceba
000000f0: 45a7 3b3c 2193 d33d 47c4 5e3d 1b9c 4fbd
00000100: e9da be3d dd5e a1bc c2fa 44bd ac56 acbd
00000110: bd62 ad3d 63a1 1abb 0387 a73d ba46 c23c
00000120: 92a6 68bc 0eca 083d 4943 403d 349e 773d
00000130: 8c9e 88bd 0120 d2bd 677a 22bd 4642 a8bc
00000140: ac51 703d 86f0 7fbd cff1 c63c 2a79 593d
00000150: 470a c1bd e71d d0bd 959b 553b 503c 9c3d
00000160: 612a 3abd 92af d6bd fbf3 883c 4d70 76bc
00000170: 86e0 4a3d 308b 0fbd 1443 dabd 2372 abbd
00000180: 93d2 37bd 3c46 dbbd f059 81bd f81d b0bd
00000190: 45f5 5c3d 7f74 14be 2669 eabd 1103 e23a
000001a0: c85b 893d fe72 8ebd 4f4c a6bd 63cd 67bb
000001b0: 913e 063d b88d 42bd 60e5 333c 5548 b1bd
000001c0: 2823 75bd ba9a 0cbd 052c dc3c 9fb1 b33d
000001d0: d288 34bc 6679 c2bd f0dd 8ebd e446 79bd
000001e0: 189a 1fbc c448 64bd 3bdc 643c d6ba 6fbc
000001f0: f613 a2bc 241a ab3d b317 dcbb 7b92 1bbb
00000200: ac97 a73d a67a e53c 80d0 6c3c d0d4 8bba
00000210: 31af 65bd da97 8cbd 3c3f 52bc 07d0 a9bc
00000220: ae2a d5bd 9020 b43d 3fc1 c33d 062f c23d
00000230: 3ca6 903d c914 8e3d 9490 9bbd 6d14 dbbd
00000240: 7b6f 4abd f1ba 34bd ef64 ad3c 0649 8bbb
00000250: aea7 393c 2406 6abc 4438 5dbd 5e9b b53c
00000260: 299d b43d 2828 b3bc 41cf 0dbe 4996 b1bd
00000270: e209 2d3c 66de 2dbd 5262 dbbd b4be eebd
00000280: 26c3 61bd d840 98bc a9db 3c3c fc46 9ebc
00000290: 32fc 2abd e1f2 c43d 2aca 6f3d 5ce2 113d
000002a0: 7555 b63c 9230 ce3d e929 853d aac6 b83d
000002b0: ee93 1b3d 0c1f 87bd b686 93bc bbfe 4b3d
000002c0: 07bc 86bd e3df df3b de75 36bd 9d06 493d
000002d0: f3de 35bd d9e5 0ebc f5b9 213d d715 51bc
000002e0: 0e33 99bd 79e3 dfbc 0a31 9abd c920 05ba
000002f0: 9247 183d ad50 0cbd a4f3 39bd a201 993a
00000300: 63fc 34bd f8c0 a9bd fa70 06bc 19d8 01bd
00000310: 5a08 09bd 7637 08be 76b3 623c 7968 c73d
00000320: 7b7a 45bd b802 cbbd 37ce 80bd e2db b1bd
00000330: 2cb9 5c3c dd7b a43d d975 fb3c 0d55 2a3c
00000340: b34d 0e3e cd50 58bc c4ad 0e3e 14f4 77bc
00000350: 4cc3 cc3d f0de ce3d d7c7 ec3d d346 c53d
00000360: 0702 72ba c077 a93d 12d3 4abd 9996 0f3d
00000370: a16b ddbb 6eeb b33d 6d1f 51bd 29d1 283c
00000380: a884 4bbd fdf6 343d 0a09 913d 0977 413d
00000390: 92f1 5bbd b616 e33c 5bc1 8ebd be3a debc
000003a0: 8410 9c39 5b2b ddbc ae98 d2bc 411f b3bc
000003b0: d901 10bd a1d2 813d 685b a93d 665d 973d
000003c0: 10e8 223d f968 b43d 7657 a43d c5d8 47bd
000003d0: 0f9e 53bb 92bc 7c3d 0781 65bd 3457 88bd
000003e0: bf37 9bbd e15a e2bc d433 933d a0f6 9a3d
000003f0: 3266 2bbd 3cbf a2bc ac24 cebb f36c 213c
0.040634226 0.03723509 0.045459528 -0.045901556 -0.067582615 0.07876382 -0.11687586 -0.02690281
0.044933114 0.005014864 -0.07834754 -0.081377715 -0.030547079 -0.039311662 0.0052470593 -0.0028280066
-0.04526848 0.016510323 -0.09681929 -0.12983082 -0.018994417 0.08565582 -0.10891078 -0.12894705
-0.042197242 0.008476898 -0.076581195 0.03620505 0.095239 -0.005110772 0.014955594 -0.0289457
0.10377605 0.050292864 -0.037052844 0.11011283 -0.032947116 0.05857998 -0.0074571953 0.05559374
-2.3229057e-05 0.091756016 -0.12981735 -0.14648946 0.037445035 -0.01941635 0.006249607 -0.018467039
0.04939054 0.08821241 0.08659742 -0.008639285 0.048493057 0.119312026 -0.017670345 -0.003701871
0.08000017 0.08767264 -0.05713474 -0.001574927 0.011453454 0.10330797 0.054386403 -0.050685983
0.093190975 -0.019698555 -0.048090704 -0.08414969 0.084660985 -0.002359473 0.08180048 0.023715366
-0.01419987 0.03339582 0.046939168 0.06045361 -0.066708654 -0.102600105 -0.039667513 -0.020539414
0.05867164 -0.06248524 0.024285225 0.053094067 -0.094257884 -0.101619534 0.0032593955 0.07628691
-0.045450572 -0.10482706 0.016717901 -0.015041423 0.04953053 -0.03504485 -0.106573254 -0.08371379
-0.044878554 -0.107067555 -0.06315982 -0.08599466 0.053944845 -0.14497565 -0.11445837 0.0017243346
0.06706959 -0.06955527 -0.081200235 -0.0035370223 0.03277451 -0.047498435 0.01097998 -0.08656374
-0.05984798 -0.034327246 0.026876459 0.08774113 -0.011018949 -0.09495811 -0.06975925 -0.060858622
-0.009741329 -0.055733457 0.013968523 -0.0146319475 -0.019784909 0.08354595 -0.0067166924 -0.0023738432
0.08183226 0.028012585 0.014454007 -0.0010668281 -0.05607528 -0.06864901 -0.012832459 -0.020729078
-0.10408531 0.08795273 0.09558343 0.09481625 0.07062957 0.06937558 -0.075959355 -0.10697255
-0.049422722 -0.044123594 0.021166293 -0.0042506484 0.011331482 -0.014283691 -0.054008737 0.022168811
0.088190384 -0.021869734 -0.13848592 -0.08671243 0.010561438 -0.042448424 -0.107121125 -0.116574675
-0.05511775 -0.018585607 0.01152698 -0.019320957 -0.04174442 0.09616638 0.058542408 0.035616264
0.022257546 0.10067858 0.06502134 0.09022267 0.037982874 -0.065977186 -0.018008571 0.049803477
-0.06578832 0.0068321093 -0.044546 0.049078573 -0.044402074 -0.008721792 0.039483983 -0.012761555
-0.07480441 -0.027330147 -0.07528885 -0.0005078433 0.03717763 -0.034256626 -0.04539837 0.001167346
-0.044186007 -0.08288759 -0.008205647 -0.031700227 -0.03345523 -0.13302407 0.013836732 0.097367235
-0.04821251 -0.09912628 -0.06289332 -0.086845174 0.013471883 0.080314375 0.030695843 0.010396254
0.13896827 -0.013202858 0.13933474 -0.015133876 0.099981874 0.10101116 0.11561554 0.09632649
-0.00092318695 0.082747936 -0.0495177 0.03505573 -0.006757215 0.08785139 -0.05105536 0.010303774
-0.049687058 0.04418086 0.07081802 0.04723266 -0.053697176 0.02772079 -0.069704734 -0.02712762
0.00029766944 -0.026998213 -0.025707569 -0.021865489 -0.035158012 0.063390024 0.082693875 0.07390861
0.039772093 0.088090844 0.08024494 -0.048790712 -0.0032290255 0.061703272 -0.056031253 -0.06657258
-0.07578992 -0.027631225 0.0718762 0.07566571 -0.041845508 -0.019866578 -0.0062909927 0.009852636

conv1.bias f4 [32]
00000000: d419 4f3d 71e7 c53c 017f a8bd 3ac2 bb3c
00000010: 2175 b5bc 3bef 9b3d 8bfc dabd 296d 253c
00000020: 877b e63c 9f63 00bc 7918 c33c ebac 8c3d
00000030: 49cc 9abd 05fd 01bd f284 a0bb abfe 05bd
00000040: 2db8 10bd 0210 c33b 1c8c c83c 08c3 a5bd
00000050: bedf 64bc 27fd 48bc 06fb 26bc de1a 74bd
00000060: 4df6 0abd 0a40 4e3b 6a8b a73d 52b0 c13d
00000070: a6f1 c5bc 02d4 88bc 0416 7bbd 328c a43d
0.05056174 0.024158211 -0.08227349 0.022919763 -0.022150578 0.07613989 -0.106927 0.010096827
0.028135074 -0.0078362515 0.02381538 0.06868919 -0.075584956 -0.03173544 -0.004898661 -0.032713573
-0.035331894 0.005952836 0.024480872 -0.0809384 -0.01396936 -0.0122673875 -0.010191685 -0.059595935
-0.033926297 0.0031471276 0.08180888 0.094574586 -0.024163079 -0.016702656 -0.061300293 0.08034553

bn1.weight f4 [32]
00000000: a7cf 6f3f e53d 853f 5a0b 883f d367 823f
00000010: 4530 813f 37bf 833f 92c1 813f a3e9 843f
00000020: a1eb 853f 690f 863f 23a6 863f 2e94 823f
00000030: dc9b 823f 8c4f 7d3f 3d96 853f c450 893f
00000040: 5d48 843f 411f 843f 3fb4 863f 8bc8 843f
00000050: 9e28 803f 16d6 723f 78f0 7d3f 56f2 823f
00000060: 6c8e 7e3f 5cf1 813f ff4e 743f 6052 843f
00000070: 76d6 763f 58d5 7e3f 532f 813f 453a 823f
0.9367623 1.0409514 1.0628464 1.0187935 1.0092856 1.0292729 1.0137198 1.03838
1.0462533 1.0473453 1.0519451 1.0201471 1.0203815 0.98949504 1.0436474 1.0727773
1.0334584 1.0322038 1.0523757 1.0373701 1.0012395 0.9485792 0.9919505 1.0230205
0.9943607 1.0151782 0.9543304 1.0337639 0.9642099 0.99544287 1.0092567 1.0174032

bn1.bias f4 [32]
00000000: 89eb 0bbd 3c15 0abc db76 f0bc 026b 15bc
00000010: e0f4 7cbc dd35 94bc 32c7 65bc a733 eabc
00000020: cd9b f43c b0ba f1bc 00fe f63c e827 b5bb
00000030: a345 30bc 6234 67bc 2ac8 f4bc 8dfd 933b
00000040: 8656 08bb a7ba b0bb 34b9 ecbc 2fb8 a5bc
00000050: 7ee8 16b9 51da 23bd 0b1c 0fbd 0dbb f83b
00000060: e5c4 e338 f025 df3b 7695 2dbd 4e24 633c
00000070: 2444 29bd 6aa2 85bb 3a91 f83b b193 ad3b
-0.03416017 -0.008427914 -0.02935355 -0.009119751 -0.015439242 -0.01809209 -0.014024543 -0.028589083
0.029859448 -0.029507965 0.030150414 -0.005528439 -0.01075879 -0.01411161 -0.029880602 0.0045163096
-0.0020803525 -0.0053933444 -0.028896905 -0.020229427 -0.00014391725 -0.040003125 -0.034938853 0.0075906576
0.00010860878 0.0068099424 -0.042378865 0.013863636 -0.04132475 -0.004078199 0.0075856717 0.005297147

bn1.running_mean f4 [32]
00000000: 652c 553d 3dd1 c73c 5e12 a8bd a11c bd3c
00000010: c7fb b1bc ecd5 9a3d b4fd d6bd 691c 243c
00000020: 4508 f13c 8b88 d6bb 74c7 c53c 549a 8e3d
00000030: 2360 97bd a584 febc 6a00 a8bb e155 07bd
00000040: 7d10 0bbd b93f b93b 0e49 c53c de4b a5bd
00000050: 6e96 62bc 1b1a 47bc 2760 2dbc edd0 74bd
00000060: 32c8 0abd 882d 4a3b a1c1 ac3d e66c bd3d
00000070: 8b81 c5bc f4a6 92bc 63fa 7abd 7a43 a23d
0.05204429 0.024391765 -0.08206628 0.02308494 -0.021726502 0.075603336 -0.10497609 0.010016539
0.029422889 -0.006547039 0.024142958 0.069630295 -0.073913835 -0.03106911 -0.0051270025 -0.033040885
-0.03395127 0.0056533483 0.024082687 -0.08071111 -0.013829811 -0.01215222 -0.010582007 -0.05976956
-0.033882327 0.0030849893 0.08435369 0.09249286 -0.024109622 -0.017901875 -0.061273944 0.079230264

bn1.running_var f4 [32]
00000000: 5d3b 3c3f a6d3 fe3e a019 c63d 6017 a73e
00000010: 61d7 c33d 1c1e ff3e 55cc e63e 8e1b 843e
00000020: d571 a13f 0fa7 ae3e 6934 2a3f c74b 043e
00000030: 2280 b93e 09c4 8a3f 423b 023e 0629 893e
00000040: 3f17 763e 9d5d 073f a1bd 793e ea54 993e
00000050: 4325 ca3f a28b b63e d887 183e f2cd b03e
00000060: 3bf7 203e 6153 dd3e c892 aa3f 2955 0840
00000070: fe40 ca3f 6040 c43e 9324 223e d501 673f
0.7352808 0.4977085 0.09672856 0.3263502 0.09562565 0.4982766 0.45077768 0.25802273
1.2612864 0.3411183 0.6648622 0.12919532 0.3623057 1.0841075 0.12717918 0.2678911
0.24032305 0.5287722 0.24388744 0.29947597 1.5792621 0.35653406 0.1489557 0.34532124
0.15719311 0.43227676 1.3326044 2.1301978 1.5801084 0.38330364 0.15834264 0.9023717

depthwise.weight f4 [32, 1, 3, 3]
00000000: 85fd 16bc dcfc 4cbe 8dc9 4a3e 99cc 9c3e
00000010: 43e8 5e3e cc4b 8dbe 5bd1 a3be d3ed 93be
00000020: 148e 753e 1605 03bd d859 debd b32d ac3d
00000030: 1fe9 3ebe 6f24 f83c f8d6 2f3d 2478 adbd
00000040: e3d6 bfbd 694c 16bd fe44 80be 9dcb b4bd
00000050: 69c4 80be 231b 8fbe 7276 d7bd 3ea0 583d
00000060: dcbc 0abd fb0c 203d 4472 46be bbb5 303e
00000070: 90ae 203c c14e 0e3d 3390 4d3e 39ac 613e
00000080: b047 383e e869 16bd 5c0f a23e f9b4 f9bd
00000090: 296a e6bd 5a44 2fbe 6c61 50be c19f 06bd
000000a0: 5243 9dbe 67e7 1a3e e432 433e ecff 7dbe
000000b0: f4c9 963c eab4 d0bd ea04 c4bc 4968 a03e
000000c0: b8fb 223e a2c3 303e ad51 78bc 101e 923e
000000d0: f7ce 18bd 3357 c63d fcb2 cb3d 01db 5d3d
000000e0: c06d 48be 0493 0e3e 3303 a2be ba01 59bc
000000f0: 3462 d93d 8638 a4be 28ad 6bbe 5348 a93d
00000100: ba8c 543c ec4c 42be 9bbd b8be 5328 883e
00000110: bb7b a4be fa29 38bd bd10 8dbe 9319 4fbe
00000120: b815 e23b cead 21be 1b95 24be c3dc cdbc
00000130: 7403 95be 989f b23d 6ada 4cbe 510a 25bd
00000140: a57f 803c 6092 17be dd60 06bb 9d1c 6f3c
00000150: 4173 2bbe 7c9e 79be d421 62be 5341 15be
00000160: 870f 883e 6601 463c d083 733e bf9c 5f3e
00000170: c198 b1bd 4ab5 3a3e 7ac0 8d3e f5dd 603e
00000180: 47db 8dbd dc61 4d3d 9392 fc3c 3bd1 b5be
00000190: 0b88 913e 743a 45be 73b2 a73d eacd 1bbe
000001a0: ea51 aebd 564b 033e 60c0 8bbd 9216 92be
000001b0: d922 a5be 8fbe a1be 5f68 823e 0ffd 3abe
000001c0: 5792 c83d a952 3fbe ebf9 52bd e2df 8fbe
000001d0: 9f70 bd3d 07b0 403e 7f09 9bbe 1492 853c
000001e0: 56f7 66be 167d d43d a68f 13be b9e3 d9bd
000001f0: dd1d 4bbe fa04 293e 1dec 8ebe bd7b 9fbe
00000200: c663 32be 54a4 91be 3e36 8c3d 2af7 b8be
00000210: f7c3 69be 4a13 343d 2aca 97bd db92 7c3e
00000220: 47fe 85bd 250a 443d 5408 713c 61ed 9e3e
00000230: dc45 723e ee1b 6fbe 3ca1 4cbe 0c08 b03e
00000240: a33e 9c3e 91c9 963d f345 983e 2867 6d3e
00000250: 8d9d 7abc 87a7 91be f2d1 1c3e e86e ad3e
00000260: 529b 123d 0c6f 0c3e 536c bebd c8c2 e13d
00000270: 88b2 693e 306a 1fbe af58 7fbe e748 6a3e
00000280: 6ea4 e6bc 24e9 a13e e772 5bbe 698a 4bbe
00000290: 404d a1be 79ef 683d 3132 a1bd 2206 893e
000002a0: 86c6 d03e f8d1 083e 6212 7ebe f329 21be
000002b0: c4c5 bbbc 7186 4dbe 438a a03e 71f1 a03e
000002c0: 33bf 263d f3a8 87bc 8069 323e 1c55 0b3d
000002d0: 5e79 953e b9dc 243d 5fd4 6abe 12ea 2b3e
000002e0: e90d a43e f316 a43d 3464 3fbe a64b 29be
000002f0: 7f33 3b3e dc71 1b3e 8ea0 b23d 7deb 6bbe
00000300: 59ad d7bd 4cfb 39be 334b 613e 5e79 51be
00000310: a4b3 8dbe be26 383d 540a 4dbe b89d ab3d
00000320: cb33 463d 70c0 72be 642a 77bd b4ef 55be
00000330: 1803 8e3e 3c5c 06bd 0d9c ea3d eac6 a63e
00000340: cc89 3fbd 6c93 1ebd 3aa6 133d 1871 a93e
00000350: 4739 353e 590e 3abe 2f4d a53e 8f01 8bbe
00000360: 52e9 9bbd 7636 413e 1372 92be 9c93 7a3e
00000370: 93eb 6ebd efc2 e1bd 06a2 3cbe 92cc 52bd
00000380: 2367 c4bd 315c a93e 386d b5bc a0fa 923d
00000390: 94c9 1abe 0a9d 983e c26d 163e 4d3f c4bd
000003a0: 4437 5f3d 04df 66be 832b a33e a71a 35be
000003b0: 2328 9e3e 74f7 fd3d ff3b a0be ab65 fb3d
000003c0: 621d 80be 463b 22be bf11 793e 6cb5 9abd
000003d0: 096d a23e 82c2 abbd b0cb 813e 7a1d 1b3e
000003e0: 745a 7a3e eb94 883e 2172 3cbe 6aa1 8c3e
000003f0: 3dec 1a3e 67c1 5dbe 0fb1 0d3e 5704 2b3e
-0.009215717 -0.20018333 0.19803448 0.30624846 0.21768288 -0.2759689 -0.31995663 -0.28892383
0.2397998 -0.031987272 -0.1085698 0.08407154 -0.18643616 0.03029081 0.04292962 -0.08470181
-0.09367158 -0.036693964 -0.25052637 -0.08827899 -0.2514985 -0.2795039 -0.105206385 0.052887194
-0.033871517 0.03907488 -0.19379526 0.17256825 0.009807244 0.034743074 0.20074539 0.22038354
0.17996097 -0.036722094 0.31652343 -0.12192721 -0.11250717 -0.17115918 -0.20349663 -0.032867197
-0.30715424 0.15127335 0.19062382 -0.24804658 0.018406846 -0.101907566 -0.023928124 0.31329563
0.15916336 0.17262128 -0.015156192 0.2853856 -0.037306752 0.09684601 0.09946248 0.054163937
-0.19573116 0.1392327 -0.31643066 -0.013245041 0.10614434 -0.32074374 -0.23015273 0.08265748
0.012973005 -0.18974656 -0.36082157 0.26593265 -0.3212565 -0.044961907 -0.27551833 -0.202246
0.0068995617 -0.15788957 -0.16072504 -0.025129681 -0.29104197 0.08721846 -0.20005193 -0.04029304
0.015685866 -0.14801931 -0.0020504512 0.014594224 -0.16743185 -0.24376863 -0.22083217 -0.145757
0.26574346 0.012085294 0.23780751 0.21837138 -0.086717136 0.18233219 0.2768591 0.2195967
-0.069265895 0.050142154 0.03083161 -0.35511193 0.28424105 -0.1926058 0.08188333 -0.15215269
-0.085117176 0.12821707 -0.06823802 -0.28532845 -0.3225315 -0.31590697 0.25470254 -0.18260597
0.09793537 -0.18683876 -0.05150787 -0.28100497 0.092499964 0.18817149 -0.30280682 0.016305007
-0.22555289 0.10375421 -0.14410266 -0.10639138 -0.1983561 0.16505805 -0.27914515 -0.31149092
-0.17420873 -0.28445685 0.068462834 -0.3612607 -0.22828661 0.043963708 -0.074116066 0.24665396
-0.0654264 0.047861237 0.014711458 0.3104048 0.23659462 -0.23350498 -0.19983381 0.3438114
0.30516538 0.073626645 0.29740867 0.23183882 -0.015296352 -0.28448126 0.15314463 0.33873677
0.035792656 0.13714236 -0.09298005 0.1102348 0.2282201 -0.15567851 -0.24936174 0.22879373
-0.028154578 0.31623185 -0.2143055 -0.19877018 -0.3150425 0.056869004 -0.078709014 0.2676249
0.4077646 0.13361347 -0.248117 -0.15738659 -0.02292145 -0.20070817 0.31355485 0.31434205
0.040709686 -0.016560053 0.17423058 0.034016714 0.29194158 0.04024956 -0.22932576 0.1678851
0.32041863 0.0801219 -0.18690568 -0.16532764 0.18281363 0.15180153 0.087220296 -0.2303905
-0.1053111 -0.18162268 0.22001342 -0.20456454 -0.27676117 0.044958822 -0.20023471 0.08379692
0.048389237 -0.23706222 -0.06034316 -0.2089222 0.27736735 -0.032802805 0.114555456 0.32573634
-0.046762273 -0.03871481 0.036047198 0.33094096 0.17697631 -0.18169536 0.3228545 -0.27149627
-0.07612862 0.18868431 -0.28602657 0.24470371 -0.05833013 -0.11023509 -0.18421182 -0.051464625
-0.09589984 0.3307815 -0.022146806 0.07176709 -0.15115958 0.2980731 0.14690307 -0.09582386
0.054496065 -0.22546011 0.31869134 -0.17685948 0.30889997 0.124007136 -0.31295773 0.12275251
-0.25022417 -0.15842924 0.24323176 -0.07554135 0.31723812 -0.08386709 0.25350714 0.15147963
0.24448568 0.26676115 -0.18402912 0.274669 0.1512918 -0.21655808 0.13837074 0.16700874

depthwise.bias f4 [32]
00000000: 4230 923e dd83 52be c95e ffbc afe6 9cbe
00000010: d474 3fbe 27ce a2be fdd4 49be 759e b6bc
00000020: a8af b7bd fd51 243b 24a1 92be cdf8 0d3e
00000030: b3dc bfbd e559 03be a734 823d 48ef 943e
00000040: 3106 0cbe 581d 983e aa80 f5bd 9721 2b3e
00000050: 83b6 0d3d f5fc 0cbd 3bed 9d3d d459 2fbd
00000060: 8a8d a6be 977a 503e efb9 753e 4af8 4bbe
00000070: 1d5f 8dbe f85c 4d3e 3435 903e f6f9 95be
0.28552443 -0.20558114 -0.031173127 -0.30644748 -0.1869691 -0.31797907 -0.19710155 -0.022292355
-0.08969051 0.0025073283 -0.28638566 0.13864441 -0.09368267 -0.12827261 0.06357699 0.29088807
-0.13674237 0.29709888 -0.11987431 0.16712032 0.034597885 -0.034420926 0.07711264 -0.042810276
-0.3252986 0.20359264 0.2399671 -0.19918934 -0.27611628 0.20054996 0.2816559 -0.29292268

pointwise.weight f4 [64, 32, 1, 1]
00000000: b796 c5bc c270 31be f4b4 02bc 2515 8f3c
00000010: 5dec b3bd 4ac6 823e ebe4 6a3d e218 f5bd
00000020: 5f1c 81bc 0016 a7bd b988 03be 16a7 9f3c
00000030: aaff 1b3e a93d 3cbe d414 363d 55ef 2bbe
00000040: bfe5 92bd ec5f 4c3e 39d0 033e 3b3e 183e
00000050: 40dd dcbd 0078 33bd a815 93bd 4247 d9bb
00000060: c35d d23c 7500 2e3e 70c0 53bd 6f2b 0ebe
00000070: edf4 1b3e 974d 36be 43eb adbd 073e 063e
00000080: 0240 84bd ef2f 8f3d c512 13be 003d e7bd
00000090: 49b7 bc3c aae7 263e c70a a93c 0493 a53d
000000a0: c40f 903d 9816 78be dc70 f93d 560c 3c3d
000000b0: fe1c ab3d 14c4 36be 25a2 1fbd c06e 1b3e
000000c0: e5ad 71bd f476 16be d44e f9bd a080 12be
000000d0: 51cc 81bc 8256 e13d cd90 613d 2404 163e
000000e0: 4200 79bd 659c 31be 0e18 1d3c 1875 67bd
000000f0: c0bc e53c 1066 283e 5429 03be eb5a e53d
00000100: 93b7 c2bc a769 14bd 6bf6 42be 78a0 9abd
00000110: 9115 383d bffc 313e b705 653d 9d95 28bc
00000120: 676f a93c ae53 003e 3913 d1bb 8130 b93d
00000130: 0ee1 04bc 1259 e83d a648 57bc c9bd 82bc
00000140: 6e0c 413d 72ce 97bd c236 313e f900 da3d
00000150: 3b26 33bd 6c4a 09be 998b 4bbc 15eb 23be
00000160: a2a0 3e3d ec22 ff3d a7ec 2abd ea66 b7bc
00000170: d191 b6bd d804 a53d 100e 01be 9ef4 7abd
00000180: 667f e33d 9ffc 653d abc3 fe3d 082b 0a3e
00000190: 64c2 183d 7252 943d ca47 c7bd 337c 773d
000001a0: 3fb4 26bc f6e9 a4bd 1be3 b33b 0b9c ca3d
000001b0: edfc 17be 5041 fabd 5538 4a3d 2002 22bb
000001c0: 7860 223e 9071 b2bd d108 50bd 179b 993d
000001d0: 01e8 acbd 3b1e 953d 789f 183d 4e76 1cbc
000001e0: ae81 733d cb42 043d 1d3d 13bd 5f31 5abe
000001f0: 9ec7 07be 9cd2 82bd 9478 14bd d4a9 5c3d
00000200: 24b8 253e 9788 a0bd f788 a93c 993b bd3c
00000210: ec72 2cbe 1009 dc3c 6221 bd3d dc53 37bd
00000220: fdbe b43d a37c b83d 0e2b 6e3e cfe3 b8bc
00000230: b1a2 0a3e 605a 02be fff9 2a3d de7c 0c3e
00000240: 8d1b 30be 7b3d 8ebc 8837 633c b363 3b3e
00000250: 0b7c 403e 1461 823d 38d7 1e3e 0ca9 3d3e
00000260: 6f29 833d 5b2f aa3d af21 20bc 781b a33c
00000270: fa95 ea3d 4ac1 803d 7317 ffbd 3095 963d
00000280: 2d41 a33d 6d77 113e f172 03be a408 1cbe
00000290: 4505 c3bc de55 7f3d 15a8 b63c 86ce a23d
000002a0: 93e3 03be 1ae1 1fbd d7bb 6a3e 3fdb 513c
000002b0: ef2e 72bd b57c 2ebe 97ae 093c c8b6 a1bd
000002c0: ba5c 243e 066f 24be 9e1d 99bd 5dc9 4bbd
000002d0: 8064 1c3e daa4 63bc 7c6c fcbd 37d8 763d
000002e0: d2dd 17be 3c37 3f3b e046 dfbd 0360 25be
000002f0: f2df 4c3d 9a7f 06be 6cfc 81bd cacf 2abe
00000300: 98cd a93d 2854 2fbe d8e3 543d f143 ea3d
00000310: 515e bfbc ca0c a5bd 8911 07be ef8f a838
00000320: fc0a 2e3d 8eca 0dbd d0b0 b93d 8837 673d
00000330: 0176 22be f6ce 05be 8f71 24bd 9e28 f7bd
00000340: a7a5 f73c 72c4 afbd 7698 1ebe 0fde d33c
00000350: f5c4 003e 919e 19be 7327 3dbe 47d2 993d
00000360: 0ce5 20bd 26a0 f3bd 671c bfbd cf12 04be
00000370: d1c1 2fbd f699 4fbd 3fb6 12be df0d 14be
00000380: 2f12 d23d fec9 01be ab5b e7bc 39ad 48bd
00000390: c03e a13d 7676 a3be 4292 9bbd f583 95bd
000003a0: a9fd 33be 5bdc 9ebc f9ac 3a3e 6014 1d3d
000003b0: be6e 30be 4b07 b63d 5c77 293e b588 163d
000003c0: 8e1d 2f3d 26c1 0dbe 5b3e 55bd 35c8 28bc
000003d0: 462a 96bd 4161 5b3d 0e62 cd3c e75e c63d
000003e0: 859d df3d 82cd 07bd 4809 b3bc 6bb3 a4bd
000003f0: ae2e 663c 9079 0c3e f6cc 1abe 1ae8 e7bd
-0.024119718 -0.1732817 -0.007977713 0.017466137 -0.08785317 0.25541908 0.05734722 -0.11967637
-0.015760599 -0.08158493 -0.12845124 0.019488852 0.15234247 -0.18382896 0.044453457 -0.16790517
-0.07172727 0.19958466 0.128724 0.14867489 -0.107843876 -0.043815613 -0.07181865 -0.006630809
0.025679475 0.16992362 -0.051697195 -0.13883756 0.1523015 -0.17803036 -0.08492138 0.13109599
-0.06457521 0.069915645 -0.14362629 -0.11290932 0.023036616 0.1629931 0.020635022 0.08084682
0.07034257 -0.24227369 0.12179729 0.045910202 0.08355139 -0.17848235 -0.038972992 0.15178967
-0.05900373 -0.14693815 -0.121732384 -0.14306879 -0.015844496 0.11002828 0.055069733 0.14650017
-0.06079126 -0.17344816 0.009588255 -0.056508154 0.028044105 0.16445184 -0.12808734 0.11198982
-0.023769176 -0.03623357 -0.19039313 -0.07550138 0.044942442 0.17381571 0.055913653 -0.010289577
0.020683004 0.12531921 -0.0063804653 0.090424545 -0.008110298 0.11345114 -0.013139879 -0.015959637
0.047130994 -0.07412423 0.17306045 0.10644717 -0.04373763 -0.13407296 -0.012423419 -0.16007645
0.04653991 0.12457833 -0.041729596 -0.02238794 -0.08914531 0.080575645 -0.1260302 -0.06126844
0.11108284 0.05614912 0.124396645 0.13492978 0.03729476 0.07242288 -0.097304896 0.06042118
-0.01017481 -0.08052437 0.0054897196 0.09893044 -0.14842577 -0.122194886 0.04937013 -0.0024720505
0.15857112 -0.087130666 -0.050789658 0.07500284 -0.08442689 0.07281157 0.037261456 -0.00954969
0.059449844 0.03229026 -0.035946954 -0.21307896 -0.13259742 -0.06387827 -0.036247805 0.0538729
0.16183525 -0.078385524 0.020695193 0.023099707 -0.16840714 0.02685979 0.09234883 -0.04475771
0.088254906 0.090081476 0.23258612 -0.022569565 0.13538624 -0.12729788 0.04174232 0.13719508
-0.1719801 -0.0173633 0.01386822 0.18299751 0.18797319 0.063661724 0.15511787 0.18521518
0.06404387 0.083098136 -0.009773656 0.019910559 0.11454387 0.06286867 -0.124556445 0.07352674
0.07971416 0.14205714 -0.12836815 -0.15237671 -0.023806224 0.06233775 0.022296945 0.079495475
-0.12879781 -0.039033033 0.22923218 0.01280862 -0.05912679 -0.1703976 0.008403442 -0.07896191
0.16050997 -0.16057977 -0.07476352 -0.049752582 0.15272713 -0.013894284 -0.12325379 0.060264792
-0.14830711 0.002917721 -0.1090219 -0.16149907 0.05001826 -0.13134614 -0.06346974 -0.16680828
0.08291167 -0.17121947 0.0519751 0.1143874 -0.023360403 -0.0805908 -0.13190283 8.037674e-05
0.042490944 -0.034617 0.090669274 0.056449443 -0.15865327 -0.1306723 -0.04014736 -0.12068294
0.030230356 -0.08582391 -0.15487847 0.025862722 0.12575133 -0.15001895 -0.1847208 0.0751081
-0.039280936 -0.1189578 -0.09331589 -0.128978 -0.042909447 -0.050683938 -0.14327334 -0.14458416
0.102573745 -0.1267471 -0.028241953 -0.048993323 0.07873297 -0.31926316 -0.07596256 -0.073005594
-0.17577232 -0.019392183 0.18230046 0.03834951 -0.17229745 0.0888811 0.16549438 0.036751468
0.042752795 -0.13843212 -0.05206142 -0.010301639 -0.07332282 0.053559545 0.02507117 0.0968607
0.10918716 -0.033154972 -0.021855012 -0.08042034 0.014049215 0.13718247 -0.15117249 -0.11323567

pointwise.bias f4 [64]
00000000: daee 4e3d 4d67 ed3d b264 42bc 18a9 923d
00000010: 2980 05be 2554 a1bc 61a5 00bd 605f 283e
00000020: 162d d63d 44b5 03be f8f3 a6bd d4d9 99bc
00000030: 253c c53b bc28 8e3d 877e 4a3d e090 eebd
00000040: 3e40 743d 805d f33d ec8b 123e 73e5 21be
00000050: 39a2 a53d 71bf 153e 24e2 bd3d 05e9 03bd
00000060: ad02 c4bc f1f3 413d 2188 f1bb 9234 d93d
00000070: 8c61 c7bc ad0b 1cbc 8861 abbd 5d3a 113d
00000080: 1cdd 2a3e b8ec 24bd 3279 8f3d bcad 03bd
00000090: 0dc6 963d b38e 033e 6e59 05be f33b 263e
000000a0: 511e 82bd 2981 723d 6d7b 833d 16f6 b93c
000000b0: 3b52 0fbe e8ba 703d 5bc6 23bd 0c04 9fbd
000000c0: e339 70bb 7f03 b43c c262 563a 02ff b83d
000000d0: 7950 253e d5fb 9ebd c561 cebd b1bb 063c
000000e0: 1838 d1bd c06d fabc e69a 06be 34a1 c8bd
000000f0: 1152 4e3d 3496 263e 36d4 e73c b3f4 243e
0.050520755 0.11591969 -0.011864828 0.07161158 -0.1303717 -0.019693444 -0.031407718 0.16442633
0.10457818 -0.12862116 -0.08152002 -0.018780626 0.0060191327 0.06941363 0.049437072 -0.116487265
0.05963158 0.11883068 0.14311188 -0.15810184 0.08087582 0.1462381 0.092716485 -0.032204647
-0.023927057 0.04735178 -0.007370964 0.1060573 -0.024338506 -0.009524268 -0.08368212 0.03545605
0.16685909 -0.040264815 0.07005538 -0.032148108 0.07361994 0.12847404 -0.13022396 0.16233806
-0.06353439 0.059205208 0.06420026 0.02270035 -0.13996212 0.058771998 -0.03998409 -0.07764444
-0.0036655597 0.021974323 0.0008178168 0.09033014 0.16143979 -0.07762877 -0.10077242 0.00822346
-0.10215777 -0.030569911 -0.13145027 -0.09796372 0.050371233 0.16268235 0.028299432 0.1610897

fc.weight f4 [2, 1024]
00000000: b07b 42bd 19dd b8bd 76fc 77bd e741 abbd
00000010: 48d3 4dbd 31cf fbbd 1fac 86bd 7b98 a6bd
00000020: 62a1 d7bd 15e7 a8bd 7717 ebbd 8594 b4bd
00000030: 5032 d2bd 695d a2bd 1617 94bd 2a26 81bd
00000040: 8abd 9dbd c389 dfbd 9577 37bd aac0 86bd
00000050: 8bfc 9fbd a395 a3bd 7d6f d6bd 09a8 11bd
00000060: 3fc7 0cbe d93e 34be c628 fbbd 453a bdbd
00000070: a9b8 f7bc cccb bcbd 17da b5bd 5540 07be
00000080: a78c a53c 2230 273c 8329 fcbb 6b53 43bc
00000090: 884d 24bc ac49 a43c d7b0 11bc aa0c 2abc
000000a0: a288 dfbc f539 52bd 61b3 86bb d0cb bfbb
000000b0: f3f3 a6bc daf4 fb3b 7fff 01bd 6d7d 6cbc
000000c0: 30fc 5abc e0b4 3c3c 14a9 07bc 77f5 513d
000000d0: bdd2 75bb b512 4e3c dd20 c93c 14ee 1f3d
000000e0: c2ac 8c3c 0680 f73c 5047 223c 76f6 0d3d
000000f0: d056 923b d6d6 93bb a1e6 0639 ffa3 ba3c
00000100: 7df7 133d 215f 383c 9928 a63d 9adc 6c3d
00000110: 3f69 3ebc 6a0c bf3c a606 983c 7609 1f3d
00000120: ba69 f5bc 57db cfbc e402 d4bc 7b0b d03c
00000130: d567 893c 8292 253d a7fd 67bc 92f8 a0bc
00000140: 1269 033d 378c 193d 7a76 193d 09de 4e3d
00000150: b677 f1bb 47f8 2e3d 1513 a93b 6228 333c
00000160: 7980 6e3c f5f9 febb 3e3a d7bc 226a 563c
00000170: a154 25bb c910 4ebd bb2c 50bd 9147 d2bc
00000180: f3e3 e1bc 284b b0bc 4053 893d 2b1e 673d
00000190: b7de 82bc 49b1 623d 7234 2c3d d1ba 8c3c
000001a0: ec1b 6c3b 9747 d0bc 0efd 7c3b 95e7 e33c
000001b0: d71c 61ba 59ab fa3b 9fbb 37bb 12f4 363c
000001c0: 6520 a63c d50c 3d3d 74b9 533d b057 bf3d
000001d0: 056e 2c3c bbb4 a53d d8a4 b23d 09a5 ce3d
000001e0: bf15 383d 091c 6a3c 9f12 39bc 31d5 7a3d
000001f0: 6f44 053d c5a4 e73b 1524 573d 4dfd 2b3d
00000200: 9f36 1bbc 44bb 0cbb 14e0 073d 9b28 893d
00000210: 16ba c5bd 9b49 aabd 3e56 34bc 297b 4e3d
00000220: 5f58 9ebd 80a3 02be e608 cabc 9300 63bd
00000230: 2814 67bb 4212 783c d0c9 3bbd 6753 06bd
00000240: 6d1a 2bbd eb26 3bbd 1a01 04bd 27c7 07bd
00000250: a85f 4cbd 37e6 8ebd 1cd0 88bd 72e0 62bd
00000260: 57ea 5abd 7dfc 58bd db52 6bbd b967 7bbb
00000270: 4e81 7ebd 52d5 abbd ff17 86bd 7a65 55bd
00000280: bbaf 8abc 7fb5 39bd ef55 14bd 68a1 46bd
00000290: 8edd 13bd 18bf 34bd 27dc 44bd 8d50 59bd
000002a0: f3f7 33bd 6a91 31bd c746 46bd 61d6 e6bc
000002b0: 06b8 f5bc 65f2 29bc 28ff 53bd 30c2 27bd
000002c0: 6ad8 16bd d777 5cbd fd88 9abd 812b 37bd
000002d0: 6c4f 97bd 4824 48bd d8a2 c6bd 33d3 4dbd
000002e0: b1fa b6bd 9c7c 23bd eef4 96bd 74e2 64bd
000002f0: 55dd 38bd 7765 04bd 4c65 11bd 0b72 2bbd
00000300: edea a7bd 2146 c9bd fbcc fbbd 0c0a e7bd
00000310: 5b7a acbd 31a9 bcbd 18aa 02be b19b d8bd
00000320: 2b2d aebd 31d5 dcbd 272c 80bd 0304 9dbd
00000330: abaa e8bd a083 68bd 6384 9dbd e866 06be
00000340: f2e0 873c d36b 7d3d 888b 483d ed88 873d
00000350: c36e 3a3c d96e 2d3d 15fa 4c3d a055 9e3d
00000360: 3b59 883d 3d2f 4a3d 9a9d 573d 33b1 973d
00000370: f466 c43d 82a3 c93d 4867 e33d 3c18 873d
00000380: b811 ffbc e6b9 723b d47a 08bd 6933 ebbc
00000390: 6c94 56bc e78d d7bc d968 0fbd 0d01 06bd
000003a0: 02f7 96bc 04a7 02bd ec02 04bd b1f5 12bd
000003b0: f29d 7cbc ca93 5cbd 5bfd 2dbd 6053 38bd
000003c0: fc5d 0c3c e1b7 68bd 5eba 56bc ea8c b93c
000003d0: a1cc 82bd a86a 55bd 6dd0 02bd adb6 cc3b
000003e0: 135e 04bd 58ee b0bd fcb2 f2bd cd15 44bd
000003f0: e749 0f3c 6166 2dbc bafb d9bd 0514 14bd
-0.04748124 -0.09026546 -0.0605435 -0.08362179 -0.05025032 -0.12295378 -0.06575798 -0.08134552
-0.10528828 -0.082472004 -0.11479085 -0.0881739 -0.102635026 -0.07927973 -0.07230966 -0.06306107
-0.07702167 -0.10914948 -0.044791777 -0.065797165 -0.078118406 -0.07987525 -0.104704835 -0.03556064
-0.13747881 -0.176021 -0.12263636 -0.0923963 -0.03023942 -0.09218559 -0.08879488 -0.13208134
0.02020867 0.010204347 -0.0076953783 -0.011921744 -0.0100282505 0.02005466 -0.00889226 -0.010378996
-0.027286831 -0.051324803 -0.004110739 -0.0058531538 -0.020379996 0.0076891007 -0.0317378 -0.014434201
-0.01336579 0.011517733 -0.008280057 0.051259484 -0.0037509643 0.012577702 0.024551803 0.03904541
0.017172221 0.030212414 0.009904698 0.03465887 0.0044659153 -0.0045116944 0.00012865152 0.022783278
0.036124695 0.011253149 0.08113212 0.05782757 -0.011621772 0.02332135 0.018557858 0.038827382
-0.02995764 -0.025373144 -0.025880285 0.0253961 0.016773144 0.040422924 -0.0141595965 -0.019649778
0.032082625 0.037487235 0.037466504 0.050504718 -0.007369007 0.042717244 0.0051597455 0.010934921
0.014556997 -0.007781262 -0.02627289 0.0130868275 -0.0025227445 -0.050308976 -0.05082391 -0.025668891
-0.027574515 -0.021520212 0.06705332 0.056425255 -0.01597534 0.055344854 0.042042203 0.017178925
0.0036027385 -0.025424762 0.003860298 0.027820388 -0.00085873663 0.0076498208 -0.0028035415 0.011166589
0.020279119 0.046154816 0.051690534 0.09342897 0.010524278 0.08091112 0.08722848 0.10090072
0.044942614 0.014288911 -0.0112959435 0.06123847 0.032535966 0.0070692026 0.052524645 0.041989613
-0.009473472 -0.0021473924 0.033172682 0.06697198 -0.09654634 -0.083148204 -0.01100689 0.050410423
-0.07731699 -0.12757683 -0.024662446 -0.05542047 -0.0035259817 0.015141072 -0.04584676 -0.032794382
-0.04177325 -0.045691412 -0.032227613 -0.03314891 -0.049895912 -0.06977504 -0.06680319 -0.05538983
-0.05344614 -0.052975167 -0.057452064 -0.0038361384 -0.062135033 -0.08390297 -0.06547546 -0.05209873
-0.016929498 -0.045339104 -0.036214765 -0.048493773 -0.036099963 -0.044127554 -0.048061516 -0.053055335
-0.043937635 -0.04335157 -0.048407342 -0.028178396 -0.029994976 -0.010372733 -0.051757008 -0.040956676
-0.036827482 -0.053825226 -0.0754566 -0.044719223 -0.073881954 -0.048862725 -0.09699029 -0.050250243
-0.08934534 -0.03991376 -0.073709354 -0.055880025 -0.045132954 -0.032323327 -0.035496995 -0.041856807
-0.081991054 -0.09827829 -0.12294956 -0.11281213 -0.08421775 -0.09211958 -0.12760198 -0.10576571
-0.08504709 -0.107828505 -0.062584214 -0.07666781 -0.11360677 -0.056766152 -0.076912664 -0.13125193
0.016586754 0.061870407 0.048961192 0.066179134 0.011378947 0.04234204 0.050043184 0.077311754
0.06657644 0.049361456 0.052640535 0.07406845 0.09589949 0.0984564 0.11103684 0.06596419
-0.031136379 0.0037037074 -0.033320263 -0.028711038 -0.01309691 -0.026312781 -0.0350121 -0.032715846
-0.01842833 -0.03189756 -0.03222935 -0.03587884 -0.0154185165 -0.05385188 -0.042477947 -0.045001388
0.0085673295 -0.056815986 -0.013105957 0.0226502 -0.06386686 -0.05210367 -0.03193705 0.0062473626
-0.03231628 -0.086392105 -0.11850545 -0.047872353 0.008745647 -0.010583491 -0.10643716 -0.036151905

fc.bias f4 [2]
00000000: 9465 173d 0810 3dbc
0.036962107 -0.011539467
