model/CNN/saved_models/split_pad5_patch50/smallcnn4_fold2_pad9_patch50.pth (torch, 35659 bytes, 12 tensors)

conv1.weight f4 [32, 10, 3, 3]
-0.06988339 0.07505723 0.07371013 0.06266288 0.055982072 0.075985074 0.15952264 0.059953384
0.09642055 0.15361437 -0.03434815 0.030881803 -0.016888145 -0.0011113237 -0.055535566 -0.06030809
0.058185585 0.014805882 -0.03226226 -0.009330884 0.050784357 0.09694336 -0.0169989 -0.11117288
-0.035145406 -0.02431838 0.032701552 -0.10778451 -0.031019524 -0.060932685 -0.09166699 -0.07308889
0.027177647 0.04116092 -0.13375437 -0.0296617 -0.054688245 -0.0064529153 -0.03423153 -0.08097723
0.02980526 -0.029065838 0.03533593 -0.087909594 -0.001973723 0.06764718 -0.021195265 0.08289063
-0.110353954 0.029422116 0.001583525 -0.113887556 -0.1014579 -0.023177465 -0.058058716 -0.0032924851
-0.060335483 -0.10280109 0.06143096 -0.02199029 0.05833011 -0.030602572 -0.017301552 0.0499932
0.033525843 -0.059419565 0.04581411 -0.06309428 -0.058374822 0.07708303 0.007444389 0.082010485
-0.07257234 0.014099548 0.09655729 0.02323556 -0.020805232 0.0627761 -0.11919279 -0.06575449
-0.006511275 -0.017924156 -0.023103898 -0.016988369 0.08549201 0.031975787 -0.037564933 0.094058625
0.11498421 -0.013260787 -0.09694284 -0.02891072 -0.038905516 -0.03922568 -0.028731463 0.03664666
0.15545622 -0.03481657 0.027325531 0.031041056 0.086728565 0.12033196 0.02899438 0.09409291
0.091139965 0.04239544 0.11169666 -0.10369061 0.021516172 -0.05950984 0.08971711 0.15538369
0.08132992 -0.068874724 0.0041949577 0.05501144 0.0347587 -0.07228911 -0.06906595 -0.10405999
0.009743896 -0.04762507 0.014949718 -0.015531489 -0.049349364 0.042763863 -0.11536855 0.06595818
-0.056659054 -0.06640496 -0.000568988 -0.03367382 -0.030327657 -0.057517666 0.03594426 0.044045094
-0.0003275385 0.03838857 0.09455615 -0.060076177 -0.067776956 0.072270714 -0.09423074 0.080927685
-0.025260903 -0.060999118 -0.028210308 0.026607996 -0.10189596 -0.062402207 -0.052667763 -0.041766036
0.12953553 0.09151354 -0.08749574 -0.079268664 0.04731156 0.09476572 -0.05927536 0.012912488
0.00078901893 0.011931032 -0.06340104 0.106583945 0.086615466 -0.0918153 0.007834146 0.11739465
0.019194122 -0.00022150524 0.064672016 0.099021405 0.051472437 -0.020010132 0.029016102 0.077365585
0.04247086 0.04873243 0.117008336 -0.060645405 -0.08839271 -0.06710687 -0.07921361 0.03843089
-0.051572215 0.012561572 0.05825429 0.048335727 -0.11752939 0.10767354 -0.06748408 0.011330537
0.0073781535 -0.025985982 -0.025824074 -0.082830206 -0.057654683 -0.033840656 0.11146897 0.04905176
-0.033563446 0.0048692115 -0.07455643 -0.09108047 -0.027917644 -0.028531702 -0.006966584 -0.011285716
0.16953933 0.17940594 0.119989984 0.07271099 0.14690956 -0.018942783 0.08325614 0.13327439
-0.015485242 -0.026670285 -0.099970475 0.048570808 -0.07922056 -0.05110965 0.056219276 -0.007961134
0.0086157285 -0.057477027 -0.049194507 0.043269146 -0.07174856 0.12129687 0.006656647 0.03675859
-0.057660438 -0.01098615 0.035117324 -0.0007117727 -0.036074366 -0.026210537 0.017102273 -0.012317561
-0.070143715 0.024708485 0.09254771 0.084016435 -0.0034263162 0.00074940023 0.043633368 0.011206781
-0.1076957 0.0036611399 -0.040266037 0.06452838 -0.12586236 -0.028069757 0.012926851 -0.06590704
00000000: 061f 8fbd 9bb7 993d 56f5 963d 6555 803d
00000010: 754d 653d 109e 9b3d e759 233e ae91 753d
00000020: 2378 c53d 164d 1d3e a5b0 0cbd d6fb fc3c
00000030: 0259 8abc d6a9 91ba 4379 63bd 9e05 77bd
00000040: 0254 6e3d 5f94 723c 6e25 04bd 90e0 18bc
00000050: 4203 503d 3e8a c63d 4741 8bbc 9bae e3bd
00000060: a1f4 0fbd 5737 c7bc 10f2 053d 20be dcbd
00000070: a81c febc 8d94 79bd e7bb bbbd a1af 95bd
00000080: a8a3 de3c 5a98 283d e8f6 08be 18fd f2bc
00000090: c800 60bd fa72 d3bb 5c36 0cbd 64d7 a5bd
000000a0: 292a f43c 7b1b eebc 68bc 103d f209 b4bd
000000b0: 9459 01bb 9b8a 8a3d b1a1 adbc 90c2 a93d
000000c0: 4101 e2bd a606 f13c 488e cf3a e13d e9bd
000000d0: 29c9 cfbd abde bdbc face 6dbd bcc6 57bb
000000e0: 5722 77bd 6189 d2bd 089f 7b3d fb24 b4bc
000000f0: 8eeb 6e3d 3fb2 fabc fcbb 8dbc abc5 4c3d
00000100: 6552 093d ee61 73bd 94a7 3b3d 9337 81bd
00000110: 701a 6fbd b5dd 9d3d 10f0 f33b 1df5 a73d
00000120: cfa0 94bd ca01 673c d4bf c53d 8058 be3c
00000130: bc6f aabc c290 803d 591b f4bd 4aaa 86bd
00000140: 895c d5bb aed5 92bc 6344 bdbc 312b 8bbc
00000150: 6f16 af3d 0bf9 023d b0dd 19bd cfa1 c03d
00000160: d77c eb3d c643 59bc f889 c6bd 2dd6 ecbc
00000170: 645b 1fbd 1bab 20bd 3f5e ebbc cf1a 163d
00000180: ea2f 1f3e d29b 0ebd cbd9 df3c d049 fe3c
00000190: bf9e b13d 9a70 f63d 9f85 ed3c c9b3 c03d
000001a0: 97a7 ba3d d7a6 2d3d 38c1 e43d be5b d4bd
000001b0: af42 b03c 97c0 73bd 9bbd b73d e71c 1f3e
000001c0: 4d90 a63d 310e 8dbd db75 893b ad53 613d
000001d0: 235f 0e3d 500c 94bd 7372 8dbd 671d d5bd
000001e0: dda4 1f3c 8112 43bd a9ef 743c c977 7ebc
000001f0: 8f22 4abd 2929 2f3d 5946 ecbd 1515 873d
00000200: 5313 68bd 53ff 87bd 2328 15ba 8fed 09bd
00000210: b571 f8bc a597 6bbd 4a3a 133d a168 343d
00000220: 79b9 abb9 553d 1d3d a8a6 c13d 7012 76bd
00000230: a5ce 8abd ab02 943d 0cfc c0bd 6abd a53d
00000240: f4ef cebc 36da 79bd 4e19 e7bc 03f9 d93c
00000250: d4ae d0bd 7599 7fbd 27ba 57bd dd12 2bbd
00000260: f6a4 043e 736b bb3d f730 b3bd 9c57 a2bd
00000270: c4c9 413d 8814 c23d b8ca 72bd e68e 533c
00000280: 2ad6 4e3a 607a 433c 68d8 81bd af48 da3d
00000290: 7363 b13d a909 bcbd ca5a 003c 9b6c f03d
000002a0: fe3c 9d3c dc43 68b9 c372 843d bccb ca3d
000002b0: c3d4 523d 4aec a3bc 2db3 ed3c d971 9e3d
000002c0: edf5 2d3d a89b 473d 11a2 ef3d 5167 78bd
000002d0: 3d07 b5bd 546f 89bd bf3a a2bd b569 1d3d
000002e0: 633d 53bd 0dcf 4d3c 0d9c 6e3d affb 453d
000002f0: 40b3 f0bd f283 dc3d 1835 8abd b7a3 393c
00000300: 70c4 f13b 8ee0 d4bc 028d d3bc e2a2 a9bd
00000310: 5127 6cbd 809c 0abd d849 e43d 80ea 483d
00000320: d379 09bd e88d 9f3b 0bb1 98bd 6688 babd
00000330: 8bb3 e4bc 51bb e9bc f147 e4bb b9e7 38bc
00000340: b89b 2d3e 31b6 373e 4fbd f53d 80e9 943d
00000350: 766f 163e e52d 9bbc 3282 aa3d 1579 083e
00000360: d0b5 7dbc a47b dabc 52bd ccbd 2ff2 463d
00000370: 643e a2bd 5a58 51bd 2f46 663d 6b6f 02bc
00000380: fc28 0d3c 086d 6bbd 2e80 49bd fd3a 313d
00000390: e9f0 92bd 7e6a f83d 0120 da3b 2d90 163d
000003a0: 5a2d 6cbd 41ff 33bc 2fd7 0f3d 4296 3aba
000003b0: b7c2 13bd 7bb7 d6bc 111a 8c3c 98cf 49bc
000003c0: 82a7 8fbd 7369 ca3c a789 bd3d cf10 ac3d
000003d0: 0c8c 60bb 6673 443a e7b8 323d a59c 373c
000003e0: 908f dcbd bcef 6f3b 00ee 24bd 7527 843d
000003f0: 10e2 00be 8cf2 e5bc 25cb 533c 45fa 86bd

conv1.bias f4 [32]
0.124865256 0.037356846 -0.09035905 0.036015514 -0.07249011 -0.07742884 -0.0062002656 0.083494514
-0.052391596 -0.078313015 0.0058388193 3.4819026e-05 0.0062749097 0.07471856 0.05972909 -0.114244044
0.033727486 0.07085058 0.03929621 0.087708876 0.021995528 -0.1011657 -0.07928945 0.021682683
-0.016732598 0.0633093 -0.10395239 0.07074145 -0.018109981 -0.0036155821 0.06319842 -0.06014778
00000000: 5bb9 ff3d 7e03 193d 2a0e b9bd 0185 133d
00000010: b275 94bd 0393 9ebd 992b cbbb 2cff aa3d
00000020: 9298 56bd 9362 a0bd 9153 bf3b a50a 1238
00000030: c29d cd3b 0b06 993d 7ea6 743d c8f8 e9bd
00000040: d525 0a3d 1c1a 913d 10f5 203d b6a0 b33d
00000050: f72f b43c f62f cfbd 8262 a2bd e29f b13c
00000060: cd12 89bc 4ea8 813d fee4 d4bd e5e0 903d
00000070: 625b 94bc 67f3 6cbb 2c6e 813d 855d 76bd

bn1.weight f4 [32]
1.0078498 1.0363625 1.0280988 1.0282937 1.0591745 1.016651 0.9828007 1.031595
1.0545622 1.0290334 1.0901659 1.0617568 1.0646925 1.0163009 1.0622323 1.0407056
1.0208832 1.0371053 1.0213947 1.040186 0.98057127 1.0759263 0.9768089 1.1177819
1.0391879 1.0205175 1.0709219 1.0290989 1.0533398 1.0982682 1.0494186 1.0366957
00000000: 3901 813f 87a7 843f be98 833f 219f 833f
00000010: 0893 873f 9f21 823f d498 7b3f 4e0b 843f
00000020: e5fb 863f 5eb7 833f 8e8a 8b3f a6e7 873f
00000030: d847 883f 2616 823f 3af7 873f d735 853f
00000040: 4dac 823f debf 843f 10bd 823f d124 853f
00000050: b806 7b3f f4b7 893f 2610 7a3f 7a13 8f3f
00000060: 1c04 853f 51a0 823f f813 893f 83b9 833f
00000070: d7d3 863f 0d94 8c3f 5953 863f 72b2 843f

bn1.bias f4 [32]
-0.02104915 -0.002281252 0.005444407 -0.017805716 -0.029358985 0.0006729284 -0.017502796 -0.010927655
-0.0034802055 0.0053107166 0.0021486357 0.021804687 0.009569187 -0.014368467 0.030533783 0.01182187
-0.024357373 -0.00966621 -0.0016707852 -0.005501287 -0.046626475 -0.015148762 -0.037679616 0.0024447641
0.005005155 -0.0066904575 0.0020751532 -0.009797614 0.0023725908 0.015880836 0.033887107 -0.03940982
00000000: 446f acbc 0f81 15bb ff66 b23b 4bdd 91bc
00000010: 4182 f0bc 7667 303a 0662 8fbc e809 33bc
00000020: 2914 64bb 8505 ae3b 20d0 0c3b be9f b23c
00000030: 14c8 1c3c b869 6bbc fc21 fa3c 84b0 413c
00000040: 1d89 c7bc 065f 1ebc 40fe daba 2444 b4bb
00000050: 67fb 3ebd 8332 78bc f155 1abd 5638 203b
00000060: 4902 a43b a03b dbbb 4bff 073b 2c86 20bc
00000070: 787d 1b3b 8718 823c 35cd 0a3d 316c 21bd

bn1.running_mean f4 [32]
0.12466241 0.037150685 -0.08984147 0.03589413 -0.07262969 -0.076245904 -0.0062798765 0.08440242
-0.051594384 -0.07957368 0.0051527345 -0.000512399 0.006112556 0.07535833 0.06095681 -0.11458723
0.033387624 0.070661545 0.041218933 0.086623155 0.020463174 -0.10061389 -0.07865071 0.021722298
-0.01754399 0.0643665 -0.10485092 0.071048446 -0.019351607 -0.006223076 0.06373134 -0.06016007
00000000: 014f ff3d 512b 183d cefe b7bd b905 133d
00000010: e0be 94bd d026 9cbd 6cc7 cdbb 2ddb ac3d
00000020: a254 53bd 87f7 a2bd 45d8 a83b 8452 06ba
00000030: d64b c83b 7855 9a3d d9ad 793d b6ac eabd
00000040: 76c1 083d 00b7 903d 2fd5 283d 7b67 b13d
00000050: 63a2 a73c a80e cebd a013 a1bd f6f2 b13c
00000060: 6ab8 8fbc 95d2 833d 14bc d6bd d981 913d
00000070: 4387 9ebc f2ea cbbb 9485 823d 686a 76bd

bn1.running_var f4 [32]
0.25595567 0.2115196 0.0819474 0.30406752 0.11981422 0.3691197 0.5228004 0.34082615
0.5120193 0.46417493 0.22657199 0.2141436 0.1751861 0.2475113 0.2489132 0.26785308
0.51396465 0.7725364 0.25239524 0.21708235 1.0240742 0.14394787 0.51323515 0.20511691
0.48260847 0.29343915 0.26477376 0.3139939 0.2553378 0.34339204 0.281577 0.15694956
00000000: 9f0c 833e 9898 583e 0ad4 a73d bdae 9b3e
00000010: 2861 f53d 42fd bc3e 3fd6 053f c480 ae3e
00000020: b213 033f 56a8 ed3e 7d02 683e 7648 5b3e
00000030: fc63 333e 9a73 7d3e 1ae3 7e3e 0a24 893e
00000040: 3093 033f f2c4 453f f339 813e d64a 5e3e
00000050: dd14 833f 1267 133e 6163 033f 2b0a 523e
00000060: 7518 f73e a83d 963e 6d90 873e cfc3 a03e
00000070: a3bb 823e 15d1 af3e dc2a 903e 63b7 203e

depthwise.weight f4 [32, 1, 3, 3]
0.32211685 0.14693584 0.10824576 0.15610035 -0.049319632 0.31504664 -0.07046415 0.28406754
0.110664815 -0.30456617 -0.17910609 0.20969948 -0.28408015 -0.27806836 0.15830453 -0.12554212
-0.027622588 0.032991257 -0.13504304 0.05564085 -0.34262604 0.09966961 -0.017064516 0.0669472
0.2267608 -0.2428166 -0.18926658 -0.067448795 -0.10531638 0.023439595 -0.0946142 -0.08148057
0.24183458 -0.15132779 -0.1801902 0.30141622 0.10021927 0.16372219 0.23823269 0.06617798
0.022948239 0.14569062 0.18776308 0.05697957 0.3374452 0.1791117 -0.09616208 0.2570616
0.010132653 -0.34127137 -0.2615966 0.023865331 -0.33553848 0.050556403 -0.013756069 -0.10640166
-0.16563499 -0.21061775 0.096962534 0.24551871 0.14873722 -0.1956012 -0.2537863 0.2072076
0.017123295 0.16398402 0.24144821 -0.102694176 -0.21774878 0.10783386 -0.06732919 0.2829212
0.017226024 -0.08814471 -0.18473196 -0.08371833 0.3296246 -0.2276674 0.3206148 0.17070825
0.10939972 -0.23684049 -0.23301698 0.22328453 -0.1240538 -0.24271919 0.1464651 0.19568306
-0.30699047 -0.08065031 0.24251646 0.19601478 0.023874952 0.06412431 -0.061861604 -0.22625503
-0.27657375 0.077139825 -0.36019537 -0.025103105 0.28935367 0.011613719 0.016253898 0.14341646
0.09572691 -0.20727447 -0.04421448 0.37513813 0.2240759 0.100017115 0.2163935 -0.045781646
0.10580836 0.26914847 -0.002138804 0.32522961 -0.10605768 -0.15571369 0.22526473 0.078893065
-0.070831865 0.020704083 0.080900036 -0.03592448 0.2112506 0.081202194 0.02355963 0.3051596
-0.027248755 0.16106187 -0.022698566 0.25150424 -0.13146448 -0.3304721 0.08754934 -0.06546657
0.33491084 0.22283007 0.19335532 0.17731632 0.19282465 0.1202454 0.055902597 0.3504937
0.2771989 0.0010883529 -0.23530915 -0.29882455 0.08739716 -0.21517214 -0.32387567 0.04052369
0.2131821 0.21714464 -0.01349732 0.131551 -0.102001294 -0.010100171 -0.3023698 -0.32748064
0.058574583 0.05332511 -0.082234636 0.06409029 0.2694136 -0.10418658 -0.35019404 -0.36174443
-0.021017948 0.011651383 -0.17668642 -0.37644383 -0.26179528 -0.18676777 -0.08825499 0.017522287
-0.09323338 -0.047535863 0.008200577 -0.041870598 -0.25160766 -0.20715927 0.10054254 0.17959496
0.24708639 0.2094024 -0.34067792 -0.18531437 -0.27381983 -0.21636967 0.06850544 -0.028449157
0.24958825 0.15264924 0.005513793 0.21365742 0.38024616 -0.12693399 -0.033495348 -0.24758196
0.1987766 0.1511232 0.31465045 0.19390874 0.13240124 0.19188608 0.08866705 -0.3820458
-0.20654204 0.21890008 -0.028726798 0.03913434 0.24218035 0.034251552 -0.101412825 -0.0314763
0.30909777 0.029140482 -0.09065279 -0.05490024 0.20896223 -0.099824876 0.33281767 -0.08276187
0.32213396 0.03789984 -0.16935699 -0.14473715 0.34563196 0.3265466 0.30013275 0.34475943
0.12933634 -0.2172871 0.3687349 0.31406182 0.18480574 0.34606642 -0.1580255 -0.20959543
-0.012470832 -0.23382612 -0.3829174 0.1145929 -0.066991255 -0.30370525 -0.12368278 -0.17948492
-0.2424461 -0.12353157 -0.22974092 0.14110652 0.106694676 -0.3225005 -0.2917917 -0.109363735
00000000: 80ec a43e 5976 163e f4af dd3d c5d8 1f3e
00000010: 6203 4abd cb4d a13e 824f 90bd 4d71 913e
00000020: 3ca4 e23d 19f0 9bbe 9667 37be 76bb 563e
00000030: f472 91be fa5e 8ebe 951a 223e 1d8e 00be
00000040: c448 e2bc d721 073d b948 0abe a9e7 633d
00000050: ae6c afbe 951f cc3d e2ca 8bbc 9d1b 893d
00000060: fc33 683e eaa4 78be 19cf 41be 9822 8abd
00000070: 1db0 d7bd 6504 c03c 17c5 c1bd 49df a6bd
00000080: 7ca3 773e acf5 1abe c883 38be 3a53 9a3e
00000090: c33f cd3d caa6 273e 45f3 733e 5288 873d
000000a0: f2fd bb3c ec2f 153e f744 403e 6963 693d
000000b0: 9ec5 ac3e 0f69 373e a0f0 c4bd 949d 833e
000000c0: 6d03 263c 1fbb aebe fdef 85be 3a81 c33c
000000d0: b3cb abbe 3b14 4f3d 2361 61bc 1de9 d9bd
000000e0: 389c 29be 2eac 57be 4b94 c63d 4269 7b3e
000000f0: 924e 183e ae4b 48be 47f0 81be 3b2e 543e
00000100: 2746 8c3c 6deb 273e 333e 773e 5351 d2bd
00000110: 89f9 5ebe 00d8 dc3d e3e3 89bd 0cdb 903e
00000120: 971d 8d3c 3785 b4bd 602a 3dbe 8474 abbd
00000130: 8ec4 a83e a521 69be a027 a43e 25ce 2e3e
00000140: f60c e03d 5086 72be 019c 6ebe b3a4 643e
00000150: eb0f febd 618b 78be f2fa 153e 2461 483e
00000160: db2d 9dbe fd2b a5bd 3c56 783e 19b8 483e
00000170: 6795 c33c 9b53 833d 9862 7dbd 66af 67be
00000180: 139b 8dbe 7cfb 9d3d 876b b8be 07a5 cdbc
00000190: 2a26 943e 7847 3e3c e526 853c c4db 123e
000001a0: 780c c43d c23f 54be 3e1a 35bd 1b12 c03e
000001b0: 2774 653e c6d5 cc3d 4296 5d3e 8985 3bbd
000001c0: 0eb2 d83d d4cd 893e 2d2b 0cbb 7f84 a63e
000001d0: c534 d9bd 6973 1fbe ccab 663e b092 a13d
000001e0: 4c10 91bd 9c9b a93c ebae a53d 8c25 13bd
000001f0: 1452 583e 564d a63d 2000 c13c e13d 9c3e
00000200: c838 dfbc 67ed 243e 58f2 b9bc 2ac5 803e
00000210: a09e 06be a433 a9be 124d b33d 5613 86bd
00000220: 6f79 ab3e 912d 643e f0fe 453e 6992 353e
00000230: d373 453e 3843 f63d 1ffa 643d e973 b33e
00000240: 04ed 8d3e 10a7 8e3a e2f4 70be 88ff 98be
00000250: 48fd b23d 1656 5cbe 08d3 a5be 2bfc 253d
00000260: 694c 5a3e 2a5b 5e3e dd23 5dbc 4eb5 063e
00000270: 0ee6 d0bd 307b 25bc 37d0 9abe 8bab a7be
00000280: e7eb 6f3d 6e6b 5a3d a26a a8bd c541 833d
00000290: 94f0 893e c65f d5bd a24c b3be 9136 b9be
000002a0: d52d acbc 71e5 3e3c 49ed 34be 3fbd c0be
000002b0: 080a 86be 0d40 3fbe 08bf b4bd e68a 8f3c
000002c0: 24f1 bebd f7b4 42bd b75b 063c 8180 2bbd
000002d0: b8d2 80be 8f21 54be 3fe9 cd3d bee7 373e
000002e0: 3704 7d3e 956d 563e 566d aebe 0dc3 3dbe
000002f0: 1d32 8cbe 0390 5dbe 954c 8c3d 350e e9bc
00000300: 1094 7f3e 1550 1c3e 0cad b43b 03c9 5a3e
00000310: a0af c23e fcfa 01be 6b32 09bd 2086 7dbe
00000320: 188c 4b3e 0ac0 1a3e dd19 a13e 0390 463e
00000330: 3194 073e c97d 443e 1297 b53d 829b c3be
00000340: c27f 53be 5827 603e 7654 ebbc 544b 203d
00000350: 20fe 773e 5b4b 0c3d 87b1 cfbd 4bed 00bd
00000360: 1042 9e3e 05b8 ee3c 2ca8 b9bd 13df 60bd
00000370: 32fa 553e fc70 ccbd 1467 aa3e 0e7f a9bd
00000380: beee a43e dd3c 1b3d eb6b 2dbe fa35 14be
00000390: acf6 b03e 1e31 a73e 00ab 993e 4f84 b03e
000003a0: bf70 043e 8280 5ebe d2ca bc3e b6cc a03e
000003b0: b73d 3d3e 9e2f b13e 70d1 21be 2fa0 56be
000003c0: 7652 4cbc 1d70 6fbe c00d c4be afaf ea3d
000003d0: b632 89bd 417f 9bbe 664d fdbd e5ca 37be
000003e0: ca43 78be 1ffe fcbd 3441 6bbe 3a7e 103e
000003f0: bd82 da3d c91e a5be b965 95be 18fa dfbd

depthwise.bias f4 [32]
-0.06428806 -0.052648593 0.2689829 -0.12718579 -0.32530877 -0.29102108 0.14734365 0.15648311
-0.25537577 0.03686164 -0.026364407 0.041501015 0.13274768 -0.2088151 -0.14742836 -0.17741221
0.3076513 0.0577874 -0.013497338 0.26583248 -0.035177205 -0.23593405 0.23873223 -0.08661038
0.13855183 0.09173922 0.2128326 0.12802437 -0.16297735 0.16390537 -0.306018 -0.28662646
00000000: 75a9 83bd 0da6 57bd 20b8 893e fe3c 02be
00000010: df8e a6be b700 95be 41e1 163e 1c3d 203e
00000020: 9dc0 82be 3bfc 163d 2bfa d7bc f8fc 293d
00000030: 02ef 073e a0d3 55be 76f7 16be 8cab 35be
00000040: 7984 9d3e 7bb2 6c3d f023 5dbc 321b 883e
00000050: f915 10bd b298 71be 3976 743e c860 b1bd
00000060: 88e0 0d3e c6e1 bb3d caf0 593e d218 033e
00000070: 89e3 26be cfd6 273e 64ae 9cbe b4c0 92be

pointwise.weight f4 [64, 32, 1, 1]
-0.17154436 0.05129873 -0.044601634 -0.06644738 0.05966593 -0.058399137 0.0525951 0.025293397
-0.14872845 -0.14224523 -0.1136226 -0.15991992 -0.0353396 -0.12809889 -0.021137321 -0.19142246
-0.01995861 -0.040787805 -0.038968574 -0.02113693 -0.2161854 0.01599416 -0.01438738 -0.05792569
0.080021486 -0.107130356 -0.03708385 -0.036419787 -0.24018854 0.09706202 -0.02173056 -0.11493483
0.07310671 -0.09040013 -0.019004356 -0.018779757 -0.21041752 0.103067376 0.1984133 0.03229703
-0.07171322 -0.19081387 -0.027451904 -0.021017889 0.18014473 -0.15743877 -0.18164895 -0.07626728
0.15971035 0.07297881 -0.047343794 0.16161919 0.13585499 -0.1747551 2.3273435e-05 0.053164322
0.045800157 -0.045989625 -0.11449946 -0.113561675 -0.2325747 -0.14625368 -0.1764151 0.12746646
-0.005514034 -0.027002683 -0.055956755 -0.089657106 -0.018617373 -0.110158905 -0.01927892 -0.13846694
0.133208 -0.13832156 -0.012412185 0.13339205 -0.0090903705 0.050607815 -0.14101855 -0.12449446
-0.14604332 0.051350012 -0.15281984 -0.15030839 -0.085028544 -0.24382025 -0.028109215 0.07359789
0.19991055 0.09268254 -0.13567354 0.05102978 -0.20261121 -0.015840245 -0.0934115 0.11833399
-0.050319873 -0.14625397 -0.004333704 -0.024298398 0.01834894 -0.066859335 0.061924644 0.07158065
0.12181187 -0.021759199 0.04217023 0.01478242 -0.122084916 0.10498718 0.1396413 0.162426
0.081055395 -0.016923927 0.174991 -0.16574986 -0.012056187 -0.14764503 0.14210448 0.14727198
0.027191238 -0.069266185 -0.0015147441 0.13299501 0.041474666 0.08770954 0.030929025 0.07773287
0.045866318 -0.028343039 -0.04838466 -0.05103891 -0.27557853 0.13508137 -0.11925895 0.19807172
0.044321965 -0.036063824 -0.12965299 0.18671912 -0.08589276 0.11706068 0.107917346 0.1917132
-0.026780717 -0.079362504 -0.03932867 -0.057364527 -0.09618145 -0.11350766 -0.120657444 -0.107248925
-0.053900104 0.12202542 0.07062499 -0.009508983 -0.18207647 0.0889249 0.005247481 0.12988913
0.06585973 0.11841333 -0.024989612 0.01416885 -0.2722941 0.050617047 -0.05489653 0.03692647
-0.046326 -0.12081556 -0.14879669 0.12565029 0.08922526 -0.15941152 -0.1279589 0.14097898
-0.09654861 -0.092980534 -0.1429053 0.0052286736 -0.021104697 -0.18288296 0.17053145 -0.05636732
0.046954524 0.12831011 0.07379668 0.043372713 -0.10571068 -0.08739266 0.17029834 0.029104505
-0.035744984 -0.14567505 -0.04524895 -0.029258965 -0.1871401 0.0028686759 0.041864842 0.09415665
-0.10254461 -0.08466202 0.0110542 -0.15280186 0.031147867 0.016397232 0.13492933 -0.038934395
0.13304847 0.1559046 -0.16119565 -0.18594187 -0.020368265 -0.036115997 0.019840043 -0.11656707
-0.036714595 0.14405338 -0.050305594 -0.12613551 -0.10202054 -0.0143817505 0.21240556 -0.11581998
0.15058951 0.02400136 -0.083595216 0.019007983 -0.101032495 -0.14843145 -0.14949258 -0.11045018
-0.13162412 -0.16026548 0.109777145 -0.1694791 0.059610862 0.06707901 -0.22937597 0.018896954
-0.007196842 -0.11867783 -0.14596559 -0.02503716 0.06847517 0.03842792 -0.11052504 0.143332
0.16827281 -0.16427039 0.059592616 -0.16885485 -0.0467487 -0.010296948 0.10286711 -0.055270407
00000000: 53a9 2fbe 9e1e 523d 34b0 36bd 9015 88bd
00000010: 4364 743d ef33 6fbd f66d 573d 1934 cf3c
00000020: 454c 18be bca8 11be f7b2 e8bd 0cc2 23be
00000030: 42c0 10bd 5b2c 03be 2d28 adbc 4004 44be
00000040: 3d80 a3bc 1d11 27bd 839d 1fbd 5b27 adbc
00000050: b55f 5dbe 2f06 833c 0cb9 6bbc 7d43 6dbd
00000060: 4ee2 a33d 2967 dbbd 3ce5 17bd ea2c 15bd
00000070: fcf3 75be 74c8 c63d 4a04 b2bc f462 ebbd
00000080: f9b8 953d b423 b9bd 06af 9bbc 01d8 99bc
00000090: b177 57be fd14 d33d db2c 4b3e e449 043d
000000a0: 61de 92bd b664 43be d1e2 e0bc b52d acbc
000000b0: dc77 383e a137 21be 2f02 3abe 0532 9cbd
000000c0: 1c8b 233e ea75 953d 91eb 41bd 807f 253e
000000d0: 921d 0b3e 00f3 32be 523b c337 d5c2 593d
000000e0: f298 3b3d 9e5f 3cbd b17e eabd 0693 e8bd
000000f0: 1028 6ebe 86c3 15be 29a6 34be 9186 023e
00000100: 12af b4bb bb34 ddbc e932 65bd 259e b7bd
00000110: 7683 98bc fe9a e1bd d3ee 9dbc 47ca 0dbe
00000120: ae67 083e 2ba4 0dbe 7a5c 4bbc ed97 083e
00000130: c7ef 14bc 244a 4f3d 2b67 10be f4f6 febd
00000140: 618c 15be 6454 523d ce7c 1cbe 71ea 19be
00000150: 7223 aebd 04ac 79be 4c45 e6bc 7eba 963d
00000160: 5ab5 4c3e 58d0 bd3d 01ee 0abe 9a04 513d
00000170: 5079 4fbe 67c3 81bc 874e bfbd 1759 f23d
00000180: 361c 4ebd 9ac3 15be be01 8ebb 6f0d c7bc
00000190: 8450 963c 8ced 88bd b2a4 7d3d e098 923d
000001a0: 8078 f93d 5940 b2bc b1ba 2c3d f731 723c
000001b0: a807 fabd 8503 d73d 21fe 0e3e 0053 263e
000001c0: 5f00 a63d 0ca4 8abc d730 333e 55ba 29be
000001d0: 5087 45bc 4230 17be d683 113e 77ce 163e
000001e0: 29c0 de3c 6edb 8dbd 618a c6ba d82f 083e
000001f0: 57e1 293d 0fa1 b33d de5e fd3c 6932 9f3d
00000200: 52de 3b3d a92f e8bc fe2e 46bd 2d0e 51bd
00000210: a118 8dbe c552 0a3e 093e f4bd 50d3 4a3e
00000220: f38a 353d a9b7 13bd c1c3 04be 4c33 3f3e
00000230: 8be8 afbd 83bd ef3d c503 dd3d 7750 443e
00000240: 3c63 dbbc cf88 a2bd 1917 21bd 11f7 6abd
00000250: c8fa c4bd b476 e8bd 401b f7bd 53a5 dbbd
00000260: 5bc6 5cbd 77e8 f93d d6a3 903d 91cb 1bbc
00000270: 4172 3abe 421e b63d 10f3 ab3b a801 053e
00000280: 77e1 863d b082 f23d 04b7 ccbc 7724 683c
00000290: 226a 8bbe d253 4f3d 2fdb 60bd 3640 173d
000002a0: 55c0 3dbd 266e f7bd 295e 18be 78aa 003e
000002b0: bcbb b63d c63c 23be a807 03be cb5c 103e
000002c0: 47bb c5bd 946c bebd c455 12be 4b55 ab3b
000002d0: c2e3 acbc ac45 3bbe cc9f 2e3e 6be1 66bd
000002e0: 6353 403d ba63 033e b722 973d 96a7 313d
000002f0: d77e d8bd ecfa b2bd b062 2e3e 926c ee3c
00000300: 5569 12bd d72b 15be f756 39bd 7fb0 efbc
00000310: a8a1 3fbe 6500 3c3b 787a 2b3d 34d5 c03d
00000320: e902 d2bd 4863 adbd ad1c 353c 1778 1cbe
00000330: d029 ff3c 7d53 863c ea2a 0a3e ac79 1fbd
00000340: dc3d 083e 75a5 1f3e 7910 25be 8c67 3ebe
00000350: 59db a6bc 5eee 13bd 9687 a23c b7ba eebd
00000360: 0b62 16bd bb82 133e 3d0d 4ebd ab29 01be
00000370: 25f0 d0bd 6fa1 6bbc d880 593e 0733 edbd
00000380: 2334 1a3e 809e c43c f833 abbd a1b6 9b3c
00000390: 20ea cebd 6afe 17be 9514 19be b433 e2bd
000003a0: 79c8 06be a21c 24be d7d2 e03d ee8b 2dbe
000003b0: 852a 743d b860 893d 89e1 6abe c9cd 9a3c
000003c0: 7dd3 ebbb 5d0d f3bd 0178 15be bb1a cdbc
000003d0: b63c 8c3d 9866 1d3d f45a e2bd a0c5 123e
000003e0: b54f 2c3e 7f36 28be 6317 743d 49e8 2cbe
000003f0: 917b 3fbd 88b4 28bc feab d23d 3963 62bd

pointwise.bias f4 [64]
-0.058236446 0.053763025 0.13806783 -0.104213394 0.12741546 0.118746735 0.07569531 -0.10002628
0.023801344 -0.0086068865 -0.006183277 -0.08214568 -0.11345977 0.15091817 0.13501298 0.13402791
-0.1750765 0.066944666 0.14136568 0.004793278 -0.13617782 -0.02376384 -0.08399687 -0.06224003
0.13310412 -0.18208073 -0.052084763 0.035415575 0.23291841 -0.04337384 0.10303781 -0.12842137
0.14836386 0.160603 0.12372897 -0.02907781 -0.13782772 -0.059812017 0.0763988 0.084202945
0.07677832 -0.10648452 -0.0756759 -0.094149694 0.13467611 0.034337904 -0.14683601 -0.09948063
-0.10833017 -0.054784805 -0.11153081 0.10504643 0.036294423 0.098402 0.07068954 0.08025816
-0.116851196 -0.04850059 -0.122622974 0.11970508 0.19152775 0.15888605 -0.1155223 0.1860936
00000000: 5789 6ebd 9e36 5c3d a761 0d3e d56d d5bd
00000010: 3379 023e 7d31 f33d 2506 9b3d 94da ccbd
00000020: 09fb c23c e603 0dbc 169d cabb ff3b a8bd
00000030: 995d e8bd 4b8a 1a3e d840 0a3e 9d3e 093e
00000040: 4147 33be 491a 893d 2ac2 103e ee10 9d3b
00000050: 3372 0bbe 62ac c2bc 8d06 acbd 67ef 7ebd
00000060: 724c 083e 5f73 3abe d556 55bd ec0f 113d
00000070: 2a82 6e3e c5a8 31bd 7d05 d33d e480 03be
00000080: b2ec 173e 1d75 243e 9d65 fd3d 9634 eebc
00000090: b622 0dbe 72fd 74bd f976 9c3d 9872 ac3d
000000a0: f43d 9d3d 8e14 dabd f7fb 9abd 8ed1 c0bd
000000b0: 89e8 093e e7a5 0c3d 2e5c 16be 80bc cbbd
000000c0: 35dc ddbd 0866 60bd 446a e4bd 9522 d73d
000000d0: 76a9 143d fd86 c93d adc5 903d 645e a43d
000000e0: ae4f efbd 8ea8 46bd c121 fbbd f027 f53d
000000f0: da1f 443e 06b3 223e f596 ecbd 528f 3e3e

fc.weight f4 [2, 1024]
0.027571112 0.012918009 -0.0041864715 0.055344522 0.04922777 0.053986438 0.051552676 0.0056501715
0.0023765871 0.014395449 -0.060467977 -8.712539e-05 -0.010506461 -0.022147736 -0.036687274 0.025329934
0.034659863 0.06948705 0.031871688 0.09506273 0.030702176 0.108738035 0.05824862 0.004882011
0.055712257 0.050524104 -0.0673116 -0.03320518 0.00038621828 -0.0117484 -0.035347607 0.03490585
0.031177573 0.036389504 -0.007146846 0.039866354 0.056336362 0.062016234 0.06947118 -0.02431141
0.03404231 -0.0066515165 -0.011402959 0.017667865 -0.03837652 -0.031744465 -0.012046704 0.01300203
-0.0020247067 0.024101509 0.013554142 -0.039961223 -0.044465654 0.01193686 0.02050643 0.002333887
0.030442014 0.009389156 0.04323137 0.0049075894 0.06634097 0.0021428831 -0.0036680622 0.054155637
0.030752832 0.049744993 0.08000672 0.08581945 0.0071793026 0.0004273834 0.0013781069 0.028436467
0.043197785 0.050968625 0.056878835 0.064324886 0.0311023 0.028914966 0.05883772 0.013513305
0.04353449 0.048746623 0.038053785 0.050324436 0.03610163 0.031292718 0.003501232 0.030971784
0.0018462235 0.050608404 0.003539003 0.039922882 0.0583586 -0.0077506723 0.011170054 0.0019755787
0.018277086 0.01907461 0.0061480757 0.031249413 -0.025589895 0.02979422 0.045630176 0.037403088
0.03258678 0.020738438 -0.014258992 0.043904953 0.0032204725 0.0085563455 -0.01609756 0.008104732
0.07243087 0.013333587 0.053548936 0.048281893 -0.035429742 -0.011343513 0.0015823945 -0.026909014
-0.024525575 -0.06472586 -0.0974927 -0.04915144 -0.033132754 -0.006160245 -0.097771205 -0.014241854
0.0258169 0.02575615 0.06843022 -0.04368742 -0.041475583 -0.020616725 -0.055089183 0.03296524
-0.044654876 -0.02417552 0.023895478 0.016012045 -0.0064869835 0.010232621 -0.0020484522 0.01739824
-0.0796338 -0.028807772 -0.046281002 0.007908533 -0.10080709 -0.11443381 -0.13662392 0.011724199
-0.05937425 -0.13033667 -0.15437508 -0.10366815 -0.14480428 -0.09552549 -0.10081556 -0.15360437
-0.100797646 -0.17515787 -0.075170696 -0.06255404 -0.1654306 -0.16066845 -0.13184139 -0.039441034
-0.12866494 -0.12465786 -0.089906044 -0.045445718 -0.047489088 -0.07469289 -0.08724081 -0.05221215
-0.028924325 -0.0068455026 0.025934031 0.014342823 -0.07457124 -0.012382811 -0.037515257 -0.03144892
-0.018103862 -0.031175323 -0.006121382 -0.013288848 -0.06926223 0.0164919 -0.0038367228 -0.016957093
0.057497907 0.05880093 0.058884986 0.07679376 -0.008323926 -0.0440705 -0.007297059 -0.05383082
-0.019941496 -0.052201122 -0.09986091 -0.06317752 -0.020664975 -0.028817067 -0.10442758 -0.08691996
-0.030419558 -0.07530872 -0.054246668 -0.036464166 0.0015730724 0.02587178 -0.031511858 0.016404506
0.016850758 0.0137329 0.01935716 -0.047653988 -0.08008045 -0.040953193 0.04264395 -0.027795281
-0.051560048 -0.01799528 -0.044041663 0.012198226 -0.02867281 0.037556943 0.032382403 -0.028045401
-0.006587321 0.0004119991 -0.005669054 0.021879457 -0.026625732 -0.04747283 0.094411485 0.051328037
0.006794772 0.06769488 0.0283071 0.036346447 0.034661222 0.090701595 0.09378178 0.06459327
0.053505152 0.01031474 -0.0005415152 0.07696923 0.024532475 0.057901654 0.024406118 0.057231113
00000000: d0dc e13c 0fa6 533c ab2e 89bb f0b0 623d
00000010: 0fa3 493d e220 5d3d e628 533d 1325 b93b
00000020: 84c0 1b3b e4da 6b3c 45ad 77bd 16b7 b6b8
00000030: 4b23 2cbc 2b6f b5bc 6545 16bd b980 cf3c
00000040: 80f7 0d3d 3a4f 8e3d e38b 023d 40b0 c23d
00000050: 2183 fb3c 0cb2 de3d 1b96 6e3d 47f9 9f3b
00000060: 8932 643d 5df2 4e3d aada 89bd 2802 08bd
00000070: 577d ca39 5c7c 40bc a7c8 10bd 70f9 0e3d
00000080: 1c68 ff3c 290d 153d 1730 eabb e74a 233d
00000090: f5c0 663d bc04 7e3d e846 8e3d b928 c7bc
000000a0: f36f 0b3d f7f4 d9bb 7ad3 3abc 33bc 903c
000000b0: b330 1dbd 7c06 02bd 8a5f 45bc 7706 553c
000000c0: f1b0 04bb 8770 c53c 3112 5e3c 61ae 23bd
000000d0: 9e21 36bd d292 433c 1afd a73c 20f4 183b
000000e0: 8861 f93c f9d4 193c 6113 313d d8cf a03b
000000f0: c6dd 873d 9d6f 0c3b df63 70bb 4dd2 5d3d
00000100: 5ded fb3c 68c1 4b3d 90da a33d 1cc2 af3d
00000110: 5b40 eb3b 6e12 e039 98a1 b43a 98f3 e83c
00000120: 29f0 303d 7ac4 503d c8f9 683d c4bc 833d
00000130: 40ca fe3c 14df ec3c d2ff 703d e966 5d3c
00000140: 3951 323d 8aaa 473d 49de 1b3d ff20 4e3d
00000150: 4edf 133d cb2c 003d ed74 653b 8ab8 fd3c
00000160: fbfc f13a c24a 4f3d 9eee 673b 2d86 233d
00000170: 6d09 6f3d 5af9 fdbb 9a02 373c b678 013b
00000180: d4b9 953c 5b42 9c3c cc75 c93b c5fe ff3c
00000190: e6a1 d1bc 0213 f43c b5e6 3a3d fb33 193d
000001a0: b779 053d a8e3 a93c 8c9e 69bc aed5 333d
000001b0: 900e 533b ea2f 0c3c 08df 83bc b6c9 043c
000001c0: a356 943d 1e75 5a3c 2156 5b3d 3cc3 453d
000001d0: c71e 11bd 24da 39bc 5968 cf3a 4b70 dcbc
000001e0: dce9 c8bc fe8e 84bd 41aa c7bd 0553 49bd
000001f0: 36b6 07bd e1db c9bb 453c c8bd aa56 69bc
00000200: f77d d33c 90fe d23c 2525 8c3d 95f1 32bd
00000210: 4de2 29bd 68e4 a8bc 32a5 61bd 8f06 073d
00000220: 08e8 36bd bd0b c6bc 73c0 c33c b12b 833c
00000230: c390 d4bb b9a6 273c 533f 06bb c186 8e3c
00000240: 0c17 a3bd 47fe ebbc 2691 3dbd cb92 013c
00000250: f373 cebd 465c eabd 24e7 0bbe db16 403c
00000260: 6a32 73bd fa76 05be 8014 1ebe f84f d4bd
00000270: 9347 14be dea2 c3bd 6378 cebd 774a 1dbe
00000280: ff6e cebd 965c 33be 18f3 99bd 551c 80bd
00000290: a466 29be 4586 24be 6e01 07be ec8c 21bd
000002a0: bec0 03be 9f4c ffbd a920 b8bd 4a25 3abd
000002b0: eb83 42bd 96f8 98bd 4fab b2bd 68dc 55bd
000002c0: b5f2 ecbc 3d50 e0bb 9b73 d43c 29fe 6a3c
000002d0: ceb8 98bd 46e1 4abc 99a9 19bd 95d0 00bd
000002e0: 8d4e 94bc 6463 ffbc e095 c8bb 78b9 59bc
000002f0: 5bd9 8dbd 051a 873c 8771 7bbb 9ae9 8abc
00000300: ed82 6b3d 3ed9 703d 6231 713d 0c46 9d3d
00000310: 1361 08bc 4583 34bd 2b1c efbb b57d 5cbd
00000320: 595c a3bc d8d0 55bd e083 ccbd 3763 81bd
00000330: 9849 a9bc c511 ecbc 21de d5bd 1803 b2bd
00000340: 7032 f9bc 753b 9abd c131 5ebd 735b 15bd
00000350: 8d2f ce3a 0ef1 d33c 9412 01bd be62 863c
00000360: 9a0a 8a3c f5ff 603c e892 9e3c d430 43bd
00000370: 3801 a4bd 89be 27bd 6cab 2e3d eeb2 e3bc
00000380: a130 53bd d66a 93bc 0865 34bd 11db 473c
00000390: 3ee3 eabc 4fd5 193d 69a3 043d 78bf e5bc
000003a0: 74da d7bb 9501 d839 79c3 b9bb 8c3c b33c
000003b0: 351e dabc df72 42bd cf5a c13d 593d 523d
000003c0: aea6 de3b 9da3 8a3d 4be4 e73c 03e0 143d
000003d0: edf8 0d3d c2c1 b93d a910 c03d 7a49 843d
000003e0: 3828 5b3d 28ff 283c 78f4 0dba 0ba2 9d3d
000003f0: 54f8 c83c 492a 6d3d 57ef c73c 2c6b 6a3d

fc.bias f4 [2]
0.038355224 -0.01738668
00000000: 5e1a 1d3d 836e 8ebc
