model/CNN/saved_models/split_pad5_patch50/smallcnn4_fold3_pad9_patch50.pth (torch, 35659 bytes, 12 tensors)

conv1.weight f4 [32, 10, 3, 3]
000000 ea 61 e1 bd 75 14 74 3d 2a ae 20 bc 61 16 aa bd
       -0.11005004 0.05958982 -0.009807149 -0.0830505
000010 c2 b9 f9 bd e1 5d ed bd e6 e3 15 be 31 54 a6 bd
       -0.121936336 -0.115901716 -0.14637718 -0.08121527
000020 9f 25 d5 bd 85 ea 31 b9 25 a8 5e bd d0 fb 60 3d
       -0.10407566 -0.00016967401 -0.054359574 0.054927647
000030 75 18 0f 3e f1 ab 6e 3d 4f d3 80 bd ed ad a2 3d
       0.13974173 0.058269445 -0.06290304 0.0794333
000040 db f0 02 3d bd a7 c2 3d 8c 8a 23 bd 12 e7 01 3e
       0.03196798 0.0950465 -0.03992705 0.12685803
000050 a8 71 77 3d 8d 41 d3 bd f7 1c 8e 3b c0 22 1c bd
       0.060411125 -0.10315237 0.004336949 -0.038119078
000060 2e ce 8e bd a3 a4 d3 3c 88 58 33 3c 3f 1e cf 3d
       -0.069729194 0.02583534 0.0109464 0.10113191
000070 85 52 85 bd 6a b7 73 3d 15 fd 80 bc 05 ff 8a 3d
       -0.0650988 0.05950109 -0.015745679 0.06786922
000080 0e 99 98 3d 55 a6 c8 3d e0 89 fc 3d c1 e1 26 bd
       0.07451068 0.0979735 0.12330985 -0.04074264
000090 b2 a5 82 3d e4 4c 86 bd 8f 7f 1e bd a8 ac 28 3d
       0.0637926 -0.065576345 -0.038695868 0.041180283
0000a0 3e d1 09 3d 58 e1 d7 3c b0 de 4d bd 1a 17 29 bd
       0.033646815 0.02635257 -0.0502612 -0.041281797
0000b0 fd 42 56 3d b9 6a 97 bd 4d 77 6f bb fc f6 5e bd
       0.05230998 -0.073934026 -0.0036539615 -0.05443476
0000c0 3a 29 53 bd d5 e9 05 bd db 6a a5 3d fc db e9 3c
       -0.05155299 -0.032693703 0.08077022 0.02854728
0000d0 e1 7e 6b bd de 28 7b bd cd 51 35 bd e8 80 43 3d
       -0.057494048 -0.06131827 -0.044267464 0.047730356
0000e0 69 f3 8b 3d d8 ba 80 bd f8 36 09 3d 24 6d b1 bd
       0.06833536 -0.062856376 0.033499688 -0.08663395
0000f0 5a d6 73 bd ce ec 86 bd 8e 77 a9 3d 8b 10 76 bd
       -0.059530593 -0.06588136 0.08274756 -0.06007437
000100 8d 41 b8 3d f8 ec 1e 3d 3f 5b d9 3c 05 9c fc bc
       0.08996878 0.03880021 0.026532767 -0.030836115
000110 44 16 8c bd f6 e7 a4 bd 29 96 09 3d 91 b3 89 bc
       -0.06840184 -0.080520555 0.03359047 -0.016809257
000120 e1 20 95 3d 2a 9c 3c 3c d0 bc 49 bd d9 c5 04 3c
       0.07281662 0.011511842 -0.04925233 0.008103811
000130 a4 0c 46 bd 6f 6c ca 3d 78 84 a3 3d 1c ce 59 3d
       -0.0483519 0.09883963 0.07984251 0.053175077
000140 ea cb 15 bd f2 30 ba 3d c3 5f 4c 3d 95 75 a9 3d
       -0.03657142 0.09091367 0.049896013 0.0827438
000150 22 67 bb bd 42 fb c0 3d d3 60 8f bd 6e 4a c1 3d
       -0.091505304 0.094229236 -0.0700089 0.094380245
000160 26 58 98 3d ac 05 9f 3d bf f8 da bc 23 d7 19 bd
       0.07438688 0.07764754 -0.02672994 -0.037558686
000170 bf c3 05 3c a7 6c bc bd a9 07 5d bc df 9c 2f bd
       0.008164345 -0.09200411 -0.013490596 -0.042874213
000180 e6 9d 60 3d 2c e4 f1 3d f2 66 45 3d aa 14 aa bd
       0.054838084 0.118110985 0.04819388 -0.083047226
000190 51 7a a4 3d 38 1c 24 3d 0b c5 ee 3c de 07 04 b9
       0.080311425 0.040065974 0.029146692 -0.00012591432
0001a0 86 15 43 3d 80 35 09 3c 73 21 23 bd 13 b1 6c bd
       0.04762795 0.008374572 -0.03982682 -0.05778606
0001b0 fe be 1b be d5 4e 0d be eb 41 d2 bc 71 d6 31 bd
       -0.15209576 -0.13799603 -0.025666198 -0.043417398
0001c0 fe e2 be bd 56 29 4c bd f6 7d 8e bc d8 53 13 3d
       -0.09320639 -0.04984411 -0.017394047 0.03596863
0001d0 e8 6c 64 3d fc be 99 3d ed 1d 1c 3d 06 6f a2 bd
       0.055767924 0.075071305 0.038114477 -0.07931332
0001e0 6e fd 20 3d 8c ba e2 3c 3e c1 e1 3c a0 84 3c bc
       0.03930419 0.027676843 0.027557965 -0.01150623
0001f0 a8 db 0e 3c 7f 22 52 bd de e6 8c 3d fa d4 85 3d
       0.008719362 -0.05130243 0.06879972 0.06534763
000200 1f ce 86 3b f6 e1 92 3c ad e8 86 3d 5e e2 bd 3b
       0.004113927 0.017930012 0.06587348 0.0057948073
000210 be 75 91 bc e6 32 1d bd 27 75 82 bd 78 e4 04 bd
       -0.01775634 -0.03837862 -0.06370001 -0.032444447
000220 97 75 9c bd a2 0c 26 bd a7 3e 86 3d 3c 73 d5 bd
       -0.07639616 -0.04053939 0.06554919 -0.1042237
000230 cb 94 d0 3c 3c 2c 71 bc 6e b7 42 3d c3 88 22 bd
       0.025461575 -0.014720019 0.047538213 -0.039681207
000240 60 38 90 3c 1f 63 b9 3d 38 eb a6 3d c2 6e c0 bc
       0.017605007 0.09052109 0.08150333 -0.023490313
000250 29 7b 5b 3d e3 14 67 bc 37 20 a8 bd 23 62 ab 37
       0.05358425 -0.014104101 -0.082092695 2.0430487e-05
000260 ec 15 87 bd 18 17 5e bd ec 19 4c bd a2 21 02 bc
       -0.06595978 -0.054221243 -0.04982941 -0.007942589
000270 31 11 d9 3b 07 3e 69 3d 28 31 b2 bd b9 02 e1 3b
       0.006624364 0.05694392 -0.08700782 0.0068667796
000280 a5 b5 7a bd 81 85 ae 3d 65 5f a1 bd b1 b8 5a bc
       -0.061208386 0.085215576 -0.07879523 -0.013349698
000290 dc d5 db 3a 52 94 ce bd c7 3b 91 bc 6f 5e 33 bc
       0.0016772109 -0.100868836 -0.0177287 -0.010947808
0002a0 4a 29 d6 3c ab c6 0c bd 60 ef 94 bd c3 8a ab bd
       0.026142735 -0.034369152 -0.0727222 -0.08376076
0002b0 eb 2a 2c be 2d 82 90 bd 8d 0f b2 bd 88 30 93 3c
       -0.16813247 -0.07056079 -0.08694372 0.017967477
0002c0 bc 71 8f bd 5a 4b 8f 3d 3b de ec 3d 07 97 dc 3d
       -0.07004115 0.06996794 0.115658246 0.10770994
0002d0 57 81 2d bd ff a4 2e bd 7b 91 d9 bd c4 70 68 b9
       -0.042359676 -0.04263782 -0.10623451 -0.00022167253
0002e0 31 18 16 be 13 27 db bd 4f e9 a4 bd 98 3f fd bd
       -0.14657666 -0.10700812 -0.080523126 -0.12365645
0002f0 13 1c 4d 3b 8b 12 93 3c 03 cf be bd 19 39 a0 3d
       0.003129725 0.017953178 -0.09316828 0.078233905
000300 3e 37 36 bd 43 95 fd bc fe aa 72 3c c2 97 04 be
       -0.044486277 -0.030954963 0.0148112755 -0.12948516
000310 01 01 39 3d a0 13 10 bd e9 52 dd 3d 9f 30 c9 3c
       0.045166973 -0.035174966 0.108068295 0.024559317
000320 81 bf b7 bb eb 02 9d bc 49 37 4a 3d 67 21 b2 bc
       -0.005607546 -0.01916643 0.04936913 -0.021744443
000330 ef 07 88 3d 78 b1 1a 3c 4c a8 b7 bd ea 31 8a bd
       0.06642138 0.009441726 -0.08967647 -0.067478016
000340 d1 cf c3 bc 62 75 f4 3c 89 30 03 bd f7 9e 0e 3d
       -0.023902806 0.029841129 -0.03202871 0.03481957
000350 3c 2a 48 3c 7a ab 91 bb da 5b 07 3d 61 ce bd 3d
       0.012217101 -0.0044454904 0.03304658 0.09267879
000360 8e 61 88 bc cd e5 c5 bd c1 60 3f 3d 37 ba 0c 3d
       -0.01664808 -0.09662972 0.04672313 0.034357276
000370 de 78 c4 bd 05 5c b8 3d da d9 ff 3b bc f1 d4 3c
       -0.09593366 0.09001926 0.0078079524 0.025994174
000380 bb ff d6 bd 55 52 6a bd 82 3a 66 3d 82 94 a8 3d
       -0.104979955 -0.057207424 0.05620814 0.082314506
000390 37 4c 27 bd 4f 80 4c bb 26 a4 d3 bb 4a 1e 07 be
       -0.04084417 -0.0031204408 -0.006458777 -0.13195148
0003a0 e3 1b b3 3d 70 f0 77 3d a7 57 bb bc b7 98 01 bd
       0.08745553 0.060532033 -0.022868944 -0.03163978
0003b0 67 89 ea bd fd ab 1d 3c 4b e5 5c bc fd c5 9f bd
       -0.11451989 0.009623525 -0.013482402 -0.07801435
0003c0 cc ff 18 3d 33 7b 4c bd c1 89 80 3d 6c 3e db 3d
       0.037353322 -0.04992218 0.062762745 0.107052654
0003d0 44 d5 8d 3d 12 bd 8c 3d 18 a2 87 bd 79 ec 9f bc
       0.06925443 0.06872 -0.06622714 -0.019521939
0003e0 b1 e5 01 bd e1 70 dc 3c 13 39 c9 bc 44 d8 6e bd
       -0.03171319 0.026909294 -0.024563348 -0.058311716
0003f0 3f c2 dc bd 0f ee 4a 3d f0 fb 35 3d bb e6 76 bb
       -0.10779237 0.049543437 0.04442972 -0.0037674147

conv1.bias f4 [32]
000000 e7 c1 98 3c 07 cc a8 bc b5 e1 cf bd a2 f4 8a bd
       0.018647147 -0.0206051 -0.10150472 -0.06784941
000010 b9 ce cb 3d 91 f7 ba bd a7 96 3b 3c 7d e1 cc bd
       0.099515386 -0.09129251 0.011449493 -0.10003946
000020 d1 e9 b0 3a 59 73 32 3d 7c 5d 67 bd a8 9f d4 3b
       0.0013497417 0.043567035 -0.056485638 0.006488759
000030 1f 14 2a bd b0 06 b2 bd 9a 77 bd 3d 5f 1f 81 3c
       -0.041523095 -0.08692682 0.09251328 0.01576203
000040 82 25 8b 3d b1 6c 6b 3d 0d a9 94 3d bc bf 9e 3d
       0.067942634 0.057476703 0.072588064 0.07751414
000050 8b af 0c 3d 36 80 90 3d 98 15 9c bc 10 30 a9 3d
       0.0343471 0.07055704 -0.019053265 0.0826112
000060 9a 18 0e bd ec 59 9f 3c 20 ce 8d 3d 72 4e 2b bc
       -0.03469143 0.019452058 0.06924081 -0.010455715
000070 f4 61 96 bd cb 4d 6e 3d 61 2b c5 bd b9 86 b4 3d
       -0.07342902 0.058179658 -0.096274145 0.08814759

bn1.weight f4 [32]
000000 4e cb 87 3f 94 eb 81 3f d9 69 81 3f 8d ac 82 3f
       1.0608919 1.0150018 1.0110427 1.0208908
000010 71 a2 80 3f 90 71 81 3f 67 7c 82 3f 73 40 82 3f
       1.0049573 1.0112782 1.0194215 1.0175918
000020 54 aa 82 3f 61 5f 83 3f 51 85 80 3f b4 31 86 3f
       1.020823 1.0263482 1.0040685 1.0483918
000030 af c7 83 3f cc 00 82 3f 8b d4 86 3f 43 d8 86 3f
       1.0295314 1.0156493 1.0533613 1.0534748
000040 b3 2d 80 3f a9 a6 81 3f 6a 2d 85 3f 11 35 85 3f
       1.0013946 1.0128986 1.0404484 1.040682
000050 11 30 83 3f ff 8a 82 3f 2f 26 82 3f 62 a8 84 3f
       1.0249044 1.0198668 1.0167903 1.0363886
000060 12 ea 86 3f b0 28 85 3f 1c bd 7e 3f 22 0f 88 3f
       1.0540183 1.0403042 0.9950731 1.0629618
000070 f4 a6 82 3f e2 55 81 3f a8 28 84 3f 21 bf 82 3f
       1.02072 1.0104334 1.0324907 1.0214578

bn1.bias f4 [32]
000000 a1 38 8c bc 48 76 3b bc fb ff 85 bc 9a 76 4d bc
       -0.017116847 -0.011441775 -0.016357413 -0.012540484
000010 97 a4 91 bc e1 98 46 bc c0 bf f6 bc cd 15 48 bc
       -0.017778678 -0.01212141 -0.03012073 -0.012212229
000020 8d dc e5 3b 23 f5 de bc 25 b5 34 3b e5 12 b9 bb
       0.007014817 -0.0272165 0.002757379 -0.0056480044
000030 e9 d4 17 bb 64 b6 8b ba b5 69 75 3b 95 0d c5 3c
       -0.0023167676 -0.0010659215 0.003744704 0.024054328
000040 63 32 85 3b 6e 85 38 bc 9b dc 01 bd b5 f2 60 bc
       0.0040648445 -0.011262281 -0.031704526 -0.013729741
000050 20 a4 86 3a 72 cf 03 bc fc 4a bb bb eb 45 62 3b
       0.0010272302 -0.008045064 -0.005715726 0.0034526538
000060 33 6a ae bb 8b 2b 91 bc b6 6e b0 bb ae a9 8a 3c
       -0.0053227185 -0.017720958 -0.0053842915 0.016926613
000070 6c b1 41 3c 44 1d 69 bc 61 cb 05 ba c2 8b 0f 3c
       0.011822086 -0.014228169 -0.0005103853 0.008761348

bn1.running_mean f4 [32]
000000 be be 9a 3c 5a c5 a7 bc 4a d6 cd bd ec af 89 bd
       0.018889781 -0.020479847 -0.10050638 -0.067230076
000010 67 ee ce 3d 82 6d bb bd b8 f9 3c 3c df 8a cd bd
       0.101040654 -0.09151746 0.011534147 -0.10036253
000020 af 43 91 3a 32 83 2f 3d 9c ea 66 bd 14 a0 df 3b
       0.0011082793 0.042849727 -0.056376085 0.0068245027
000030 46 6d 23 bd ab 25 b5 bd a2 cd be 3d ed 5e 8a 3c
       -0.039899133 -0.08845075 0.09316565 0.016890967
000040 3c 54 8c 3d 10 83 66 3d 1c e1 95 3d b9 4b 9e 3d
       0.06852004 0.056277335 0.07318327 0.07729287
000050 ed a5 08 3d 3c 98 93 3d 2f 19 92 bc a0 e8 ac 3d
       0.033361364 0.07206771 -0.017834274 0.08442807
000060 33 c6 0f bd 3a cd a3 3c 39 a6 8a 3d 8c d6 16 bc
       -0.035101127 0.01999532 0.06769986 -0.009206425
000070 99 f4 94 bd e3 0c 73 3d 8a 84 c8 bd db 53 b3 3d
       -0.07273216 0.05933846 -0.09790905 0.087562285

bn1.running_var f4 [32]
000000 59 69 72 3e eb 24 c5 3d a1 7a b2 3e 82 2a 3f 3e
       0.23673 0.09626182 0.34859183 0.18668559
000010 a9 57 13 3f e2 18 ed 3e 30 b8 1c 3e 53 32 12 3f
       0.57555634 0.46308047 0.15304637 0.5710804
000020 fa 2c 9d 3e 5b b0 a6 3e f7 f6 5d 3e 85 ba 40 3e
       0.30698377 0.32556424 0.21676241 0.18821152
000030 4a 56 b8 3e ea e7 87 3f a2 09 27 3e 0a 73 ac 3e
       0.36003333 1.061765 0.16312268 0.33681518
000040 e2 da c4 3f e1 39 1b 3f 98 ad 2f 3e df 85 84 3e
       1.5379298 0.6063519 0.17156065 0.25883386
000050 b9 d6 4b 3f 5e 3a 08 3f ec 30 6e 3f 16 6a be 3e
       0.79624516 0.5321406 0.930434 0.37190312
000060 46 b9 85 3e af f4 18 3e 0d eb a3 3e 03 92 e0 3e
       0.26117915 0.1493709 0.32015267 0.43861398
000070 c1 96 49 3e 5c b5 32 3f a5 2d a1 3e 15 a4 a2 3e
       0.19686414 0.6980798 0.31480137 0.3176581

depthwise.weight f4 [32, 1, 3, 3]
000000 5e e1 63 be f1 5b 27 be f3 03 73 3d 03 0e 89 3e
       -0.2225394 -0.16343667 0.05932994 0.26768503
000010 36 82 98 3e aa 13 a8 3e 43 07 e8 3d 24 0f 4e 3e
       0.29786843 0.32827502 0.1132951 0.20122963
000020 67 90 af 3e 33 a7 98 be 13 3b 4d be dd 82 82 3e
       0.34289858 -0.29815063 -0.20042066 0.25490466
000030 4e 3f 93 3e 8c fb 97 3e d4 f7 59 be d9 40 48 be
       0.28759235 0.29684103 -0.21285945 -0.19555987
000040 8a 66 35 be ca 6e 0f be 1c 50 f3 3c e9 14 8a 3c
       -0.17714897 -0.14007106 0.029701285 0.016855674
000050 d4 3f 73 be 44 64 b0 be 48 b4 97 be ee d1 34 38
       -0.23754817 -0.34451497 -0.2962973 4.3110856e-05
000060 9b 09 37 3d c8 7c 21 3e 55 25 11 3e 4f 2b a6 bd
       0.044686895 0.15770257 0.14174397 -0.08113729
000070 e2 bc 30 3d 57 7b 31 be 32 88 12 3e 3f c0 27 3e
       0.043148883 -0.17332207 0.14309767 0.1638193
000080 31 2a ac 3e 02 46 a5 3d 6e 00 ea bd fc d1 2f 3e
       0.3362594 0.080699936 -0.11425863 0.17169946
000090 75 37 99 bb ca 7f a3 be f7 c7 2d 3e a3 41 86 3e
       -0.0046758004 -0.31933433 0.16970812 0.26221952
0000a0 c0 d6 63 be 16 6b cc 3c ba aa a4 3e 10 86 76 3d
       -0.2224989 0.024953406 0.32161504 0.060186446
0000b0 d1 7b a5 3e 6c ca 93 3d df 6c 12 be 03 0c cc bd
       0.32321027 0.07216343 -0.14299344 -0.099632286
0000c0 2f 04 04 be e7 69 97 be ff 73 d5 bc 9d bc 40 3d
       -0.12892221 -0.29572985 -0.026056288 0.047054876
0000d0 95 18 79 be 9f a8 ee 3d 2d 10 72 be 7a 2a a5 be
       -0.24325784 0.11653256 -0.23638983 -0.3225897
0000e0 af dc 90 be 29 44 d5 3d 86 4f 1b be 78 07 af bc
       -0.28293368 0.10413391 -0.15167055 -0.021365866
0000f0 9a 41 ab bd 07 a9 62 3e 57 3c 1c be 9d 2c 63 3e
       -0.08362122 0.22134791 -0.15257393 0.22184987
000100 6c 30 88 3d 69 6d 23 bd 85 59 53 be b5 76 4c be
       0.06649861 -0.039899264 -0.20639618 -0.19967158
000110 f0 39 b4 3e 57 18 a7 3e 48 cd fa 3d 5c 45 02 3e
       0.35200453 0.32635757 0.122461855 0.12721771
000120 c4 e8 d9 3d fc fe 56 be e3 7e 5e be 28 ff 8f 3e
       0.106401 -0.20995706 -0.21728091 0.28124356
000130 93 05 65 3d ae 6e a1 3d 8d 17 b3 3e 31 ad d1 3d
       0.05591352 0.078824386 0.34978905 0.10238112
000140 04 e9 ad 3e b0 01 ba bd 7f f9 a3 be c1 e0 a1 be
       0.3396684 -0.09082353 -0.32026288 -0.31616786
000150 29 05 b2 be db 44 a6 be 2d d5 37 3e 1c e7 12 be
       -0.34769562 -0.32474408 0.17952414 -0.14345974
000160 18 70 57 3e 5d 09 82 be f5 4d 18 3e f8 90 f5 ba
       0.21038854 -0.2539777 0.14873488 -0.0018735221
000170 1a 1f 0c 3d 81 97 3c bd 70 7f b7 bd e5 20 88 be
       0.03420935 -0.046042923 -0.08959854 -0.26587597
000180 05 8f f4 3c 67 75 ea 3c ab a2 b7 bc 18 38 a6 3d
       0.029853353 0.028620435 -0.022416433 0.08116168
000190 98 0a 83 3e a5 91 65 be 0c 5a 63 3e e3 63 5b 3e
       0.2559402 -0.2241884 0.22202319 0.21424823
0001a0 7c c8 14 be e8 7b a8 be 05 3b 9f be fa 4a 99 be
       -0.14529604 -0.32907033 -0.31099716 -0.29940015
0001b0 be 60 85 bd 56 32 21 bc 0c bd 90 3e 40 47 b4 3d
       -0.06512593 -0.009838661 0.2826923 0.08802652
0001c0 52 51 86 3e 48 3e b4 bd 7b ab df bd 9a 02 8a 3e
       0.26233917 -0.08800942 -0.10921379 0.2695511
0001d0 7d ba 31 3e 8f 63 e9 3d c5 74 1a 3e 6b 9e 77 be
       0.17356296 0.113959424 0.15083607 -0.24181525
0001e0 84 93 20 bd a9 9c d4 3d 89 2a 9c 3d a2 f8 dc 3d
       -0.039203182 0.10381443 0.076253004 0.107896104
0001f0 3d 7f 91 3e 48 ce 29 3d c1 b2 34 3e ea 5b 32 be
       0.28417388 0.04145649 0.17646314 -0.17417875
000200 aa fb 45 3d ee 4c 16 be b4 6f d2 3d 6b 30 f6 3b
       0.04833571 -0.14677784 0.10275212 0.007513096
000210 63 55 ab 3e e2 ab 9a 3e ed 76 24 3e be 60 9b 3e
       0.33463582 0.3020926 0.16060992 0.30347246
000220 84 23 9e 3e 49 d1 44 bd 65 14 91 3e 97 c1 b0 3d
       0.3088647 -0.048051152 0.28335872 0.08630674
000230 c5 b7 91 bd a8 88 ba bd 37 2c a4 bd ee 16 35 be
       -0.071151294 -0.09108096 -0.08016246 -0.17684528
000240 74 fd ab be ce b1 35 be 95 74 6b 3e 6c 0a 8b 3d
       -0.33591807 -0.17743608 0.22993691 0.06789097
000250 f1 87 0d bb 20 64 f5 bc 2f 23 4c be 40 aa 08 bb
       -0.002159592 -0.02995497 -0.19935296 -0.002085343
000260 64 84 bc bd 48 3c ce bc a1 2c 06 be f9 6a 8c be
       -0.09204939 -0.025175229 -0.13102962 -0.27425364
000270 03 3b 89 be 97 90 93 3e bc 0b 36 3e 05 c6 94 be
       -0.26802835 0.2882125 0.17777914 -0.29057327
000280 b1 02 80 be 31 f9 c2 3d 17 f2 d0 bd f8 8f 02 3e
       -0.25002053 0.09520186 -0.10202425 0.12750232
000290 d0 c8 c5 bd d1 be 05 3e d8 42 60 be 35 a7 5c be
       -0.096574426 0.13061072 -0.21900499 -0.2154816
0002a0 6d 09 18 3e ba cc 39 bd b5 d8 bc be 09 58 0e 3e
       0.14847346 -0.045361258 -0.36884084 0.1390077
0002b0 05 e2 05 bd dd 7b 9d 3e 3d 11 42 3e da b1 01 be
       -0.032686252 0.30758563 0.18951888 -0.12665501
0002c0 52 26 20 3e 7c 11 2d 3e 9b 3a 03 3e c9 fd aa 3e
       0.15639618 0.16901201 0.12815325 0.33396748
0002d0 e2 57 97 bd b1 93 45 bd be 96 4c 3e 81 bf 92 be
       -0.07389809 -0.048236553 0.19979379 -0.2866173
0002e0 77 91 4b 3e e6 c5 b4 be 48 b8 8c be 9d 67 82 be
       0.19879709 -0.35307235 -0.27484345 -0.25469676
0002f0 3d ff 38 3e 8f d7 41 3e 16 a8 0a 3e 8e 73 b1 3e
       0.18066116 0.18929885 0.13540682 0.34658474
000300 8d d3 70 bd 5e 6c 00 be ce 9b 97 be 1f d0 a6 3b
       -0.0587955 -0.12541339 -0.29611057 0.005090728
000310 6b e3 02 3e 64 e2 86 3e 5d af b2 bd b8 4f 6e 3e
       0.12782066 0.26344597 -0.08724854 0.23272598
000320 ce 24 40 be 5e 7a d2 3d 0d c6 93 be fb 79 1f be
       -0.1876404 0.10277246 -0.28862038 -0.15573876
000330 31 8d 0b be b7 81 af be 07 e9 40 be 7f ef d3 3d
       -0.13628079 -0.34278652 -0.18838893 0.10348415
000340 6a 10 4b be 31 88 2c 3d a0 72 bf 3e f9 a1 5f be
       -0.1983048 0.04212207 0.3739214 -0.21839131
000350 25 65 4f 3e d6 0a a2 3e df b2 a5 3e 27 b7 b9 3e
       0.20253427 0.31648892 0.3236303 0.36272547
000360 33 02 37 3e 7a 69 72 3e 0c 00 0a bd bc d6 96 be
       0.17871933 0.23673049 -0.03369145 -0.29460704
000370 2c 43 3b 3e 9d b1 10 3e 7d 68 ec bd 12 35 12 be
       0.18287343 0.14130254 -0.11543367 -0.14278057
000380 fb 75 92 3e 67 0b b5 3d 73 5b aa 3e 84 d9 89 3d
       0.28605637 0.088400654 0.33272895 0.06730941
000390 d9 f5 92 3d cd 73 14 3e b1 b6 94 bd 19 86 3f 3e
       0.07175798 0.144973 -0.07261408 0.18703498
0003a0 c2 dc 56 3e 80 54 9e 3e a1 bf a2 3e 78 9f a1 3e
       0.2098265 0.30923843 0.31786826 0.31566978
0003b0 48 41 27 3e af 70 53 3e 4d 2f 85 3e 8e ea 2e 3e
       0.16333497 0.20648454 0.2601265 0.17081663
0003c0 ec af a1 be 00 58 18 be 31 37 47 3e 74 a1 2f 3d
       -0.3157953 -0.1487732 0.19454648 0.042878583
0003d0 38 99 d4 bc 34 15 92 3a e5 e9 bf be 4e 5d 9a bd
       -0.025951967 0.0011145235 -0.37483135 -0.07537328
0003e0 c5 60 16 3e 04 73 05 bd 78 4c 94 be 8f 8c 9a be
       0.14685352 -0.03258039 -0.2896459 -0.30185363
0003f0 ef e9 74 be f0 85 32 be f0 0a 6f be 08 75 a3 be
       -0.23917364 -0.17433906 -0.23344016 -0.31925225

depthwise.bias f4 [32]
000000 fe 70 89 be 67 ee 23 3e a2 3b 29 3e fe 9b 82 be
       -0.2684402 0.16008912 0.16526654 -0.25509638
000010 dd 09 7a 3e 5b cc 90 be ca d2 c8 3c 6f e2 a0 be
       0.24417825 -0.2828091 0.024514575 -0.31422755
000020 06 fe 37 3e 7f e5 b3 bd 0f 7e 9f 3b f4 07 37 be
       0.17967996 -0.08784007 0.0048673223 -0.17874128
000030 04 df 8d be 97 d4 94 3e 29 d7 53 3e c0 38 a3 be
       -0.2770921 0.29068443 0.20687546 -0.31879234
000040 47 55 8f be a7 45 a5 be ff 28 82 3e 57 2c 00 3e
       -0.2799475 -0.32279703 0.25421903 0.12516914
000050 41 22 0d be c2 a9 60 3d c8 a5 43 b9 21 ee 63 be
       -0.13782598 0.054849394 -0.00018658407 -0.22258808
000060 13 be b8 3c 96 f6 4f 3e 65 c0 ad 3d 8d ce a9 bc
       0.022551572 0.20308909 0.08483962 -0.020728374
000070 00 25 c6 3d 85 8d 0c 3d 95 2a 28 3e e6 0b ee 3d
       0.09675026 0.03431465 0.16422494 0.11623363

pointwise.weight f4 [64, 32, 1, 1]
000000 de be ca bc e0 c1 45 3d 73 ea 45 3e 60 85 b3 3c
       -0.024749216 0.048280597 0.19327717 0.021914184
000010 8c 9c 1d be f0 fc ce bd 19 44 1e 3e fe b6 30 3e
       -0.15391749 -0.10106838 0.15455665 0.17257306
000020 5c 28 1e 3e 10 ba 17 3e 5c 34 57 be 39 06 86 3d
       0.15445083 0.14817071 -0.21016067 0.06544156
000030 a2 64 3f bd 63 4b 25 3e 72 5f e1 bd b6 29 8c 3d
       -0.04672683 0.16142039 -0.11004533 0.06843893
000040 7b c6 af 3d 58 68 b0 bd 91 6b 41 3e a1 65 a1 3c
       0.08582779 -0.08613652 0.1888869 0.01970178
000050 15 78 31 3c 52 35 ce 3d 74 41 d2 3d 91 1d 0b bd
       0.010831852 0.10068764 0.102663904 -0.033963744
000060 75 17 91 3d f2 ba be bd 0f 16 f4 3d 9a f0 26 be
       0.07084552 -0.09313001 0.1191827 -0.1630272
000070 36 cb 85 bd 82 4f 49 3d 7b ce 4c 3e 00 73 38 3e
       -0.065329 0.04914809 0.20000641 0.18012619
000080 41 01 04 be 64 e8 b6 bd 65 4c 27 3d 87 b3 2c be
       -0.12891103 -0.08931044 0.04084434 -0.16865359
000090 90 c3 8f 3d 8b 55 35 3e b9 91 a8 bc a2 5d e0 3d
       0.070197225 0.17708413 -0.020577298 0.10955359
0000a0 94 98 a9 bc 51 8c 41 3d 6f d6 9a bc a8 e5 09 3e
       -0.020702638 0.047252957 -0.018901078 0.13466513
0000b0 29 77 ac bd aa 24 d3 3c 53 eb 54 3e 10 cf 4d 3d
       -0.084211655 0.025774319 0.20792894 0.0502463
0000c0 61 29 d1 3d b3 cf 84 3d 3f b5 96 be f0 6b c5 3d
       0.102129705 0.06484928 -0.29435155 0.09639728
0000d0 cc da d3 3d d9 09 f3 3c 3d 52 a5 3d 82 a9 dd bd
       0.103444666 0.029667782 0.08072326 -0.10823347
0000e0 e9 c8 ca 3d 94 0e c0 3d de 68 0d 3e 1d 47 b7 bd
       0.09901602 0.093777806 0.13809535 -0.08949111
0000f0 55 88 19 bd 3f 01 03 3e 10 5e d0 bd 4f 97 26 3d
       -0.037483532 0.12793444 -0.10174191 0.040671643
000100 ab bb 36 3e 48 46 73 be 27 ea 21 be 76 54 f1 3d
       0.17845027 -0.23757279 -0.15811978 0.11783688
000110 52 70 d1 bd e1 fd c1 3c 74 c4 bd 3d ac 24 10 3e
       -0.102265015 0.02368063 0.09265986 0.14076489
000120 0b 24 e9 3d 57 22 3f be 19 c8 28 bd 44 e0 21 3e
       0.11383828 -0.18665443 -0.041206453 0.15808207
000130 ef 07 8f bc 6f 25 df 3d c5 67 12 3e 4e 3c 07 3d
       -0.017459838 0.10895812 0.14297397 0.033016495
000140 83 0b 19 3e 7c 19 5a 3d 6c 44 e5 bd 6e 76 0b bd
       0.14945798 0.05324696 -0.11194691 -0.03404849
000150 47 ea 17 3e 3e 21 97 3d 80 22 db 3d 35 ca e9 3c
       0.14835463 0.07379387 0.1069994 0.028538803
000160 82 83 5e 3c 23 10 7b bd 9c e5 80 3b 3a 81 98 bd
       0.013581159 -0.061294686 0.0039336216 -0.07446523
000170 da e6 97 bd ca 36 2d be a6 f1 1b bd a8 2d 2a be
       -0.07417078 -0.16915432 -0.03807225 -0.16618979
000180 37 4d 27 be 5c c1 c2 3d 62 f3 84 bb f5 66 b1 bc
       -0.16338049 0.095095366 -0.004057334 -0.021655539
000190 15 b7 b6 bd 95 97 42 3d 2c 68 14 bd 97 16 f0 3d
       -0.08921639 0.04750784 -0.03623216 0.11723059
0001a0 ea 36 67 3d e1 0f 59 bd 59 88 51 3d dd 14 9a 3d
       0.056448855 -0.05299366 0.051155422 0.075235106
0001b0 c3 cc 05 3e 1f 47 5c bd 9a 09 71 3b af 4b bf bd
       0.13066392 -0.053778764 0.0036779405 -0.093406074
0001c0 74 91 d4 3d 99 88 c7 bc 46 82 dd 3d d8 e2 aa 3d
       0.103793055 -0.024357127 0.10815863 0.08344048
0001d0 c9 be 81 bb ba e9 33 3e 9f ff 20 be 7c c0 f7 3d
       -0.003959511 0.17569628 -0.15722512 0.1209726
0001e0 2e 6d c8 3d 67 34 e2 bd c2 5c 28 3e 9c 04 91 bd
       0.097864494 -0.11045151 0.16441634 -0.07080957
0001f0 68 f2 9a bd ec d2 33 3e eb 9d f5 3d cd 88 f8 3d
       -0.075657666 0.17560929 0.11993011 0.12135468
000200 a5 be 89 3d 62 eb 9b 3d a0 cb 26 bd c5 45 95 3d
       0.06725816 0.07613255 -0.040721536 0.07288698
000210 78 32 bd bd d9 1c e9 bd 3a 21 97 bc 49 4f 41 be
       -0.09238142 -0.113824554 -0.01844846 -0.18877901
000220 d7 db 0e 3d c5 ed ab bd 9a 6f 08 be be 4c 24 be
       0.034877624 -0.0839496 -0.13323823 -0.160449
000230 32 e0 68 3e 17 61 e7 bc 40 54 1d 3e b1 0d 08 3e
       0.22741774 -0.028244538 0.1536417 0.13286473
000240 b6 a8 85 3c 1d 9a b3 3d a6 10 2d 3e 24 c5 e2 bd
       0.0163158 0.08769629 0.16900882 -0.11072758
000250 2c 92 20 3e d0 f1 2c 3e 36 c6 ba bd 54 7d 42 3e
       0.1568076 0.16889119 -0.09119837 0.18993121
000260 0f 08 00 3c ce df 0f be 45 20 8c 3b e5 21 2c be
       0.007814421 -0.14050218 0.0042763078 -0.16809805
000270 b8 15 37 be d3 32 bd 3d ef b1 55 3d 37 2c 7f 3d
       -0.17879379 0.092382096 0.052171644 0.062298026
000280 e0 e5 37 3d 13 57 67 bb cd 61 33 3e 04 51 3b 3e
       0.04489696 -0.0035299703 0.17517777 0.18292624
000290 95 86 1b 3e ed 23 e7 3d 1c e0 fe bd a2 14 a8 bb
       0.15188058 0.11286149 -0.12445089 -0.0051294127
0002a0 9f 8a 8c bd 97 df b7 3d a5 84 bb bd 8f 44 9d 3d
       -0.068623774 0.08978193 -0.09156159 0.07679092
0002b0 6d 03 58 bd a5 41 08 3d 27 68 47 3d 06 f5 7c bd
       -0.052737642 0.03326573 0.04868331 -0.06175711
0002c0 ec a3 16 3c 2c 1e 23 3d 3b 5f 10 3d 76 06 04 3e
       0.009194355 0.039823696 0.03524707 0.1289309
0002d0 5a 5e df bd a4 98 a7 3d 0c b7 e8 bd 3d 90 bf bb
       -0.10906668 0.08183411 -0.113630384 -0.005846052
0002e0 85 ec ce bc 55 92 7d bd 3f d7 98 bd 76 aa 8b 3d
       -0.025259266 -0.06190713 -0.0746293 0.06819622
0002f0 ce a1 e1 bd 26 a2 f0 3d 20 bc c8 3d 3f e3 e9 bc
       -0.1101719 0.11749677 0.09801507 -0.028550742
000300 3e 08 04 3e 4a 85 e9 bd c9 44 0a be b4 17 82 3e
       0.12893769 -0.11402376 -0.13502802 0.2540871
000310 75 e4 2b be 02 d6 0b be d7 19 1f bd 79 50 2f 3e
       -0.16786368 -0.13655856 -0.038843002 0.17120542
000320 d3 7a fb bd 70 48 1e be f9 ae 50 be 03 03 2e bd
       -0.12279286 -0.1545732 -0.20379247 -0.04248334
000330 65 61 32 3d eb ca e9 3d 7f 41 16 be 97 1e 65 bc
       0.043549914 0.11415657 -0.14673422 -0.013984344
000340 db e9 98 bd 23 70 69 3d 58 00 29 be 2b 03 81 bd
       -0.074664794 0.056991708 -0.16504037 -0.06299432
000350 84 d7 02 3e 55 33 26 be 55 7e b8 bd 68 e5 03 be
       0.12777525 -0.16230519 -0.09008471 -0.1288048
000360 d7 e2 f0 bc b4 14 07 be b7 5b 06 be 8a 87 14 be
       -0.02940504 -0.13191491 -0.13120924 -0.14504829
000370 93 ad 22 3e 97 dc eb 3d 86 7c c4 3d 45 44 20 be
       0.15886526 0.115166835 0.095940635 -0.15651043
000380 72 ef 9a bc ad ca 5e 3c dc 1e 58 3d 5d c8 11 3e
       -0.018913005 0.013598126 0.052763805 0.14236589
000390 c8 7c 88 3c fb fa 0c 3e f8 2e 94 bd 66 7e fa bd
       0.016661063 0.13767616 -0.07235521 -0.1223114
0003a0 8b fc b3 bd 57 58 02 3e 47 b7 88 bd 84 d3 e4 bd
       -0.08788403 0.12729011 -0.066755824 -0.11173156
0003b0 37 ef 4a 3e fa d6 05 be 0d 0c f4 3d 8b 72 6e bd
       0.19817816 -0.13070288 0.11916361 -0.058214705
0003c0 34 fe c4 3c 5c 43 08 be c9 f1 29 3c 87 16 b1 bd
       0.024046995 -0.13306946 0.0103725875 -0.08646875
0003d0 e0 c6 c3 3c 7d be 0c 3e 62 b2 24 be de e1 60 3e
       0.023898542 0.1374454 -0.16083673 0.21961161
0003e0 bb e8 0e bd af 3f 31 bd 75 74 33 3d 97 d2 cc bd
       -0.034889918 -0.043273624 0.043812234 -0.10001104
0003f0 39 9b 00 be c4 c5 02 3e ed 19 2d 3c 60 9e a1 3a
       -0.12559213 0.12770754 0.010565263 0.0012330525

pointwise.bias f4 [64]
000000 eb 51 b3 bd a7 e2 3f bd 2e e7 ab 3d 72 54 b7 3d
       -0.08755859 -0.046847012 0.083937034 0.089516535
000010 25 5f cf 3d ba 53 cf 3d 18 ac 93 3d ad 77 5d bd
       0.10125569 0.101233914 0.07210559 -0.05406921
000020 00 06 79 bd 5a f3 a9 bd 4f 85 f0 bd be 74 96 3d
       -0.060796738 -0.08298369 -0.117441766 0.073464856
000030 14 f0 1f bd 8b 42 d1 3c ed 74 52 bd ed 84 2b bd
       -0.039047316 0.025544425 -0.05138104 -0.041874815
000040 f8 85 97 bd c4 22 e4 bd 97 48 00 be 8f e3 16 bd
       -0.073985994 -0.111394435 -0.12527691 -0.03683811
000050 7b 48 c5 bc a4 47 09 be 40 87 7c 3d 0b 57 53 bd
       -0.024082413 -0.13406235 0.061652422 -0.051596683
000060 d8 f4 6a 3d bf 7f 91 bc 82 3c e6 bd 5d d3 0f 3a
       0.057362407 -0.01776111 -0.1124201 0.00054865127
000070 75 0b ac bd 7b 85 16 3e c8 43 88 bd ac 12 17 bd
       -0.08400623 0.14699356 -0.06653553 -0.03688304
000080 0a 0d c8 3c 6d e0 17 3d c7 31 5b 3d 29 c9 93 3d
       0.02442028 0.037079263 0.05351427 0.07216103
000090 e1 67 20 bd 38 5b 88 3d 01 a3 32 bd c4 c7 b1 3c
       -0.039161567 0.066580236 -0.043612484 0.021701701
0000a0 9c 41 fe 3d 57 15 b4 3d 42 28 d5 bd 82 65 0a 3e
       0.12414858 0.08793133 -0.10408069 0.13515285
0000b0 24 0a 65 3c 36 09 f3 3d 85 e2 75 bd 72 e0 85 bd
       0.0139794685 0.11866991 -0.06003048 -0.0653695
0000c0 16 dd c7 3d 93 3a 10 be ab d8 36 bc 32 04 56 bb
       0.09758966 -0.14084844 -0.011160056 -0.003265631
0000d0 84 b5 ae bd a0 07 33 bc dc 91 44 bd 09 0e 6c bd
       -0.08530715 -0.010927111 -0.047990665 -0.057630572
0000e0 43 10 c9 bd 6b 4f 5c 3d b9 3e cd bd 06 d5 11 be
       -0.09817555 0.053786676 -0.10021729 -0.14241418
0000f0 2c d3 bc bd 2f d0 a0 3d 08 c4 c9 3c f3 9e 3b 3d
       -0.09219965 0.07852208 0.024629608 0.045805883

fc.weight f4 [2, 1024]
000000 71 6a 9b 3d bd 54 86 3c 78 cb 67 3d f0 74 31 3d
       0.075886615 0.016397828 0.056590527 0.04332441
000010 92 6f e9 3c e7 1e 45 3d 9e d4 56 3d a1 95 ff 3c
       0.028495584 0.048125174 0.05244886 0.031199278
000020 09 34 83 3d 50 42 38 3d 4b 81 90 3d e5 70 1e 3d
       0.06406409 0.044985116 0.07055911 0.038681883
000030 47 7e 6d 3d 8b db 98 3d 0f 57 9a 3d 5a ef 8b 3d
       0.057981756 0.074637495 0.07536136 0.06832762
000040 6c c1 02 bd 25 8f 04 bd f2 30 76 3d 74 09 a4 3c
       -0.031922743 -0.032363076 0.06010527 0.020024039
000050 9d 51 d6 bd 07 d2 89 bd 3c 8a 8d bd a9 7b b1 3d
       -0.10464785 -0.06729513 -0.06911132 0.086661644
000060 c2 c2 c6 bd 7e 59 00 be c5 cd a9 bd 38 ce be bd
       -0.09705116 -0.12534139 -0.082912005 -0.09316677
000070 33 40 ab bd 34 8a b4 bd 68 d7 92 bd ff 6f 0d be
       -0.083618544 -0.08815423 -0.07169992 -0.13812254
000080 7b e7 ad bd b7 37 9f bd 7f 33 ae bc 15 67 68 3b
       -0.08491417 -0.07774299 -0.02126479 0.0035461832
000090 93 b2 a1 bd 6c 96 83 bd 9c 98 31 bd 96 f6 fb bc
       -0.078953885 -0.06425175 -0.04335843 -0.03075723
0000a0 ca 7b 86 bd 79 42 c2 bc ea 05 96 bd 80 68 5c bc
       -0.0656658 -0.023713337 -0.07325347 -0.013452649
0000b0 f0 2d 2e bd 61 a3 35 bd 4b ba 26 bd c1 e8 c0 bc
       -0.04252428 -0.044345263 -0.040705007 -0.023548486
0000c0 f0 e7 27 3c 14 36 ff bb 2b 8a ae 3c 4e ed 41 3d
       0.010248169 -0.007788429 0.021306118 0.047345452
0000d0 fb a9 6d bc cb 64 80 3d f0 5d 18 3d 68 77 8c ba
       -0.0145058585 0.06269225 0.03719896 -0.0010716738
0000e0 33 16 19 3d 2e 58 79 3d 5d c7 89 3c c8 39 dc 3c
       0.037374686 0.06087511 0.016818697 0.026883021
0000f0 c9 5c a3 ba b5 67 d2 3c 99 e0 2b 3d 1b 44 a2 3c
       -0.0012463565 0.025684217 0.04196224 0.019807866
000100 04 46 0f bd 20 df 13 3d e4 61 a0 3c de b9 32 3d
       -0.03497888 0.03610146 0.019577928 0.043634288
000110 8e 7a 42 bc cd 60 37 3d 78 84 12 bb dd 70 86 3c
       -0.01187004 0.04477005 -0.002235679 0.01641124
000120 23 91 36 3c 54 d1 bc 39 76 74 ec bc 3b 87 01 3d
       0.011143002 0.00036014116 -0.028864127 0.031623106
000130 03 b1 c8 bc f0 c4 fa bc 76 3b 87 bb 80 22 ab 3c
       -0.024498468 -0.030611485 -0.0041269613 0.020890474
000140 6b 3a 88 3c ca 4c 96 3c dd 30 c1 bc 4a be c3 3b
       0.016629418 0.018347163 -0.02358287 0.005973612
000150 bd 16 e8 3c 59 f5 cb 3c 30 9f aa 3b 1c ca b7 3c
       0.028331155 0.024897264 0.005206965 0.02243524
000160 9a f9 00 3b b8 43 6d 3c 7d f7 00 bc 65 f2 ba bc
       0.0019680024 0.014481477 -0.007871506 -0.02282066
000170 1f 22 e0 bc c0 de 59 3b 93 e3 33 3d 22 cc 31 3d
       -0.02736002 0.0033244342 0.043918204 0.043407567
000180 23 58 01 bd b1 43 f5 bc d3 dd af bb 6a 4c d0 bc
       -0.031578194 -0.029939504 -0.0053670197 -0.025427062
000190 2f 66 78 bd b8 6d b4 bc 91 37 21 bd ce 79 f3 bb
       -0.060644325 -0.022024974 -0.039359633 -0.0074302917
0001a0 fa 5d 64 bd 69 00 3c bd 79 ab 0b bc 3c 31 45 bc
       -0.055753686 -0.04589883 -0.008524769 -0.012035664
0001b0 05 1f 16 bd c8 ed 97 bd 09 2a 6c bd 09 67 38 bd
       -0.036650676 -0.074184 -0.057657275 -0.045020137
0001c0 42 b3 93 3d 54 c1 8e 3d d7 df 65 3d ce 8b a1 3d
       0.07211925 0.06970468 0.056121673 0.07887994
0001d0 b3 fe ac 3d 52 01 c5 3d 2d 5d 4e 3d e7 e4 78 3d
       0.084470175 0.096193925 0.050381828 0.060765173
0001e0 54 88 96 3d 0b a3 88 3d 2c f7 c1 bc fd 6a 6a 3d
       0.07350221 0.06671723 -0.023677431 0.05723094
0001f0 85 ad 42 3d a2 52 33 3d 43 ef 19 3d d1 c5 c9 3d
       0.047528762 0.043779977 0.037581693 0.098521836
000200 10 67 2e 3c b6 27 ea 3c 5b 19 05 3d 9e fa 1a 3d
       0.010644689 0.028583389 0.032494884 0.037836663
000210 d3 c6 92 bc d7 6d 00 3d 14 8f 01 3d 0e d6 46 bd
       -0.017917072 0.03135475 0.03163059 -0.048543982
000220 4d 8a 86 3c f8 d0 9f 3d 46 f6 0e 3d 31 27 7a 3b
       0.016423369 0.078035295 0.034902833 0.0038170333
000230 6b 62 8c 3d 7e ef 6a 3d 22 39 a0 bc 2c 81 3f 3d
       0.06854709 0.057357304 -0.019558493 0.046754047
000240 38 90 9b bc 89 d6 38 3c f3 0a 39 3d fd 83 2b 3d
       -0.018989667 0.011281618 0.045176458 0.04187392
000250 07 ff 2e bd 63 28 cb bc 33 ba 68 bd 80 26 a1 bc
       -0.04272368 -0.024799531 -0.0568182 -0.019671679
000260 ae e8 37 bd 51 af d9 bc 71 db aa bd b7 74 31 bd
       -0.044899635 -0.026572855 -0.083426364 -0.0433242
000270 7e 1c ae bc 68 08 83 bd 51 63 88 bd 08 7a 99 bd
       -0.02125382 -0.06398088 -0.06659568 -0.07493979
000280 9c 59 2f bd 9c c7 cd bc fc e5 d5 bc 9d 92 fa 3c
       -0.042810068 -0.025119595 -0.026110642 0.030587489
000290 bc 8e c6 3c f1 96 e7 3c ba 95 6e 3c 1d 84 39 3d
       0.024237983 0.028270217 0.014562065 0.04529201
0002a0 da 7f 14 bc 4b e5 8a bc 0b e8 c1 bb fa 03 34 3c
       -0.009063685 -0.016955039 -0.0059175543 0.010987276
0002b0 34 8e 61 bc 30 76 5f bd f4 d8 84 bb 16 92 ef 3c
       -0.013766814 -0.05455607 -0.004054183 0.029244464
0002c0 e6 f9 f1 3c 2c ba 04 bd 3d 5c 2d bd 78 c3 64 3c
       0.029538106 -0.03240411 -0.042324293 0.013962619
0002d0 bd 93 fc bb e9 c5 8f bd ec cc c8 bc e7 4f f1 bb
       -0.0077080415 -0.0702017 -0.024511777 -0.0073642614
0002e0 83 b6 3f bd e6 83 3c bd 49 5a 27 bd d5 c1 10 3c
       -0.046804916 -0.046024226 -0.040857587 0.008835276
0002f0 80 8b 2d bd 63 1d ba 3c 80 05 a1 bc 97 37 05 bd
       -0.042369366 0.02271909 -0.019655943 -0.032523718
000300 55 1f e7 bb 9b 97 1c bd 88 3f 9c 3c b4 09 96 3c
       -0.0070532956 -0.03823052 0.019073263 0.018315174
000310 07 e5 3c bd bc 6d 89 3c 13 96 c2 bc 2e 11 1a 3d
       -0.046116855 0.016775958 -0.023753202 0.03761404
000320 99 0b 20 bd fd e5 ba 3c f4 1b 73 3b fc eb 5c 3c
       -0.03907356 0.022814745 0.0037095519 0.013483997
000330 ad de 8e 3c e9 75 32 bd 6b c7 01 3c 98 40 8f 3c
       0.017440164 -0.04356948 0.00792108 0.017486855
000340 48 8d ee bc 55 8b 80 bd 4d 48 80 bc 30 c5 91 bc
       -0.029120103 -0.062765755 -0.015659476 -0.017794222
000350 46 b3 6c bd 32 27 4a bd 67 3a 40 bd 7f eb 7c 3a
       -0.057788156 -0.049353786 -0.046930697 0.0009648129
000360 e0 a4 35 bd cb 80 3e 3b 35 45 64 bd 4c b2 2a bd
       -0.04434669 0.0029068466 -0.055730063 -0.041673943
000370 d8 7c 8a bd 74 50 e8 bc c8 16 3f bd d3 95 2e bc
       -0.06762093 -0.028358676 -0.046652585 -0.010655838
000380 60 30 ea 3d da b2 ab 3d 11 3c f4 3c 8d 39 79 3d
       0.11435008 0.083837226 0.029813798 0.0608459
000390 0a f5 94 3b d0 a8 66 3d 0e 19 96 3d 2a 93 05 3d
       0.0045458125 0.056313336 0.073289976 0.03261105
0003a0 c6 47 8a 3d 6a f3 aa 3d af 45 c3 3d 0e ca 12 3d
       0.06751971 0.08347209 0.095347755 0.035837226
0003b0 59 97 57 3d ce 9a 9e 3d e2 07 68 3d f7 fc 85 3d
       0.05263457 0.077443704 0.056648143 0.0654239
0003c0 54 01 e3 3c a1 88 15 3d 77 37 51 bd 1f 69 d6 3c
       0.027710594 0.036507253 -0.051078286 0.026173173
0003d0 79 4c 41 3d 73 bb 34 3e 03 9d 51 3d 77 1a 9f bc
       0.04719207 0.17649631 0.05117513 -0.0194218
0003e0 01 71 48 3d 46 a1 60 3d 28 4d 00 bd 93 e4 fd 3c
       0.048935894 0.054841302 -0.031323582 0.030992782
0003f0 4d 78 f4 3c 1b be ea bc 31 3c 55 bd 38 b4 cf 3d
       0.02984252 -0.028655102 -0.052059356 0.10141796

fc.bias f4 [2]
000000 ca a7 d6 bb 62 88 28 bc
       -0.0065507637 -0.010286422
