model/CNN/saved_models/split_pad5_patch50/smallcnn4_fold1_pad9_patch50.pth (torch, 35659 bytes, 12 tensors)

conv1.weight f4 [32, 10, 3, 3]
000000 da 6c a5 3c b5 da d0 bd ce 35 8d bd a5 ae 24 bd
       0.020193506 -0.10197965 -0.06895028 -0.040205617
000010 13 b4 08 be b1 a8 16 be 0b 6f 53 bd 8b 00 b0 3b
       -0.13349943 -0.14712788 -0.05161957 0.0053711585
000020 4c 72 79 bd fe e5 59 3d 6c b5 9a bb 1b 4f 16 3d
       -0.060900018 0.053197853 -0.004721334 0.036696535
000030 0e 74 2f 3d bb c9 13 3d 77 db 0b 3e 22 57 6e 3d
       0.042835288 0.036081057 0.13657938 0.058188565
000040 bb 78 b0 3c 17 95 f5 3d 75 54 48 bc 4b 08 71 3d
       0.021541944 0.11991327 -0.012227167 0.0588458
000050 f5 3a b6 bd 6f 10 b8 bd da 35 16 bd f6 63 ee 3d
       -0.08897964 -0.089875095 -0.03667245 0.1164016
000060 71 4c 95 bd 86 61 84 bd 56 1b 1c bd 6f ab d9 bd
       -0.07289971 -0.064639136 -0.038112007 -0.106284015
000070 0d c8 b9 bd 42 92 33 bd 90 d9 46 3d 91 30 57 3c
       -0.0907136 -0.043840654 0.048547328 0.013134138
000080 cf be ae bd 08 99 88 3d 06 51 bd bc 8a a4 8c bd
       -0.085324876 0.066698134 -0.023109924 -0.06867321
000090 77 80 3e bd 2b 92 0d bd 77 bc 53 3b 3f 44 ec bd
       -0.046509232 -0.034563225 0.0032308379 -0.115364544
0000a0 1d 85 3e 3d 3a f5 64 bd e3 12 db bd 2a 64 d9 3c
       0.046513665 -0.05589793 -0.10696962 0.02653702
0000b0 0d ab 25 bd 9c f0 62 3d 93 04 92 3d bf 4d 07 bd
       -0.04044633 0.055405244 0.07129779 -0.03303313
0000c0 c0 74 89 3d 57 5c 75 bd bb 82 8d bd 23 26 08 bb
       0.067117214 -0.059902515 -0.069097005 -0.0020774684
0000d0 d1 20 b9 bd 8d f9 3f 3d 07 2e c0 3c 34 91 bf bd
       -0.09039462 0.04686885 0.023459448 -0.09353867
0000e0 0e dd 87 bd 33 19 71 3d 42 eb 21 bc 66 f8 be bd
       -0.0663396 0.058861922 -0.00988275 -0.09324722
0000f0 3f ad 37 3d df 0c d9 bd d2 cc bb 3d 55 77 c5 bd
       0.044842955 -0.10598158 0.09169926 -0.096419014
000100 54 62 f4 3c cc 65 e3 bc ce 8f 06 3d 84 10 ca bd
       0.029832043 -0.027758501 0.032851987 -0.09866431
000110 13 5e 80 bb 83 69 9e bd 2a fb 3b 3d dc d2 b8 bd
       -0.0039174645 -0.077349685 0.045893826 -0.09024593
000120 4a af 70 bd 9d af 7c 3c 18 4e c5 3d d0 3d 0e 3d
       -0.05876092 0.015422729 0.09634036 0.034726918
000130 46 be a9 3d c2 45 bc 3d ca 72 9e bd 65 c7 97 3d
       0.08288245 0.09192993 -0.07736738 0.07411078
000140 d3 3e ed 3c 5a 8a ae bd 1e b1 53 3d fa 70 ca bd
       0.028960621 -0.08522482 0.051682584 -0.0988483
000150 c6 dd 28 bc 63 8e 9b 3c 8f 2b 02 3c c3 76 78 3c
       -0.010306781 0.018988794 0.0079449555 0.015165034
000160 9d 4d 82 bd 97 d4 43 bd 33 69 02 bc 39 36 e4 bc
       -0.0636246 -0.047810163 -0.007959652 -0.027857887
000170 16 e2 d2 bd 4a 4d 04 3d 46 d1 ad bd de 00 a2 3c
       -0.10297029 0.03230027 -0.08487181 0.019775804
000180 d0 15 07 be 17 a3 8e bd 8f fe 12 be 57 9f f9 3a
       -0.13191915 -0.06964701 -0.14354919 0.0019044679
000190 5f 33 17 3d 56 bc 44 bd 0c ea 6d 3c f7 9f 0a bc
       0.036914226 -0.048031174 0.014521133 -0.00846099
0001a0 72 cd 91 3c 48 1b a4 3b 2a f3 94 3c 40 ce 7b 3c
       0.01779816 0.005008135 0.018182356 0.015368998
0001b0 65 02 97 bd 76 e8 05 3d 9b f0 40 bc fc 6d b2 bd
       -0.073735036 0.032692395 -0.011776115 -0.08712384
0001c0 f8 a9 2a 3d b9 39 dc bc 72 27 8d bd be 53 1f bd
       0.041666 -0.026882993 -0.06892289 -0.038898222
0001d0 d6 98 8e bc 58 3b d8 3c d6 0f d9 bc 8f 0e 59 3b
       -0.017406862 0.026395485 -0.026496809 0.003312025
0001e0 99 0d 03 3e fd b3 80 3d 1a ff 98 3d 33 c2 28 3e
       0.12798156 0.0628433 0.07470532 0.16480331
0001f0 27 ec c7 3d 9b 76 8c 3c bf 50 b7 bc f3 f5 66 3d
       0.09761839 0.0171464 -0.02237737 0.0563869
000200 36 70 89 bc 97 9e 2d 3d 93 6a af bd 25 43 2c 3d
       -0.01677714 0.04238757 -0.08565249 0.04205622
000210 5e 19 aa bb 5a 34 9b bd f8 14 07 3d a4 bf a6 3d
       -0.0051910123 -0.07578345 0.03297898 0.08142021
000220 c8 1e ca 3d 73 7b 3c bd ac 26 61 3d 7e 3a 04 3d
       0.09869152 -0.046016168 0.05496852 0.032282345
000230 cb 37 00 bc 03 43 d2 3d 23 88 ee 3d 0c b0 95 bd
       -0.007825802 0.10266688 0.1164706 -0.07308969
000240 3a 3f c8 3d d4 90 ad bc ec 1c 35 3d 3c 0c ba 3d
       0.097776845 -0.021187223 0.044217035 0.09084365
000250 5e 65 b0 3d 43 a7 22 bc a8 8e 52 3c f7 16 aa 3d
       0.08613084 -0.009927574 0.012851395 0.083051614
000260 4a d9 85 3c 90 1c c8 bd 48 61 90 bd a9 d3 98 bc
       0.016338963 -0.09771073 -0.07049805 -0.018655615
000270 f6 b4 da bc fc 5f 0a bd 37 27 5b 3d f9 22 c4 bd
       -0.026697617 -0.033782944 0.053504195 -0.09576983
000280 39 61 a7 bd f2 56 25 3d df c8 f6 bd 0a 34 51 3d
       -0.081728406 0.04036612 -0.12050032 0.05107502
000290 4d e3 26 bc ed 69 0c be 18 36 8e bc 85 c7 b0 3c
       -0.010186029 -0.13712282 -0.017359778 0.021579513
0002a0 cc 8c 6a bd a7 40 97 bd 75 5d 39 bd 1b 72 ac bd
       -0.05726318 -0.07385378 -0.045255143 -0.084202014
0002b0 51 cf d7 bb b1 9c 91 bd 01 1f a0 bd 2e a7 7c bd
       -0.0065859933 -0.07109965 -0.078184135 -0.061682872
0002c0 2b af 7d bd 15 26 9a bd 9f d6 04 3c de 71 0a be
       -0.06193463 -0.07526795 0.00810781 -0.1352
0002d0 08 78 3e be 48 dc 93 bd 8f c7 bf bd f1 4c 16 be
       -0.18600476 -0.0721975 -0.09364235 -0.14677788
0002e0 4f 2b 85 3d f2 10 95 bb 18 d9 92 bc 8f 21 cb bd
       0.06502401 -0.004549139 -0.017925784 -0.0991851
0002f0 08 58 88 bd 3c df fa 3d 95 c3 fc bb 1c 0e 8e bc
       -0.06657416 0.1224961 -0.007713745 -0.017340712
000300 15 2c eb 3d 15 af 0c bb bc 34 c4 3d 53 7c 7a 3d
       0.11483017 -0.0021466662 0.09580371 0.06115372
000310 5f 05 26 3d 27 9e af bd 79 c8 d2 bc 1a 11 83 3d
       0.040532466 -0.08575087 -0.025730358 0.06399746
000320 70 b6 46 bd 43 50 bd bd 3a b8 92 bd 2c 95 13 3d
       -0.04851383 -0.09243824 -0.07164045 0.036030933
000330 c2 1a 0c 3d d5 cc 29 bd 2c 15 87 bd 40 a1 33 3d
       0.034205206 -0.04145511 -0.06595835 0.04385495
000340 5a 2e ac bc 82 6b bc bc 0e 2d 03 3c 6a f8 da bc
       -0.021018196 -0.023000482 0.008006347 -0.026729781
000350 7e 83 6d bd 37 28 ac 3d d2 0c c1 3c 14 62 c4 3d
       -0.05798673 0.08406108 0.023565684 0.095890194
000360 97 11 5b bd 3b e7 f5 bc 6d 22 f0 3c 29 24 a5 bd
       -0.05348357 -0.030017486 0.02931329 -0.080635376
000370 51 34 8b 3c 1f d5 a3 3d 37 6f 80 bd 30 cb 9d bc
       0.01699272 0.07999634 -0.062712125 -0.019261926
000380 b5 00 55 bd 20 aa 86 3c c4 e5 45 bc 84 73 01 bd
       -0.052002627 0.016438544 -0.012078706 -0.031604305
000390 bf 12 8e bd 08 6c 8c 3d 1e a3 5f 3d eb d7 39 3d
       -0.06937169 0.06856543 0.05459892 0.04537193
0003a0 8e a1 83 bd 3d 0a 63 3d 38 b1 9a 3d 1d 8f 83 3d
       -0.064272985 0.055429686 0.07553333 0.06423781
0003b0 b7 70 62 bd 5d 5f c7 bd 8e 11 bf 3c 98 04 de 3d
       -0.055283275 -0.09734986 0.0233238 0.1084072
0003c0 9d 00 5d 3d 9e cb 5e bc be f2 d7 3c 58 be 9a bd
       0.053955663 -0.013598351 0.026360866 -0.075558364
0003d0 08 35 8a bd c7 91 1f bd 2b 16 0e bd b4 17 b5 bd
       -0.06748396 -0.038957383 -0.03468911 -0.08842412
0003e0 0a ba 84 bd d7 e7 51 ba bc b0 64 bc 29 99 a5 bd
       -0.06480797 -0.0008007264 -0.013958152 -0.080858536
0003f0 19 20 85 3d b8 e6 63 bd 34 3d 94 3c 7a 96 75 3d
       0.06500263 -0.055639952 0.01809559 0.05995796

conv1.bias f4 [32]
000000 2c e6 cb bd 5d 49 a5 bd 1a 74 90 bd 04 65 4a 3b
       -0.09956011 -0.080706336 -0.070533946 0.0030882964
000010 d0 d4 06 3d 22 e9 41 bd ef 03 0c bd 23 2f ed bd
       0.032917798 -0.047341473 -0.03418344 -0.11581256
000020 9a f1 6d 3d 32 4b 99 bd 56 1b 4f bd 39 31 09 bd
       0.058091737 -0.074850455 -0.05056318 -0.033494208
000030 5b 36 4d bd 04 00 42 bd 59 07 31 bd 15 d9 4b 3d
       -0.050100666 -0.047363296 -0.043219898 0.049767572
000040 97 a0 97 3d 3f c4 9c 3d bf 5b 7d 3b 2f 12 ae bc
       0.07403677 0.076546185 0.0038659421 -0.021248905
000050 2d 26 1a bd 96 df 9a 3d ce 33 12 bc e7 ae 41 3d
       -0.037634064 0.07562177 -0.008923484 0.04728594
000060 6e ee af bd f6 2c d1 ba f1 9b ad bb 8f 29 9d 3d
       -0.08590399 -0.0015958834 -0.0052981307 0.07673942
000070 79 0f a6 3d fb fb bd 3d a1 96 b5 3d 55 4b 22 bd
       0.0810842 0.09276577 0.08866621 -0.039622623

bn1.weight f4 [32]
000000 75 43 85 3f 3c d4 83 3f e2 77 84 3f 40 9e 87 3f
       1.0411211 1.0299144 1.0349085 1.0595169
000010 d3 9b 7d 3f 0c 8c 89 3f 59 e3 82 3f d6 ea 86 3f
       0.99065894 1.0745864 1.0225631 1.0540416
000020 1c b8 84 3f af 6e a1 3f a3 94 87 3f 8f f2 87 3f
       1.0368686 1.2611903 1.0592235 1.0620898
000030 2d 8c 83 3f 35 d1 82 3f a4 7f 8a 3f 76 4a 7e 3f
       1.0277153 1.0220095 1.0820203 0.9933237
000040 1d 68 87 3f 05 27 86 3f d4 ca 81 3f 93 aa 85 3f
       1.0578648 1.0480658 1.0140023 1.044268
000050 78 ac 7d 3f 9c c7 84 3f 42 02 81 3f e4 d6 83 3f
       0.9909129 1.0373416 1.0078814 1.0299954
000060 fe 0c 86 3f 66 7a 81 3f e3 b4 85 3f 38 dc 7b 3f
       1.0472715 1.0115478 1.0445827 0.983829
000070 0e b1 7f 3f e4 05 8a 3f ab 3e 83 3f eb a6 7c 3f
       0.9987954 1.0783048 1.02535 0.98692197

bn1.bias f4 [32]
000000 94 5a 48 3b 28 3c 99 bc a4 bc 76 3a 3d 0c 18 bc
       0.0030571567 -0.018705443 0.0009412265 -0.009280262
000010 52 e3 cd bc 73 a5 2b bc 6a ca 22 bc 93 46 aa bc
       -0.025132809 -0.010476458 -0.009935955 -0.020785606
000020 ef 95 c6 bb 42 25 6b 3d 16 3c 76 3b 04 c5 27 3b
       -0.006060354 0.05740858 0.0037572435 0.0025599608
000030 54 3e 92 bb 61 8d 80 bb f0 21 65 bc aa a3 42 bc
       -0.0044629965 -0.0039231037 -0.013985142 -0.011879841
000040 3c 3d 12 3b a4 b7 68 3a b9 42 03 bd 0a 5f bd 39
       0.002231433 0.0008877462 -0.032046054 0.000361197
000050 e1 04 98 bc 1a 72 77 3b 3d ef 52 3b f7 0a a2 bc
       -0.018557014 0.0037757219 0.0032186054 -0.01978062
000060 34 7b 36 3c 77 34 fc ba 64 10 0c 3c d8 8d 3f bd
       0.011137772 -0.001924171 0.00854883 -0.046766132
000070 3f 13 69 bd 0b 6a 8d 3d 59 00 70 3a 3d 85 bf bc
       -0.05690312 0.06904992 0.0009155325 -0.023378963

bn1.running_mean f4 [32]
000000 37 b4 cc bd 5c 9c a4 bd b7 83 8f bd 8b 2d 3c 3b
       -0.09995311 -0.08037636 -0.070075445 0.002871367
000010 da 90 07 3d 22 c2 41 bd 23 50 0f bd 7a 10 ec bd
       0.033097126 -0.04730428 -0.034988534 -0.1152658
000020 37 30 76 3d b6 21 99 bd d4 3c 4f bd 27 2d 0b bd
       0.060104575 -0.07477133 -0.05059512 -0.033978608
000030 15 d9 4e bd 89 dd 45 bd 5c 0a 32 bd a7 80 51 3d
       -0.050499994 -0.048306976 -0.04346691 0.051148083
000040 e2 48 99 3d 0b 2b 9f 3d a3 74 91 3b 1c 78 a3 bc
       0.074846044 0.07771882 0.004438953 -0.019954734
000050 76 82 1d bd 57 cd 99 3d d2 15 15 bc 03 8d 42 3d
       -0.038454495 0.075098686 -0.009099441 0.04749776
000060 97 90 b1 bd 4c c0 c9 ba 2a d9 9f bb 4c 14 9c 3d
       -0.086701564 -0.0015392392 -0.004878183 0.07621059
000070 61 27 a4 3d a5 02 be 3d 9b 19 b8 3d e0 e7 23 bd
       0.080153234 0.09277848 0.08989259 -0.040016055

bn1.running_var f4 [32]
000000 25 02 a8 3e 2e 77 5e 3e ee 8d 33 3e f1 22 a2 3d
       0.32814136 0.21725151 0.1753461 0.07916821
000010 88 8c 97 3e 19 5e 0d 3e 48 7e a2 3e 47 71 0c 3e
       0.29599404 0.13805427 0.3173697 0.13715087
000020 47 1e c8 3e 9d e7 ea 3e 14 5f cd 3e b3 e9 fa 3e
       0.390856 0.45879832 0.401116 0.49006423
000030 4f e1 4e 3f 6f 18 1f 3f 9c 30 76 3e 49 0e 78 3f
       0.80812544 0.6214666 0.2404198 0.968968
000040 58 11 9a 3e 6e 08 56 3e 3a 65 3d 3f 47 29 6b 3f
       0.30091357 0.20901653 0.73982584 0.9185986
000050 1f 0f e7 3e 53 37 36 3e 6f 27 04 3f 20 40 2e 3e
       0.45128724 0.17794542 0.5162267 0.17016649
000060 95 ed 6d 3f fc 9b 86 3e 67 6e 34 3e 4d 6d 05 3f
       0.92940646 0.26290882 0.1762024 0.52119905
000070 23 13 e7 3f de 91 89 3e 9a 5b 09 3f 1f d0 a7 3f
       1.8052715 0.268691 0.536554 1.3110389

depthwise.weight f4 [32, 1, 3, 3]
000000 af 5b 19 be 77 df 9e 3e 3b 1b 5c bd 2f 37 ab be
       -0.14976381 0.31029865 -0.053736906 -0.3344054
000010 40 dd 98 3e f2 b4 c6 bd 7c a4 ba 3d d2 8a 45 be
       0.298563 -0.09702481 0.09113404 -0.19291237
000020 04 5a b9 3e eb ff 22 bd 7a b9 e0 bd e3 7b ff 3d
       0.3620149 -0.039794844 -0.10972877 0.124748014
000030 9d be b3 3e 89 d4 71 3e 6e 15 d2 bd 52 59 de bd
       0.35106364 0.23616232 -0.10257994 -0.1085688
000040 21 53 65 3e ab 08 91 3e 11 85 25 be d7 ed 18 bd
       0.22394992 0.28326926 -0.16164042 -0.037336197
000050 9e 13 7c be 30 f4 17 3d 62 f6 9f 3e 88 88 8a 3e
       -0.24616858 0.03709811 0.31242663 0.2705729
000060 4d 93 bb 3e d0 9d a9 3c fe 90 b2 be bd ae 3b be
       0.3663582 0.020705134 -0.34876245 -0.18328376
000070 b8 3e 48 3e 15 cb fe 3d da 27 3f 3e 10 b6 87 3e
       0.19555175 0.124410786 0.18667546 0.2650609
000080 b9 b5 85 be ad 1e 0a bc 0a b1 69 3e 1c 39 16 3e
       -0.26115206 -0.008430165 0.22821441 0.14670223
000090 63 68 8f 3e b9 87 4d be 9f ba a3 be a5 89 2e 3e
       0.28009328 -0.20071305 -0.31978318 0.17044695
0000a0 d0 d1 e3 bd 1a 91 4b be a0 a9 a6 be 02 0f 57 3e
       -0.11124003 -0.1987957 -0.3255129 0.21001819
0000b0 38 b3 ea bd 6d 29 ba be cd f3 7d 3e 5a b1 93 3e
       -0.114599645 -0.3635973 0.24800034 0.28846246
0000c0 e3 a8 4d 3d d7 a9 9d be 5d 6c 62 bd 80 c7 23 bd
       0.05020989 -0.3079364 -0.055279125 -0.03998518
0000d0 6f 4a c7 be 5e c4 d5 3d af d9 75 be 44 7f 85 3d
       -0.38923976 0.10437845 -0.24008821 0.065184146
0000e0 36 eb 01 3e 98 0e 79 be 6c 24 20 be b4 99 e6 bd
       0.12687382 -0.24321973 -0.15638894 -0.11259785
0000f0 ab ea 24 bd b6 69 74 be 1d 22 71 3e e5 50 82 bd
       -0.04026286 -0.2386845 0.2354817 -0.06363086
000100 aa 1f 2b be 8e cd d0 3a aa 68 b8 3e a3 32 86 3e
       -0.16711298 0.0015930401 0.36017352 0.26210508
000110 a4 bf 85 3e 47 e0 08 3e 28 5e 77 3d e5 ff 1f bd
       0.26122773 0.13366805 0.06039253 -0.0390624
000120 20 f3 f0 bd 74 20 97 bc e5 ff 95 be 5c 0b af be
       -0.117651224 -0.018448092 -0.29296795 -0.34188354
000130 c5 80 0a 3d 55 f3 ab be e3 8a b8 bb 0c 23 6f 3e
       0.03381421 -0.33584085 -0.005631791 0.23353213
000140 34 a3 a9 3c 8f 4c 25 3c 0f 3f 87 3e e2 8d 72 be
       0.020707704 0.010089054 0.26415297 -0.23686936
000150 b3 82 c2 3e ae 9d 84 3d ad 49 18 be b4 40 98 3e
       0.3799034 0.064753875 -0.14871855 0.29736865
000160 2d 7f 9d 3e da 8d 8f be 26 ae 8a be 2d 68 56 3c
       0.3076109 -0.28037912 -0.2708599 0.013086361
000170 80 18 67 3e 0b 74 93 be 30 0f 58 be 32 67 38 be
       0.2256794 -0.2879947 -0.21099544 -0.18008116
000180 fe 32 81 bd 4b ec 23 be 77 6a 1c bd 82 e5 5c be
       -0.06308554 -0.16008107 -0.03818747 -0.21571925
000190 97 d6 ae 3d ca 16 a7 be 8a cd 75 3e c5 4a 9f bd
       0.085370235 -0.32634574 0.24004188 -0.07777933
0001a0 13 57 f8 bd a1 46 d2 bd bb 63 6b bd f0 90 39 be
       -0.12125983 -0.10267378 -0.057468157 -0.18121696
0001b0 f8 db 57 3e e8 20 98 bd d5 45 65 be f9 dc 66 be
       0.21080005 -0.07428151 -0.2238992 -0.22545232
0001c0 12 54 d5 bb f7 6c 23 be 1b 01 c4 bd 42 46 89 3d
       -0.006510266 -0.15959536 -0.09570523 0.06702854
0001d0 8f d6 15 bd 1c a3 24 3e 25 3d 89 3e 37 3d 15 3e
       -0.036581572 0.16077846 0.26804462 0.14574133
0001e0 ce a8 63 3d b0 2f 28 be f1 03 66 3e a4 fd 26 3e
       0.055580907 -0.16424441 0.22462441 0.16307694
0001f0 6b 6c 29 bd 00 b6 1f 3e c9 80 93 3e 03 e7 3e 3e
       -0.04136316 0.15596771 0.28809193 0.18642811
000200 64 f5 a3 be 80 ad a1 3e 1f ae e5 3d aa 16 0b be
       -0.32023156 0.31577682 0.112148516 -0.13582864
000210 6b 09 8e 3e d1 af c5 3d 56 b7 22 be 65 2b ae 3e
       0.2774156 0.09652675 -0.1589025 0.34017482
000220 d1 c1 ba bc 4e b7 39 3d 14 7e fd 3c e6 07 48 be
       -0.022797497 0.04534083 0.030943908 -0.19534263
000230 21 c7 86 be 4d 3a 39 bd b8 ac c6 3d d1 6b ab 3e
       -0.26323798 -0.045221616 0.09700912 0.33480695
000240 f0 96 95 be be 26 8e bd 74 24 03 be 51 66 68 3d
       -0.2921672 -0.06940983 -0.12806875 0.0567382
000250 ec 8f 7e bd 1b 7b 51 3c 4f 3e 97 be 31 93 a2 3d
       -0.062148973 0.012785698 -0.29539725 0.07938231
000260 b5 52 25 be 74 75 1e be a8 a4 78 be b8 cc 66 bd
       -0.16144831 -0.15474492 -0.24281561 -0.05634758
000270 ea 7b bc 3e db 8d bf 3e d8 98 93 3e 6b 9f 7a 3e
       0.3681329 0.37412915 0.28827548 0.24474876
000280 0e eb 41 3e 41 2e a1 3e 2f 3e 14 be ec 4f 3b be
       0.18937322 0.314806 -0.14476846 -0.18292207
000290 db db 94 be 85 83 4b 3d 44 f3 e3 3b e5 17 8f 3e
       -0.29073986 0.049685974 0.0069564898 0.27947918
0002a0 2b 1e 73 3d 67 5d 48 be 50 65 2a be ed ed 7f 3c
       0.059354942 -0.1956688 -0.1664021 0.015620691
0002b0 bd 71 4c be 1e 4b 1a bd 16 c4 ae be a6 9a 06 3e
       -0.19965263 -0.037669294 -0.34133977 0.13144931
0002c0 b0 17 9f be c6 aa 84 be 78 64 62 be 32 ee 15 3e
       -0.3107276 -0.2591154 -0.22108638 0.14641646
0002d0 34 b1 b7 bb 4f af 99 3e 83 82 35 3e 19 37 12 3d
       -0.005605841 0.30016562 0.17725568 0.035697076
0002e0 d7 81 55 be 31 c7 69 bd 26 58 60 3e 0c 72 2e 3e
       -0.20850311 -0.05707473 0.21908626 0.17035693
0002f0 86 03 d5 3d 68 af 3c be de d4 b8 be 3b bf a1 be
       0.10401063 -0.18426287 -0.36099905 -0.3159121
000300 53 6f 44 bc 0d 2e ae be 18 e2 96 be 3b b6 79 3e
       -0.011989432 -0.3401951 -0.2946937 0.24385922
000310 3f 18 31 be a5 8d 89 3d 43 a2 d2 3d cf 4a 1a 3d
       -0.17294405 0.0671647 0.10284855 0.037669
000320 59 f2 8e be 1b 1c 96 be 70 87 fc bd 32 1a 6b 3e
       -0.27919272 -0.29318318 -0.1233052 0.22959211
000330 65 05 b2 be 0a 92 f7 3c 13 8c 28 3e f3 11 84 be
       -0.3476974 0.030221004 0.16459684 -0.25794944
000340 ea d1 38 bd 23 8a 87 3e b8 98 5f be 94 cd 9f be
       -0.045122065 0.26472577 -0.21835601 -0.3121153
000350 fe f5 2c be 73 9f 27 be ad 23 b8 be 04 1b b6 bc
       -0.16890714 -0.16369419 -0.35964718 -0.022229679
000360 0c 0f 38 bb f3 74 5c be 57 5d 20 be fd 4d 5e 3e
       -0.002808514 -0.21528988 -0.15660606 0.21709438
000370 92 0a 8c be e8 e0 7d 3d 84 67 73 be c6 2b 43 3e
       -0.27351815 0.061982065 -0.23769957 0.19059667
000380 99 6f 8c bd b5 70 44 be 51 84 cf 3c c8 4b 23 be
       -0.06857223 -0.1918362 0.025331648 -0.15946877
000390 8e ec 7a 3e 4a e3 84 3e 0e b1 4d 3c 0f 56 60 3d
       0.24504301 0.25954658 0.01255442 0.054769572
0003a0 c3 56 9f be 1e 2f aa be 26 2b 96 3e 43 93 47 3e
       -0.3112088 -0.33239073 0.29329795 0.1948977
0003b0 e6 8c 2c be 78 5d 8e 3e 5f 43 31 be b8 1f 5b be
       -0.16850623 0.27805686 -0.17310856 -0.21398818
0003c0 9d 43 8f 3d c4 97 41 be d8 4d 80 be 93 9e 03 be
       0.06995318 -0.1890555 -0.2505939 -0.1285346
0003d0 0f 7f 0a 3e 44 31 39 3e 48 6d 05 3e ca a1 92 be
       0.13525032 0.180852 0.13029969 -0.2863906
0003e0 2a 4c 01 be 9d 0a 08 bb 06 c4 58 be 54 a1 e7 3c
       -0.1262671 -0.002075828 -0.21168527 0.02827517
0003f0 7b 70 9a be ce 08 22 bd 41 1d 9a 3e c7 05 f8 bd
       -0.3016394 -0.039559178 0.30100444 -0.12110477

depthwise.bias f4 [32]
000000 85 db f5 bd ba 40 a6 be 40 0b 98 3c 2b fa 1b be
       -0.12004761 -0.32471257 0.018560052 -0.1523215
000010 c7 77 bb bd b8 9b f7 bd 7c d6 61 be 89 cb 7a 3e
       -0.09153705 -0.12090248 -0.22054476 0.24491705
000020 04 c3 29 be 3f 51 3e be 4a 5b 2f be 9e 50 37 3e
       -0.16578299 -0.1858568 -0.17124668 0.17901847
000030 bd 9a ac bd cf 52 76 3e d2 5e a8 be ac d2 e2 3d
       -0.084279515 0.24055026 -0.32884842 0.11075339
000040 5c c6 84 3e 7f ef 05 3d a6 c5 82 be a6 82 05 3e
       0.25932586 0.032699104 -0.2554142 0.1303812
000050 2c f9 36 bd cc d5 63 3e 67 21 86 be ee 30 18 be
       -0.044671223 0.22249526 -0.2619736 -0.14862415
000060 91 6b a7 bb 63 6d de bd a2 ff c0 3d 6f a1 3b be
       -0.0051092585 -0.108607076 0.09423758 -0.18323301
000070 c6 1a 97 3d 6f 49 96 3d 43 7c 84 3e ad 1d 10 bd
       0.073781535 0.07338225 0.25876054 -0.03518455

pointwise.weight f4 [64, 32, 1, 1]
000000 da 2c 00 be fe 5f 8b bd 5f f1 eb bd fc 01 de bc
       -0.1251711 -0.068054184 -0.11520647 -0.027100556
000010 8e ac 30 be b8 d9 77 3d c7 77 a9 bc 97 6a 0d 3e
       -0.17253324 0.060510367 -0.020686997 0.13810192
000020 82 49 2f 3e 41 ee 37 3e 0c bc 80 3d 95 68 c5 3a
       0.17117885 0.1796198 0.06285867 0.0015061075
000030 b7 df 09 bc d6 fb d5 3c 27 14 81 3e 3f 6c eb 3c
       -0.008415154 0.026121061 0.25210688 0.02873814
000040 be bf 9c bb f6 b6 09 bd 8f eb 27 3e 48 aa 0c be
       -0.0047835996 -0.03362175 0.16398452 -0.13736832
000050 29 ee 33 be 1b 13 14 bd 3e 5d 5d 3e 2b 70 16 3e
       -0.1757132 -0.036151033 0.216176 0.14691226
000060 28 2f cf 3d 94 c5 96 bd ec 61 10 be 94 2d d2 3d
       0.10116416 -0.07361904 -0.14099854 0.102625996
000070 9e 73 d5 3d cf 98 19 3e 10 0e a6 3c 9e d9 2c 3e
       0.10422443 0.14999698 0.020270377 0.1687989
000080 ed 3d 97 bc 4e f7 f9 bd 27 d7 31 bd a7 f0 b5 bd
       -0.018462146 -0.12205373 -0.043418076 -0.088837914
000090 10 9b 0c 3e ad f0 34 bb 48 17 3e be 4e 56 bd 3d
       0.13731027 -0.0027609274 -0.18563569 0.09244977
0000a0 5e 03 e6 3d af cd c5 3d f4 df fe 3a b2 0a c8 3c
       0.11231111 0.09658372 0.0019445405 0.024419162
0000b0 a6 16 ee 3d 4a 7f bd 3d 91 4f 81 bd 35 2a 17 be
       0.116254136 0.09252794 -0.06314004 -0.14762194
0000c0 d9 4d db bd 9d 66 54 be a3 92 e7 3d 09 e4 66 3d
       -0.10708208 -0.20742269 0.113072656 0.056369815
0000d0 20 f1 1a 3e dd bc 4a be bb d6 18 3d 5d 97 89 3d
       0.15131044 -0.19798608 0.037314158 0.067183234
0000e0 a2 51 b0 3d 8d be 3c 3e c5 82 13 3e 63 cd 04 be
       0.0860932 0.18432064 0.14405353 -0.12968974
0000f0 ee d2 da bd 39 22 00 3c 1f 5e 17 3e 93 a3 17 be
       -0.10684763 0.007820659 0.14781998 -0.14808492
000100 25 10 41 bc 06 76 45 3e 15 b6 e2 bd 42 35 6c bc
       -0.011783634 0.19283304 -0.11069886 -0.0144169945
000110 b8 79 bf bd de 5d 07 bd 1a 66 7e bd 2c 68 ca 3d
       -0.09349388 -0.033048503 -0.06210909 0.098831505
000120 96 4d 89 3d 10 a3 24 be 88 56 9b bd b9 c2 04 3d
       0.067042515 -0.16077828 -0.07584864 0.032412264
000130 15 a4 0e be c5 e1 48 bc ac 0d 38 be 3c 3f 15 3e
       -0.1392978 -0.012260859 -0.17973965 0.14574903
000140 cf 57 1b be 88 49 ed 3c 45 7f 06 3e 9d 36 45 3e
       -0.15170215 0.028965726 0.13134487 0.19259115
000150 b4 bd 62 3d 45 ed 49 3e 52 81 eb bd 83 71 20 be
       0.055356696 0.19719417 -0.11499275 -0.15668301
000160 23 82 80 3d 32 a6 3f 3e 0b fb 93 bd 26 aa f7 bd
       0.062748216 0.18715742 -0.07225617 -0.12093
000170 fb 9e d0 3d f4 28 00 be e5 09 f5 bd 50 54 99 3d
       0.10186573 -0.12515622 -0.11964778 0.074867845
000180 57 b9 9e 3d 74 b7 23 3c 1c df aa 3d 6e 62 44 3d
       0.077501945 0.009992469 0.08343336 0.047945432
000190 1f 23 5f 3b 06 ac 53 3e e8 e3 fd 3d e3 d4 6a 3e
       0.0034048033 0.2067109 0.12396985 0.22932772
0001a0 94 d0 1b bd 87 67 81 be c1 41 aa 3c 55 d0 9f 3c
       -0.038040712 -0.25274298 0.020783307 0.01950852
0001b0 20 de 89 3d f4 2f db bb be a3 a0 be 2d 19 66 bd
       0.0673182 -0.006689066 -0.31374925 -0.056176353
0001c0 6b 6e 6c be 2c 60 82 bd a0 2e d0 3d 02 79 01 3e
       -0.23088996 -0.063659996 0.10165143 0.12643817
0001d0 70 22 3d 3e 5b 40 4e 3c 56 ae 1a bd e3 23 4d be
       0.18470168 0.012588586 -0.037763916 -0.20033221
0001e0 5f 2e f7 3c 3f 4e 09 3c ae b5 c7 3d c1 30 23 bc
       0.030173479 0.008380472 0.097514495 -0.009960354
0001f0 d0 fd 3e 3e 87 1f 11 be 69 1d 90 3b b7 af 17 bd
       0.1865151 -0.14172183 0.004398037 -0.03703281
000200 1f 7c a8 3c 6d f0 1f 3e 74 6f 0c be 98 84 e0 3d
       0.020566998 0.15619059 -0.13714391 0.1096279
000210 ef 82 ba 3c bd d1 59 bd aa 7a 57 bd 49 f2 5f 3c
       0.022767512 -0.053178538 -0.052607216 0.013668605
000220 c8 0d bc 3d 6d 08 ec bd 26 9a 2a 3e 74 83 11 3e
       0.09182316 -0.115250446 0.16660365 0.14210302
000230 92 22 ed bd 26 db 02 3b 0b a2 03 3e 48 49 80 3d
       -0.115788594 0.0019967048 0.12854783 0.06263977
000240 b3 d0 1a 3d 67 81 10 be 34 78 ab 3d 42 b2 2e 3c
       0.037796687 -0.14111863 0.08372536 0.010662617
000250 fc 95 5d bd d3 26 32 3e 56 ce 45 bd b8 24 84 bd
       -0.054098114 0.17397623 -0.04829248 -0.06452316
000260 68 41 d4 bd ce dd a0 bd e5 94 75 3d 21 0c 59 3e
       -0.10364038 -0.07854806 0.05995645 0.21196033
000270 e0 95 32 bd 14 43 bf bd f8 28 21 3e 3d 7b e1 3d
       -0.043599963 -0.09338966 0.15738285 0.11009834
000280 3f ef d9 3d 3f 6d 7f be b0 d3 57 bd 58 a0 94 3d
       0.10641336 -0.24944018 -0.052692115 0.07257146
000290 1e 83 20 3e 59 11 ce bd 71 2b 06 be 40 4c ed bd
       0.15675017 -0.100619026 -0.13102509 -0.11586809
0002a0 82 15 c5 3c 9d fd 1c 3e 8f 05 20 3e ed eb 4b bd
       0.024058107 0.15331121 0.1562712 -0.049785543
0002b0 f7 c8 09 bd 71 33 ac bb 81 f6 50 be ea ec 88 bd
       -0.03363892 -0.0052551557 -0.20406534 -0.06685813
0002c0 24 29 18 3c d2 93 bf bd 2e 21 29 bd 5f ea d9 3d
       0.009287152 -0.09354366 -0.04129141 0.10640406
0002d0 df b1 47 3e 14 6d 73 be b7 74 30 be 13 fb c8 bc
       0.19501446 -0.23772079 -0.17232023 -0.024533784
0002e0 24 a8 07 3c 9c f2 38 be 56 3a 46 bb 30 0a 9c bc
       0.008279834 -0.18061298 -0.0030247173 -0.019047827
0002f0 ee f5 44 bd c3 15 25 3e de 26 a5 bd 70 3f 35 be
       -0.0480861 0.16121583 -0.08064054 -0.1769998
000300 9a 51 9a bd 53 f0 ca bd 78 fd 11 3a d3 2c 1d be
       -0.075350955 -0.099091195 0.0005569081 -0.1534913
000310 50 d7 05 3c 9b fe 9c bd 2d 85 ef 3b 90 f6 41 be
       0.00816901 -0.0766575 0.007309577 -0.18941712
000320 ad 2f ab 3d e7 49 49 3e f0 54 0f be 81 e2 84 bd
       0.08358703 0.19657098 -0.13997245 -0.06488515
000330 da 84 c5 3c 14 2c 9e 3d 30 96 3a be 04 8d 30 bd
       0.0241112 0.07723251 -0.18221354 -0.043103233
000340 b6 73 24 3d 6f 24 03 3c ae 54 2c 3d 76 b5 0d be
       0.040149413 0.008004292 0.042072944 -0.13838753
000350 2d 90 ce 3d ac fe 40 3e 84 e0 0b 3e 04 48 85 bc
       0.10086093 0.1884715 0.13659865 -0.016269691
000360 3f 02 37 be e5 37 8c bc 2c 17 7e 3d f1 7b 5d bd
       -0.1787195 -0.017116496 0.062033817 -0.054073278
000370 ce 6b 86 bb 7d 20 54 bd b0 5a 0f 3e 16 82 b5 bd
       -0.004102207 -0.051788796 0.13999438 -0.088627025
000380 ab bf 1d 3b 8f d2 1c be ec 63 e1 3d 18 e4 ef bd
       0.0024070542 -0.15314697 0.11005387 -0.11713427
000390 96 cc 17 3e ca 1c 44 bd 5e b4 ed 3d 62 f5 d7 3d
       0.14824137 -0.047879018 0.11606668 0.1054485
0003a0 f5 bb 0f 3e d9 dd a4 bd 54 3e c5 3d e4 9f 99 b9
       0.14036544 -0.080501266 0.09631029 -0.00029301562
0003b0 56 a6 da 3d 19 1b c3 3d 58 9f 48 3e ba 5e ab 3c
       0.10676257 0.09526653 0.19592035 0.020919193
0003c0 d1 55 b4 bd 14 ff b9 3d e7 30 c3 bd b8 49 8f 3d
       -0.08805431 0.090818554 -0.09530812 0.069964826
0003d0 3d b7 1e 3e c7 54 2b be db e5 43 bd 71 9f b1 3d
       0.15499587 -0.16731559 -0.04782663 0.08672989
0003e0 fa e3 f9 bd 63 8c 14 be a7 4b d9 3d 39 ef 09 3e
       -0.12201686 -0.14506678 0.10610133 0.13470162
0003f0 a3 2f 46 3e 76 cd 16 be 64 44 64 bd fd a4 ff bd
       0.1935411 -0.14726815 -0.055729285 -0.12482641

pointwise.bias f4 [64]
000000 cc 8d 05 3e d7 e4 cc bd 86 b6 53 bd c9 3c d0 bd
       0.13042372 -0.10004585 -0.05168774 -0.10167844
000010 2c 38 1d 3e d4 7b c0 bc 07 6a 1b 3e 45 ef df bd
       0.15353459 -0.023496546 0.15177165 -0.10934309
000020 04 7c fe bd e6 a4 20 be c5 6a ce 3d 1d 9a 8e 3d
       -0.12425998 -0.15687904 0.100789584 0.069629885
000030 a8 28 0e be 8a 0d 18 3e af 2b 31 bd 33 85 6d bd
       -0.13882697 0.14848915 -0.04325455 -0.057988357
000040 13 33 a2 3d b6 c9 17 3e 6a 6e 04 3e 4c 93 1f be
       0.07919898 0.1482304 0.12932745 -0.15583533
000050 78 01 8f bb 53 a0 7d bd ae 16 7b bd 3d c0 83 3c
       -0.0043641888 -0.061920475 -0.061300926 0.016082877
000060 da 7e 97 bd c2 59 0f bd 10 16 89 3d ad 58 2a 3d
       -0.07397242 -0.03499771 0.06693661 0.041588474
000070 5e 1a 1c bd 0a 6c 48 3d 17 bc 7e 3d f5 76 98 bc
       -0.038111083 0.04893116 0.062191095 -0.01861141
000080 b6 89 69 3d 8e 00 14 3e 01 78 0f 3d 92 5b 03 be
       0.057016097 0.14453337 0.035026554 -0.128279
000090 69 14 04 3e e4 f7 02 be 00 7b c1 3d 81 2c 16 be
       0.12898411 -0.12789875 0.094472885 -0.14665414
0000a0 70 f9 5c 3d 51 73 1b 3e 5c 1a 81 bc 7b 69 09 3e
       0.05394882 0.15180708 -0.01575964 0.13419144
0000b0 9a f9 15 3e ee da 09 3e a1 fe 7e bd bc 20 e8 3d
       0.14645997 0.13462421 -0.06225455 0.113343686
0000c0 23 e4 28 3c 3e df 2f be c6 fa 04 bd b2 74 22 be
       0.010308298 -0.17175004 -0.03246572 -0.15864828
0000d0 6a 06 2c bc 2b a9 bf bc 74 fe 22 ba 06 27 af bd
       -0.010499576 -0.023396095 -0.0006217726 -0.08552365
0000e0 2a 0d 19 3e cd 94 c2 bd 6f f0 1e 3e c4 09 53 3d
       0.14946428 -0.09501038 0.15521406 0.051522985
0000f0 36 71 95 3c 10 9d 15 be 86 9e 16 3e ca 05 29 be
       0.01824246 -0.14610696 0.1470891 -0.16506115

fc.weight f4 [2, 1024]
000000 7c 1f 00 bc a3 ab 90 bc 7a 56 14 3c 07 ac 55 3c
       -0.007820006 -0.017659968 0.009053821 0.013041503
000010 89 b4 7c bd 0f 27 c6 bc 5b de 26 bd e2 17 f0 bc
       -0.06169561 -0.024188546 -0.0407394 -0.029308263
000020 f4 9a 2d bd af 96 ba bc 56 50 45 bc ae 53 9e ba
       -0.042384103 -0.02277693 -0.012043079 -0.0012079382
000030 87 93 2a bd d0 f0 09 3c bd a2 20 bd 70 3d d1 bc
       -0.0416446 0.008419231 -0.0392177 -0.025541991
000040 39 09 06 3d a8 48 98 3c da 7c 34 bb 77 28 3a 3d
       0.03272364 0.018589333 -0.0027540238 0.045448747
000050 e1 ed c1 bc 42 81 23 3d be 6d b4 3b 4a 99 1c 3d
       -0.023673 0.03991819 0.0055062464 0.038232125
000060 73 7b ad 3c 2d 6b 2b 3d d4 2f 1d ba bb 22 68 3d
       0.02117703 0.041850258 -0.00059962017 0.056673747
000070 24 81 85 3d 53 a0 a8 3c 8d f0 a1 3c ec a0 69 3d
       0.06518772 0.020584261 0.019768024 0.057038233
000080 f7 66 2b 3d c7 cc 1d 3d a2 5f b5 3c d6 7d 0a bc
       0.04184624 0.03852537 0.022140328 -0.008452853
000090 25 7a 10 bc 87 72 78 bd de 6c 2a bd 99 09 6b bc
       -0.008818184 -0.060656097 -0.04160773 -0.01434555
0000a0 11 d1 cf b9 fa 92 6c bd 07 c6 46 bd e0 3c 0b bd
       -0.00039637883 -0.057757355 -0.048528697 -0.0339936
0000b0 7f 28 60 3b 70 64 21 bd be e9 66 bd 24 c6 67 bd
       0.0034203825 -0.039402425 -0.056375258 -0.056585446
0000c0 6a 64 8a bd 0f bf 76 bd 9d 21 f6 bd 5e 19 40 bd
       -0.06757434 -0.0602408 -0.1201813 -0.046899192
0000d0 6a 65 ab bd f5 7c 32 be 9e ff 0b be 69 e7 23 bd
       -0.083689526 -0.1743048 -0.13671729 -0.04001561
0000e0 c7 dd 3b be 1e 67 4e be 44 fc 33 be fc 02 0f be
       -0.1834632 -0.20156524 -0.175767 -0.13965982
0000f0 14 fe 1b be cc cd 2d be b5 20 17 be 14 16 67 be
       -0.15233642 -0.16973037 -0.1475857 -0.22567016
000100 39 8b 0a 3d be f8 f8 3b d5 f2 e7 3c a4 4b 5b 3d
       0.03382418 0.0075980118 0.028314034 0.053538933
000110 4c 59 86 bc 05 bb 11 3c 47 4e 39 bc 0c 19 a7 3c
       -0.016400002 0.008894687 -0.011310167 0.020397685
000120 9d 31 07 bd 2f cf d3 3b f3 e3 65 bc 92 97 47 bd
       -0.0330063 0.006463907 -0.014031398 -0.048728533
000130 48 2e aa 3a ab 44 eb bc 81 1e 54 bc 5b 1d 0b bd
       0.0012983764 -0.028719267 -0.012946726 -0.033963542
000140 c3 8e 25 3d d9 1c b7 3c 0d 81 2c 3c 4c 4f 71 3b
       0.04041935 0.022352623 0.010528815 0.0036820946
000150 9d 22 4c bd 77 66 5d 3d 5c bd 20 3d fe 39 b7 bb
       -0.049837697 0.054052796 0.039243087 -0.00559163
000160 08 89 f4 3c 1f 99 d6 3d ef 98 99 3d 9a 77 5e 3d
       0.029850498 0.10478424 0.07499873 0.05431328
000170 0c 33 ad 3d 87 be b8 3d 3e 9f d6 3d af bf 92 3d
       0.08457002 0.09020715 0.10479592 0.07165467
000180 69 04 f5 bc 0c 7e f4 3c 79 8b 1e 3d 50 ff 34 3d
       -0.02990933 0.02984526 0.03870723 0.044188797
000190 93 38 13 3d 0f 51 1c 3d 20 d2 3d 3d a9 87 f5 3c
       0.035942625 0.03816324 0.04634297 0.029971914
0001a0 8b ee a8 bb 54 80 0e 3d fd 47 3a bd 98 82 e3 3c
       -0.0051553897 0.034790352 -0.04547881 0.027772233
0001b0 89 47 df 3c 62 dc 16 bb a3 fe 9f 3b 8c 24 31 3d
       0.02725579 -0.0023019542 0.00488265 0.043247744
0001c0 9d 9a 51 bd 34 09 93 bc dd d3 11 3d 5f 30 35 bc
       -0.05117284 -0.017948724 0.03560244 -0.011058896
0001d0 dc fc 89 bd 94 99 81 3d ff ea 5e 3d 79 ef c1 3c
       -0.06737682 0.06328121 0.05442333 0.02367376
0001e0 72 b5 5e bc 26 62 bb 3c f8 09 f9 3c af b1 80 3d
       -0.013593065 0.02287395 0.030400261 0.062838905
0001f0 7d 4d 28 bd b1 3b 53 3c 1a e9 34 3c 33 14 cc 3c
       -0.041089524 0.0128926495 0.011041904 0.024911975
000200 25 49 62 3d 15 d7 33 3b 35 fb 81 3c c4 3c 54 3c
       0.055245537 0.0027441431 0.015866855 0.012953941
000210 3b e4 08 bd c2 c4 f7 bd 39 3c a7 bd c4 8f 4c bd
       -0.033420783 -0.120980754 -0.081657834 -0.049941793
000220 a1 fe b8 bd bf d9 4c bd c1 5e ef bc 04 db 4a bc
       -0.090329416 -0.050012346 -0.029219987 -0.012381319
000230 70 27 c6 bc ac 1a 0f bd d8 2c 05 bc 64 9f d6 bd
       -0.024188727 -0.034937546 -0.008128367 -0.1047962
000240 76 20 c7 bc 38 9b 87 3c cb fb 16 bd b8 48 ab bc
       -0.02430747 0.016553506 -0.036861222 -0.020908698
000250 ae 73 71 bd 4c 01 07 be 1b 28 08 be c2 2d 33 bd
       -0.05894821 -0.13184088 -0.13296549 -0.04374481
000260 40 21 e3 bd b3 9e 22 be 3d eb d3 bd 04 5f b3 bd
       -0.11090326 -0.15880851 -0.103476025 -0.08758357
000270 3c 41 f5 bd 63 0a c3 bd 37 be ff bd ea a9 34 be
       -0.11975333 -0.095234655 -0.124874525 -0.17642942
000280 32 73 35 bb f7 62 fe 3c 8a ea 52 3d 96 a8 ba 3c
       -0.002768707 0.03105305 0.051493205 0.022785466
000290 1c 86 2e 3d 60 0d 1a 3d 0a 7b 14 3d 8f a8 96 bc
       0.042608365 0.03761041 0.03625015 -0.018390922
0002a0 fc 71 27 3d 88 83 af 3c d5 3b 57 3c e8 81 42 3d
       0.04088019 0.021425024 0.013136824 0.04748717
0002b0 36 aa 8c 3c 2f 72 fc 3c d1 d5 dd 3c 8c 4a 14 3d
       0.017171007 0.030816166 0.027079495 0.036203906
0002c0 1a d1 5b bd ea 6b 7a bd 88 a8 37 bd 58 50 a3 bc
       -0.05366621 -0.06113807 -0.04483846 -0.019935772
0002d0 32 d2 8c bd 7a 71 d9 bd cd 91 b4 bd a8 a6 16 bc
       -0.06876029 -0.10617347 -0.08816872 -0.009195007
0002e0 e5 3b ae bd 6f 22 a4 bd 33 88 ea bd 8c 16 49 bd
       -0.08507518 -0.0801438 -0.11451759 -0.049093768
0002f0 e0 ba aa bd cd 25 47 bd c5 bf 58 bd d1 56 f5 bd
       -0.08336425 -0.048620034 -0.05291726 -0.119794495
000300 07 ff c9 3c 75 21 e4 bc 53 31 4a bb 23 f3 37 3d
       0.02465774 -0.027847985 -0.0030852153 0.044909608
000310 7a ad cc bc 3d 81 8b 3d 3b 99 96 bc 91 56 a7 bc
       -0.024985064 0.068117596 -0.018383613 -0.02042702
000320 83 0a d2 3c 2e 27 84 3d fa 50 f5 3b f6 26 e8 3c
       0.025639778 0.064527854 0.00748646 0.02833889
000330 2e b0 3f 3d 7c 1d 56 3d bf 39 b8 3b c6 5c 17 3d
       0.046798877 0.052274212 0.0056221182 0.03695371
000340 5a 84 3a bd 8c e2 6f bb 4d c4 3e 3b 74 a0 f3 3c
       -0.045536377 -0.0036603538 0.0029108704 0.029739596
000350 c9 ff 29 bd 6c 93 52 3d db 02 3d 3d 9d 86 82 bc
       -0.0415037 0.051410124 0.0461453 -0.01593333
000360 48 12 70 3c b9 b5 58 3d 30 44 5a 3c bc 12 0d 3d
       0.014652796 0.05290768 0.013321921 0.034441695
000370 5f 6b a6 3b 01 78 f0 3c f5 8a bd bc 21 cd 32 3d
       0.0050787176 0.029354097 -0.023137549 0.043652657
000380 8a d1 e4 3c 03 4a 16 3d 7b 9b 6c 3d ea 0e 93 3d
       0.027931947 0.036691677 0.057765465 0.07180579
000390 29 ce d6 3c 17 f4 92 3d 35 e5 ac 3d 12 6f 9e 3b
       0.026221352 0.07175463 0.08442155 0.004835018
0003a0 a6 ca b3 3d 18 78 77 3c 33 03 39 bd ea 05 b2 3c
       0.087788865 0.015104316 -0.045169067 0.021731336
0003b0 09 b5 fa 3c 62 64 b3 3c a0 e3 11 3d 2e 8a da 3d
       0.030603902 0.021898452 0.03561747 0.10670887
0003c0 bf bb 5b 3c 70 59 2a 3d 5e 1a d4 3c 05 65 fb 3c
       0.013411461 0.0415892 0.02589148 0.030687818
0003d0 84 23 01 3d 16 fd a6 3c 8d be b6 3b f2 db ad bc
       0.03152801 0.020384353 0.0055769146 -0.021223042
0003e0 68 7e f3 3c 22 e2 18 bd dd 11 84 bd 2b 6d 70 3b
       0.029723361 -0.037325032 -0.0644872 0.0036686163
0003f0 af 46 27 3c ce a0 e3 bc e4 00 19 bb cb bf 16 3c
       0.010209723 -0.027786639 -0.0023346478 0.009201

fc.bias f4 [2]
000000 97 af 06 3d b4 51 0f bd
       0.0328823 -0.034990028
